dagcheckpoint/dagnnmodel519.pt (torch, 102969 bytes, 31 tensors)

encoder.node_encoder.lin_init.weight f4 [16, 5]
0.30250955 0.3771758 -0.10216394 0.43988514 -0.1446808 0.014911446 -0.24606398 0.35933897
0.41397202 -0.32883704 0.3250866 0.09573447 0.43422332 0.052809983 0.11792385 -0.14080653
0.35928762 0.19709016 -0.20292379 0.12743342 -0.13363175 -0.058246132 -0.29812133 0.29663274
-0.35776734 -0.121718094 -0.13136241 -0.3686099 0.05208486 -0.44819933 0.34287855 -0.39814427
0.43343195 0.061506335 -0.11473408 0.2013953 0.047534704 0.47090003 0.037887387 -0.2052405
0.044751577 -0.114211805 0.3054666 0.39976996 0.29132116 -0.22913478 0.271339 0.076781444
0.2514333 -0.27852422 -0.4349771 -0.2115898 -0.4511403 0.34768528 0.20936657 0.18818623
0.10128479 -0.08983504 0.3546152 -0.39750773 -0.05851559 -0.29899848 0.2506494 -0.16283181
0.14605528 -0.027228402 0.38348988 -0.34313518 -0.24648473 -0.24491927 0.47183105 0.15254328
0.33402845 -0.37061307 -0.45017996 -0.4396824 -0.29786253 0.27864736 0.14714201 0.393849
00000000: 88e2 9a3e 301d c13e 543b d1bd a038 e13e
00000010: 3427 14be 234f 743c 32f8 7bbe 47fb b73e
00000020: 24f4 d33e 545d a8be c071 a63e 6f10 c43d
00000030: 8552 de3e 484f 583d 0f82 f13d 962f 10be
00000040: 8cf4 b73e 01d2 493e 41cb 4fbe e87d 023e
00000050: c3d6 08be 7f93 6ebd 5ca3 98be 3fe0 973e
00000060: 482d b7be 5647 f9bd de83 06be 70ba bcbe
00000070: ef56 553d 627a e5be c78d af3e 91d9 cbbe
00000080: cbea dd3e 11ee 7b3d b4f9 eabd 923a 4e3e
00000090: c0b3 423d cf19 f13e ce2f 1b3d 912a 52be
000000a0: 6e4d 373d e1e7 e9bd 1e66 9c3e a6ae cc3e
000000b0: 0c28 953e 4fa2 6abe f2ec 8a3e 973f 9d3d
000000c0: debb 803e ba9a 8ebe 52b5 debe ffaa 58be
000000d0: ddfb e6be ce03 b23e 3164 563e e4b3 403e
000000e0: 666e cf3d 6ffb b7bd 2090 b53e 2286 cbbe
000000f0: 0bae 6fbd 5416 99be 1e55 803e 62bd 26be
00000100: 848f 153e 190e dfbc c958 c43e 6aaf afbe
00000110: 7e66 7cbe 1ecc 7abe d793 f13e 4e34 1c3e
00000120: c705 ab3e ffc0 bdbe fd7d e6be 0d1e e1be
00000130: 7081 98be deaa 8e3e 65ac 163e 93a6 c93e

encoder.node_encoder.lin_init.bias f4 [16]
-0.2085179 -0.31052637 0.21168606 -0.19630548 0.28251237 -0.0825609 0.22507094 -0.3903825
-0.2397658 0.15398063 0.10998848 -0.09350896 0.2361471 0.32704338 -0.30055562 -0.25787655
00000000: b785 55be 50fd 9ebe 3bc4 583e 4e04 49be
00000010: 76a5 903e b015 a9bd ff78 663e 37e0 c7be
00000020: 2a85 75be 19ad 1d3e a441 e13d a081 bfbd
00000030: 8cd0 713e 3b72 a73e 6de2 99be 6508 84be

encoder.node_encoder.attn_convs.0.attn_layer.0.weight f4 [1, 32]
0.17150033 -0.021209382 -0.089580655 -0.16223751 -0.13749489 0.07843466 -0.02609782 -0.08583653
0.03003004 -0.13766183 -0.1425377 -0.074207224 -0.1682267 -0.13293755 0.20815915 0.055844888
0.06558902 -0.14676535 -0.12553728 -0.063046984 -0.0009648123 -0.15568255 -0.08755299 -0.12419255
-0.009498443 -0.025347112 -0.025517862 -0.15092322 -0.102353424 -0.091992676 -0.017617945 -0.09037158
00000000: c89d 2f3e 4cbf adbc 1076 b7bd 9721 26be
00000010: 76cb 0cbe 5aa2 a03d 18cb d5bc 10cb afbd
00000020: 8f01 f63c 39f7 0cbe 67f5 11be f5f9 97bd
00000030: 9f43 2cbe c820 08be ac27 553e 9cbd 643d
00000040: 8953 863d a849 16be d88c 00be c71e 81bd
00000050: 75eb 7cba 3f6b 1fbe fb4e b3bd aa58 febd
00000060: 5c9f 1bbc bfa4 cfbc d60a d1bc 9e8b 1abe
00000070: ac9e d1bd a866 bcbd 8253 90bc bc14 b9bd

encoder.node_encoder.attn_convs.1.attn_layer.0.weight f4 [1, 32]
-0.011487091 0.17799416 0.07842621 -0.14282288 0.09926556 -0.070265085 -0.05823725 -0.15300971
-0.19920507 0.07541763 -0.052936982 0.04471748 -0.14757688 0.14733519 -0.103915416 -0.0008076749
0.03808229 0.104191884 0.16199589 0.17544101 -0.15887551 0.032169327 -0.057984997 -0.024460725
-0.11755985 0.18557161 -0.112618424 0.12872355 0.072267696 0.0847161 -0.10810136 0.16501057
00000000: 5a34 3cbc 1a44 363e ec9d a03d 2940 12be
00000010: be4b cb3d 24e7 8fbd 2f8a 6ebd 94ae 1cbe
00000020: 6afc 4bbe 8f74 9a3d 73d4 58bd ad29 373d
00000030: 651e 17be 09df 163e 9bd1 d4bd 25ba 53ba
00000040: 2dfc 1b3d 8e62 d53d 40e2 253e cfa6 333e
00000050: 43b0 22be fcc3 033d ad81 6dbd dc61 c8bc
00000060: 38c3 f0bd 7c06 3e3e 7da4 e6bd 1bd0 033e
00000070: 1601 943d a27f ad3d 3f64 ddbd 88f8 283e

encoder.node_encoder.attn_convs.2.attn_layer.0.weight f4 [1, 32]
0.056442037 -0.1531365 0.06449565 -0.019671809 -0.08656177 0.14470223 0.0317054 -0.11649328
-0.0985913 -0.0107252365 0.110590175 -0.052941438 -0.11427799 -0.08394426 -0.14177082 0.05148563
0.13588913 -0.17797156 0.07219972 0.116716266 0.057861067 -0.038389646 0.11976897 0.08406539
0.04695508 -0.035631873 -0.050048687 0.02735387 -0.057236027 -0.020120608 0.122589506 0.14399035
00000000: c42f 673d d1cf 1cbe 4c16 843d c626 a1bc
00000010: 4c47 b1bd d22c 143e 86dd 013d 0794 eebd
00000020: 3cea c9bd e7b8 2fbc 1a7d e23d 1fd9 58bd
00000030: 940a eabd f8ea abbd 5f2c 11be 99e2 523d
00000040: 8526 0b3e 2d3e 36be 72dd 933d f008 ef3d
00000050: baff 6c3d 763e 1dbd 6f49 f53d 7a2a ac3d
00000060: f853 403d baf2 11bd daff 4cbd 3915 e03c
00000070: 5370 6abd f9d3 a4bc 3510 fb3d 3572 133e

encoder.node_encoder.gru_cells.0.weight_ih f4 [48, 16]
-0.12713066 -0.034899116 -0.023176767 0.03135479 -0.008338741 -0.25647062 -0.06377613 0.18234225
0.16237895 -0.1599123 -0.11299208 -0.3007283 -0.14810523 -0.18908964 0.04518667 0.27001816
0.113340884 -0.279246 -0.16449814 -0.057041187 0.25909808 0.04414997 -0.06749478 0.04909757
-0.0977824 -0.2110984 0.21702795 -0.14920945 -0.04492312 -0.24326366 0.13590641 0.1843132
0.07418807 -0.13370839 -0.23936549 -0.19611192 0.17355743 0.10965813 0.22508134 0.16696487
0.09197412 0.007931892 -0.20303562 -0.21011409 -0.21406747 0.0735971 -0.118654095 -0.011009592
-0.15364403 -0.03403203 -0.14997157 -0.19987968 0.005966799 -0.1235514 0.21913707 -0.07458087
-0.08211689 -0.06944355 -0.06971766 -0.13008799 -0.15768363 0.037288982 -0.21389624 0.21825233
0.09823459 0.17196256 -0.19722669 0.14319353 -0.09479137 0.12697467 0.25374186 -0.08915293
0.02497042 -0.11560981 -0.1662141 0.10755585 -0.2217952 0.12579234 0.14653735 0.253656
-0.07765805 -0.1240813 0.065887734 0.12851173 -0.25922453 -0.057794936 -0.12583674 0.022758888
-0.12588677 -0.108599804 -0.10951316 -0.22515664 0.21487205 0.18957996 -0.007056722 -0.032357004
-0.11217016 -0.16610363 -0.22437942 0.09000113 -0.16147394 -0.1822311 0.0028162214 -0.040808126
-0.019669987 0.021090634 -0.058117032 -0.08387741 -0.099719755 -0.25213227 0.21163909 -0.04346975
0.0656816 -0.19405903 0.031089218 0.27162954 0.0061265873 -0.28992856 0.072184235 0.22679994
0.094010755 0.09320304 0.23166898 -0.18360631 0.06418552 -0.19035023 -0.060236093 0.2389517
0.17926788 -0.19990328 -0.18895279 -0.1645248 -0.17351146 -0.18417935 -0.08685341 0.13451481
-0.03986261 -0.12779647 -0.21425885 0.20430654 -0.2400545 0.06893121 0.13311255 -0.24057499
-0.07857079 -0.057922475 -0.023602698 -0.18646468 -0.1587799 -0.23646025 -0.09105611 0.12392548
-0.07928504 -0.17435344 0.15410703 -0.008405103 0.19974306 0.1593313 0.040301163 -0.20141944
-0.00062353216 0.048129257 -0.022715807 -0.16879818 0.26737422 -0.09083327 -0.13854846 -0.29963762
-0.0225688 0.04369237 0.085506395 -0.01050501 -0.17270204 -0.21370435 -0.029002473 0.20475419
0.13095696 -0.05417484 0.005151461 -0.23538595 -0.048830416 0.04797413 0.19097748 0.195733
-0.1708258 0.19869891 -0.13310008 0.13771479 0.2473338 -0.04887251 0.19126818 -0.17630616
-0.14136176 0.08311538 -0.056188915 -0.09335346 -0.08323274 0.17153697 0.1491982 0.012801011
-0.13061176 -0.30181137 0.07239516 0.0052927416 -0.07573842 -0.09678446 0.12327121 0.04461264
-0.0039072367 -0.096210934 -0.1989588 -0.2863871 -0.051516388 -0.1273115 0.12914814 -0.14530247
-0.119587794 0.25464308 0.11305484 0.18211979 -0.07935584 -0.058928985 0.059264973 -0.24109094
-0.2448826 0.013962484 -0.1426761 -0.22945535 0.13513722 0.2370978 0.061892513 -0.07199429
-0.20260124 -0.20132829 0.13778093 0.051338937 0.00693219 -0.17853932 0.107215956 -0.100313276
0.09339469 -0.08189331 -0.022159008 -0.072308846 0.016339969 -0.037764747 0.20575142 0.005163246
0.17198586 0.16077681 -0.13088605 -0.23788291 0.23121087 0.17410421 -0.17207992 -0.0076741283
00000000: 8a2e 02be 60f2 0ebd 34dd bdbc e16d 003d
00000010: 379f 08bc 1e50 83be 0f9d 82bd edb7 3a3e
00000020: ab46 263e 0dc0 23be 6468 e7bd 0ff9 99be
00000030: e6a8 17be b7a0 41be a815 393d d23f 8a3e
00000040: 441f e83d 55f9 8ebe 3372 28be 05a4 69bd
00000050: 81a8 843e 99d6 343d b43a 8abd 891a 493d
00000060: 2442 c8bd 2e2a 58be 933c 5e3e 5dca 18be
00000070: 4e01 38bd 1c1a 79be 0d2b 0b3e 99bc 3c3e
00000080: eaef 973d daea 08be 3a1c 75be 90d1 48be
00000090: 0ab9 313e 7194 e03d b97b 663e d7f8 2a3e
000000a0: ed5c bc3d c4f4 013c 92e8 4fbe 2628 57be
000000b0: 8134 5bbe 14ba 963d eb00 f3bd 9361 34bc
000000c0: dc54 1dbe 2b65 0bbd 2692 19be 42ad 4cbe
000000d0: 2385 c33b 8408 fdbd 7865 603e dbbd 98bd
000000e0: e62c a8bd 6c38 8ebd 22c8 8ebd c935 05be
000000f0: d177 21be 55bc 183d 9e07 5bbe 8a7d 5f3e
00000100: 372f c93d f416 303e cbf5 49be 53a1 123e
00000110: fa21 c2bd a605 023e 74ea 813e d095 b6bd
00000120: c48e cc3c d6c4 ecbd 0734 2abe 3e46 dc3d
00000130: 481e 63be b5cf 003e e30d 163e 33df 813e
00000140: 2f0b 9fbd 561e febd 26f0 863d 9498 033e
00000150: 14b9 84be 62ba 6cbd 59db 00be d970 ba3c
00000160: 76e8 00be 9369 debd 7048 e0bd 768f 66be
00000170: 6b07 5c3e 4021 423e 133c e7bb c788 04bd
00000180: 78b9 e5bd 1217 2abe b8c3 65be 8352 b83d
00000190: 6d59 25be ca9a 3abe 5b90 383b 6c26 27bd
000001a0: f422 a1bc 44c6 ac3c 200c 6ebd ebc7 abbd
000001b0: df39 ccbd 7b17 81be ebb7 583e 560d 32bd
000001c0: 1384 863d 69b7 46be d1ae fe3c 0713 8b3e
000001d0: 8ac1 c83b 8471 94be 54d5 933d 3e3e 683e
000001e0: b688 c03d 3ce1 be3d a23a 6d3e 4b03 3cbe
000001f0: b373 833d 2ceb 42be 1fba 76bd c1af 743e
00000200: 0092 373e 72b3 4cbe d77c 41be 3079 28be
00000210: fdac 31be 8399 3cbe 33e0 b1bd 40be 093e
00000220: fa46 23bd 14dd 02be ac66 5bbe bc35 513e
00000230: d9d0 75be ce2b 8d3d a84e 083e 4a59 76be
00000240: b9e9 a0bd 1e40 6dbd 725a c1bc 99f0 3ebe
00000250: 3397 22be a322 72be a07b babd a4cc fd3d
00000260: 3260 a2bd b589 32be 3cce 1d3e 8fb5 09bc
00000270: 7289 4c3e bf27 233e d512 253d e640 4ebe
00000280: 8974 23ba 2f23 453d 8016 babc 6ed9 2cbe
00000290: 46e5 883e cb06 babd a6df 0dbe 1a6a 99be
000002a0: 34e2 b8bc c5f6 323d fa1d af3d 351d 2cbc
000002b0: ced8 30be 50d5 5abe 9896 edbc 15ab 513e
000002c0: 9519 063e 70e6 5dbd 96cd a83b 0409 71be
000002d0: 6702 48bd 8580 443d 9a8f 433e 3b6e 483e
000002e0: f5ec 2ebe ba77 4b3e 634b 08be 1b05 0d3e
000002f0: 1245 7d3e 8b2e 48bd cedb 433e 9a89 34be
00000300: 23c1 10be 6538 aa3d 5926 66bd 1930 bfbd
00000310: ed75 aabd 63a7 2f3e 6ac7 183e 55bb 513c
00000320: 17bf 05be 0587 9abe ea43 943d bc6e ad3b
00000330: bf1c 9bbd ee36 c6bd 9e75 fc3d bebb 363d
00000340: 4708 80bb 3d0a c5bd dbbb 4bbe 54a1 92be
00000350: d902 53bd f25d 02be 693f 043e 2cca 14be
00000360: 72ea f4bd 9460 823e 4c89 e73d 9c7d 3a3e
00000370: 5185 a2bd 855f 71bd d4bf 723d 8be0 76be
00000380: 81c2 7abe e7c2 643c af19 12be 58f6 6abe
00000390: 6961 0a3e c4c9 723e 0183 7d3d be71 93bd
000003a0: b376 4fbe 0129 4ebe 7216 0d3e c748 523d
000003b0: 6d27 e33b 03d3 36be 0a94 db3d 0c71 cdbd
000003c0: b745 bf3d aeb7 a7bd cf86 b5bc a916 94bd
000003d0: 66db 853c 35af 1abd 80b0 523e 7230 a93b
000003e0: 101d 303e ada2 243e fe06 06be 9497 73be
000003f0: 8bc2 6c3e 6048 323e b835 30be 4177 fbbb

encoder.node_encoder.gru_cells.0.weight_hh f4 [48, 16]
-0.079161674 -0.0060107317 0.2447188 0.06835829 -0.03324443 0.012312524 -0.16526002 0.036660537
0.045290668 0.089956455 -0.15264809 0.19677648 -0.033879373 -0.03805028 0.20998919 0.24412984
0.21954533 0.047921237 -0.0724179 0.13284458 0.24110116 -0.24742703 -0.03641056 -0.21858785
0.032439012 0.04555209 -0.024571853 -0.008280474 0.08968241 0.0055050435 -0.23848706 0.19742289
-0.09145133 0.017357698 0.043107063 -0.009053074 -0.2658132 0.07778489 -0.12585366 -0.12446975
0.06445812 -0.06985666 -0.14178091 -0.10447698 -0.06475302 -0.12110709 -0.04292838 0.07045417
-0.24425721 -0.17670499 0.0021089937 0.09307408 0.12868926 -0.17172389 0.05117351 0.18233424
0.07928469 -0.19431622 -0.06768889 -0.20510064 -0.14200017 0.13703138 -0.040407278 0.12919606
-0.16056815 0.05568768 -0.17626867 0.1321324 -0.10588071 -0.047657333 -0.22539963 -0.063458204
0.22456215 0.12062825 -0.17399204 -0.021410868 -0.033566996 -0.2272632 0.24660324 0.09647978
0.059366915 -0.118993714 -0.1547754 0.10703364 0.07548411 0.07383243 -0.12332145 0.31464937
-0.044014648 -0.10025889 -0.09765028 0.25744206 -0.012911012 -0.087048374 -0.09912549 0.010037534
-0.19352672 -0.17448953 0.14031495 0.23836708 0.2240858 -0.17956327 0.11160503 -0.124207124
0.1467947 0.22949213 0.170895 0.17692846 0.18756701 -0.007561156 0.12649819 -0.07657551
0.14277448 -0.03866903 -0.03021861 -0.21842258 -0.09849586 -0.12889135 -0.084382884 -0.17976628
-0.20602594 0.050187748 0.1298566 0.19995777 0.11385987 -0.16212898 -0.21627225 0.09186338
0.1339064 -0.26735243 0.036709968 0.1970819 0.02896001 -0.080381684 0.27571484 0.12262421
0.19924444 -0.22746032 0.17872842 -0.15755205 0.21464881 -0.11739859 0.11580283 0.013441894
-0.020251814 -0.09019115 0.14012915 -0.078948565 -0.16279231 -0.12329376 0.11947837 -0.14281562
-0.00088427926 -0.16433023 0.18661392 0.18065472 0.16612992 -0.042762864 -0.23350547 0.058455016
-0.18928556 0.13880739 -0.23635201 0.13246304 0.2940893 0.14571193 0.103671126 -0.24112369
0.21929933 -0.12293486 -0.16464724 0.28408802 -0.19194531 -0.02795475 0.18192996 -0.17753892
-0.23284271 -0.038231634 0.00930714 0.13348588 -0.16437717 -0.0011944269 -0.15278368 -0.076458015
-0.28400567 0.10934326 0.10265874 -0.15713485 0.2219267 0.08126456 0.0023113056 -0.10004171
0.009858617 0.23906636 0.18334928 -0.20093942 0.25559044 0.003242311 0.105914466 0.11538088
0.19212049 -0.24519463 0.19535986 -0.1760451 0.008573012 -0.13461097 -0.046317633 -0.005310672
-0.05676471 -0.11187977 0.006441954 0.3262657 0.17876367 0.20338224 0.13055602 0.22119229
-0.016317708 -0.034034476 0.12465111 -0.17932266 -0.2632045 0.005271412 -0.13658416 -0.010458387
-0.11833832 0.13760988 0.22816187 -0.15736641 0.23295823 0.07241429 -0.2818861 -0.37365714
-0.27182916 -0.1575585 -0.22699884 -0.056562237 0.051616322 -0.022278966 0.010659018 -0.08712672
0.22874467 -0.07462459 -0.18749496 0.15911373 -0.0079423925 0.15238091 0.11449334 0.22605313
-0.21087834 0.17686743 0.22078694 -0.12544343 0.15625589 0.15570278 0.014812814 0.15782395
00000000: 841f a2bd acf5 c4bb 9197 7a3e 6eff 8b3d
00000010: 502b 08bd 78ba 493c ec39 29be 5c29 163d
00000020: b582 393d 173b b83d c84f 1cbe c67f 493e
00000030: 19c5 0abd 9cda 1bbd 6807 573e 2cfd 793e
00000040: 7ed0 603e 0f49 443d d64f 94bd 6908 083e
00000050: 39e3 763e 835d 7dbe 3d23 15bd 7ed5 5fbe
00000060: c5de 043d d494 3a3d e94a c9bc d3aa 07bc
00000070: 69ab b73d a763 b43b f435 74be 3a29 4a3e
00000080: d64a bbbd bb31 8e3c 0891 303d 5853 14bc
00000090: ab18 88be af4d 9f3d c8df 00be ffe9 febd
000000a0: 9e02 843d 0211 8fbd 042f 11be 07f8 d5bd
000000b0: 3b9d 84bd fe06 f8bd abd5 2fbd 474a 903d
000000c0: 901e 7abe 27f2 34be 0b37 0a3b a09d be3d
000000d0: 1ec7 033e 63d8 2fbe 509b 513d d4b5 3a3e
000000e0: 0360 a23d d5fa 46be 79a0 8abd e705 52be
000000f0: 7e68 11be f451 0c3e 1a82 25bd f94b 043e
00000100: fa6b 24be c418 643d c67f 34be b74d 073e
00000110: fcd7 d8bd 5634 43bd 29cf 66be 60f6 81bd
00000120: 9ff3 653e f20b f73d f82a 32be d865 afbc
00000130: 8c7d 09bd afb7 68be 8f85 7c3e 3197 c53d
00000140: b92a 733d fab2 f3bd 717d 1ebe 7434 db3d
00000150: 6a97 9a3d 7535 973d f58f fcbd b919 a13e
00000160: b448 34bd 8854 cdbd dffc c7bd 72cf 833e
00000170: b688 53bc 6b46 b2bd 4e02 cbbd 7874 243c
00000180: de2b 46be 62ad 32be b9ae 0f3e 8016 743e
00000190: bf76 653e 6fdf 37be 2e91 e43d 4e60 febd
000001a0: 5a51 163e fcff 6a3e 19ff 2e3e bc2c 353e
000001b0: 9111 403e 93c3 f7bb be88 013e 9fd3 9cbd
000001c0: 7933 123e 6b63 1ebd 058d f7bc 2baa 5fbe
000001d0: 33b8 c9bd 18fc 03be efd0 acbd a714 38be
000001e0: 77f8 52be ab91 4d3d 21f9 043e bbc1 4c3e
000001f0: 5d2f e93d 2405 26be 7976 5dbe de22 bc3d
00000200: c21e 093e 6be2 88be 315d 163d d6cf 493e
00000210: 8b3d ed3c 279f a4bd 7f2a 8d3e 6722 fb3d
00000220: bc06 4c3e 5ceb 68be 9504 373e 5355 21be
00000230: e6cc 5b3e ac6e f0bd 092a ed3d 643b 5c3c
00000240: 22e7 a5bc 23b6 b8bd 047e 0f3e c9af a1bd
00000250: 07b3 26be 7081 fcbd 13b1 f43d 423e 12be
00000260: face 67ba 2f46 28be b817 3f3e 8dfd 383e
00000270: f61d 2a3e 1d28 2fbd 0f1c 6fbe 876e 6f3d
00000280: 13d4 41be 8623 0e3e 4306 72be 64a4 073e
00000290: df92 963e 8235 153e 8751 d43d 21e9 76be
000002a0: 0190 603e 46c5 fbbd 4999 28be fc73 913e
000002b0: 508d 44be 5c01 e5bc d94b 3a3e c3cc 35be
000002c0: 526e 6ebe c698 1cbd f97c 183c 86b0 083e
000002d0: 7d52 28be 518e 9cba 5373 1cbe 0596 9cbd
000002e0: 3169 91be 5cef df3d bf3e d23d f5e7 20be
000002f0: c140 633e 096e a63d 4679 173b abe2 ccbd
00000300: 0986 213c d0cd 743e eabf 3b3e 10c3 4dbe
00000310: c0dc 823e f47c 543b afe9 d83d d04c ec3d
00000320: 3cbb 443e 4d14 7bbe 6a0c 483e 2b45 34be
00000330: d275 0c3c 75d7 09be 8fb7 3dbd 2505 aebb
00000340: 1d82 68bd 3921 e5bd 0717 d33b 4c0c a73e
00000350: d30d 373e 6f43 503e 7ab0 053e 3b80 623e
00000360: b7ac 85bc bc67 0bbd 1549 ff3d 5ca0 37be
00000370: bdc2 86be cfbb ac3b b8dc 0bbe a859 2bbc
00000380: 5c5b f2bd 9be9 0c3e 44a3 693e a924 21be
00000390: 9a8c 6e3e f14d 943d 6053 90be fd4f bfbe
000003a0: 312d 8bbe 0457 21be 6272 68be cead 67bd
000003b0: a36b 533d 6182 b6bc 29a3 2e3c 7e6f b2bd
000003c0: 0b3c 6a3e c7d4 98bd aefe 3fbe b6ee 223e
000003d0: cf20 02bc be09 1c3e 7c7b ea3d 797a 673e
000003e0: 7ef0 57be bc1c 353e f915 623e 3e74 00be
000003f0: 8b01 203e 8d70 1f3e 72b1 723c 9a9c 213e

encoder.node_encoder.gru_cells.0.bias_ih f4 [48]
0.1907142 0.13769436 -0.0892891 0.0301801 0.0634468 0.046847153 -0.09554657 -0.16855396
0.2082868 0.10604548 0.14761816 -0.051141325 0.15262687 0.2553339 0.13112658 0.051251072
0.168805 -0.018798497 -0.008714653 0.18905422 0.17827639 -0.14262201 0.13648899 0.016376838
-0.11101279 0.118693985 -0.124232925 0.15411472 0.181842 -0.21575601 -0.19673754 -0.31479898
-0.019295793 -0.25056097 -0.1056004 0.09358416 0.18681088 0.15237503 0.16084799 0.10620878
-0.104530945 -0.23266579 0.014283635 0.25902465 0.0013696691 -0.052291773 -0.16904932 -0.1501258
00000000: 954a 433e c0ff 0c3e 34dd b6bd 423c f73c
00000010: 65f0 813d cde2 3f3d ecad c3bd 6999 2cbe
00000020: 2349 553e 5f2e d93d 3729 173e 9179 51bd
00000030: 384a 1c3e 20bb 823e 0c46 063e a5ec 513d
00000040: 38db 2c3e 4eff 99bc e7c7 0ebc 6e97 413e
00000050: 168e 363e 810b 12be c5c3 0b3e b828 863c
00000060: ac5a e3bd d515 f33d d56d febd 40d0 1d3e
00000070: ca34 3a3e 25ef 5cbe 9175 49be 552d a1be
00000080: 3612 9ebc 8749 80be 0645 d8bd 0da9 bf3d
00000090: 5a4b 3f3e 3308 1c3e 56b5 243e fd83 d93d
000000a0: 5214 d6bd f13f 6ebe e805 6a3c e19e 843e
000000b0: 7886 b33a e62f 56bd 441b 2dbe 94ba 19be

encoder.node_encoder.gru_cells.0.bias_hh f4 [48]
-0.21760608 0.21710902 -0.061650902 -0.22747277 0.041826427 0.0064289747 -0.04086459 0.06815998
0.17721565 -0.1626501 -0.14854182 0.031531133 -0.20024984 -0.15369698 0.19981137 -0.03573774
-0.20076331 -0.104005694 -0.25712013 0.14661318 -0.11890757 -0.17762665 -0.2783161 0.070235044
-0.11758623 -0.1258567 -0.059884094 -0.12900369 -0.021421323 0.14901213 -0.19410937 -0.055092044
-0.17850536 -0.13993672 0.1901608 0.025208393 0.25158578 -0.033054028 -0.1139074 -0.15843908
0.27984804 -0.23594579 0.13319205 0.09331994 0.05140565 0.103419326 -0.08381274 0.12807368
00000000: 21d4 5ebe d451 5e3e a885 7cbd 9fee 68be
00000010: 3052 2b3d 26aa d23b a161 27bd 7697 8b3d
00000020: 0578 353e bf8d 26be 591b 18be ca26 013d
00000030: 4b0e 4dbe be62 1dbe 5a9b 4c3e bd61 12bd
00000040: e694 4dbe f000 d5bd 40a5 83be c421 163e
00000050: d085 f3bd c3e3 35be 737f 8ebe 64d7 8f3d
00000060: 0dd1 f0bd 94e0 00be 0649 75bd 8b19 04be
00000070: c57b afbc a396 183e 9bc4 46be 32a8 61bd
00000080: 1cca 36be 924b 0fbe 83b9 423e d581 ce3c
00000090: dacf 803e a963 07bd 4848 e9bd db3d 22be
000000a0: 3e48 8f3e c69b 71be 7f63 083e 861e bf3d
000000b0: bb8e 523d 83cd d33d 04a6 abbd bf25 033e

encoder.node_encoder.gru_cells.1.weight_ih f4 [48, 16]
-0.21430065 -0.18988262 0.13466257 0.1488963 -0.025856137 0.011283935 -0.09125244 0.19043341
0.0054729898 -0.045704287 0.16278622 0.20546842 -0.20613639 -0.14498961 0.11943156 0.16559854
-0.15954755 -0.28748927 -0.00047118883 0.17016934 0.07932286 0.18433361 -0.19412117 0.1353572
-0.1733555 0.10265695 0.19483624 0.07921869 0.19799477 -0.15207903 -0.2786012 -0.19810589
0.1492569 0.10420376 -0.21246445 0.1350121 0.21795675 -0.21038519 0.22368038 -0.025594126
0.03566354 0.21101132 0.2613514 0.08336968 0.123749994 0.06560982 0.06755505 -0.19790003
0.04284575 -0.24423048 0.040095355 0.084587604 0.0031296958 -0.08295696 -0.11893413 0.2337988
0.14391118 0.11130033 -0.021346848 -0.033149004 -0.0792301 0.17486632 -0.14076155 0.1702381
0.0840084 -0.10193432 0.21238275 -0.2480643 -0.08525106 -0.08869149 -0.21277444 0.056630667
-0.2971633 0.14970858 -0.36545834 -0.12140699 0.2151499 0.42240813 0.22200964 -0.17086485
0.03049651 -0.115309596 0.06512736 -0.2079833 -0.08447382 0.11748047 -0.2701107 -0.19512306
0.018369587 0.11066423 -0.08686462 0.2166155 -0.105115786 -0.14439595 -0.15502523 -0.022007
-0.08172386 0.14207709 -0.03749172 0.09340924 -0.075654045 0.21256053 0.21328647 -0.2310382
-0.06996414 -0.26557922 0.1050061 -0.20969144 -0.14196123 0.2690824 -0.26521924 0.1699245
0.007868887 0.12202028 -0.1270037 0.2130852 0.022278551 0.029820051 0.20909624 -0.18839355
-0.21732762 0.25711617 -0.08719719 -0.171324 -0.052910253 -0.14597443 -0.05497481 -0.112127446
0.15044947 -0.17208284 0.051207904 0.06932514 0.005163811 0.008543846 0.068511985 -0.024298586
-0.0069115413 -0.070819795 -0.23097488 -0.15444861 0.2891342 -0.019180773 0.08754175 0.08625507
-0.086600974 -0.11450375 -0.054836337 -0.09865282 0.1279412 -0.261281 -0.13408189 0.09920571
0.11534049 0.079820804 0.019294718 0.1922079 0.18689081 0.16565613 -0.055467375 -0.1708084
-0.049163237 -0.11441396 -0.05857806 0.041561015 0.087957926 0.2345073 -0.038237426 -0.22516243
-0.100857355 -0.14648564 0.22119285 -0.15793554 -0.10266435 -0.1251392 -0.1785285 0.1382832
-0.13637562 0.009542598 -0.069234714 -0.084411934 0.0617208 -0.11285394 -0.17335507 0.06933714
-0.12817681 -0.094865985 -0.25410995 -0.01856411 -0.112803504 0.26139244 -0.08399624 -0.0901152
-0.018714072 0.013036641 -0.08821154 0.24765067 -0.12239489 0.12909546 0.017116522 -0.22775154
-0.11642339 0.007495184 0.114136934 0.18071929 0.07444152 -0.15481105 -0.13383691 0.0024158775
-0.21140398 -0.13587914 -0.21279417 0.10802978 0.22835973 0.042206686 -0.15251845 -0.2147758
-0.08008438 -0.0090858685 0.069908395 0.093138605 0.16874494 0.12418097 -0.0012792099 -0.09182825
0.09143005 0.054389365 -0.22841024 -0.108082004 0.027350256 0.12955011 0.12722327 -0.17791033
-0.25235704 -0.048541147 0.021969352 0.09124308 -0.10068994 0.22915287 0.006726997 0.1892515
-0.15262175 -0.0017812434 -0.05859296 -0.045537032 0.09848662 -0.14711428 0.28223446 0.06395041
0.07674508 0.11524843 0.09786528 0.09679531 0.07762788 -0.27502936 0.150764 -0.0038382025
00000000: a171 5bbe 9770 42be fce4 093e 4678 183e
00000010: 40d0 d3bc 41e0 383c 8fe2 babd fa00 433e
00000020: c456 b33b 6b34 3bbd 6eb1 263e 5066 523e
00000030: 6b15 53be 2878 14be 8998 f43d aa92 293e
00000040: 6f60 23be cb31 93be e509 f7b9 df40 2e3e
00000050: 0674 a23d f3c1 3c3e b3c7 46be 149b 0a3e
00000060: 1b84 31be cf3d d23d 2783 473e 693d a23d
00000070: 24bf 4a3e 9bba 1bbe d1a4 8ebe 45dc 4abe
00000080: cdd6 183e c868 d53d 4890 59be 9d40 0a3e
00000090: 0e30 5f3e 376f 57be 780c 653e c6aa d1bc
000000a0: ef13 123d 5a13 583e dacf 853e b9bd aa3d
000000b0: a370 fd3d 715e 863d 4d5a 8a3d 4ea6 4abe
000000c0: 067f 2f3d 8e17 7abe 073b 243d 443c ad3d
000000d0: 951b 4d3b 57e5 a9bd bd93 f3bd f468 6f3e
000000e0: 745d 133e 6df1 e33d 96df aebc 40c7 07bd
000000f0: 6443 a2bd 2810 333e cc23 10be e652 2e3e
00000100: 990c ac3d f1c2 d0bd dd7a 593e 9104 7ebe
00000110: 1c98 aebd e2a3 b5bd 8be1 59be 8ff5 673d
00000120: ca25 98be 354d 193e 5b1d bbbe 3aa4 f8bd
00000130: 4150 5c3e e145 d83e 7f56 633e 32f7 2ebe
00000140: d1d3 f93c 7027 ecbd 7e61 853d 93f9 54be
00000150: 9c00 adbd 9a99 f03d f34b 8abe 57ce 47be
00000160: d17b 963c eea3 e23d 14e6 b1bd 74d0 5d3e
00000170: f246 d7bd 88dc 13be efbe 1ebe 0648 b4bc
00000180: d75e a7bd a87c 113e eb90 19bd 584d bf3d
00000190: 82f0 9abd 78a9 593e c567 5a3e 4795 6cbe
000001a0: 5c49 8fbd 00fa 87be 700d d73d 5ab9 56be
000001b0: 495e 11be 2bc5 893e d1ca 87be b000 2e3e
000001c0: 81ec 003c c5e5 f93d 420d 02be 0233 5a3e
000001d0: 8281 b63c 2e49 f43c 531d 563e 3dea 40be
000001e0: 228b 5ebe bba4 833e 7194 b2bd 8f6f 2fbe
000001f0: 6cb8 58bd 527a 15be 442d 61bd 13a3 e5bd
00000200: 6d0f 1a3e 7c36 30be 61bf 513d 57fa 8d3d
00000210: 3035 a93b 7dfb 0b3c 0350 8c3d d40d c7bc
00000220: 367a e2bb f809 91bd ae84 6cbe c727 1ebe
00000230: 6609 943e ff20 9dbc 1749 b33d 80a6 b03d
00000240: da5b b1bd f180 eabd 119c 60bd 7d0a cabd
00000250: 0503 033e a0c6 85be c34c 09be 5d2c cb3d
00000260: a337 ec3d 1779 a33d f50f 9e3c 26d2 443e
00000270: 4e60 3f3e c3a1 293e c231 63bd 66e8 2ebe
00000280: 645f 49bd de51 eabd 8cef 6fbd e23b 2a3d
00000290: 4923 b43d af22 703e d99e 1cbd fb90 66be
000002a0: 4d8e cebd 5500 16be 6180 623e dbb9 21be
000002b0: b041 d2bd 7e24 00be 2dd0 36be 1c9a 0d3e
000002c0: 0da6 0bbe 8f58 1c3c eeca 8dbd 2ae0 acbd
000002d0: f3ce 7c3d f71f e7bd fe83 31be a100 8e3d
000002e0: c840 03be 1949 c2bd b31a 82be c313 98bc
000002f0: 8605 e7bd 3bd5 853e 3806 acbd 518e b8bd
00000300: 414e 99bc a397 553c 40a8 b4bd 2398 7d3e
00000310: 2caa fabd 9a31 043e f337 8c3c b337 69be
00000320: 636f eebd 299a f53b a0c0 e93d 7a0e 393e
00000330: cc74 983d ca86 1ebe 8b0c 09be b353 1e3b
00000340: 497a 58be e723 0bbe b7e6 59be b83e dd3d
00000350: 22d7 693e ebe0 2c3d cc2d 1cbe 30ee 5bbe
00000360: 4803 a4bd e5dc 14bc 222c 8f3d 74bf be3d
00000370: 79cb 2c3e 9852 fe3d 29ab a7ba 7310 bcbd
00000380: ae3f bb3d 62c7 5e3d 60e4 69be 195a ddbd
00000390: a50d e03c c9a8 043e d146 023e 202e 36be
000003a0: f134 81be 15d3 46bd 12f9 b33c a7dd ba3d
000003b0: 8736 cebd 0da7 6a3e 246e dc3b 25cb 413e
000003c0: e048 1cbe 9c78 e9ba 2cff 6fbd 0a85 3abd
000003d0: 5ab3 c93d 20a5 16be 0981 903e 6ff8 823d
000003e0: 862c 9d3d 5e07 ec3d 986d c83d 9f3c c63d
000003f0: 5efb 9e3d a6d0 8cbe e161 1a3e 5a8a 7bbb

encoder.node_encoder.gru_cells.1.weight_hh f4 [48, 16]
0.015446977 0.18441002 0.17613432 0.18845274 -0.0510723 -0.21037988 -0.156527 0.105682455
0.1555998 -0.050593227 0.16930422 0.04236633 0.011014292 0.047649596 -0.022913316 0.19896242
0.013840215 0.16739105 -0.20440526 -0.04647823 0.020594487 0.16242464 0.09560485 0.026080256
-0.26293775 -0.0015185768 -0.1344142 -0.24944167 0.043222476 -0.10718989 0.16630162 -0.14239736
0.058639735 0.12004537 -0.09079378 0.10054869 -0.026903734 0.19866067 0.23681676 -0.11950811
-0.07773447 0.23038168 0.009671446 0.039545365 0.24076182 -0.12158995 0.018509595 0.16183326
0.08731551 -0.1716186 0.07950948 -0.16763832 -0.11904359 0.14954282 -0.067433216 -0.12509322
0.018971136 0.091485396 -0.17896703 -0.18819453 -0.25803673 0.10028983 -0.15651457 0.012909175
0.015165175 -0.0030119452 -0.2536174 -0.031485807 -0.15458424 -0.16050027 -0.1828395 -0.26515317
0.22523884 -0.08903743 -0.008372275 -0.18618578 0.118678816 -0.09925225 -0.2500989 -0.10918382
-0.0029698254 0.06626845 -0.22070867 0.18801846 -0.18510565 0.22502977 -0.12903407 -0.041991107
0.092823096 -0.16325414 0.2523247 -0.20197485 0.00906123 -0.13975142 0.054197237 0.25815585
0.25681263 0.03144764 -0.11778175 0.2626521 0.017281579 0.1506862 -0.15181565 -0.120934166
-0.24134201 0.24137187 0.079021595 -0.18877102 -0.04955861 -0.10982271 -0.03784084 0.07352135
-0.15162586 0.036889907 -0.108010694 0.056490175 -0.2558719 0.0432617 0.24117833 0.2518653
0.107992195 0.18770905 0.21855506 0.05668717 0.11301894 0.10809899 0.22253326 0.19969875
-0.04583528 0.04120549 -0.19455074 0.05344339 -0.17093109 0.12488305 0.004293879 0.051933024
0.11158673 -0.17895326 0.19332422 0.07871862 -0.29664883 0.24430418 0.1589308 0.21969615
-0.041561253 0.13166076 -0.18092582 -0.040691957 0.088479534 0.038402382 0.099257626 -0.2153736
0.21989256 -0.090418026 0.20980464 0.14434302 0.11673149 0.3025978 0.11789633 0.14999834
-0.11072512 0.19996266 0.088348195 0.15174228 -0.06455666 0.18761632 0.18625675 -0.17851284
0.18274666 -0.11770681 -0.20147638 -0.19224982 0.07113694 -0.15430066 -0.08238693 -0.15800418
0.044820108 -0.17271225 -0.18185122 0.039776694 -0.008729204 -0.16559274 0.09032971 -0.1287864
-0.22109678 -0.05001124 -0.14020588 0.10184506 -0.1132404 0.035605147 0.09601824 -0.21549043
0.16479415 -0.14887805 0.01388898 -0.11579161 -0.11144481 -0.10303779 -0.26228383 0.08443672
-0.0129060885 0.295188 0.15166385 0.2526156 0.0916753 0.16405211 0.23251016 0.16959162
-0.25772402 -0.120394014 -0.23693042 -0.0029584842 -0.13793994 0.18486436 -0.032705646 0.048977148
-0.2362268 -0.13331552 -0.024134802 -0.16384469 -0.10378377 0.13441755 -0.06158064 -0.18243767
0.15683375 0.07026072 -0.09009149 0.08993012 0.11866616 -0.23257051 0.023923889 0.0786364
-0.013766277 0.29590788 -0.21138687 0.13945757 -0.10723778 -0.19185978 0.2003541 -0.14876246
0.009917435 0.12904595 -0.20666161 -0.21711242 0.11273284 0.24655846 -0.021823721 0.16896224
0.0950051 0.08728705 -0.16770375 0.23139785 0.12868147 0.065029025 0.17868966 -0.21316817
00000000: 5115 7d3c fbd5 3c3e 8e5c 343e c1f9 403e
00000010: 3031 51bd d36d 57be 9d48 20be 0b70 d83d
00000020: 8e55 1f3e d83a 4fbd 165e 2d3e 5188 2d3d
00000030: 4a75 343c 392c 433d b5b4 bbbc cebc 4b3e
00000040: 12c2 623c 8f68 2b3e 9d4f 51be f55f 3ebd
00000050: c5b5 a83c a552 263e 7acc c33d 43a6 d53c
00000060: c79f 86be fb0a c7ba e0a3 09be a36d 7fbe
00000070: 0d0a 313d 6086 dbbd f94a 2a3e 9dd0 11be
00000080: 3830 703d 59da f53d 17f2 b9bd 79ec cd3d
00000090: 3865 dcbc b46d 4b3e 1880 723e abc0 f4bd
000000a0: 4033 9fbd 2de9 6b3e fc74 1e3c 52fa 213d
000000b0: 448a 763e 2704 f9bd 6fa1 973c 9eb7 253e
000000c0: 79d2 b23d c9bc 2fbe ded5 a23d 61a9 2bbe
000000d0: 20cd f3bd c121 193e 6d1a 8abd 7018 00be
000000e0: 5b69 9b3c b25c bb3d 2243 37be 11b6 40be
000000f0: 641d 84be c164 cd3d 5b45 20be 0181 533c
00000100: 5b77 783c 0e64 45bb 24da 81be 43f7 00bd
00000110: 554b 1ebe 2f5a 24be 473a 3bbe 28c2 87be
00000120: 03a5 663e 4259 b6bd de2b 09bc 7ca7 3ebe
00000130: e10d f33d c344 cbbd f70c 80be c49b dfbd
00000140: 67a1 42bb c1b7 873d 7401 62be e987 403e
00000150: 568c 3dbe 346e 663e 8221 04be defe 2bbd
00000160: 091a be3d 182c 27be b430 813e 7fd2 4ebe
00000170: 8e75 143c ff1a 0fbe ecfd 5d3d 012d 843e
00000180: f27c 833e 3ecf 003d 8f37 f1bd 567a 863e
00000190: 1992 8d3c 7c4d 1a3e 9075 1bbe 55ac f7bd
000001a0: 5c22 77be 302a 773e 13d6 a13d 314d 41be
000001b0: f8fd 4abd bbea e0bd fffe 1abd 5d92 963d
000001c0: cf43 1bbe df19 173d b634 ddbd 3e62 673d
000001d0: a401 83be 2e33 313d 74f7 763e 7df4 803e
000001e0: 032b dd3d cd36 403e e6cc 5f3e ce30 683d
000001f0: 7976 e73d 0163 dd3d c2df 633e d47d 4c3e
00000200: c6bd 3bbd 16c7 283d 4f38 47be 75e7 5a3d
00000210: 8f08 2fbe afc2 ff3d abb3 8c3b b9b7 543d
00000220: 9587 e43d 863f 37be c9f6 453e 3a37 a13d
00000230: 5be2 97be e02a 7a3e c1be 223e 07f8 603e
00000240: 223c 2abd 14d2 063e 9e44 39be 9cac 26bd
00000250: c234 b53d d14b 1d3d 9547 cb3d e68a 5cbe
00000260: 842b 613e 162d b9bd 07d7 563e a8ce 133e
00000270: eb10 ef3d 19ee 9a3e a273 f13d 2a99 193e
00000280: dac3 e2bd 03c3 4c3e e6ef b43d 5462 1b3e
00000290: 4836 84bd 7e1e 403e 17ba 3e3e 12cc 36be
000002a0: f121 3b3e 4510 f1bd d34f 4ebe 23dd 44be
000002b0: 3eb0 913d fe00 1ebe 7bba a8bd d9cb 21be
000002c0: 4a95 373d 7bdb 30be 3537 3abe e3ec 223d
000002d0: ef04 0fbc 2591 29be c8fe b83d 95e0 03be
000002e0: 3267 62be 96d8 4cbd 2192 0fbe 2594 d03d
000002f0: 95ea e7bd b4d6 113d 36a5 c43d 86a9 5cbe
00000300: ccbf 283e 7d73 18be 9b8e 633c 2724 edbd
00000310: 2d3d e4bd 7a05 d3bd 114a 86be 29ed ac3d
00000320: 0f74 53bc e222 973e c54d 1b3e d556 813e
00000330: 42c0 bb3d 47fd 273e 2517 6e3e 6da9 2d3e
00000340: 67f4 83be 2391 f6bd e39d 72be 21e3 41bb
00000350: 2140 0dbe 154d 3d3e 5bf6 05bd 439c 483d
00000360: 70e5 71be dd83 08be 59b6 c5bc e7c6 27be
00000370: 968c d4bd c1a4 093e fb3b 7cbd f1d0 3abe
00000380: 0799 203e dae4 8f3d e381 b8bd 482d b83d
00000390: 3e07 f33d f726 6ebe 08fc c33c 1f0c a13d
000003a0: f38b 61bc 3d81 973e cd75 58be f7cd 0e3e
000003b0: 7b9f dbbd e476 44be a029 4d3e 3055 18be
000003c0: bd7c 223c 9f24 043e 1a9f 53be b852 5ebe
000003d0: 7ae0 e63d d279 7c3e a9c7 b2bc 7004 2d3e
000003e0: 0992 c23d 8ec3 b23d 88ba 2bbe 8ff3 6c3e
000003f0: 13c5 033e f02d 853d 6cfa 363e c248 5abe

encoder.node_encoder.gru_cells.1.bias_ih f4 [48]
0.12788561 -0.16617891 0.114862435 0.0519247 -0.12625083 0.1939473 0.13845181 0.08837142
-0.09900782 -0.12577966 -0.13241993 0.09838087 0.09232817 -0.09363015 0.24668103 0.14717904
-0.16227138 0.053809706 -0.17111626 -0.011231892 0.13959531 -0.27517813 -0.17988749 -0.044991598
-0.08446992 -0.21770889 -0.21528904 -0.15168056 -0.10711355 0.0044355774 -0.035667937 0.0493114
0.021663425 0.032095578 -0.07050464 0.08844065 0.19394687 -0.12260885 -0.15143211 0.09809359
-0.18108536 0.18142575 0.12495793 0.053708937 -0.11544862 -0.020418392 -0.1824934 -0.21469215
00000000: 72f4 023e ce2a 2abe ff3c eb3d ffae 543d
00000010: e647 01be 1f9a 463e 50c6 0d3e 13fc b43d
00000020: 9dc4 cabd 62cc 00be 1799 07be e97b c93d
00000030: 8d16 bd3d 2ac1 bfbd f499 7c3e 1ab6 163e
00000040: 782a 26be 9167 5c3d 1a39 2fbe f805 38bc
00000050: 13f2 0e3e 26e4 8cbe 6d34 38be 1c49 38bd
00000060: 91fe acbd 14ef 5ebe bb74 5cbe 2652 1bbe
00000070: 595e dbbd 5258 913b 8b18 12bd c0fa 493d
00000080: 7f77 b13c a776 033d bd64 90bd 5f20 b53d
00000090: 029a 463e 591a fbbd 0511 1bbe 4be5 c83d
000000a0: 716e 39be acc7 393e f1e9 ff3d e7fd 5b3d
000000b0: 5370 ecbd 7944 a7bc 8ddf 3abe 42d8 5bbe

encoder.node_encoder.gru_cells.1.bias_hh f4 [48]
0.264009 -0.18483642 -0.23210995 -0.07269898 0.01687933 0.03804762 -0.09211298 -0.023742458
-0.06197887 0.22048186 0.21908723 0.107207276 0.023440348 0.243478 -0.18265301 0.10597907
-0.21213384 0.119430505 -0.2861385 0.0031993263 -0.2740336 0.09186574 -0.009873046 0.18364726
-0.31030592 0.14878684 -0.21765448 -0.26268214 0.024019906 -0.09156874 -0.26481763 -0.21470104
-0.05919355 0.07227474 0.15966445 0.18519627 0.026229855 -0.15165596 -0.24799666 0.21311748
-0.13991873 -0.027736673 -0.19430357 -0.15632789 0.042961076 -0.08844292 0.044146582 0.008290216
00000000: 302c 873e c245 3dbe 3bae 6dbe 34e3 94bd
00000010: 8546 8a3c d2d7 1b3d bba5 bcbd 8b7f c2bc
00000020: 8edd 7dbd ffc5 613e 6758 603e 7d8f db3d
00000030: f905 c03c 4c52 793e 6409 3bbe 8e0b d93d
00000040: 9d39 59be fb97 f43d bf80 92be caab 513b
00000050: 224e 8cbe 1b24 bc3d 8ec2 21bc 070e 3c3e
00000060: 6be0 9ebe 945b 183e d1e0 5ebe 467e 86be
00000070: 65c5 c43c 6488 bbbd 2d96 87be 97da 5bbe
00000080: f074 72bd c704 943d 147f 233e 17a4 3d3e
00000090: fedf d63c b34b 1bbe d6f2 7dbe 783b 5a3e
000000a0: db46 0fbe 0538 e3bc 84f7 46be 6b14 20be
000000b0: f4f7 2f3d 9021 b5bd 0cd3 343d b0d3 073c

encoder.node_encoder.gru_cells.2.weight_ih f4 [48, 16]
0.022374231 -0.07145976 0.012541139 0.06725954 0.21725284 0.2814663 -0.18500918 -0.21569175
-0.042611722 -0.009980252 0.1398395 0.28595665 0.062838964 -0.25331047 -0.023745125 0.17226796
0.022627851 -0.1962611 0.1118033 -0.1949958 -0.11100527 0.17566413 -0.11513681 0.15223993
-0.15078887 0.25448146 0.064990945 0.18586789 0.1805381 0.11791356 -0.0976426 -0.1543644
-0.18007515 0.19801767 -0.14844617 0.06290662 -0.24623716 0.003099989 -0.1604632 -0.14285436
-0.054359186 -0.14926209 -0.053524762 -0.20271915 0.083545916 -0.23153232 0.048978806 0.07352839
-0.1502795 0.21497187 0.13180216 -0.123441316 0.015292267 0.03615272 0.21548067 0.20706552
-0.2109716 -0.24400286 -0.18323094 -0.16249682 -0.10544001 -0.100295186 0.12553026 -0.15120296
-0.13144611 -0.20290709 -0.14076589 0.25996104 0.08514455 -0.021758074 -0.027960438 -0.31009647
-0.03986651 0.1361459 0.21853259 0.21078455 0.0026982657 -0.13305426 -0.18448608 0.30551994
-0.22429954 0.10792215 -0.013443064 0.29422447 0.15050897 -0.09616079 -0.20421971 0.052483995
-0.14355278 -0.018429663 0.06548839 0.09110536 -0.03718425 -0.09244001 -0.26293978 -0.22435468
0.010392903 -0.2254112 0.039603177 -0.1293518 -0.17594698 0.18542391 0.10452099 0.15486833
0.22064953 -0.1370641 -0.15934616 -0.13284141 0.17259374 0.12438685 0.24021183 -0.21517819
-0.09770383 0.23268166 -0.21415128 -0.14787064 0.12464449 -0.2067017 -0.061661936 0.07056934
0.21773922 -0.037546106 -0.19720115 0.17514777 0.23116346 -0.22382028 -0.020881439 -0.15594272
-0.15475154 0.10275734 0.113066815 0.13727996 -0.26112294 -0.078986354 0.086644955 0.012355581
-0.085946575 -0.15777282 0.21716042 -0.22234555 -0.15758479 0.19494668 -0.15735917 0.133923
-0.17343633 -0.14871313 -0.03981759 0.19512466 0.19392645 0.02849117 -0.012938369 -0.1692186
-0.13118455 0.010342654 0.045251805 0.03950615 0.22167829 -0.0058892956 0.053476807 -0.17728937
0.1112443 -0.19518138 0.04174235 0.08731606 0.043782827 0.16555458 0.08663217 -0.056934137
-0.16453175 -0.28256518 0.13687892 0.09414186 -0.18306671 0.069248244 -0.105406456 0.23503637
-0.1640237 0.12155124 0.23794071 0.12541781 0.14856054 0.08953613 0.054358415 -0.20415393
-0.062357664 0.027058475 0.055802748 -0.04273296 0.20029381 0.16760017 0.176062 0.07980193
-0.08152376 0.052519973 -0.018610403 0.21021649 -0.03211194 -0.013658895 -0.253099 0.23536046
-0.049510207 0.24084006 -0.20812707 -0.158105 0.007717555 -0.17863362 0.087078 -0.0428186
-0.036665417 0.19930726 0.082902536 -0.17328118 -0.17486514 0.13665318 -0.17174266 0.09108749
-0.11058756 0.043864004 -0.1196591 -0.029332578 -0.16828193 -0.110493764 -0.16177417 0.05869239
0.15455323 -0.080749765 0.07544403 0.13059784 0.23082018 0.05127597 -0.18219776 -0.028359953
0.110843934 -0.1826104 -0.24312907 0.14130564 0.3276478 -0.29657432 -0.043676816 -0.08113246
-0.23867655 -0.07239319 0.12042421 0.22854303 -0.20183574 -0.02203289 -0.21136479 0.15919499
-0.18280001 -0.16997372 -0.12864454 -0.10839704 0.16192722 -0.04310843 0.013957611 0.19474092
00000000: 2a4a b73c 7f59 92bd 5979 4d3c 5fbf 893d
00000010: 8777 5e3e 5a1c 903e 0c73 3dbe 4cde 5cbe
00000020: a189 2ebd 3684 23bc 1632 0f3e e968 923e
00000030: b7b1 803d e9b1 81be 2385 c2bc 0367 303e
00000040: 0b5e b93c abf8 48be 21f9 e43d fbac 47be
00000050: bb56 e3bd 4ce1 333e d9cc ebbd c9e4 1b3e
00000060: 6668 1abe 654b 823e f919 853d 2754 3e3e
00000070: fbde 383e aa7c f13d d8f8 c7bd b411 1ebe
00000080: 9f65 38be 25c5 4a3e 4602 18be 30d5 803d
00000090: 9825 7cbe 2f29 4b3b 7750 24be 6a48 12be
000000a0: bda7 5ebd 29d8 18be c83c 5bbd 9c95 4fbe
000000b0: 1f1a ab3d cf16 6dbe 009e 483d 0d96 963d
000000c0: dfe2 19be 9621 5c3e 25f7 063e cdce fcbd
000000d0: 6b8c 7a3c e014 143d f7a6 5c3e fc08 543e
000000e0: f008 58be e3db 79be e4a0 3bbe 9165 26be
000000f0: eff0 d7bd 9067 cdbd 018b 003e f3d4 1abe
00000100: cf99 06be e0c6 4fbe ef24 10be 9d19 853e
00000110: 4460 ae3d fd3d b2bc 4a0d e5bc f7c4 9ebe
00000120: 114b 23bd d569 0b3e 02c7 5f3e e8d7 573e
00000130: 63d5 303b 603f 08be ebe9 3cbe 1c6d 9c3e
00000140: c7ae 65be 4a06 dd3d 4c40 5cbc 97a4 963e
00000150: 061f 1a3e f3ef c4bd f91e 51be 75f9 563d
00000160: 80ff 12be cef9 96bc c71e 863d 7295 ba3d
00000170: 834e 18bd 3051 bdbd 0ba0 86be 3cbd 65be
00000180: ff46 2a3c 32d2 66be f136 223d cc74 04be
00000190: 722b 34be c4df 3d3e 1a0f d63d ce95 1e3e
000001a0: f3f1 613e 885a 0cbe a42b 23be 9407 08be
000001b0: 6abc 303e 88be fe3d 17fa 753e ac57 5cbe
000001c0: f218 c8bd 1a44 6e3e 794a 5bbe 676b 17be
000001d0: 9c45 ff3d 9ca9 53be 3a91 7cbd a886 903d
000001e0: 08f7 5e3e f2c9 19bd 19ef 49be f059 333e
000001f0: 1db6 6c3e 2531 65be 8d0f abbc 73af 1fbe
00000200: 3077 1ebe 7172 d23d 938f e73d 1e93 0c3e
00000210: e8b1 85be 99c3 a1bd e972 b13d 106f 4a3c
00000220: c204 b0bd 338f 21be 4d5f 5e3e 8dae 63be
00000230: e85d 21be 1aa0 473e c322 21be 1c23 093e
00000240: 4b99 31be 4148 18be c517 23bd c2ce 473e
00000250: a894 463e 5066 e93c 74fb 53bc a447 2dbe
00000260: 3e55 06be 3c74 293c f559 393d 33d1 213d
00000270: a2ff 623e fefa c0bb 7f0a 5b3d 588b 35be
00000280: 0dd4 e33d a1dd 47be 07fa 2a3d c3d2 b23d
00000290: 9f55 333d 2487 293e 356c b13d c533 69bd
000002a0: 037b 28be 62ac 90be fd29 0c3e 73cd c03d
000002b0: d775 3bbe 06d2 8d3d 57df d7bd 60ad 703e
000002c0: d4f5 27be dbef f83d bba6 733e 876d 003e
000002d0: 4120 183e b85e b73d eea6 5e3d ba0d 51be
000002e0: c06a 7fbd bca9 dd3c 6c91 643d c208 2fbd
000002f0: d219 4d3e 619f 2b3e 9949 343e 326f a33d
00000300: eef5 a6bd 2f1f 573d d874 98bc fe42 573e
00000310: cf87 03bd 8fc9 5fbc 3196 81be 5502 713e
00000320: 37cb 4abd c79e 763e 431f 55be 47e6 21be
00000330: 8be3 fc3b bbeb 36be f355 b23d 8e62 2fbd
00000340: 7a2e 16bd 3417 4c3e cec8 a93d 9f70 31be
00000350: d90f 33be d0ee 0b3e 4fdd 2fbe 148c ba3d
00000360: bb7b e2bd beaa 333d d50f f5bd e04a f0bc
00000370: 1952 2cbe 8e4a e2bd 21a8 25be 6e67 703d
00000380: 3443 1e3e 2260 a5bd 6682 9a3d 71bb 053e
00000390: 205c 6c3e c006 523d 0d92 3abe 2253 e8bc
000003a0: 2502 e33d 38fe 3abe d4f6 78be 6db2 103e
000003b0: 74c1 a73e 97d8 97be 76e6 32bd c628 a6bd
000003c0: a067 74be e142 94bd f8a0 f63d 2f07 6a3e
000003d0: 07ae 4ebe 527e b4bc 0370 58be 0304 233e
000003e0: ed2f 3bbe 970d 2ebe 65bb 03be 44ff ddbd
000003f0: 40d0 253e 7792 30bd 77ae 643c 2a6a 473e

encoder.node_encoder.gru_cells.2.weight_hh f4 [48, 16]
0.073383264 0.00872274 -0.24697033 0.22122793 -0.23519985 0.1255431 -0.025966706 0.018008651
0.12870863 -0.033598308 -0.07168526 0.20434155 -0.19527666 0.00695572 -0.10853386 -0.09212392
0.10135776 -0.0028902413 -0.15277302 0.20090489 -0.056733344 0.26274136 -0.088464856 0.22351539
0.0691332 -0.030015908 0.09279346 -0.004368954 -0.13048775 0.19930492 0.17029957 -0.0039455295
0.22563678 0.0013100437 -0.1318567 -0.11192541 0.20189121 -0.107858434 0.18914695 -0.21825673
-0.031565215 -0.15908445 0.05477513 0.22137615 0.06900175 -0.05768588 -0.23915674 -0.092835225
-0.17569086 0.21432926 -0.17421187 0.12784444 0.17486057 0.032348737 -0.19421734 0.007772595
-0.11031601 0.17875688 -0.04149159 0.011597726 0.21334015 0.04156815 0.09525572 -0.07098551
0.15431626 -0.05432141 0.022497403 0.106878296 -0.17766155 0.1300428 0.1733943 -0.19515444
-0.15381186 0.20274079 -0.07011726 0.05098012 -0.08776981 -0.09838592 0.18058975 -0.104453884
-0.1381469 0.10694808 -0.15736692 -0.014622985 0.076369464 -0.053908024 0.1761253 -0.18159804
-0.12312244 -0.075862154 0.19709063 0.13547485 -0.18676712 0.14442967 -0.04549235 0.2794635
0.1510699 -0.13943094 0.2604104 -0.085880585 -0.022030184 0.13462889 0.21225913 0.04029648
-0.20075521 -0.09802978 0.24691896 -0.11474388 -0.12528126 -0.19265917 -0.10771459 -0.16466841
0.04816105 0.05150035 0.24499093 0.22508936 0.0002420456 0.14344455 0.18897694 -0.15032206
0.06416871 -0.14630876 0.118243374 -0.054711472 0.0145690385 -0.010816664 0.09830982 0.02366112
-0.2016401 0.09307555 0.12934363 -0.12329294 -0.17882335 -0.2116014 -0.12495356 -0.038592685
0.021726117 -0.016040282 -0.055728585 0.15606892 0.011643378 -0.13117641 -0.04562826 -0.14531787
-0.08394665 -0.27295062 0.064109944 -0.21549273 0.11661826 0.22093008 -0.20848215 -0.1383555
-0.16850454 0.07410923 0.036102384 -0.13167067 0.10586368 0.099058606 -0.20717992 -0.07051137
-0.10941538 -0.045392852 0.096728936 -0.0063131996 -0.21452104 0.12269929 -0.21381412 -0.06884238
0.08492206 0.2296689 0.24203098 -0.047906887 0.088388726 -0.24244326 -0.0610048 -0.076676466
0.083422236 -0.12756886 0.08248541 0.061400246 0.25170472 0.012706824 0.17933157 -0.28826728
-0.017911837 0.05821626 0.10048656 0.07641889 -0.12150535 0.20047729 -0.19099396 -0.14671281
0.0031938504 -0.2084451 -0.20573409 -0.28780687 0.23515698 0.09982419 -0.12768242 -0.06276926
-0.15753928 -0.26776552 -0.13587618 -0.28226066 0.19294551 -0.06418211 -0.041276436 -0.21044303
0.016560309 -0.086701065 -0.14917178 0.24687886 0.17132102 -0.20786627 0.20551005 0.01627114
-0.059187353 0.15816657 -0.10075547 0.26203167 0.09268848 -0.19544633 -0.1967596 -0.2794758
0.14841461 -0.18551448 -0.27037176 -0.18987213 -0.3026103 -0.22164005 0.18573526 0.10978717
0.27478924 -0.10512871 -0.0783686 -0.110325485 -0.0013509905 -0.25161126 0.043087564 -0.1849395
-0.0078115147 0.24825901 0.057691075 0.1889801 -0.15614447 -0.04739824 -0.13767381 -0.018492112
-0.1258575 -0.15926981 -0.2339178 -0.0886423 0.063619144 -0.020971267 -0.23777813 0.2136701
00000000: f749 963d d3e9 0e3c cae5 7cbe 9389 623e
00000010: 3bd8 70be 5f8e 003e 21b8 d4bc e186 933c
00000020: 32cc 033e 619e 09bd b9cf 92bd e93e 513e
00000030: 9bf6 47be cfec e33b 0047 debd 77ab bcbd
00000040: a894 cf3d 346a 3dbb 8870 1cbe 03ba 4d3e
00000050: 3961 68bd 0986 863e 102d b5bd 38e1 643e
00000060: b595 8d3d ece3 f5bc 7f0a be3d 7129 8fbb
00000070: 959e 05be 9716 4c3e 0363 2e3e 8049 81bb
00000080: 540d 673e c6b5 ab3a 7105 07be 2639 e5bd
00000090: 92bc 4e3e e2e4 dcbd bdaf 413e b17e 5fbe
000000a0: 874a 01bd 09e7 22be e35b 603d 6eb0 623e
000000b0: ca50 8d3d 0848 6cbd 81e5 74be 6520 bebd
000000c0: 4ee8 33be 2179 5b3e 9964 32be a7e9 023e
000000d0: a60e 333e 1c80 043d e9e0 46be 41b1 fe3b
000000e0: 5ced e1bd 0b0c 373e 16f3 29bd 6304 3e3c
000000f0: d775 5a3e 5d43 2a3d 6e15 c33d da60 91bd
00000100: 1505 1e3e 2080 5ebd 794c b83c 02e3 da3d
00000110: e9ec 35be f129 053e 468e 313e 91d6 47be
00000120: db80 1dbe 489b 4f3e a399 8fbd 88d0 503d
00000130: a8c0 b3bd 8f7e c9bd 85ec 383e ebeb d5bd
00000140: 6276 0dbe 9807 db3d cb24 21be 3f95 6fbc
00000150: 9867 9c3d a9ce 5cbd 315a 343e d6f4 39be
00000160: 9e27 fcbd 9e5d 9bbd 20d2 493e ebb9 0a3e
00000170: e13f 3fbe 5fe5 133e 3056 3abd d715 8f3e
00000180: 11b2 1a3e fcc6 0ebe 8354 853e 29e2 afbd
00000190: a578 b4bc 28dc 093e 755a 593e ec0d 253d
000001a0: c692 4dbe d6c3 c8bd 53d8 7c3e d7fe eabd
000001b0: bb49 00be 7248 45be 7899 dcbd d69e 28be
000001c0: 8544 453d 08f2 523d e7de 7a3e d37d 663e
000001d0: 9fcd 7d39 21e3 123e 2c83 413e 07ee 19be
000001e0: e26a 833d f7d1 15be 9529 f23d 2319 60bd
000001f0: fab2 6e3c 6138 31bc a956 c93d f7d4 c13c
00000200: be7a 4ebe 659e be3d a872 043e 0281 fcbd
00000210: 781d 37be 0aae 58be a7e7 ffbd 5d13 1ebd
00000220: f8fa b13c e966 83bc a843 64bd 88d0 1f3e
00000230: dec3 3e3c 1c53 06be b3e4 3abd 35ce 14be
00000240: 39ec abbd 2fc0 8bbe 134c 833d 20aa 5cbe
00000250: 8ed5 ee3d 7f3b 623e 587c 55be 10ad 0dbe
00000260: 748c 2cbe 94c6 973d 18e0 133d add4 06be
00000270: 0fcf d83d 3ddf ca3d f926 54be 4468 90bd
00000280: 2c15 e0bd dbed 39bd d219 c63d f5de cebb
00000290: 67ab 5bbe c449 fb3d 17f2 5abe 3cfd 8cbd
000002a0: 9eeb ad3d 532e 6b3e f8d6 773e 033a 44bd
000002b0: 2605 b53d 0c43 78be 2be0 79bd 8d08 9dbd
000002c0: 47d9 aa3d 69a1 02be 1cee a83d d37e 7b3d
000002d0: 71df 803e 4830 503c b2a2 373e c597 93be
000002e0: d8bb 92bc 2c74 6e3d e6cb cd3d 8281 9c3d
000002f0: ccd7 f8bd eb49 4d3e ec93 43be e23b 16be
00000300: eb4f 513b a272 55be f5ab 52be 6c5b 93be
00000310: fecc 703e a070 cc3d 2ebf 02be 2b8d 80bd
00000320: fa51 21be 9018 89be 2023 0bbe 7884 90be
00000330: 8293 453e e971 83bd 7b11 29bd 617e 57be
00000340: 7ca9 873c 5490 b1bd 7dc0 18be d0cd 7c3e
00000350: c76e 2f3e e5da 54be 3a71 523e 0e4b 853c
00000360: 706e 72bd 6bf6 213e e258 cebd 0429 863e
00000370: 75d3 bd3d 1523 48be 597b 49be 7417 8fbe
00000380: 00fa 173e 82f7 3dbe 2b6e 8abe d76d 42be
00000390: bdef 9abe 9cf5 62be 6231 3e3e 19d8 e03d
000003a0: 2db1 8c3e b94d d7bd b77f a0bd 54f2 e1bd
000003b0: b813 b1ba 31d3 80be 967c 303d c860 3dbe
000003c0: bcf7 ffbb 9c37 7e3e 7a4d 6c3d 0084 413e
000003d0: 56e4 1fbe a824 42bd 5dfa 0cbe c57c 97bc
000003e0: cae0 00be a017 23be 2688 6fbe 188a b5bd
000003f0: c14a 823d efcb abbc 1c7c 73be 56cc 5a3e

encoder.node_encoder.gru_cells.2.bias_ih f4 [48]
0.22555512 -0.22561958 0.2543316 -0.058702216 -0.044193372 0.19861175 -0.17602332 0.110236
-0.00078230584 0.17022377 -0.01481233 0.115179956 0.2447483 0.002473991 -0.2931313 0.26491728
-0.19388728 -0.050683126 -0.00081103464 -0.07430469 0.0918065 0.035903603 -0.030576833 0.057710443
-0.00013081354 0.13853353 0.14512417 -0.117408596 -0.07647467 -0.00974497 0.1273609 0.039232217
0.09539423 -0.091659576 0.029673163 -0.17874862 0.22505873 0.23712154 -0.1292249 -0.19077848
0.15352446 -0.2589537 0.15753366 -0.22448874 -0.16519865 -0.049839176 0.2448458 -0.028284496
00000000: ecf7 663e d208 67be c037 823e bc71 70bd
00000010: 1c04 35bd e160 4b3e 753f 34be 69c3 e13d
00000020: a813 4dba 244f 2e3e 6aaf 72bc 78e3 eb3d
00000030: 4c9f 7a3e ae22 223b 4e15 96be 3da3 873e
00000040: 638a 46be 1c99 4fbd 9d9b 54ba 0f2d 98bd
00000050: 0c05 bc3d a80f 133d 447c fabc c961 6c3d
00000060: fe2a 09b9 bcdb 0d3e 6e9b 143e eb73 f0bd
00000070: c09e 9cbd 5ea9 1fbc e56a 023e f6b1 203d
00000080: 0d5e c33d 04b8 bbbd 2215 f33c e109 37be
00000090: cc75 663e fdcf 723e 8853 04be 6f5b 43be
000000a0: 8435 1d3e 9495 84be 8150 213e 60e0 65be
000000b0: d629 29be 2a24 4cbd dbb8 7a3e e3b4 e7bc

encoder.node_encoder.gru_cells.2.bias_hh f4 [48]
0.20127462 0.06237995 0.38118038 0.18610576 0.12757851 0.24415219 -0.07085999 -0.06805838
0.12970576 0.22875422 -0.10024936 -0.20550947 -0.19069001 -0.023763638 -0.0069777686 0.00016762211
-0.12291724 -0.22469063 -0.09127019 -0.24141003 0.142379 -0.16482632 0.066402026 0.074519485
-0.11634974 0.09125916 -0.029811049 0.06961044 -0.33855268 -0.113639995 0.022016235 -0.011288668
-0.035251558 0.14328398 0.2210515 0.16284 -0.022886181 0.08048601 -0.17369278 -0.16152263
-0.09746159 -0.007236607 -0.14894901 -0.18568256 0.081470735 0.15180834 -0.14818597 0.17937373
00000000: ef1a 4e3e 1e82 7f3d 132a c33e 8292 3e3e
00000010: f1a3 023e 0803 7a3e 0b1f 91bd 3162 8bbd
00000020: 96d1 043e 8c3e 6a3e 894f cdbd 1371 52be
00000030: 3e44 43be f6ab c2bc c4a5 e4bb b8c3 2f39
00000040: 09bc fbbd 4d15 66be deeb babd 3134 77be
00000050: cdcb 113e 3bc8 28be c9fd 873d ac9d 983d
00000060: c648 eebd 15e6 ba3d 4d36 f4bc eb8f 8e3d
00000070: c756 adbe 16bc e8bd 645b b43c 1bf4 38bc
00000080: f063 10bd 09b9 123e 535b 623e 87bf 263e
00000090: cd7b bbbc d9d5 a43d 85dc 31be 3066 25be
000000a0: f199 c7bd 0f21 edbb 1786 18be 9223 3ebe
000000b0: 21da a63d a573 1b3e 10be 17be bfad 373e
