dagcheckpoint/dagnnmodel359.pt (torch, 102969 bytes, 31 tensors)

encoder.node_encoder.lin_init.weight f4 [16, 5]
0.30876818 0.37707496 -0.106186174 0.4404582 -0.14234345 0.022741634 -0.2445852 0.35586283
0.4142007 -0.32651725 0.3321079 0.09720048 0.4305286 0.052269317 0.120508 -0.13376789
0.3602956 0.19270886 -0.20312256 0.1289093 -0.14024603 -0.059511058 -0.2936009 0.2972427
-0.35913762 -0.12865981 -0.13273421 -0.36419865 0.05088674 -0.4495145 0.3495421 -0.3966886
0.43154222 0.06130785 -0.111784615 0.20870347 0.04927698 0.46807757 0.036974706 -0.20147638
0.051902894 -0.11348802 0.30201638 0.3984604 0.2912896 -0.22192371 0.271645 0.07069265
0.25041386 -0.27823249 -0.44204956 -0.21247424 -0.44710028 0.3491159 0.20664468 0.19495179
0.1045961 -0.09116257 0.35113674 -0.38797876 -0.051262904 -0.29789895 0.24687286 -0.16221346
0.14808568 -0.033746406 0.38139716 -0.34092763 -0.24624884 -0.24910346 0.46545804 0.1512709
0.33705285 -0.37266666 -0.45022988 -0.43236393 -0.29671544 0.2743952 0.1472486 0.39627415
00000000: dd16 9e3e f80f c13e 2378 d9bd bd83 e13e
00000010: 7bc2 11be aa4c ba3c 8b74 7abe a733 b63e
00000020: 1d12 d43e 452d a7be 0c0a aa3e 0c11 c73d
00000030: 3f6e dc3e 5a18 563d e6cc f63d 73fa 08be
00000040: aa78 b83e 7955 453e 5cff 4fbe cd00 043e
00000050: a89c 0fbe dec1 73bd db52 96be 3230 983e
00000060: e3e0 b7be 66bf 03be 7aeb 07be 3f78 babe
00000070: 9d6e 503d c426 e6be 2ff7 b23e c51a cbbe
00000080: 1af3 dc3e f11d 7b3d 55ef e4bd 5db6 553e
00000090: a9d6 493d dda7 ef3e ca72 173d d34f 4ebe
000000a0: 2198 543d 686c e8bd e4a1 9a3e 0003 cc3e
000000b0: e923 953e f83f 63be 0e15 8b3e 4fc7 903d
000000c0: 3f36 803e 7d74 8ebe 5254 e2be d992 59be
000000d0: 54ea e4be 52bf b23e aa9a 533e 71a1 473e
000000e0: 7b36 d63d 71b3 babd 32c8 b33e 27a5 c6be
000000f0: 0df9 51bd 3686 98be 3dcc 7c3e 491b 26be
00000100: c6a3 173e ac39 0abd 7d46 c33e 118e aebe
00000110: a828 7cbe fa14 7fbe 8450 ee3e c2e6 1a3e
00000120: 3192 ac3e 2ace bebe 8884 e6be ce5e ddbe
00000130: 16eb 97be 877d 8c3e 56c8 163e 72e4 ca3e

encoder.node_encoder.lin_init.bias f4 [16]
-0.2081568 -0.31047 0.21126787 -0.1965952 0.28332263 -0.082357295 0.22450013 -0.39097714
-0.24040578 0.15321635 0.11068118 -0.09653996 0.23613271 0.32767263 -0.30142877 -0.25860745
00000000: 0e27 55be edf5 9ebe 9b56 583e 4150 49be
00000010: aa0f 913e f1aa a8bd 5de3 653e 282e c8be
00000020: ef2c 76be bfe4 1c3e d1ac e23d beb6 c5bd
00000030: c6cc 713e b5c4 a73e df54 9abe 3268 84be

encoder.node_encoder.attn_convs.0.attn_layer.0.weight f4 [1, 32]
0.17182522 -0.023947872 -0.090512894 -0.16076094 -0.13926353 0.07674137 -0.027483862 -0.085825756
0.03298499 -0.13629578 -0.13963354 -0.07748321 -0.16898395 -0.13268699 0.20501108 0.0583811
0.06585118 -0.14581712 -0.12297452 -0.06412002 -0.0008286963 -0.15749688 -0.08798666 -0.12470736
-0.010255197 -0.026400764 -0.026661487 -0.1524941 -0.10203793 -0.0909572 -0.018113125 -0.092604004
00000000: f3f2 2f3e 542e c4bc d35e b9bd 849e 24be
00000010: 199b 0ebe 942a 9d3d d625 e1bc 6ac5 afbd
00000020: 451b 073d 1f91 0bbe 18fc 0ebe 84af 9ebd
00000030: 210a 2dbe 19df 07be 6dee 513e 0521 6f3d
00000040: fcdc 863d 1551 15be 11da fbbd 5b51 83bd
00000050: de3c 59ba dd46 21be 5a32 b4bd 9366 ffbd
00000060: 6a05 28bc 6a46 d8bc 3169 dabc 6a27 1cbe
00000070: 43f9 d0bd c547 babd fa61 94bc 2ba7 bdbd

encoder.node_encoder.attn_convs.1.attn_layer.0.weight f4 [1, 32]
-0.010024794 0.178845 0.079084136 -0.14492394 0.09876646 -0.070954375 -0.058454987 -0.15450862
-0.19764233 0.07546404 -0.055159543 0.044638608 -0.14702527 0.14855471 -0.10425681 -0.0024117965
0.03940237 0.104182705 0.1599024 0.17698015 -0.15974665 0.030953716 -0.05773039 -0.025974883
-0.119385295 0.182177 -0.111724354 0.12689668 0.07096411 0.083763614 -0.108963296 0.16644572
00000000: 093f 24bc 2523 373e ddf6 a13d f166 14be
00000010: 1246 ca3d 8750 91bd 7f6e 6fbd 8237 1ebe
00000020: c062 4abe e48c 9a3d f9ee 61bd f9d6 363d
00000030: cb8d 16be ba1e 183e 9884 d5bd 3b0f 1ebb
00000040: 6164 213d be5d d53d 74bd 233e 493a 353e
00000050: a094 23be a692 fd3c b476 6cbd 47c9 d4bc
00000060: 4780 f4bd 9c8c 3a3e bdcf e4bd 34f1 013e
00000070: a255 913d 428c ab3d 2628 dfbd bf70 2a3e

encoder.node_encoder.attn_convs.2.attn_layer.0.weight f4 [1, 32]
0.053910557 -0.15247951 0.06275427 -0.016710848 -0.08976667 0.1417198 0.028634218 -0.11768243
-0.10028875 -0.007903832 0.11345215 -0.053882793 -0.11478197 -0.08645838 -0.14325091 0.048869405
0.13444142 -0.17792529 0.07511993 0.1179589 0.05770705 -0.03533128 0.121952884 0.082509674
0.0468979 -0.03608445 -0.051755704 0.028836789 -0.058926515 -0.0182726 0.12165462 0.14411382
00000000: 51d1 5c3d 9723 1cbe 5085 803d 30e5 88bc
00000010: 96d7 b7bd ff1e 113e 4f92 ea3c 7c03 f1bd
00000020: 3064 cdbd 137f 01bc 9a59 e83d 34b4 5cbd
00000030: cf12 ebbd 1711 b1bd 5eb0 12be 492b 483d
00000040: 03ab 093e 0c32 36be 7ad8 993d 7094 f13d
00000050: 3a5e 6c3d 88b7 10bd 6fc2 f93d d5fa a83d
00000060: 0318 403d 4acd 13bd cafd 53bd 213b ec3c
00000070: ee5c 71bd 6bb0 95bc 0f26 f93d 9392 133e

encoder.node_encoder.gru_cells.0.weight_ih f4 [48, 16]
-0.12858725 -0.025959073 -0.023485823 0.030221734 -0.0054812995 -0.25404146 -0.06271553 0.18262625
0.1637719 -0.15257394 -0.11112619 -0.29575562 -0.1471942 -0.19117507 0.044115167 0.2741817
0.111404344 -0.27155104 -0.16601935 -0.058227442 0.2637717 0.048018657 -0.06599107 0.050869007
-0.09945618 -0.20705953 0.21656483 -0.14581843 -0.04432438 -0.24317928 0.13709514 0.18404047
0.075326 -0.13840917 -0.23833877 -0.19625203 0.17043559 0.10713814 0.22441322 0.16440767
0.09458037 0.005354956 -0.2015459 -0.21295407 -0.21424517 0.072310075 -0.12052801 -0.010505794
-0.15312201 -0.031530738 -0.14719363 -0.2009751 0.0066611627 -0.12489683 0.22317474 -0.07278225
-0.08081081 -0.06838646 -0.07213658 -0.12897614 -0.15616988 0.0367332 -0.2132661 0.2174697
0.09658554 0.17733876 -0.19619927 0.14120844 -0.09120141 0.12889554 0.2557869 -0.09002885
0.027033435 -0.1088391 -0.16368276 0.11161772 -0.21988313 0.12372917 0.14441085 0.2569175
-0.07392475 -0.1276307 0.06902921 0.1296117 -0.260085 -0.06166898 -0.12640746 0.02269484
-0.12465878 -0.10618628 -0.11033024 -0.2239435 0.213793 0.19082277 -0.0073021543 -0.0341657
-0.110903054 -0.16579355 -0.22530411 0.08976016 -0.1614076 -0.18044858 0.0024286832 -0.03961785
-0.02095537 0.0201913 -0.059257094 -0.080906525 -0.101178125 -0.25139943 0.21343811 -0.04632594
0.06279045 -0.18087158 0.031016726 0.26933506 0.009647176 -0.2869254 0.074904405 0.22775695
0.0958252 0.09688949 0.23329277 -0.1783704 0.06627802 -0.19414817 -0.060978543 0.2433096
0.17802696 -0.19566102 -0.19114856 -0.16545527 -0.17194362 -0.18122992 -0.086032055 0.13818197
-0.041416448 -0.1282203 -0.21445595 0.20574497 -0.23972565 0.06752606 0.13581021 -0.23922913
-0.07906586 -0.055155694 -0.021927781 -0.18750812 -0.15858893 -0.23799337 -0.08927795 0.12421468
-0.07723549 -0.17513758 0.15440941 -0.008424499 0.20116705 0.15709968 0.039742585 -0.19987957
-0.0027982588 0.052417137 -0.02235291 -0.16927461 0.26853517 -0.09121603 -0.13756074 -0.29976112
-0.021223128 0.04592358 0.08667616 -0.011899913 -0.1712811 -0.21547237 -0.030032994 0.20791751
0.13133702 -0.05323648 0.007817647 -0.23620385 -0.049091604 0.046576723 0.19274789 0.19614477
-0.16975312 0.1975008 -0.13381884 0.13813683 0.2482211 -0.04986096 0.19140865 -0.17676643
-0.14290033 0.089196615 -0.056704853 -0.094241194 -0.08024414 0.1730952 0.15046398 0.013486117
-0.13095012 -0.2998129 0.072415926 0.0063023483 -0.075033836 -0.09713719 0.123541705 0.04492385
-0.007190172 -0.096818484 -0.19460548 -0.28744903 -0.051327005 -0.13078503 0.13193323 -0.14734648
-0.11736659 0.2548096 0.114480585 0.17883457 -0.07577675 -0.060977563 0.05674992 -0.23775372
-0.24085099 0.01864632 -0.14747226 -0.22824591 0.1384193 0.24135652 0.059163224 -0.067237146
-0.20637017 -0.1979607 0.13373981 0.055481 0.0024852164 -0.17517239 0.11149471 -0.10393157
0.092415005 -0.08278632 -0.022483911 -0.07044074 0.01303395 -0.04035084 0.20469052 0.0059805247
0.1738083 0.16026902 -0.13103232 -0.24090177 0.23140642 0.17254098 -0.17229068 -0.0036520676
00000000: 60ac 03be 1fa8 d4bc 5765 c0bc 9293 f73c
00000010: 799c b3bb b911 82be 0071 80bd 6002 3b3e
00000020: d2b3 273e 583c 1cbe 2196 e3bd 486d 97be
00000030: 14ba 16be 66c3 43be 1bb2 343d 8b61 8c3e
00000040: f627 e43d bd08 8bbe fa00 2abe e67f 6ebd
00000050: 160d 873e 36af 443d 5326 87bd 055c 503d
00000060: afaf cbbd 6a07 54be 2cc3 5d3e 6d51 15be
00000070: 7b8d 35bd fd03 79be ab62 0c3e 1b75 3c3e
00000080: 8544 9a3d 22bb 0dbe 140f 74be 4bf6 48be
00000090: ab86 2e3e 3e6b db3d 94cc 653e 7c5a 283e
000000a0: 5ab3 c13d a078 af3b 0c62 4ebe a210 5abe
000000b0: 1663 5bbe 4e17 943d 64d7 f6bd 7e20 2cbc
000000c0: 04cc 1cbe 6026 01bd edb9 16be 6bcc 4dbe
000000d0: e245 da3b e9c9 ffbd eb87 643e dc0e 95bd
000000e0: 2380 a5bd 330e 8cbd 58bc 93bd 5212 04be
000000f0: ffea 1fbe 8d75 163d 6e62 5abe 61b0 5e3e
00000100: a4ce c53d 4b98 353e 76e8 48be f298 103e
00000110: cec7 babd 31fd 033e 80f6 823e 0c61 b8bd
00000120: 3975 dd3c 09e7 debd 749c 27be d597 e43d
00000130: 0b29 61be b865 fd3d 70e0 133e b18a 833e
00000140: dc65 97bd 9fb1 02be 305f 8d3d eeb8 043e
00000150: dc29 85be 9d98 7cbd f570 01be 87ea b93c
00000160: 1a4d ffbd 3178 d9bd d2f4 e1bd 7251 65be
00000170: 8dec 5a3e 0b67 433e e946 efbb 55f1 0bbd
00000180: 2421 e3bd c9c5 29be 1fb6 66be 2dd4 b73d
00000190: 0948 25be 83c7 38be 8b2a 1f3b 5446 22bd
000001a0: 99aa abbc 3a68 a53c 91b7 72bd 52b2 a5bd
000001b0: 7a36 cfbd 6db7 80be 858f 5a3e 45c0 3dbd
000001c0: 4898 803d 6636 39be ca16 fe3c 49e6 893e
000001d0: 300f 1e3c e3e7 92be 7b67 993d 1e39 693e
000001e0: 0140 c43d ff6d c63d 4de4 6e3e bba6 36be
000001f0: c5bc 873d c7ce 46be a3c4 79bd 2726 793e
00000200: b34c 363e 5d5b 48be 73bc 43be 1b6d 29be
00000210: fd11 30be 5694 39be 9331 b0bd 937f 0d3e
00000220: 4ba4 29bd 2f4c 03be 579a 5bbe cfae 523e
00000230: a47a 75be 1a4b 8a3d d511 0b3e 7bf8 74be
00000240: 48ed a1bd f0ea 61bd e4a1 b3bc 2102 40be
00000250: 2365 22be 89b4 73be 5cd7 b6bd 4464 fe3d
00000260: a42d 9ebd 4457 33be 801d 1e3e e906 0abc
00000270: bcfe 4d3e bdde 203e 1fc9 223d 3bad 4cbe
00000280: fe62 37bb 5ab3 563d 731d b7bc 5356 2dbe
00000290: 717d 893e 78cf babd b9dc 0cbe 4a7a 99be
000002a0: 20dc adbc 5d1a 3c3d 4583 b13d daf7 42bc
000002b0: 5064 2fbe caa4 5cbe c107 f6bc 54e8 543e
000002c0: 367d 063e 7f0e 5abd 9715 003c 6cdf 71be
000002d0: 4714 49bd 3cc7 3e3d b45f 453e 2dda 483e
000002e0: c3d3 2dbe a63d 4a3e ce07 09be be73 0d3e
000002f0: ac2d 7e3e 023b 4cbd a100 443e 4202 35be
00000300: 7754 12be b7ac b63d 5943 68bd 8701 c1bd
00000310: 0a57 a4bd de3f 313e 3b13 1a3e e0f4 5c3c
00000320: ca17 06be 1481 99be cd4e 943d ee83 ce3b
00000330: 57ab 99bd ddef c6bd 6f03 fd3d 1202 383d
00000340: 899b ebbb c548 c6bd a946 47be 852c 93be
00000350: 443c 52bd 83ec 05be 8119 073e ffe1 16be
00000360: e55d f0bd 6776 823e cc74 ea3d 6920 373e
00000370: d730 9bbd 9cc3 79bd 9b72 683d b675 73be
00000380: a4a1 76be 2bc0 983c f802 17be 4cb9 69be
00000390: cabd 0d3e 2a26 773e 2355 723d a1b3 89bd
000003a0: b452 53be 36b6 4abe 17f3 083e 0c40 633d
000003b0: 03df 223b 6460 33be 5757 e43d 13da d4bd
000003c0: 1444 bd3d e08b a9bd 2e30 b8bc 3c43 90bd
000003d0: 598c 553c ec46 25bd 649a 513e 47f8 c33b
000003e0: cefa 313e 901d 243e 562d 06be f4ae 76be
000003f0: cef5 6c3e 95ae 303e f86c 30be 8757 6fbb

encoder.node_encoder.gru_cells.0.weight_hh f4 [48, 16]
-0.07947557 -0.008303246 0.24878022 0.06971905 -0.03333494 0.0113580255 -0.16365993 0.04235885
0.044016622 0.090554126 -0.14984885 0.19735475 -0.031538818 -0.044256154 0.2078676 0.2455949
0.21996167 0.04419575 -0.07017578 0.13487677 0.24034996 -0.24578117 -0.0340449 -0.20864439
0.031690232 0.047357775 -0.02067279 -0.007708319 0.08970951 -0.0028069203 -0.2412724 0.19949934
-0.0924946 0.018216748 0.037026763 -0.0074438076 -0.26576704 0.07993897 -0.12671228 -0.12571634
0.06517903 -0.06914736 -0.14369357 -0.105308354 -0.06576005 -0.12156734 -0.04075432 0.07275465
-0.24582191 -0.17597783 0.009775688 0.08575988 0.13147502 -0.17467095 0.04700715 0.1826047
0.07650192 -0.19512212 -0.07088133 -0.20165506 -0.13778228 0.14298028 -0.04094208 0.12745428
-0.16246305 0.05250821 -0.17335184 0.13370799 -0.1038077 -0.047898438 -0.22586255 -0.05937286
0.22246437 0.11775439 -0.17043124 -0.019008616 -0.031377472 -0.22609867 0.24198724 0.09358067
0.0591259 -0.11644436 -0.15171757 0.102875166 0.076634586 0.07191083 -0.1254499 0.3109441
-0.044016898 -0.1022425 -0.10001913 0.2587644 -0.012030825 -0.08223627 -0.098815724 0.003502617
-0.19383362 -0.17263259 0.13822815 0.23789501 0.22353329 -0.18074246 0.11071095 -0.12621477
0.14677875 0.23253411 0.16968472 0.17582235 0.18657741 -0.007496936 0.129727 -0.07391619
0.14140485 -0.039871726 -0.022998849 -0.21836716 -0.09794336 -0.13304612 -0.086794294 -0.17652616
-0.20920967 0.0510087 0.13059446 0.20098546 0.121166274 -0.16028988 -0.21738146 0.09295926
0.13500422 -0.2666452 0.03958411 0.19732778 0.026754795 -0.08164159 0.27654475 0.12348999
0.19904758 -0.22574101 0.17828539 -0.15871271 0.21505058 -0.11881485 0.11624888 0.013884506
-0.02088184 -0.09087656 0.140799 -0.07834995 -0.16212532 -0.1223643 0.117514655 -0.14116777
-0.0016507751 -0.16360512 0.18611154 0.18189539 0.16716067 -0.043994714 -0.23309478 0.061234817
-0.18966097 0.13644297 -0.23259084 0.1333979 0.29441223 0.14536195 0.104074396 -0.23517114
0.2181982 -0.122776784 -0.16234778 0.2852161 -0.1885591 -0.03212371 0.17961057 -0.17818637
-0.23436734 -0.038395558 0.011893826 0.13240626 -0.16264176 -0.0027399028 -0.1555499 -0.07518815
-0.2856917 0.10894912 0.10152067 -0.15507615 0.22373621 0.083289675 0.0021708922 -0.10019639
0.010067993 0.23576948 0.1840197 -0.19903405 0.25493196 0.0059569175 0.10787649 0.12601563
0.19167022 -0.2431374 0.19811724 -0.17569849 0.009555006 -0.14217058 -0.048231106 0.00092237955
-0.05903424 -0.11690144 0.011137584 0.32749814 0.18153855 0.20228446 0.12881482 0.22872348
-0.01941367 -0.035419367 0.128573 -0.17491774 -0.26063237 0.0017393542 -0.1420246 -0.011114223
-0.111001074 0.12974498 0.22226365 -0.15009351 0.22544588 0.08099243 -0.2739966 -0.36398947
-0.26517394 -0.14938924 -0.21942297 -0.06191924 0.044437107 -0.031091183 0.008781964 -0.07880823
0.2298332 -0.07455183 -0.18451987 0.15777904 -0.009272032 0.15236823 0.11570241 0.22942919
-0.21035232 0.17936246 0.2203592 -0.1260873 0.16136384 0.15331304 0.015281623 0.15796708
00000000: 16c4 a2bd 570a 08bc 3ec0 7e3e dcc8 8e3d
00000010: 388a 08bd 0317 3a3c 7896 27be 7980 2d3d
00000020: c64a 343d 7174 b93d fa71 19be 5d17 4a3e
00000030: d92e 01bd f145 35bd 3edb 543e 3b7d 7b3e
00000040: a23d 613e 9a06 353d 52b8 8fbd 231d 0a3e
00000050: 4d1e 763e 0fae 7bbe aa72 0bbd e0a6 55be
00000060: 9ecd 013d 3afa 413d fc59 a9bc 1196 fcbb
00000070: 9fb9 b73d 4ff4 37bb 1d10 77be 8e49 4c3e
00000080: cf6d bdbd 4a3b 953c 60a9 173d 2feb f3bb
00000090: 9e12 88be 0bb7 a33d ddc0 01be c9bb 00be
000000a0: 957c 853d 229d 8dbd 6824 13be e8ab d7bd
000000b0: 35ad 86bd 4cf8 f8bd 00ee 26bd 6400 953d
000000c0: bdb8 7bbe 8833 34be 352a 203c e0a2 af3d
000000d0: 63a1 063e f1dc 32be 928a 403d bafc 3a3e
000000e0: 0aad 9c3d 18ce 47be 3b2a 91bd aa7e 4ebe
000000f0: cc16 0dbe 6c69 123e e2b2 27bd 6083 023e
00000100: b75c 26be d912 573d 2583 31be bfea 083e
00000110: 2299 d4bd 2731 44bd 8348 67be f530 73bd
00000120: b3cd 633e 3729 f13d 8785 2ebe f5b7 9bbc
00000130: aa85 00bd 6986 67be 81cb 773e 39a7 bf3d
00000140: 002e 723d 617a eebd da5b 1bbe 37b0 d23d
00000150: 98f2 9c3d fc45 933d f075 00be 1134 9f3e
00000160: 104b 34bd 8464 d1bd d4d6 ccbd c47c 843e
00000170: f01c 45bc 7d6b a8bd e65f cabd 298c 653b
00000180: 527c 46be 99c6 30be ae8b 0d3e c09a 733e
00000190: e9e5 643e 8d14 39be 6cbc e23d 723e 01be
000001a0: 2b4d 163e 6c1d 6e3e d5c1 2d3e c60a 343e
000001b0: 260e 3f3e dba8 f5bb 28d7 043e 5f61 97bd
000001c0: 6fcc 103e 8950 23bd 1568 bcbc a49b 5fbe
000001d0: 8796 c8bd 3e3d 08be 35c1 b1bd 46c3 34be
000001e0: 0f3b 56be 80ee 503d 8eba 053e 22cf 4d3e
000001f0: 0626 f83d 0823 24be 3f99 5ebe 6d61 be3d
00000200: 8c3e 0a3e b885 88be f322 223d 4b10 4a3e
00000210: df2c db3c b533 a7bd 4697 8d3e 52e8 fc3d
00000220: 21d3 4b3e a728 67be 7290 363e 9685 22be
00000230: 3836 5c3e 3355 f3bd e513 ee3d d77b 633c
00000240: 6410 abbc 7d1d babd 9d2d 103e f075 a0bd
00000250: 2e04 26be 229a fabd 86ab f03d 498e 10be
00000260: d25e d8ba 1a88 27be 0694 3e3e c942 3a3e
00000270: 2b2c 2b3e cd33 34bd 66b0 6ebe 5cd1 7a3d
00000280: 7c36 42be b5b7 0b3e 4b2c 6ebe 7699 083e
00000290: 33bd 963e c3d9 143e f524 d53d b4d0 70be
000002a0: 596f 5f3e 6572 fbbd 7f3e 26be d807 923e
000002b0: a315 41be 2794 03bd d5eb 373e 7d76 36be
000002c0: fefd 6fbe a944 1dbd 52de 423c 8295 073e
000002d0: 908b 26be f18f 33bb 7948 1fbe 3ffc 99bd
000002e0: 2f46 92be b720 df3d 12ea cf3d 48cc 1ebe
000002f0: 1b1b 653e c793 aa3d 8745 0e3b c433 cdbd
00000300: 39f4 243c 8e6d 713e a96f 3c3e 95cf 4bbe
00000310: 7186 823e 3f32 c33b 59ee dc3d 3e0a 013e
00000320: 3345 443e 03f9 78be 3fdf 4a3e 4eea 33be
00000330: 9a8c 1c3c 2a95 11be fb8d 45bd d8cb 713a
00000340: e3cd 71bd 066a efbd 6a7a 363c d6ad a73e
00000350: 3ee5 393e a823 4f3e 08e8 033e 7d36 6a3e
00000360: 6b09 9fbc e613 11bd a4a8 033e a31d 33be
00000370: 9b71 85be 0bfb e33a e66e 11be 6e18 36bc
00000380: 8854 e3bd dedb 043e 1599 633e 1db2 19be
00000390: 49db 663e 5cdf a53d 4849 8cbe d45c babe
000003a0: e1c4 87be 7ef9 18be 6ab0 60be 079f 7dbd
000003b0: af03 363d f0b2 febc 3ae2 0f3c 3666 a1bd
000003c0: 6559 6b3e a1ae 98bd c7f2 3cbe d490 213e
000003d0: b9e9 17bc 6b06 1c3e 63f5 ec3d 7cef 6a3e
000003e0: 9966 57be cbaa 373e d8a5 613e 071d 01be
000003f0: 903c 253e 18fe 1c3e c65f 7a3c 1fc2 213e

encoder.node_encoder.gru_cells.0.bias_ih f4 [48]
0.19134466 0.13774756 -0.0891583 0.031975634 0.06543402 0.04770628 -0.09692522 -0.16777423
0.20586573 0.10675423 0.14833942 -0.050201654 0.152979 0.2591152 0.12539886 0.05018917
0.16790245 -0.0149069615 -0.009185267 0.19146135 0.17750925 -0.14160447 0.14546156 0.014475496
-0.10764897 0.12116249 -0.11853698 0.15611094 0.18538725 -0.2095554 -0.1927611 -0.31378472
-0.02007479 -0.25108302 -0.10564537 0.094074495 0.18898435 0.15343158 0.16162781 0.105991535
-0.10743175 -0.23402503 0.014494215 0.25887427 0.001098463 -0.054666124 -0.16894095 -0.15060598
00000000: dbef 433e b20d 0d3e a098 b6bd e2f8 023d
00000010: 4502 863d a967 433d bb80 c6bd 02cd 2bbe
00000020: 77ce 523e f6a1 da3d 4ae6 173e 40a0 4dbd
00000030: 87a6 1c3e bfaa 843e 8f68 003e 2993 4d3d
00000040: 9fee 2b3e 543c 74bc cd7d 16bc 720e 443e
00000050: fcc4 353e c300 11be e0f3 143e a12a 6d3c
00000060: 1077 dcbd 0a24 f83d 84c3 f2bd 8cdb 1f3e
00000070: 28d6 3d3e b195 56be 2a63 45be 64a8 a0be
00000080: e373 a4bc f48d 80be 9a5c d8bd 21aa c03d
00000090: 1d85 413e 2b1d 1d3e c381 253e 1712 d93d
000000a0: 2d05 dcbd 42a4 6fbe 2579 6d3c 2b8b 843e
000000b0: 4dfa 8f3a 96e9 5fbd dbfe 2cbe 7438 1abe

encoder.node_encoder.gru_cells.0.bias_hh f4 [48]
-0.21697561 0.21716222 -0.061519895 -0.22567703 0.043813422 0.0072881514 -0.042242885 0.06893934
0.17479457 -0.16194129 -0.14782056 0.03247077 -0.1998977 -0.14991531 0.19408365 -0.036799643
-0.20166586 -0.10011434 -0.2575903 0.14902031 -0.11967503 -0.17660911 -0.26934272 0.0683333
-0.114222415 -0.12338802 -0.054188047 -0.12700747 -0.017876055 0.15521275 -0.19013292 -0.05407836
-0.1791313 -0.14034809 0.19007841 0.025599457 0.2536931 -0.0320023 -0.11282728 -0.15849078
0.27696407 -0.23708642 0.13334168 0.093257494 0.050974693 0.10135077 -0.08376669 0.12782596
00000000: db2e 5ebe c65f 5e3e 49fc 7bbd e117 67be
00000010: b475 333d 72d1 ee3b e006 2dbd 1230 8d3d
00000020: 59fd 323e f0d3 25be 465e 17be 1200 053d
00000030: fcb1 4cbe 6683 19be ddbd 463e 39bb 16bd
00000040: 7f81 4ebe bf08 cdbd e0e2 83be c898 183e
00000050: 2f18 f5bd 05d9 34be 4ae7 89be 54f2 8b3d
00000060: 71ed e9bd dcb2 fcbd 49f4 5dbd 3f0e 02be
00000070: ce70 92bc 17f0 1e3e 34b2 42be 4581 5dbd
00000080: 326e 37be 69b7 0fbe eaa3 423e f4b5 d13c
00000090: 10e4 813e d814 03bd fd11 e7bd 684b 22be
000000a0: 3cce 8d3e c8c6 72be b98a 083e c9fd be3d
000000b0: d7ca 503d fe90 cf3d df8d abbd cfe4 023e

encoder.node_encoder.gru_cells.1.weight_ih f4 [48, 16]
-0.21498801 -0.19209562 0.13756755 0.14920174 -0.025451835 0.009085162 -0.0918714 0.19366704
0.0035624837 -0.04464093 0.1640661 0.20687169 -0.20181243 -0.14622052 0.118103914 0.16665089
-0.15796424 -0.29245034 5.340927e-05 0.1737795 0.07797465 0.18741274 -0.19167666 0.13977554
-0.17256655 0.10427815 0.2013425 0.07918399 0.19486599 -0.15558808 -0.28205445 -0.19621047
0.14932084 0.101804785 -0.21260707 0.13421652 0.21841757 -0.20953548 0.22312468 -0.0229364
0.03538487 0.21045946 0.26109937 0.084880956 0.1297399 0.06652577 0.06591899 -0.19931673
0.04224778 -0.2466705 0.04347408 0.08482348 0.003438765 -0.08575881 -0.11957761 0.23772253
0.14087589 0.11230297 -0.020826116 -0.031686697 -0.07570517 0.1726743 -0.1417177 0.17096089
0.08744622 -0.10096276 0.2110695 -0.2464415 -0.08938183 -0.084157035 -0.20951912 0.061956882
-0.29486305 0.15485676 -0.36678424 -0.123924784 0.21418382 0.41404423 0.22659594 -0.16706792
0.031127362 -0.111845 0.06486313 -0.21101017 -0.084971905 0.11656165 -0.270626 -0.19799685
0.019324861 0.110742666 -0.090767674 0.21572049 -0.104641475 -0.14086907 -0.1521759 -0.022845976
-0.081619054 0.13692045 -0.035789367 0.09784854 -0.07599671 0.21235925 0.21566623 -0.22667116
-0.07082688 -0.26510236 0.11408738 -0.20949377 -0.14563599 0.26457575 -0.26935565 0.17076944
0.0071651083 0.12275586 -0.12774497 0.2104875 0.023826864 0.032009482 0.20738669 -0.18964832
-0.21597368 0.25500932 -0.087841764 -0.16965216 -0.050554708 -0.14382915 -0.05567222 -0.11315807
0.14994432 -0.17418072 0.052404664 0.07316913 0.00520044 0.0107601015 0.07084156 -0.01954091
-0.0074285264 -0.07052225 -0.22668108 -0.15415074 0.28020567 -0.026281832 0.08568385 0.089399986
-0.08516332 -0.11304832 -0.05153895 -0.10399025 0.12625407 -0.2622909 -0.1343895 0.10129365
0.11522916 0.082668476 0.015965184 0.19190879 0.1895358 0.16621087 -0.053726606 -0.16959447
-0.04997427 -0.11627347 -0.055807725 0.041938245 0.088496335 0.23127332 -0.039308533 -0.2229229
-0.10263729 -0.14552914 0.22271872 -0.15678488 -0.0981518 -0.12604861 -0.17989784 0.13899949
-0.13707326 0.012077572 -0.07099477 -0.08724942 0.062382206 -0.113236435 -0.17525017 0.066548966
-0.12831677 -0.09493108 -0.25794855 -0.018066924 -0.11081331 0.26376086 -0.0810079 -0.08849851
-0.019072961 0.0113099795 -0.088408425 0.24903996 -0.122077666 0.12900521 0.016727913 -0.22665222
-0.11715018 0.0077550146 0.11480092 0.18163155 0.07749359 -0.15545434 -0.13408972 0.0022200954
-0.20593886 -0.1376776 -0.20887439 0.11221489 0.22227569 0.045757167 -0.14255446 -0.2044511
-0.077696174 -0.0045750523 0.07377643 0.08992866 0.16272673 0.1122387 -0.00122126 -0.08954326
0.09168722 0.05231607 -0.22504966 -0.10762379 0.027074793 0.12784153 0.12728913 -0.17189796
-0.2536725 -0.046872523 0.02204506 0.09220924 -0.094426066 0.22624296 0.00605127 0.189549
-0.15372548 -0.0047039147 -0.056588106 -0.04394293 0.09964657 -0.1472879 0.28215626 0.06751965
0.07429239 0.11558771 0.10106892 0.09896454 0.078171946 -0.27768925 0.14803004 -0.0030724157
00000000: d125 5cbe b7b4 44be 82de 0c3e 57c8 183e
00000010: 5e80 d0bc eed9 143c 1327 bcbd a750 463e
00000020: 8f78 693b 68d9 36bd f200 283e 2cd6 533e
00000030: eba7 4ebe d5ba 15be 77e0 f13d 88a6 2a3e
00000040: 61c1 21be 0dbc 95be c403 6038 41f3 313e
00000050: 2cb1 9f3d 20e9 3f3e e346 44be 5221 0f3e
00000060: 49b5 30be c88f d53d ba2c 4e3e 372b a23d
00000070: f38a 473e 7b52 1fbe 7169 90be 66eb 48be
00000080: 90e7 183e 077f d03d abb5 59be 0e70 093e
00000090: dba8 5f3e 7890 56be cc7a 643e 1ee5 bbbc
000000a0: baef 103d af82 573e d1ae 853e 11d6 ad3d
000000b0: 89da 043e aa3e 883d 8900 873d af19 4cbe
000000c0: 020c 2d3d 3197 7cbe e011 323d efb7 ad3d
000000d0: e75c 613b 51a2 afbd 1be5 f4bd 896d 733e
000000e0: c541 103e 19ff e53d 889b aabc e9c9 01bd
000000f0: 500b 9bbd 88d1 303e 721e 11be 5f10 2f3e
00000100: 0117 b33d 90c5 cebd 9a22 583e 295b 7cbe
00000110: d20d b7bd 865a acbd 2e8c 56be 80c6 7d3d
00000120: 4af8 96be c592 1e3e 25cb bbbe 47cc fdbd
00000130: 0153 5b3e 9bfd d33e c408 683e da13 2bbe
00000140: cffe fe3c fe0e e5bd f6d6 843d 0d13 58be
00000150: c005 aebd e0b7 ee3d 7e8f 8abe b0bf 4abe
00000160: 2c4f 9e3c 0dcd e23d 67e4 b9bd d5e5 5c3e
00000170: 454e d6bd fb3f 10be 00d4 1bbe 7c27 bbbc
00000180: e427 a7bd e034 0c3e df97 12bd d164 c83d
00000190: 2aa4 9bbd b474 593e 9cd7 5c3e 7c1c 68be
000001a0: af0d 91bd 7fbb 87be a5a6 e93d 8985 56be
000001b0: 9a21 15be 7976 873e fce8 89be 2fde 2e3e
000001c0: 49c9 ea3b 6d67 fb3d 94cf 02be 098a 573e
000001d0: 8e30 c33c 601c 033d 2d5d 543e 2b33 42be
000001e0: 3428 5dbe 9590 823e 62e6 b3bd 4cb9 2dbe
000001f0: 7412 4fbd f347 13be 8e08 64bd 6bbf e7bd
00000200: 018b 193e 6e5c 32be 46a6 563d b2d9 953d
00000210: 7468 aa3b 234b 303c 6115 913d 4214 a0bc
00000220: ff6a f3bb f86d 90bd 161f 68be b1d9 1dbe
00000230: 1e77 8f3e ff4c d7bc 047b af3d 5717 b73d
00000240: 1b6a aebd e185 e7bd 821a 53bd d7f8 d4bd
00000250: bf48 013e fe4a 86be 679d 09be 0c73 cf3d
00000260: 44fd eb3d 174e a93d 6bc9 823c bd83 443e
00000270: ac15 423e 2f33 2a3e 6e10 5cbd 2caa 2dbe
00000280: d2b1 4cbd c920 eebd a496 64bd 70c7 2b3d
00000290: 913d b53d ead2 6c3e fc01 21bd e745 64be
000002a0: 8033 d2bd 9705 15be 6010 643e 378c 20be
000002b0: d003 c9bd e312 01be 2437 38be e255 0e3e
000002c0: ef5c 0cbe 02e1 453c b565 91bd d3af b2bd
000002d0: 7c84 7f3d 81e8 e7bd c874 33be d34a 883d
000002e0: 7965 03be 3a6b c2bd d511 84be 1601 94bc
000002f0: 17f2 e2bd aa0b 873e 78e7 a5bd b53e b5bd
00000300: e63e 9cbc 7e4d 393c 7a0f b5bd 5504 7f3e
00000310: db03 fabd f119 043e fa08 893c 8517 68be
00000320: 6fec efbd c71d fe3b bf1c eb3d 9ffd 393e
00000330: f6b4 9e3d 6c2f 1fbe d14e 09be 057f 113b
00000340: a3e1 52be 5bfb 0cbe 2be3 55be ecd0 e53d
00000350: 3d9c 633e de6b 3b3d ccf9 11be a15b 51be
00000360: 2c1f 9fbd 52ea 95bb 1918 973d 842c b83d
00000370: d6a1 263e 67dd e53d b012 a0ba 7562 b7bd
00000380: 82c6 bb3d 6049 563d 6b73 66be dd69 dcbd
00000390: f5cb dd3c e4e8 023e 1558 023e 0506 30be
000003a0: 5de1 81be 67fd 3fbd d797 b43c 33d8 bc3d
000003b0: 7462 c1bd 3cac 673e bb49 c63b 2219 423e
000003c0: 366a 1dbe 4c23 9abb eec8 67bd 80fd 33bd
000003d0: 8013 cc3d a4d2 16be c976 903e be47 8a3d
000003e0: 9c26 983d 40b9 ec3d 39fd ce3d ecad ca3d
000003f0: 9d18 a03d 492d 8ebe 3095 173e 955a 49bb

encoder.node_encoder.gru_cells.1.weight_hh f4 [48, 16]
0.014110128 0.18509129 0.17222002 0.1895205 -0.052361567 -0.21235712 -0.15708952 0.10849656
0.1549101 -0.052835304 0.16783266 0.036750525 0.013073655 0.04805454 -0.02218916 0.19794938
0.0100945085 0.16528226 -0.20002107 -0.050289284 0.022021249 0.16526459 0.09738986 0.032508444
-0.26055565 -0.0020921323 -0.14098693 -0.24929138 0.049401846 -0.10394016 0.17006148 -0.14292665
0.058205124 0.11892675 -0.09690023 0.09985604 -0.026956923 0.19724567 0.23575617 -0.11714774
-0.081143945 0.23058295 0.008176471 0.03598085 0.2392914 -0.12205179 0.018718418 0.16067995
0.086126715 -0.1704353 0.07610896 -0.1665895 -0.12099263 0.14581928 -0.06757946 -0.12142879
0.01900061 0.08882217 -0.1795101 -0.1955501 -0.25620633 0.10108156 -0.15680496 0.012424662
0.016927348 -0.0018019748 -0.25050202 -0.03458574 -0.15044597 -0.15661323 -0.17908902 -0.26364434
0.22826718 -0.090212874 -0.00774011 -0.18572925 0.11740007 -0.096398406 -0.25164628 -0.107033074
-0.0011376094 0.07091846 -0.22259656 0.19028942 -0.18444018 0.22445498 -0.12794206 -0.043292824
0.09384232 -0.16594982 0.25557023 -0.20283942 0.0074017593 -0.1392354 0.05106823 0.26002333
0.2538529 0.027269265 -0.114717804 0.26232025 0.016275827 0.15157838 -0.15198803 -0.12024079
-0.23995446 0.24200515 0.07540371 -0.18714061 -0.044430867 -0.1099212 -0.032583855 0.072502285
-0.15149741 0.03667506 -0.11228293 0.056630407 -0.2567731 0.0409704 0.23806836 0.2520007
0.10389818 0.19061454 0.21855447 0.05603528 0.110491425 0.105538 0.22287361 0.1977069
-0.046550006 0.042831544 -0.19113478 0.05686489 -0.17143722 0.124461934 0.003341091 0.052426506
0.11366979 -0.17751603 0.19281484 0.080024384 -0.29486358 0.24598554 0.15913364 0.21935394
-0.039662395 0.13433492 -0.18543062 -0.039518937 0.088759266 0.03682993 0.10040158 -0.21502167
0.21995236 -0.09379992 0.21226487 0.14040796 0.11394658 0.30357078 0.11521607 0.15147667
-0.11229432 0.1991303 0.08632296 0.15232529 -0.065915965 0.18614711 0.18559274 -0.176306
0.18216935 -0.119615436 -0.20331702 -0.19593 0.07346578 -0.15501791 -0.08065969 -0.15923235
0.045446075 -0.16578686 -0.18546265 0.042027038 -0.009611436 -0.167466 0.08958374 -0.12836444
-0.22215475 -0.051385015 -0.13778116 0.09860824 -0.1152279 0.0354356 0.092868194 -0.21549353
0.1632471 -0.15006045 0.013390687 -0.11716895 -0.11167211 -0.10302824 -0.26240116 0.0876883
-0.013626397 0.29454663 0.14843403 0.25040278 0.09352252 0.1657516 0.23451672 0.16837047
-0.25508907 -0.12012657 -0.23144862 -0.0052137226 -0.13370007 0.19134402 -0.027818734 0.047356356
-0.2326247 -0.13640375 -0.022626875 -0.16080394 -0.10291421 0.13671957 -0.06286429 -0.17915675
0.15627559 0.07080487 -0.09446487 0.089219995 0.118565135 -0.23356937 0.024117056 0.081298195
-0.014807326 0.29394668 -0.21241336 0.13384518 -0.10678669 -0.19054978 0.20016402 -0.14911795
0.0072109858 0.12850432 -0.20806411 -0.21687736 0.11081685 0.2446523 -0.023153266 0.1724865
0.094282806 0.08622744 -0.17068243 0.22731198 0.13150729 0.065483876 0.1808551 -0.21518192
00000000: 2b2e 673c 9288 3d3e 725a 303e a911 423e
00000010: 1579 56bd 2574 59be 13dc 20be 7233 de3d
00000020: c1a0 1e3e d569 58bd 53dc 2b3e b887 163d
00000030: e232 563c d6d4 443d 0bc6 b5bc 3eb3 4a3e
00000040: 7063 253c c13f 293e 53d2 4cbe 23fc 4dbd
00000050: e865 b43c 1f3b 293e 5674 c73d 9327 053d
00000060: 8d67 85be 281c 09bb e15e 10be 3d46 7fbe
00000070: 9759 4a3d 94de d4bd 9924 2e3e 5d5b 12be
00000080: 7f68 6e3d de8f f33d a173 c6bd 5381 cc3d
00000090: c4d4 dcbc c5fa 493e 116a 713e 28eb efbd
000000a0: cc2e a6bd f01d 6c3e 9bf6 053c a860 133d
000000b0: ce08 753e 4af6 f9bd 5e57 993c 4989 243e
000000c0: 3463 b03d 9786 2ebe 04df 9b3d 7096 2abe
000000d0: fcca f7bd a651 153e 1a67 8abd a8af f8bd
000000e0: 2ba7 9b3c 66e8 b53d 7fd1 37be 493e 48be
000000f0: 7a2d 83be d903 cf3d 7b91 20be cf90 4b3c
00000100: 39ab 8a3c 3e30 ecba cd41 80be c7a9 0dbd
00000110: 820e 1abe 385f 20be 1d63 37be 64fc 86be
00000120: dfbe 693e 87c1 b8bd c0a0 fdbb cf2f 3ebe
00000130: 736f f03d 876c c5bd c8d7 80be 2834 dbbd
00000140: d61b 95ba b33d 913d 5af0 63be 3bdb 423e
00000150: e3dd 3cbe 87d7 653e 3e03 03be d153 31bd
00000160: 6730 c03d c0ee 29be 1ada 823e 23b5 4fbe
00000170: 758a f23b ba93 0ebe ec2c 513d c721 853e
00000180: 02f9 813e cb63 df3c 2bf1 eabd d74e 863e
00000190: e254 853c 5d37 1b3e c0a2 1bbe ce40 f6bd
000001a0: 9fb6 75be 33d0 773e 436d 9a3d caa1 3fbe
000001b0: 24fd 35bd 5e1e e1bd a676 05bd 147c 943d
000001c0: 2322 1bbe 9638 163d 98f4 e5bd 49f5 673d
000001d0: c477 83be 94d0 273d 31c8 733e 3c06 813e
000001e0: 92c8 d43d 7530 433e becc 5f3e 4085 653d
000001f0: 5449 e23d 4f24 d83d fb38 643e ad73 4a3e
00000200: 38ab 3ebd 2170 2f3d d6b8 43be 29eb 683d
00000210: 3d8d 2fbe e6e5 fe3d 35f6 5a3b 2dbd 563d
00000220: b5cb e83d c3c6 35be 4171 453e d3e3 a33d
00000230: 5cf8 96be a2e3 7b3e eef3 223e 529e 603e
00000240: 0975 22bd 188f 093e 86e1 3dbe 9cde 21bd
00000250: 6bc7 b53d fbda 163d 589f cd3d a42e 5cbe
00000260: 313b 613e 2c1a c0bd f65b 593e 1bc7 0f3e
00000270: d35c e93d a16d 9b3e 67f6 eb3d b31c 1b3e
00000280: 90fa e5bd d0e8 4b3e 18ca b03d 29fb 1b3e
00000290: f3fe 86bd 599d 3e3e 060c 3e3e 8f89 34be
000002a0: 9a8a 3a3e f0f8 f4bd 5632 50be e0a1 48be
000002b0: 3a75 963d 04bd 1ebe e830 a5bd ce0d 23be
000002c0: aa25 3a3d 08c4 29be ece9 3dbe 8b24 2c3d
000002d0: 4979 1dbc 357c 2bbe ae77 b73d f871 03be
000002e0: 897c 63be 1879 52bd 8116 0dbe 1ef3 c93d
000002f0: 9bfc ebbd eb24 113d ae31 be3d 56aa 5cbe
00000300: 3f2a 273e 72a9 19be 9d64 5b3c 46f6 efbd
00000310: 59b4 e4bd 7800 d3bd 7259 86be ec95 b33d
00000320: 4041 5fbc d1ce 963e 17ff 173e cb34 803e
00000330: bc88 bf3d caba 293e 2725 703e 4f69 2c3e
00000340: 099b 82be eb04 f6bd de00 6dbe e0d7 aabb
00000350: ace8 08be b0ef 433e 1de4 e3bc bdf8 413d
00000360: 2b35 6ebe 6dad 0bbe ff5b b9bc caa9 24be
00000370: afc4 d2bd 3700 0c3e febe 80bd de74 37be
00000380: b506 203e 2502 913d cc76 c1bd f9b8 b63d
00000390: 47d2 f23d cf2c 6fbe 2291 c53c ab7f a63d
000003a0: 6d9a 72bc 2e80 963e e382 59be b60e 093e
000003b0: fbb2 dabd 7b1f 43be ccf7 4c3e 60b2 18be
000003c0: 224a ec3b a396 033e c20e 55be 1915 5ebe
000003d0: f2f3 e23d 2286 7a3e ebab bdbc 4da0 303e
000003e0: 5817 c13d 0398 b03d 60c7 2ebe 79c4 683e
000003f0: d9a9 063e 691c 863d 1432 393e a658 5cbe

encoder.node_encoder.gru_cells.1.bias_ih f4 [48]
0.12846062 -0.16651866 0.11637108 0.05250558 -0.129565 0.19337973 0.1382421 0.09070938
-0.09951181 -0.12716635 -0.13198511 0.09859112 0.092912614 -0.09707303 0.2467798 0.14885977
-0.1610651 0.0598067 -0.17498216 -0.01107519 0.14001645 -0.27708364 -0.17608933 -0.04159852
-0.08150183 -0.21381024 -0.21096191 -0.1429997 -0.10752549 0.011476226 -0.03385316 0.05130823
0.022060268 0.032494016 -0.0702269 0.09056205 0.19404101 -0.121792465 -0.15169254 0.101520844
-0.18239279 0.18132164 0.124914505 0.05351852 -0.11542663 -0.017866202 -0.18304452 -0.21445926
00000000: 2e8b 033e de83 2abe f653 ee3d 1710 573d
00000010: b0ac 04be 5605 463e 568f 0d3e d7c5 b93d
00000020: d9cc cbbd e537 02be 1b27 07be 24ea c93d
00000030: f848 be3d 3ace c6bd d8b3 7c3e b26e 183e
00000040: 40ee 24be dff7 743d 862e 33be b774 35bc
00000050: 7960 0f3e e8dd 8dbe c350 34be 3663 2abd
00000060: 6eea a6bd 12f1 5abe 6606 58be 836e 12be
00000070: 5336 dcbd c806 3c3c 9ca9 0abd 9428 523d
00000080: bcb7 b43c 7218 053d 1fd3 8fbd 9978 b93d
00000090: b0b2 463e 546e f9bd 4a55 1bbe 29ea cf3d
000000a0: 2dc5 3abe 61ac 393e 2dd3 ff3d 3c36 5b3d
000000b0: cc64 ecbd 245c 92bc 0670 3bbe 359b 5bbe

encoder.node_encoder.gru_cells.1.bias_hh f4 [48]
0.26458433 -0.18517616 -0.2306017 -0.07211831 0.01356525 0.03747957 -0.092322305 -0.02140435
-0.062482852 0.21909517 0.21952204 0.107417524 0.02402481 0.2400345 -0.18255424 0.10766031
-0.21092756 0.12542762 -0.29000378 0.0033560519 -0.27361283 0.08996103 -0.0060746246 0.1870405
-0.3073372 0.1526855 -0.21332735 -0.2540019 0.023608038 -0.08452807 -0.26300266 -0.21270466
-0.058940258 0.07217114 0.1600023 0.18717396 0.025986448 -0.15093909 -0.24798152 0.216329
-0.14111581 -0.027850771 -0.1944135 -0.15660207 0.0430009 -0.085192725 0.043544706 0.008327215
00000000: 9977 873e d29e 3dbe da22 6cbe c4b2 93bd
00000010: c840 5e3c 2d84 193d 7a13 bdbd 2d58 afbc
00000020: 05ee 7fbd 7c5a 603e 63ca 603e b8fd db3d
00000030: aecf c43c 9bcb 753e 80ef 3abe 027d dc3d
00000040: 65fd 57be 1970 003e 607b 94be 35f1 5b3b
00000050: fb16 8cbe 7d3d b83d a50d c7bb 8b87 3f3e
00000060: 4d5b 9dbe 9659 1c3e 7c72 5abe 890c 82be
00000070: a565 c13c 0e1d adbd 49a8 86be 40cf 59be
00000080: 576b 71bd 76ce 933d a5d7 233e 88aa 3f3e
00000090: 88e1 d43c c78f 1abe deee 7dbe 5985 5d3e
000000a0: aa80 10be 4d27 e4bc 5514 47be 4b5c 20be
000000b0: b621 303d 8679 aebd ef5b 323d df6e 083c

encoder.node_encoder.gru_cells.2.weight_ih f4 [48, 16]
0.023306651 -0.07233263 0.014792676 0.06714227 0.21816862 0.2828593 -0.18435629 -0.21807192
-0.040129364 -0.009019503 0.14106609 0.2893996 0.06188053 -0.25275984 -0.024632843 0.17343813
0.024717906 -0.1933102 0.107973896 -0.19348536 -0.11254982 0.17171529 -0.116357714 0.1479508
-0.15276006 0.25393322 0.071017966 0.18388005 0.17786673 0.112437785 -0.100810006 -0.15351252
-0.18207204 0.20009078 -0.14810449 0.06115755 -0.24664758 0.0032848197 -0.16013421 -0.1375211
-0.05376846 -0.15038061 -0.055861212 -0.20819949 0.08597102 -0.22876397 0.04993409 0.07208125
-0.14724712 0.21647897 0.13280337 -0.12181238 0.016838856 0.03720783 0.21656609 0.2026384
-0.20951484 -0.2430469 -0.17874256 -0.15798016 -0.107736856 -0.099340215 0.12221527 -0.14865685
-0.1410262 -0.20139685 -0.13607624 0.25691432 0.086841054 -0.018560246 -0.024035925 -0.30005702
-0.034919593 0.13255121 0.21101786 0.21105614 0.0121041015 -0.12767051 -0.17756283 0.306521
-0.22377202 0.10777687 -0.015288396 0.29339486 0.15225685 -0.09621528 -0.20394643 0.052487023
-0.14440063 -0.018157743 0.065581076 0.090192534 -0.038431056 -0.09299198 -0.26295093 -0.22408885
0.00914815 -0.22498727 0.04379456 -0.13233086 -0.17404062 0.19000821 0.10801415 0.15890524
0.22322375 -0.14047605 -0.1620823 -0.13447389 0.1770007 0.12747754 0.24096969 -0.21406047
-0.10489257 0.22795184 -0.20876865 -0.15471539 0.12507284 -0.2012322 -0.057910092 0.07379294
0.22156811 -0.033006057 -0.2049836 0.1809367 0.23655497 -0.22086772 -0.0113356 -0.15931515
-0.15281592 0.10421412 0.110322 0.13939087 -0.26175123 -0.080966055 0.08611885 0.0104861725
-0.08565903 -0.1577665 0.21955296 -0.22128198 -0.15846413 0.19526698 -0.15924296 0.13501972
-0.17656706 -0.15019833 -0.032721233 0.19112395 0.19613598 0.032842536 -0.008997867 -0.16676374
-0.12503642 0.010971814 0.039945927 0.044755343 0.22742821 -0.0003796426 0.058522794 -0.17569354
0.11333293 -0.1949103 0.041539013 0.087725885 0.04438355 0.16593724 0.08610569 -0.059843414
-0.16478826 -0.28054702 0.13882038 0.0987304 -0.18581066 0.068649426 -0.106539935 0.23560008
-0.16557734 0.12668991 0.237927 0.12471516 0.14855717 0.08976027 0.056123957 -0.19924925
-0.060269155 0.022909805 0.053675327 -0.04898259 0.20552608 0.17255549 0.17631683 0.079930566
-0.08340338 0.054832313 -0.017776763 0.21010159 -0.03352315 -0.014404779 -0.25279865 0.2381865
-0.047771636 0.2388326 -0.20923217 -0.16101028 0.0114319185 -0.17767757 0.08827071 -0.04358694
-0.040586527 0.2004661 0.079589196 -0.17275603 -0.18098189 0.13347659 -0.17315301 0.091063365
-0.110003896 0.042884536 -0.12078932 -0.03321893 -0.16503826 -0.11093986 -0.15970948 0.057026286
0.15455501 -0.080550455 0.08169447 0.12935197 0.23218057 0.05596611 -0.17873994 -0.031239687
0.115078345 -0.18252787 -0.24303322 0.14802027 0.33123118 -0.29459307 -0.042969193 -0.07910705
-0.2357324 -0.07508271 0.118334785 0.22341952 -0.19880149 -0.020505572 -0.21212794 0.16012518
-0.18540879 -0.16685721 -0.12925747 -0.10720896 0.15747988 -0.0440281 0.012737518 0.19425035
00000000: 97ed be3c 2123 94bd fb5c 723c e381 893d
00000010: 9867 5f3e efd2 903e e5c7 3cbe 3f4e 5fbe
00000020: b05e 24bd 8ac6 13bc a173 103e 2f2c 943e
00000030: 7076 7d3d bd69 81be d1ca c9bc c499 313e
00000040: 357d ca3c 1cf3 45be 6b21 dd3d 0721 46be
00000050: 8580 e6bd 22d6 2f3e f44c eebd 6a80 173e
00000060: 226d 1cbe 8903 823e de71 913d 0d4b 3c3e
00000070: b222 363e c845 e63d 7a75 cebd 6332 1dbe
00000080: 1871 3abe 99e4 4c3e b4a8 17be 5780 7a3d
00000090: 2f91 7cbe 2146 573b 39fa 23be 55d2 0cbe
000000a0: 513c 5cbd 60fd 19be bace 64bd 3f32 55be
000000b0: 9311 b03d 1a41 6abe b087 4c3d 569f 933d
000000c0: f3c7 16be aaac 5d3e 9bfd 073e c578 f9bd
000000d0: a4f1 893c 3d67 183d 80c3 5d3e 7180 4f3e
000000e0: 0f8b 56be 49e1 78be 4a08 37be 8dc5 21be
000000f0: 24a5 dcbd e272 cbbd 004c fa3d 8039 18be
00000100: 2c69 10be fa3a 4ebe 9257 0bbe 468a 833e
00000110: b9d9 b13d a80b 98bc fde6 c4bc 13a1 99be
00000120: d907 0fbd 81bb 073e 1115 583e 1a1f 583e
00000130: 4850 463c 0fbc 02be 08d3 35be 52f0 9c3e
00000140: 7e24 65be 1fba dc3d 2e7c 7abc da37 963e
00000150: 38e9 1b3e 840c c5bd 55d7 50be a2fc 563d
00000160: c2dd 13be 8cbf 94bc 5f4f 863d ddb6 b83d
00000170: e269 1dbd 9472 bebd 81a1 86be 8c77 65be
00000180: 1fe2 153c 1063 66be ed61 333d be81 07be
00000190: b437 32be 8391 423e 8636 dd3d 0eb8 223e
000001a0: c494 643e f4d8 0fbe e7f8 25be 86b3 09be
000001b0: ac3f 353e 7989 023e c2c0 763e ab32 5bbe
000001c0: ead1 d6bd 356c 693e 73c7 55be b66d 1ebe
000001d0: 1813 003e d00f 4ebe 2233 6dbd c120 973d
000001e0: c0e2 623e 5c31 07bd 39e7 51be 7847 393e
000001f0: 773b 723e 262b 62be f4b8 39bc 8323 23be
00000200: c77b 1cbe 366e d53d 80f0 e13d 7bbc 0e3e
00000210: 4204 86be 88d1 a5bd 145f b03d 32ce 2b3c
00000220: 006e afbd 8b8d 21be 7ed2 603e be97 62be
00000230: 6c44 22be 11f4 473e 9610 23be 9c42 0a3e
00000240: ffcd 34be 97cd 19be b306 06bd ffb5 433e
00000250: dfd7 483e e585 063d ca6b 13bc 1dc4 2abe
00000260: 8c09 00be 20c3 333c 579e 233d 6151 373d
00000270: f1e2 683e c40a c7b9 99b5 6f3d 02e9 33be
00000280: 181b e83d 9196 47be d024 2a3d a1a9 b33d
00000290: 86cb 353d 74eb 293e 2e58 b03d 5e1e 75bd
000002a0: 41be 28be dca3 8fbe ee26 0e3e 2a33 ca3d
000002b0: 2645 3ebe 1298 8c3d 9c31 dabd 2641 713e
000002c0: 1b8d 29be 00bb 013e 23a3 733e a96a ff3d
000002d0: 5f1f 183e 3cd4 b73d 3ce2 653d ff07 4cbe
000002e0: cadc 76bd 58ad bb3c a9da 5b3d f8a1 48bd
000002f0: 6e75 523e 63b2 303e 668c 343e a3b2 a33d
00000300: 64cf aabd d997 603d 93a0 91bc df24 573e
00000310: 924f 09bd 0602 6cbc d36e 81be 29e7 733e
00000320: 31ac 43bd 8890 743e f540 56be e1df 24be
00000330: f14c 3b3c 1cf1 35be 46c7 b43d 3888 32bd
00000340: 0f3e 26bd fc46 4d3e a9ff a23d f5e6 30be
00000350: 5153 39be 16ae 083e 064f 31be 6e7f ba3d
00000360: b949 e1bd b2a7 2f3d 6460 f7bd 9310 08bd
00000370: caff 28be 7034 e3bd e28a 23be 6594 693d
00000380: ab43 1e3e a3f7 a4bd 6e4f a73d d874 043e
00000390: bec0 6d3e b83c 653d 9a07 37be 5fea ffbc
000003a0: 32ae eb3d 96e8 3abe b3dd 78be a092 173e
000003b0: 2297 a93e e7d4 96be 7700 30bd e102 a2bd
000003c0: d663 71be f7c4 99bd 8259 f23d 16c8 643e
000003d0: 9e92 4bbe 4dfb a7bc 1138 59be dbf7 233e
000003e0: cddb 3dbe 9edc 2abe 125c 04be 5f90 dbbd
000003f0: 6842 213e cf56 34bd 06b1 503c 90e9 463e

encoder.node_encoder.gru_cells.2.weight_hh f4 [48, 16]
0.07471828 0.006512323 -0.24601856 0.22189187 -0.23577338 0.12704095 -0.025335332 0.018968891
0.12795164 -0.032352105 -0.0721957 0.20505783 -0.19666643 0.007406105 -0.109850675 -0.09381434
0.10095046 -0.0031133054 -0.1601403 0.19960147 -0.057016395 0.25958878 -0.09095759 0.2239371
0.070003435 -0.033112958 0.09382827 -0.0066206604 -0.12861952 0.19634478 0.1751629 -0.0090798745
0.22561033 0.0059778714 -0.13428526 -0.11159832 0.20208775 -0.11204901 0.18875256 -0.21991943
-0.031842444 -0.16130757 0.055910096 0.21993889 0.072181985 -0.058899835 -0.2378576 -0.08888127
-0.17541398 0.20990285 -0.17198192 0.13051726 0.17384404 0.034894437 -0.19196711 0.010067036
-0.11272839 0.18078361 -0.043700032 0.013778352 0.21042491 0.043630365 0.09308562 -0.07164575
0.1561219 -0.043249875 0.021592272 0.109397545 -0.18044165 0.118024826 0.1759359 -0.1934593
-0.15761706 0.20524162 -0.06964762 0.052180327 -0.0802192 -0.10316305 0.17676394 -0.09495577
-0.13839427 0.10791603 -0.15799896 -0.013821778 0.07593576 -0.053742774 0.17693152 -0.18140258
-0.1234674 -0.07675169 0.19586496 0.13577245 -0.18669565 0.14422417 -0.044942133 0.2790961
0.15298314 -0.13445832 0.2609499 -0.084795624 -0.025786653 0.1314358 0.2135895 0.04096724
-0.20137718 -0.095525555 0.24654901 -0.11368917 -0.12370349 -0.19459961 -0.11023534 -0.16290513
0.05607511 0.061781596 0.24503307 0.21781905 -0.0024919899 0.14224842 0.18545957 -0.16044788
0.07334671 -0.14361873 0.13029401 -0.061510183 0.017229926 -0.017479166 0.09500442 0.02544356
-0.20363685 0.09029886 0.1310288 -0.122413576 -0.1766236 -0.20986933 -0.123727225 -0.037448782
0.02044331 -0.015869282 -0.057086293 0.15727204 0.011442369 -0.12902315 -0.04638482 -0.14433245
-0.078874014 -0.26464272 0.06476086 -0.21457773 0.11332776 0.21536437 -0.20636643 -0.13882716
-0.16861615 0.07811738 0.038060028 -0.13126142 0.10934548 0.09462834 -0.2123551 -0.066525474
-0.10920304 -0.047252744 0.09743173 -0.0056310166 -0.21413249 0.12418004 -0.21321689 -0.06835888
0.08428389 0.23019019 0.24146979 -0.047444016 0.08687541 -0.24165785 -0.061569195 -0.07638519
0.081472114 -0.123388745 0.08107378 0.062608205 0.25097966 0.006409607 0.18008737 -0.2876634
-0.019776398 0.058076374 0.100320116 0.07672485 -0.118881755 0.19967493 -0.19137448 -0.14238301
0.002269286 -0.20428379 -0.20972118 -0.28880087 0.23548608 0.09404628 -0.12904282 -0.063086964
-0.15763494 -0.26930025 -0.13439573 -0.28363106 0.19685581 -0.06634609 -0.03951488 -0.20851041
0.013310594 -0.083824836 -0.14871722 0.24117371 0.17957984 -0.20413394 0.20120318 0.01045759
-0.055413768 0.15046953 -0.095868625 0.25686416 0.09738917 -0.19239615 -0.19168808 -0.27444044
0.15108688 -0.18324913 -0.2698913 -0.18943428 -0.30629888 -0.22455934 0.18657039 0.11073132
0.27457514 -0.10053797 -0.07798456 -0.10956733 -0.0013697005 -0.25336394 0.039357245 -0.18491551
-0.0058208983 0.24612059 0.059325796 0.19078946 -0.1570067 -0.04281524 -0.13657942 -0.020478835
-0.12452766 -0.15997991 -0.23594826 -0.08829428 0.059189327 -0.01985707 -0.2368638 0.21064623
00000000: e605 993d 5365 d53b 4aec 7bbe 9f37 633e
00000010: 946e 71be 0617 023e 0b8c cfbc a664 9b3c
00000020: c105 033e a483 04bd 57db 93bd aefa 513e
00000030: ed62 49be e9ae f23b 64f9 e0bd bc21 c0bd
00000040: 1dbf ce3d 9908 4cbb d2fb 23be 5464 4c3e
00000050: 068a 69bd d2e8 843e f947 babd c44f 653e
00000060: f65d 8f3d 74a1 07bd 0929 c03d 20f2 d8bb
00000070: d6b4 03be 9b0e 493e e75d 333e c1c3 14bc
00000080: 6506 673e 05e2 c33b 1382 09be a98d e4bd
00000090: 17f0 4e3e f479 e5bd 5a48 413e 8f32 61be
000000a0: 396d 02bd d02d 25be fc01 653d a937 613e
000000b0: 26d4 933d f440 71bd f190 73be 6207 b6bd
000000c0: b99f 33be c6f0 563e 071c 30be 51a6 053e
000000d0: 2c04 323e 78ed 0e3d 0793 44be 36f0 243c
000000e0: 24de e6bd 571f 393e cefe 32bd 99be 613c
000000f0: a179 573e c1b5 323d aca3 be3d 02bb 92bd
00000100: 6bde 1f3e c826 31bd 47e2 b03c d20b e03d
00000110: b2c5 38be 00b7 f13d 8a28 343e 321a 46be
00000120: 5e66 21be dc2a 523e 69a3 8ebd 0abb 553d
00000130: f749 a4bd 2647 d3bd 9b01 353e 2c78 c2bd
00000140: 3ab7 0dbe 1403 dd3d 7bca 21be bd74 62bc
00000150: 3584 9b3d 6221 5cbd 892d 353e 99c1 39be
00000160: 7adc fcbd fd2f 9dbd d390 483e ef07 0b3e
00000170: 252d 3fbe 80af 133e 3e15 38bd afe5 8e3e
00000180: 9da7 1c3e 71af 09be 3a9b 853e 54a9 adbd
00000190: 883e d3bc 1b97 063e 35b7 5a3e 44cd 273d
000001a0: d235 4ebe e7a2 c3bd 5877 7c3e ded5 e8bd
000001b0: 4158 fdbd 1f45 47be 11c3 e1bd 9ad0 26be
000001c0: 04af 653d b30e 7d3d f3e9 7a3e f50b 5f3e
000001d0: a750 23bb 92a9 113e 1de9 3d3e 734c 24be
000001e0: cd36 963d ca10 13be cb6b 053e 1af2 7bbd
000001f0: c625 8d3c 7830 8fbc ad91 c23d 036f d03c
00000200: 2e86 50be 9cee b83d 6a2c 063e f8b3 fabd
00000210: d1dc 34be fce7 56be b364 fdbd e563 19bd
00000220: ba78 a73c 4c00 82bc 51d3 69bd ec0b 213e
00000230: c678 3b3c a51e 04be 02fe 3dbd e3cb 13be
00000240: b388 a1bd 407f 87be 57a1 843d 44ba 5bbe
00000250: 6218 e83d 7a88 5c3e b951 53be b528 0ebe
00000260: b6a9 2cbe 01fc 9f3d d5e4 1b3d 6569 06be
00000270: 86f0 df3d 81cc c13d 9e73 59be 823e 88bd
00000280: d8a5 dfbd 188c 41bd 498a c73d 6484 b8bb
00000290: 8c45 5bbe 1b52 fe3d 8755 5abe beff 8bbd
000002a0: 089d ac3d fab6 6b3e db43 773e a854 42bd
000002b0: bceb b13d 2875 77be fb2f 7cbd d76f 9cbd
000002c0: dada a63d 3db3 fcbd 030a a63d bb38 803d
000002d0: 6880 803e ae07 d23b d368 383e 9e48 93be
000002e0: 1d02 a2bc 7ee1 6d3d a274 cd3d eb21 9d3d
000002f0: 4778 f3bd 9677 4c3e acf7 43be dacc 11be
00000300: 4db8 143b c52f 51be 26c1 56be b5dd 93be
00000310: 4323 713e 569b c03d cd23 04be bd33 81bd
00000320: 0e6b 21be b9e1 89be 099f 09be 1738 91be
00000330: 9294 493e 75e0 87bd 5bda 21bd c183 55be
00000340: ad14 5a3c 5bac abbd 5449 18be 3ef6 763e
00000350: c7e3 373e 7d08 51be 3508 4e3e 5056 2b3c
00000360: 8cf9 62bd af14 1a3e c556 c4bd b383 833e
00000370: f973 c73d 7f03 45be e149 44be 7583 8cbe
00000380: 85b6 1a3e a9a5 3bbe 312f 8abe 0ffb 41be
00000390: 35d3 9cbe e2f2 65be 4f0c 3f3e 1ac7 e23d
000003a0: 1d95 8c3e dae6 cdbd 5eb6 9fbd d664 e0bd
000003b0: 8687 b3ba ebb8 81be 1035 213d 7e5a 3dbe
000003c0: 3cbd bebb 0907 7c3e 9bff 723d 505e 433e
000003d0: 5dc6 20be 085f 2fbd 7adb 0bbe 3bc3 a7bc
000003e0: 5c08 ffbd c6d1 23be 6c9c 71be a2d3 b4bd
000003f0: 8270 723d 4bab a2bc 6d8c 72be a5b3 573e

encoder.node_encoder.gru_cells.2.bias_ih f4 [48]
0.2244733 -0.22688553 0.25475627 -0.060631044 -0.04679814 0.19784766 -0.17819163 0.10684084
-0.0014754307 0.16724636 -0.014969948 0.114532895 0.24432784 3.1654672e-05 -0.29642794 0.26517949
-0.19328539 -0.040653512 0.0024487255 -0.06890749 0.09374928 0.04081761 -0.026540283 0.060314875
0.003746149 0.14097264 0.14632991 -0.115954205 -0.07381919 -0.002052522 0.126846 0.044638984
0.09459865 -0.09243438 0.031906396 -0.17904046 0.22620934 0.23528606 -0.1271658 -0.19517075
0.15079717 -0.26035887 0.157236 -0.22404382 -0.1648479 -0.04562523 0.24509288 -0.024951672
00000000: 54dc 653e ae54 68be 6a6f 823e 4258 78bd
00000010: 68af 3fbd 9498 4a3e de77 36be 5fcf da3d
00000020: 3d63 c1ba a142 2b3e 8344 75bc 3990 ea3d
00000030: 1431 7a3e f2c4 0438 67c5 97be 9bc5 873e
00000040: 9bec 45be 4c84 26bd cc7a 203b 5f1f 8dbd
00000050: 9fff bf3d 5e30 273d 026b d9bc bb0c 773d
00000060: f381 753b 225b 103e 82d7 153e 6679 edbd
00000070: 842e 97bd 9b83 06bb ebe3 013e 5ed7 363d
00000080: f0bc c13d 3c4e bdbd 48b0 023d 6256 37be
00000090: 6ca3 673e d4ee 703e c037 02be d7da 47be
000000a0: 936a 1a3e c24d 85be 7902 213e be6b 65be
000000b0: e3cd 28be 85e1 3abd a1f9 7a3e 7367 ccbc

encoder.node_encoder.gru_cells.2.bias_hh f4 [48]
0.2001928 0.061114077 0.38160506 0.1841772 0.124973804 0.2433881 -0.073028296 -0.071453534
0.12901227 0.2257768 -0.100407064 -0.20615621 -0.19111046 -0.026205987 -0.010274815 0.00043081274
-0.12231519 -0.21466099 -0.08801042 -0.2360131 0.14432158 -0.15991211 0.07043891 0.0771236
-0.112472765 0.09369781 -0.02860481 0.07106483 -0.3358972 -0.10594785 0.021501016 -0.005882089
-0.035895534 0.14221416 0.22300579 0.16208968 -0.021309003 0.078429595 -0.1720868 -0.16613993
-0.10027882 -0.008643368 -0.1493462 -0.1852746 0.082187936 0.15570596 -0.1480212 0.18243898
00000000: 57ff 4c3e c152 7a3d bd61 c33e f398 3c3e
00000010: 44f2 ff3d bb3a 793e dc8f 95bd 3b56 92bd
00000020: cb1b 043e 0932 673e 38a2 cdbd 9d1a 53be
00000030: 76b2 43be f0ad d6bc b357 28bc b5de e139
00000040: 6380 fabd 17d0 5bbe cf3e b4bd 6bad 71be
00000050: 09c9 133e 00c0 23be 4642 903d faf2 9d3d
00000060: 1f58 e6bd a3e4 bf3d a254 eabc 708a 913d
00000070: b8fa abbe 30fb d8bd e622 b03c 8abe c0bb
00000080: 3207 13bd 97a0 113e a15b 643e d6fa 253e
00000090: 3890 aebc b29f a03d 8637 30be 9620 2abe
000000a0: fb5e cdbd ea9c 0dbc 36ee 18be a0b8 3dbe
000000b0: 2652 a83d 6271 1f3e df92 17be 49d1 3a3e
