artifacts/tb/dagformereventpporb/dagformer.pt (torch, 155771 bytes, 121 tensors)

encoder.node_encoder.module_0.weight f4 [16, 5]
0	0x3eb93e3c	0.36180294
1	0x3ec13d33	0.37742004
2	0xbe210c79	-0.15727414
3	0x3ed2bfd7	0.41161987
4	0xbddc0948	-0.10743958
5	0x3ddcea0b	0.10786828
6	0xbe5b5a6e	-0.21421215
7	0x3e5fc1b1	0.21851231
8	0x3ec56547	0.3855383
9	0xbeb03c86	-0.34421176
10	0x3eb5730b	0.35439333
11	0x3dae8027	0.08520537
12	0x3eab624d	0.33473435
13	0x3d80a432	0.06281318
14	0x3e5d209d	0.21594472
15	0xbd88fb2a	-0.06688531
16	0x3eb178a5	0.34662357
17	0x3d85aaf2	0.06526746
18	0xbe564edd	-0.20928521
19	0x3dcc1faa	0.09966977
20	0xbe2da373	-0.16956882
21	0xbd4419d0	-0.04787618
22	0xbe7bdc0f	-0.24595664
23	0x3e910baf	0.28329226
24	0xbeae2b66	-0.34017485
25	0xbe339ede	-0.17541072
26	0xbdf2dbae	-0.11858307
27	0xbea71e52	-0.3264032
28	0x3d894a47	0.067036204
29	0xbed115cc	-0.40836942
30	0x3ecf26e7	0.40459368
31	0xbebc425b	-0.36769375
32	0x3ed4bc3a	0.41549855
33	0x3da50d1c	0.08059141
34	0xbe00bf3d	-0.12572952
35	0x3e73cc3f	0.23808382
36	0x3d89fa7a	0.06737228
37	0x3ec4a38b	0.38406023
38	0x3d3a1199	0.04542694
39	0xbdfd553a	-0.12369771
40	0x3dda3d15	0.10656182
41	0xbddc12c5	-0.107457675
42	0x3e677a6d	0.22605295
43	0x3ecbaeb0	0.39781713
44	0x3e890692	0.26762825
45	0xbe42f2f7	-0.19037996
46	0x3e7b15a0	0.24519968
47	0x3dafc249	0.08581979
48	0x3e6575fe	0.22408292
49	0xbe818495	-0.25296465
50	0xbef07893	-0.4696699
51	0xbe2db140	-0.16962147
52	0xbe920c6a	-0.28525096
53	0x3ec07677	0.37590382
54	0x3e18b3ca	0.14912334
55	0x3e3948a3	0.18094115
56	0x3e12a780	0.14321709
57	0xbd893148	-0.06698853
58	0x3eb65653	0.35612735
59	0xbe986a93	-0.2976881
60	0x3cced38d	0.02524736
61	0xbe90f36b	-0.28310713
62	0x3e3879f0	0.18015265
63	0xbe2665f4	-0.1624983
64	0x3ddd9e0f	0.10821163
65	0xbd9b3c5c	-0.07579872
66	0x3ec22b84	0.37923825
67	0xbea58825	-0.32330433
68	0xbe7a262f	-0.24428628
69	0xbe7cd837	-0.24691854
70	0x3ecf7d1a	0.40525132
71	0x3e207c40	0.15672398
72	0x3ec237f7	0.37933323
73	0xbec48c26	-0.38388175
74	0xbeeadad3	-0.45870075
75	0xbeb974da	-0.36221963
76	0xbea0c728	-0.31401944
77	0x3e677ec3	0.2260695
78	0x3e125105	0.14288719
79	0x3ebe6568	0.37186742

encoder.node_encoder.module_0.bias f4 [16]
0	0xbe6f02ae	-0.23340866
1	0xbea137a4	-0.31487763
2	0x3e6ecb67	0.2331978
3	0xbe386116	-0.18005785
4	0x3e836ae4	0.2566749
5	0xbdd3182e	-0.10307346
6	0x3e8d2bff	0.2757263
7	0xbeb1ae6f	-0.34703395
8	0xbe5f65bf	-0.21816157
9	0x3e017d31	0.12645413
10	0x3db80256	0.089848205
11	0xbdfecd4b	-0.124415
12	0x3e87d98a	0.26533157
13	0x3e9bd44d	0.3043541
14	0xbea9e759	-0.33184317
15	0xbe800fe4	-0.25012124

encoder.node_encoder.module_1.frequency f4 [8]
0	0x3f800000	1.0
1	0x3e895aa1	0.26826957
2	0x3d936442	0.07196857
3	0x3c9e29ab	0.019306978
4	0x3ba9b895	0.0051794746
5	0x3ab61fbb	0.0013894954
6	0x39c36eea	0.00037275936
7	0x38d1b717	1e-04

encoder.node_encoder.module_3.weight f4 [16]
0	0x3f80fe9f	1.0077704
1	0x3f7dab07	0.9908909
2	0x3f7e1a08	0.9925847
3	0x3f81e766	1.0148742
4	0x3f836ee0	1.0268211
5	0x3f828fcd	1.0200135
6	0x3f8209a0	1.0159187
7	0x3f7de8fc	0.9918363
8	0x3f7f3c5f	0.99701494
9	0x3f820e2f	1.0160578
10	0x3f82a310	1.0206013
11	0x3f8111e2	1.0083582
12	0x3f82a75e	1.0207326
13	0x3f812430	1.0089169
14	0x3f7a83ba	0.9785725
15	0x3f8342eb	1.0254797

encoder.node_encoder.module_3.bias f4 [16]
0	0xbc5f9f2e	-0.013648791
1	0x3c53733a	0.01290589
2	0x3c25c7cd	0.010118437
3	0xbce72381	-0.028215172
4	0x3c9825d5	0.018572727
5	0x3bc1d5f7	0.005915399
6	0xbbb27bf5	-0.0054469057
7	0xbcfb757f	-0.030695675
8	0xbc96aef6	-0.018393975
9	0x3bdcad23	0.0067345067
10	0x3ca98685	0.020694027
11	0x3c684fb1	0.014179156
12	0xbcda2f8c	-0.026634
13	0xbcea7534	-0.02862034
14	0xbc5a7175	-0.013332714
15	0xbced2de8	-0.028952554

encoder.node_encoder.module_3.running_mean f4 [16]
0	0xbc91b738	-0.01778756
1	0x3e3e38e7	0.18576394
2	0x3f485fd6	0.78271234
3	0xbe9fbcca	-0.31198722
4	0x3c350889	0.011049398
5	0xbf15817e	-0.58400714
6	0x3f0f0d9d	0.5588015
7	0xbe9878a5	-0.29779544
8	0x3f3c6992	0.7359859
9	0x3f330186	0.699242
10	0x3fb1cf1e	1.3891332
11	0x3f427763	0.7596342
12	0x3fb8fbee	1.4451883
13	0x3f16f8e7	0.58973545
14	0x3d361c96	0.044460855
15	0x3fb28847	1.3947839

encoder.node_encoder.module_3.running_var f4 [16]
0	0x3f138e9f	0.576395
1	0x3f77e30e	0.9683083
2	0x3eac13c6	0.33608836
3	0x3e02c41c	0.12770122
4	0x3f259a95	0.64689
5	0x3f8e5b0c	1.1121535
6	0x3e2e7317	0.17036091
7	0x3e08428b	0.13306634
8	0x3fcb9619	1.5905181
9	0x3ee679e3	0.45014867
10	0x3ed23658	0.41057086
11	0x3efca3e7	0.49343798
12	0x3e038b0b	0.1284601
13	0x3f3bfac3	0.73429507
14	0x4001c430	2.0275993
15	0x3f9fb2f3	1.2476486

encoder.node_encoder.module_4.lin_key.weight f4 [16, 16]
0	0x3cc426b0	0.023944229
1	0xbdcd943d	-0.1003804
2	0xbc622bf7	-0.013804427
3	0xbd86904f	-0.065704934
4	0x3d3fe5f7	0.04685017
5	0x3e2d8ff6	0.16949448
6	0xbd9b0985	-0.07570175
7	0x3e53afef	0.20672582
8	0x3e5f4145	0.21802242
9	0xbe40a2fb	-0.18812172
10	0xbe47e6ac	-0.19521588
11	0xbe467ecc	-0.19384307
12	0xbe14bcdb	-0.14525168
13	0xbdbe29b8	-0.09285301
14	0xbc63bf59	-0.013900601
15	0xbd87f3b6	-0.06638281
16	0xbdf73d16	-0.12072198
17	0xbd9e4368	-0.077277005
18	0xbdb9e035	-0.09075967
19	0x3e808870	0.25104094
20	0xbdc3b2e7	-0.09555607
21	0xbe378471	-0.17921616
22	0x3dd079e4	0.10179499
23	0xbc79a5de	-0.0152373
24	0x3e303b24	0.1721006
25	0x3e235aa2	0.15952542
26	0x3e661f4d	0.22472878
27	0xbe3fc2fe	-0.18726727
28	0x3e29d292	0.16584232
29	0x3e59d89f	0.2127404
30	0xbdf761c4	-0.12079194
31	0x3e69b18b	0.22821634
32	0x3e332552	0.17494705
33	0xbc69b6df	-0.014264791
34	0x3e10e45a	0.14149609
35	0xbd9138ff	-0.07090949
36	0xbe73742d	-0.23774786
37	0x3d3003d3	0.042972397
38	0x3d5fbd6a	0.054624
39	0xbe3c11d8	-0.18366182
40	0x3e11b6eb	0.14229934
41	0xbe6f893f	-0.23392199
42	0x3e71fb36	0.23630986
43	0x3e644a9d	0.22294088
44	0x3db1d0a8	0.08682376
45	0xbe36110f	-0.17779945
46	0x3dceeaf6	0.10103409
47	0x3d817040	0.06320238
48	0x3d436fe9	0.047714148
49	0x3d9c7483	0.0763941
50	0x3e363291	0.17792727
51	0xbdd83e08	-0.105587065
52	0xbd5ba96b	-0.053628366
53	0x3d988ae7	0.074483685
54	0x3cfdbfa5	0.030975172
55	0x3e540a59	0.20707072
56	0xbe02cb9f	-0.12772988
57	0xba7204ec	-0.0009232301
58	0x3d042b48	0.03226784
59	0xbd85bb34	-0.06529847
60	0x3e2e73e5	0.17036398
61	0x3d1d746a	0.0384411
62	0xbe6215d5	-0.22078641
63	0xbd1342d5	-0.035952408
64	0xbde5a99e	-0.112139925
65	0x3cbe19bb	0.023205629
66	0xbd3f89bc	-0.046762213
67	0xbe8334d2	-0.25626236
68	0xbd0de966	-0.034646414
69	0xbc367d81	-0.011138321
70	0xbd825977	-0.0636472
71	0x3e77797c	0.24167436
72	0xbd371c29	-0.04470459
73	0x3e33c6f9	0.17556371
74	0x3d3b94bf	0.045796152
75	0xbe4dd58e	-0.20100996
76	0x3d50d254	0.050981835
77	0x3e632aab	0.22184245
78	0xbe188f96	-0.14898524
79	0xbe33aa19	-0.17545356
80	0x3e68a72a	0.22720018
81	0x3e51d6a3	0.20492034
82	0xbe07c2df	-0.13257931
83	0x3e1e3eed	0.15453692
84	0xbd0edee5	-0.034880538
85	0xbe7fa64d	-0.24965782
86	0x3c8d0420	0.017213881
87	0x3d9fbc3b	0.07799574
88	0xbda3ce0a	-0.07998283
89	0x3d9ad9a6	0.075610444
90	0xbe58e5a9	-0.21181358
91	0x3e2e7be8	0.17039454
92	0x3e5bd5e5	0.21468313
93	0x3e0a3b75	0.13499244
94	0x3d2068d5	0.039162476
95	0x3daee059	0.08538885
96	0xbe372f1c	-0.17889065
97	0xbd0ec0df	-0.034851905
98	0xbd4efd68	-0.050534636
99	0xbe293e29	-0.16527618
100	0xbe208c75	-0.1567858
101	0x3e484e04	0.1956101
102	0x3e49168e	0.1963751
103	0xbe4cdf07	-0.20006953
104	0x3d4cc848	0.04999569
105	0x3e0272a8	0.1273905
106	0x3e59dc6d	0.21275492
107	0x3e30a041	0.17248632
108	0x3e4f8f6e	0.20269558
109	0xbd641222	-0.055681355
110	0x3e4e66b8	0.20156372
111	0x3e34bfef	0.17651342
112	0xbe8573d9	-0.26064947
113	0xbe3b3b10	-0.1828425
114	0x3cfc5107	0.030800356
115	0x3df1dad0	0.11809313
116	0xbdd4f3d4	-0.10398069
117	0x3d442673	0.04788823
118	0x3ca42cb4	0.020040847
119	0x3dab4322	0.08362414
120	0xbe11cb84	-0.14237791
121	0x3e1d7dfc	0.1538009
122	0x3e15256a	0.14565054
123	0xbe1d2e53	-0.15349703
124	0xbc8f54b5	-0.017496446
125	0x3cac8e12	0.021063838
126	0x3dcdcf68	0.10049325
127	0x3e59a82f	0.21255563
128	0x3dee4a74	0.116352946
129	0xbda8f511	-0.08249868
130	0x3e7db489	0.247759
131	0xbddb5ae2	-0.10710694
132	0xbdc16e0c	-0.09444818
133	0xbc74cb8c	-0.0149411075
134	0xbe58e0d0	-0.21179509
135	0xbb027563	-0.0019906394
136	0xbe22317c	-0.1583919
137	0x3d397114	0.045273855
138	0x3d812cc1	0.06307364
139	0x3cac6f21	0.021049084
140	0xbe5112f0	-0.2041738
141	0xbe8cc6da	-0.27495462
142	0x3d9f6bbc	0.077842206
143	0x3e802d6a	0.25034648
144	0xbe84ed41	-0.2596226
145	0x3dfeb41b	0.12436696
146	0xbe5aa7bd	-0.2135305
147	0x3c08d9a9	0.0083526755
148	0x3e87e415	0.265412
149	0x3e69eb6c	0.22843713
150	0xbe1939c9	-0.1496345
151	0x3e43ddbd	0.19127555
152	0x3df44603	0.11927416
153	0xba55e1f3	-0.0008158974
154	0x3e500e64	0.2031799
155	0xbd931ae2	-0.07182862
156	0xbda6009e	-0.081055865
157	0xbdaff691	-0.08591951
158	0x3d9c7169	0.07638819
159	0x3cd22fc8	0.02565755
160	0x3cc8ff58	0.02453582
161	0xbe255fa9	-0.16149773
162	0xbdaf1c72	-0.085503474
163	0x3ddbdd1f	0.10735535
164	0xbe793915	-0.24338181
165	0xbd83ef88	-0.06442171
166	0xbcfffece	-0.03124943
167	0xbe01a0b9	-0.12658967
168	0x3de00a73	0.10939493
169	0xbbb8c2d9	-0.005638462
170	0x3e515a4c	0.20444602
171	0xbd3b372e	-0.04570692
172	0xbe093e25	-0.13402613
173	0x3e18f113	0.14935713
174	0x3c060e7d	0.008182165
175	0xbd3915e3	-0.04518689
176	0xbe218018	-0.1577152
177	0x3d562682	0.052282818
178	0xbe6ed1c2	-0.23322204
179	0x3da30cdd	0.07961438
180	0x3df11e6e	0.11773382
181	0xbe65308c	-0.223818
182	0xbe2fbcda	-0.17161885
183	0xbe3dd4e1	-0.18538238
184	0x3e5e093a	0.21683207
185	0x3e4e2420	0.20130968
186	0x3c89c729	0.0168186
187	0x3e693ca1	0.22777034
188	0xbd9816de	-0.074262366
189	0xbe7be19b	-0.2459778
190	0x3dac96ac	0.08427176
191	0x3dbd30b0	0.09237802
192	0x3e6a80d4	0.22900707
193	0xbc2c04f1	-0.010499225
194	0x3e5fa72b	0.21841113
195	0x3e3fd125	0.18732126
196	0x3e2276d5	0.15865643
197	0xbe8965fb	-0.26835617
198	0x3e3aa265	0.18226011
199	0xbe6fb547	-0.23408996
200	0x3e5e4139	0.21704568
201	0xbd27cb0b	-0.04096512
202	0xbe56b2f6	-0.20966706
203	0x3d3abd87	0.045590904
204	0xbcd09055	-0.025459448
205	0xbe77330a	-0.24140564
206	0xbddc789d	-0.10765193
207	0x3d351751	0.04421169
208	0x3e53dc02	0.20689395
209	0xbd846238	-0.06464046
210	0x3e021f14	0.12707168
211	0x3aad268f	0.0013210344
212	0x3ced72a1	0.028985323
213	0x3d87abd1	0.06624568
214	0xbe12264c	-0.14272422
215	0xbe4168de	-0.1888766
216	0xbd907731	-0.07053984
217	0xbe56779f	-0.2094407
218	0xbe02218b	-0.12708108
219	0x3d095e64	0.033537284
220	0xbe405725	-0.18783243
221	0xbdb5e219	-0.08881015
222	0xbcf3bac7	-0.029752148
223	0xbd39933d	-0.045306433
224	0xbe09610b	-0.13415925
225	0x3c5a22a9	0.013313928
226	0xbd8ea36f	-0.06964766
227	0x3d84ff89	0.06494052
228	0x3d025409	0.031818423
229	0xbdc71032	-0.09719886
230	0xbd851eb4	-0.06499997
231	0x3cbbf406	0.022943508
232	0xbe25bf9a	-0.16186371
233	0x3d267b80	0.040645123
234	0xbd67cb26	-0.05659022
235	0x3de8a12d	0.11358867
236	0x3d413a11	0.047174517
237	0x3e63823c	0.22217649
238	0x3cd4cde0	0.025977075
239	0xbe5deb88	-0.2167188
240	0x3df0730b	0.11740693
241	0xbe22d0f3	-0.1590002
242	0xbcba5a85	-0.022748241
243	0xbdac9fcf	-0.084289186
244	0xbdc47d88	-0.09594256
245	0xbdc6a9c9	-0.09700353
246	0x3e6aa5b6	0.22914776
247	0x3e0eb3e8	0.13935816
248	0x3d89f294	0.06735721
249	0x3e694910	0.22781777
250	0xbe5be8bc	-0.214755
251	0x3d277bb2	0.04088945
252	0x3e20d05d	0.15704484
253	0x3e20e1d6	0.1571115
254	0xbe54732e	-0.20747063
255	0x3dc48927	0.09596472

encoder.node_encoder.module_4.lin_key.bias f4 [16]
0	0xbe11d603	-0.14241795
1	0xbc200f4e	-0.009769274
2	0xbd55b988	-0.05217889
3	0xbe55bfed	-0.20873995
4	0xbe742f3b	-0.23846142
5	0xbe286cd9	-0.16447772
6	0x3de855af	0.11344468
7	0x3dea3631	0.114361174
8	0xbe5ea86d	-0.21743937
9	0xbdc046ac	-0.093884796
10	0x3b857739	0.0040730503
11	0xbe5d5840	-0.21615696
12	0x3e103e40	0.14086246
13	0x3e67dee5	0.22643621
14	0x3d351c7a	0.04421661
15	0xbe3e367a	-0.18575469

encoder.node_encoder.module_4.lin_query.weight f4 [16, 16]
0	0x3d85bbea	0.065299824
1	0x3dcd3158	0.10019177
2	0x3e632c6b	0.22184913
3	0xbe084397	-0.13307033
4	0xbe72abb8	-0.23698318
5	0x3dc260f7	0.09491151
6	0x3d1aa1ef	0.03775209
7	0xbd5fef94	-0.05467184
8	0xbdc3d62c	-0.095623344
9	0xbe0789ca	-0.13236156
10	0x3e4ccb79	0.19999494
11	0xbd5620e7	-0.052277472
12	0x3e4f0765	0.20217665
13	0x3e466270	0.19373488
14	0x3cf5274c	0.029925965
15	0x3d9c47bd	0.076308705
16	0xbca8e909	-0.020618932
17	0x3e32eba9	0.1747271
18	0xbe5e11fd	-0.2168655
19	0x3dc7e6e4	0.09760836
20	0xbd307a16	-0.04308518
21	0x3de478fc	0.111558884
22	0x3c13cb45	0.009020631
23	0xbda791ce	-0.08182107
24	0xbc9bc6f6	-0.01901577
25	0x3e07c3d4	0.13258296
26	0xbe3cf48c	-0.18452662
27	0xbe23f5d3	-0.16011743
28	0xbd441506	-0.047871612
29	0xbdc49079	-0.095978685
30	0x3dd58b55	0.10426966
31	0x3e2e7e56	0.17040381
32	0xbd3eaf26	-0.046553753
33	0x3e844ac2	0.25838286
34	0xbe0b7a0c	-0.13620776
35	0xbe219595	-0.15779717
36	0xbdab5352	-0.083655015
37	0xbe12f878	-0.14352596
38	0xbe22b2c3	-0.15888505
39	0xbe5c8ea4	-0.21538788
40	0xbe73df2b	-0.238156
41	0x3d95212a	0.07281716
42	0x3e17fe44	0.14843088
43	0x3e8549e3	0.26032934
44	0x3e5139db	0.20432226
45	0x3b04d31d	0.0020267435
46	0x3d94b4ae	0.072610244
47	0xbe312d8e	-0.17302534
48	0x3d923d1f	0.07140564
49	0xbe5b79a8	-0.21433127
50	0x3dcbae6c	0.09945378
51	0x3bee9db7	0.0072819847
52	0x3dc160e8	0.094423115
53	0x3de7f3b2	0.11325778
54	0xbd94eae6	-0.07271366
55	0x3e4f0c2c	0.20219487
56	0x3debfe20	0.1152308
57	0x3e0aaef7	0.13543306
58	0x3d45192b	0.048119705
59	0x3e252441	0.16127111
60	0x3e45a040	0.19299412
61	0x3dc2f8d2	0.09520115
62	0x3e464a57	0.19364296
63	0xbd2a3758	-0.041556686
64	0x3e411f7e	0.1885967
65	0x3d0f75fa	0.03502462
66	0x3e227406	0.15864572
67	0x3e83b275	0.2572209
68	0x3d2ee75d	0.042701114
69	0xbdda6009	-0.106628485
70	0xbd2eb62a	-0.042654194
71	0x3d872b9c	0.06600115
72	0x3d532b45	0.051554937
73	0xbd6ac498	-0.057316393
74	0x3e497310	0.19672799
75	0x3e10daf4	0.14146024
76	0xbe215364	-0.15754467
77	0xbcaf02cc	-0.021363638
78	0xbd013ca3	-0.03155197
79	0xbe1c50c9	-0.15265192
80	0x3d4b4b1b	0.049632173
81	0xbdcb77b6	-0.099349424
82	0xbdfb9443	-0.12284138
83	0xbd99e18a	-0.07513721
84	0xbdd3ccd6	-0.10341804
85	0x3e67ade7	0.22624932
86	0x3da55be6	0.08074169
87	0x3e67b410	0.22627282
88	0x3da13fb3	0.07873478
89	0x3d58b93c	0.05291103
90	0x3deb2019	0.114807315
91	0x3ce9fa00	0.028561592
92	0xbe46573a	-0.19369212
93	0xbe1c92be	-0.15290353
94	0xbd9dd636	-0.07706873
95	0x3c3eb761	0.011640401
96	0x3db73dcc	0.08947334
97	0x3dced71d	0.10099623
98	0x3e3fcfa4	0.18731552
99	0x3d47e31e	0.04880058
100	0xbd98f8cd	-0.0746933
101	0xbe341cbf	-0.17589091
102	0xbe3719bb	-0.17880909
103	0xbe0b486f	-0.1360185
104	0x3d8f1856	0.069870636
105	0x3e144f5d	0.144834
106	0x3e556d96	0.20842585
107	0xbd8cf958	-0.06883496
108	0xbcc4d231	-0.024026008
109	0xbd80dc8f	-0.06292068
110	0x3c58beb5	0.013229062
111	0x3d8ecddc	0.06972858
112	0xbbde0f72	-0.0067767436
113	0x3cb48706	0.02203704
114	0x3be66f7d	0.0070323334
115	0x3d9f9015	0.07791153
116	0xbd5a8a80	-0.05335474
117	0xbdff8e45	-0.12478308
118	0x3d903d1f	0.07042908
119	0xbcca1358	-0.024667427
120	0xbdf375c6	-0.11887698
121	0x3ded4eca	0.115872934
122	0xb9a57ef7	-0.0003156585
123	0xbca6ecc0	-0.020376563
124	0xbdfb1e09	-0.12261588
125	0xbcafb51e	-0.021448668
126	0xbe4af3d1	-0.19819571
127	0x3d2cbbfc	0.042171463
128	0x3cbfbbb6	0.023404937
129	0x3e006f00	0.12542343
130	0x3d55b0a4	0.05217041
131	0x3d2126d2	0.039343663
132	0x3cfbafcd	0.030723477
133	0x3e1af21f	0.15131424
134	0xbe12fd0f	-0.14354347
135	0x3de51cf3	0.11187162
136	0x3dc323d8	0.09528321
137	0xbe483a41	-0.19553472
138	0x3df72e90	0.12069428
139	0xbe4291b2	-0.19000891
140	0xbd953c8a	-0.072869375
141	0xbe1cd671	-0.15316178
142	0xbe61c73f	-0.22048663
143	0x3e77076e	0.24123928
144	0xbe7476cd	-0.23873444
145	0x3e1e81ad	0.15479155
146	0xbe8ca9e2	-0.2747336
147	0xbd5d1eab	-0.053984325
148	0x3d866aa3	0.06563308
149	0x3e69c6ff	0.22829817
150	0xbd8aa7f2	-0.06770314
151	0x3ddada86	0.10686211
152	0x3b700f0c	0.0036630062
153	0x3e4228a0	0.1896081
154	0xbc8510ef	-0.016243426
155	0x3e13c0ec	0.14429063
156	0xbe2eda05	-0.17075355
157	0xbe0427ad	-0.1290576
158	0x3e8d2aa1	0.27571586
159	0xbe71084a	-0.23538318
160	0xbcfa39e5	-0.030545184
161	0xbd6851f2	-0.056718774
162	0x3e7d5568	0.24739611
163	0xbd5a3f0b	-0.05328278
164	0xbe582746	-0.21108732
165	0xbda417e4	-0.08012369
166	0x3e08268a	0.13295951
167	0x3dc32f4b	0.09530505
168	0x3e6e433e	0.23267838
169	0xbd42d2a9	-0.047564182
170	0x3df267a8	0.11836177
171	0xbe837308	-0.256737
172	0x3deded3d	0.11617515
173	0x3dcc809f	0.0998547
174	0x3e1c243f	0.15248202
175	0xbe02f96a	-0.12790456
176	0xbd819f68	-0.063292325
177	0x3d0c4fed	0.03425591
178	0xbe2c4579	-0.16823377
179	0xbe45c411	-0.19313075
180	0xbe854d74	-0.26035655
181	0xbb70a695	-0.0036720384
182	0x3e1dc312	0.15406445
183	0x3d6d8656	0.05798944
184	0x3d36fb84	0.044673458
185	0x3db0d549	0.08634431
186	0xbe1dbac0	-0.1540327
187	0x3c1bcf2e	0.009509845
188	0xbd386718	-0.045020193
189	0xbe103a77	-0.14084803
190	0x3e52816e	0.20557186
191	0xbe388dfb	-0.18022911
192	0x3d17f98f	0.037103232
193	0xbe71f3dd	-0.23628183
194	0xbc4ac03d	-0.012374935
195	0xbddc6da0	-0.10763097
196	0x3d9f1748	0.077681124
197	0xbe10f8d5	-0.14157422
198	0x3e260665	0.16213377
199	0xbe4838d5	-0.1955293
200	0x3e2ff812	0.17184475
201	0xbe369095	-0.17828591
202	0x3df682b8	0.120366514
203	0xbddfd257	-0.10928791
204	0x3c0797c3	0.008275929
205	0xbd327653	-0.043569874
206	0x3e2e6d3c	0.17033857
207	0x3da1594b	0.078783594
208	0xbe64a624	-0.22329003
209	0x3c416d96	0.0118059125
210	0xbe32b285	-0.17450912
211	0x3e3cb1d7	0.18427216
212	0x3d15406e	0.036438398
213	0xbd887fe0	-0.06665015
214	0xbe00270b	-0.12514894
215	0x3dab5cfd	0.083673455
216	0xbe05e456	-0.13075384
217	0x3df5521c	0.11978552
218	0x3e0ba591	0.13637377
219	0x3e158355	0.1460088
220	0x3da2a922	0.07942416
221	0xbe65bdab	-0.22435634
222	0x3e37c27e	0.17945287
223	0xbd954695	-0.07288853
224	0xbdd1e722	-0.10249163
225	0xbbb3a793	-0.005482623
226	0x3e2a9651	0.16658904
227	0x3e3412a8	0.17585242
228	0x3d5ffffe	0.054687493
229	0x3e0d45c4	0.13796145
230	0xbe6350b9	-0.22198762
231	0xbbf7a7fc	-0.007557867
232	0xbe7c97b7	-0.2466725
233	0x3d998570	0.07496154
234	0xbe3423fa	-0.17591849
235	0xbdab2b74	-0.083578974
236	0x3e34c9f6	0.17655167
237	0x3e7b5e62	0.24547723
238	0xbe12901c	-0.14312786
239	0xbe1621d5	-0.14661343
240	0x3cd67832	0.02618036
241	0x3df1cb9f	0.11806416
242	0xbd609c13	-0.054836344
243	0xbdb2f886	-0.08738808
244	0xbe132d48	-0.14372742
245	0x3e0105ff	0.12599944
246	0x3e7dbb93	0.24778585
247	0xbdf0b1a7	-0.117526345
248	0x3dbb599a	0.091479495
249	0x3e068dc1	0.13140012
250	0x3e4abbe3	0.19798236
251	0xbc2a8092	-0.01040663
252	0xbb652699	-0.0034965633
253	0x3e4c3594	0.19942313
254	0x3e2f59d6	0.17124113
255	0x3e6a3016	0.22869906

encoder.node_encoder.module_4.lin_query.bias f4 [16]
0	0xbdac44b6	-0.08411543
1	0x3dcec5e6	0.1009634
2	0x3e48533b	0.19563
3	0xbe24f015	-0.16107209
4	0x3d2d5656	0.042318664
5	0xbd7a01ac	-0.06103675
6	0x3e05d1b6	0.1306828
7	0xbe0574f4	-0.13032895
8	0xbbb92a4d	-0.0056507946
9	0x3e399883	0.18124585
10	0xbe7447f1	-0.23855568
11	0xbe4fc4ad	-0.2028987
12	0xbdf9695b	-0.12178298
13	0x3e227c0d	0.15867634
14	0x3e485345	0.19563015
15	0xbe106b58	-0.14103448

encoder.node_encoder.module_4.lin_value.weight f4 [16, 16]
0	0x3d52593d	0.051354636
1	0xbe023e9c	-0.12719196
2	0xbdc6e062	-0.097107664
3	0x3e60d7ac	0.21957272
4	0x3dd57950	0.10423529
5	0xbdafb0b7	-0.085786276
6	0x3d5991bc	0.0531175
7	0x3da5bd78	0.08092779
8	0x3d617185	0.0550399
9	0xbda21388	-0.079138815
10	0xbe28ba0b	-0.1647722
11	0x3e219e25	0.15782984
12	0x3d49793d	0.049187887
13	0x3db6d6a0	0.08927655
14	0xbdaba5c7	-0.08381229
15	0x3e0a2722	0.1349149
16	0x3e49e890	0.19717622
17	0x3e07968f	0.13241027
18	0x3d352e56	0.044233643
19	0x3e8069a9	0.25080612
20	0x3c5f64ca	0.01363487
21	0x3d8d166f	0.068890445
22	0x3e4fa342	0.20277122
23	0x3e4c0fcd	0.19927903
24	0xbddd245b	-0.1079795
25	0x3e6a741d	0.22895856
26	0x3de8b5b9	0.11362786
27	0xbc91ddad	-0.017805899
28	0x3e44ad87	0.1920682
29	0xbdcb5a92	-0.09929384
30	0x3e1a3ba3	0.15061812
31	0x3e641297	0.22272716
32	0xbe1bf37c	-0.152296
33	0xbe33d860	-0.1756301
34	0xbe80b97c	-0.25141513
35	0xbd03eb9a	-0.03220711
36	0xbe7303db	-0.2373194
37	0xbdbd397b	-0.09239479
38	0x3d5926e5	0.05301561
39	0x3e2663f9	0.16249074
40	0x3e1628d0	0.14664006
41	0x3e1ad0cc	0.15118712
42	0x3de446c5	0.11146311
43	0xbe25a563	-0.16176371
44	0xbe501f65	-0.20324476
45	0x3c822943	0.015888816
46	0x3e682c5e	0.22673175
47	0x3c46b3fb	0.012127872
48	0xbd0607d6	-0.032722317
49	0xbe1c7f63	-0.15282969
50	0xbe181e85	-0.14855392
51	0xbe53e364	-0.20692211
52	0x3e6a6890	0.2289145
53	0xbc3b630c	-0.011437189
54	0xbe625f46	-0.22106656
55	0x3c3354b8	0.0109454915
56	0x3c4eea85	0.012629156
57	0xbd1b6c0e	-0.037944846
58	0x3dcb261b	0.099193774
59	0x3e1ae078	0.1512469
60	0xbe7cffee	-0.24707004
61	0xbe33cb29	-0.17557968
62	0xbbd28869	-0.0064249528
63	0xbe7e2093	-0.24817114
64	0xbe81668b	-0.25273547
65	0x3e7372e0	0.2377429
66	0xbbba78b8	-0.0056906603
67	0xbe0b31b1	-0.13593175
68	0xbdc4e55f	-0.096140616
69	0xbe4fa63b	-0.20278256
70	0x3e669457	0.22517525
71	0xbcb9ead1	-0.022694977
72	0xbe0152ac	-0.12629193
73	0xbe4caccb	-0.1998779
74	0x3e0e7fc7	0.1391593
75	0xbd53b19a	-0.051683046
76	0xba8911d2	-0.0010457581
77	0xbdc45cbf	-0.095880024
78	0xbdec643c	-0.11542556
79	0x3d97a984	0.074053794
80	0x3e2f91df	0.17145489
81	0xbdf98078	-0.121827066
82	0x3c60c3ae	0.013718529
83	0xbe560a86	-0.20902452
84	0xbde8ae1c	-0.11361334
85	0x3e6640ec	0.22485703
86	0x3cf4d4c2	0.029886607
87	0x3e7cda95	0.24692757
88	0xbd17929e	-0.03700506
89	0xbe1a9ce6	-0.15098915
90	0xbe183ba4	-0.14866501
91	0x3e5dffcf	0.21679614
92	0xbe336fe4	-0.17523152
93	0x3dee1f6b	0.11627086
94	0x3d841c2e	0.06450687
95	0x3dae6480	0.085152626
96	0x3e12e059	0.14343394
97	0xbd7b8331	-0.06140441
98	0x3e164aab	0.14676921
99	0xbe52b0d1	-0.20575263
100	0xbda09a1e	-0.078418955
101	0x3e43cfb7	0.19122206
102	0x3d8b7f73	0.068114184
103	0xbd5d9fd0	-0.054107487
104	0xbd6e06b5	-0.058111865
105	0xbe258d84	-0.16167265
106	0x3e2d70cf	0.16937564
107	0xbb134ce0	-0.002247624
108	0xbc961faf	-0.018325655
109	0x3d833013	0.06405654
110	0x3e3057fa	0.1722106
111	0xbe0754d1	-0.13215949
112	0xbdc03600	-0.093853
113	0x3e260e78	0.16216457
114	0x3e1673ba	0.14692584
115	0xbdebfab9	-0.11522431
116	0xbe8552d5	-0.26039758
117	0x3d0f2d6d	0.03495543
118	0x3e0bb1c8	0.13642037
119	0x3da235f2	0.079204455
120	0x3e3c1caa	0.1837031
121	0xbe3ea54e	-0.18617746
122	0x3de9577c	0.113936394
123	0xbe257803	-0.16159062
124	0x3e15d871	0.14633347
125	0x3e3a5632	0.18196943
126	0x3db2510c	0.08706865
127	0x3e55df05	0.20885856
128	0xbe3bc908	-0.18338406
129	0xbe5fad01	-0.2184334
130	0xbe6002dd	-0.21876092
131	0x3e20da73	0.15708332
132	0x3d83b642	0.06431247
133	0xbe51a5ab	-0.20473354
134	0x3e0e1bba	0.13877764
135	0x3e8183a0	0.25295734
136	0xbe772a7b	-0.24137299
137	0x3e36102d	0.17779608
138	0x3cdd78d7	0.02703516
139	0x3badd1a0	0.0053045303
140	0x3e7a6184	0.24451262
141	0x3e544c4c	0.2073223
142	0x3de59c80	0.11211491
143	0x3e5fbf46	0.21850309
144	0x3dac550d	0.0841466
145	0x3d6857b5	0.05672427
146	0xbe4b4eed	-0.19854327
147	0x3d3249e0	0.043527484
148	0xbe3ba3d7	-0.18324219
149	0x3d8be9d7	0.06831711
150	0x3d5c305c	0.053757057
151	0x3c1d5192	0.009601967
152	0xbe2773ac	-0.16352719
153	0xbe33af7d	-0.17547412
154	0x3e412748	0.18862641
155	0x3de9cc18	0.11415881
156	0x3e0ecf74	0.13946325
157	0xbdb889e2	-0.09010674
158	0xbd5d3f1e	-0.05401527
159	0xbd472c81	-0.048626427
160	0x3e17a439	0.1480874
161	0xbdbdcb7d	-0.09267328
162	0x3e2bf7e6	0.16793784
163	0x3e24c5ea	0.16091123
164	0xbe6cc683	-0.23122601
165	0xba858eb0	-0.0010189619
166	0xbcebece5	-0.028799484
167	0xbe090fe7	-0.13384973
168	0x3e02c828	0.12771666
169	0xbd550ce6	-0.052014254
170	0x3e650f1b	0.22369044
171	0xbe2cf156	-0.16888937
172	0x3e07575e	0.13216922
173	0xbe6f155e	-0.23347995
174	0xbe062283	-0.13099103
175	0x3d19a79c	0.03751336
176	0x3e5d3f7e	0.21606252
177	0x3dfef028	0.1244815
178	0xbe4e5f7d	-0.20153613
179	0x3d039e2b	0.032133263
180	0xbe19bc3b	-0.1501321
181	0x3ba612d0	0.0050681606
182	0xbe609046	-0.21930036
183	0xbda6846d	-0.08130727
184	0x3e2fd5a8	0.17171347
185	0xbe651254	-0.22370273
186	0xbe667a96	-0.225077
187	0x3d3b7fd8	0.04577622
188	0x3cfc73a0	0.030816853
189	0xbd495608	-0.04915431
190	0x3e55effb	0.20892327
191	0xbe13a5a2	-0.14418653
192	0xbe157f13	-0.14599256
193	0xbe30781f	-0.17233323
194	0xbd44165b	-0.047872882
195	0xbd4eb447	-0.050464895
196	0x3e28ee1c	0.16497082
197	0xbbb396eb	-0.0054806373
198	0x3dac74f2	0.08420743
199	0xbd9a3f15	-0.07531563
200	0x3e386c51	0.1801007
201	0x3e6eaee6	0.23308906
202	0xbe7b356b	-0.24532096
203	0xbd40c447	-0.047062185
204	0xbe664206	-0.22486123
205	0x3df14c84	0.11782172
206	0xbe48c7c9	-0.19607462
207	0xbe07c598	-0.1325897
208	0x3e6bcaba	0.23026553
209	0xbe697e26	-0.22802028
210	0x3e52ce87	0.20586596
211	0x3c991003	0.018684393
212	0x3e39903e	0.1812143
213	0xbe130d03	-0.14360432
214	0x3e3bcaea	0.18339124
215	0x3d790a77	0.060800996
216	0x3cdc8b9d	0.026922042
217	0x3e28d832	0.16488722
218	0xbe7f274e	-0.24917337
219	0xbe608810	-0.21926904
220	0x3e86418f	0.26221892
221	0xbe31f6f3	-0.1737936
222	0xbe2e1fd1	-0.17004324
223	0x3c2ab885	0.010419969
224	0xbdc832ff	-0.09775352
225	0xbc9b38a7	-0.018947912
226	0xbe1c7ea6	-0.15282688
227	0x3dacc8ee	0.08436762
228	0xbe653c1f	-0.22386216
229	0x3c453bca	0.012038181
230	0x3e3006d7	0.17190109
231	0x3daf1194	0.08548275
232	0x3d17aaf7	0.03702828
233	0x3d15fd17	0.03661832
234	0xbdb9e554	-0.09076944
235	0xbd735883	-0.059410583
236	0xbdaa479b	-0.08314439
237	0xbe41d653	-0.18929414
238	0xbde7515a	-0.112948135
239	0x3e889079	0.26672724
240	0xbd7c0fc1	-0.06153846
241	0x3dca592e	0.09880291
242	0x3e2e45b3	0.17018776
243	0xbd04bd56	-0.032407127
244	0xbe04ed94	-0.12981254
245	0xbe27538b	-0.16340463
246	0xbd9f1bf3	-0.07769003
247	0x3daefdd9	0.08544511
248	0xbe49f3d9	-0.19721927
249	0xbd2e333f	-0.04252934
250	0x3dd5bcda	0.10436411
251	0x3e497821	0.19674732
252	0x3db74b98	0.08949965
253	0x3d15464e	0.036444
254	0x3e2b5ef5	0.16735442
255	0x3e038b80	0.12846184

encoder.node_encoder.module_4.lin_value.bias f4 [16]
0	0x3d76c770	0.060248792
1	0xbd91d4fa	-0.071207
2	0xbe59eaf0	-0.21281028
3	0xbd059e28	-0.032621533
4	0xbd0fe672	-0.03513188
5	0x3c00d55c	0.007863369
6	0xbb98d9e6	-0.0046646474
7	0x3d738c91	0.059460226
8	0x3e1335c9	0.14375986
9	0xbdaede15	-0.085384525
10	0xbe727097	-0.23675762
11	0xbe21b568	-0.15791857
12	0xbdcb9ff5	-0.09942619
13	0x3dffd222	0.124912515
14	0xbe284116	-0.16431078
15	0xbc63e2ea	-0.013909081

encoder.node_encoder.module_4.lin_skip.weight f4 [16, 16]
0	0xbd590690	-0.052984774
1	0xbe1b5fea	-0.15173307
2	0x3de814f4	0.113321215
3	0xbdd546c4	-0.10413888
4	0xbc53e520	-0.012933046
5	0xbe33fd5c	-0.17577118
6	0xbcce8f90	-0.02521494
7	0x3d117ef0	0.035521448
8	0xbc26ad80	-0.010173202
9	0xbdbf4ec0	-0.09341192
10	0x3d981b58	0.074270904
11	0xbd84a870	-0.064774394
12	0xbe0ded16	-0.13859972
13	0xbe3cc862	-0.18435815
14	0xbd58e9d8	-0.052957386
15	0xbe71d672	-0.2361696
16	0x3e547c30	0.20750499
17	0xbdf498bc	-0.11943194
18	0xbdd42ea0	-0.103604555
19	0x3cbd50b0	0.023109764
20	0x3d84ba38	0.06480831
21	0xbcc11c60	-0.0235731
22	0x3e2f9f32	0.17150572
23	0xbe153c30	-0.14573741
24	0x3db77db0	0.0895952
25	0xba13ce00	-0.00056383014
26	0xbe503fa4	-0.20336777
27	0xbdc64b84	-0.09682372
28	0x3d824c24	0.06362179
29	0x3d43a078	0.047760457
30	0x3e3a258c	0.18178385
31	0x3e2b4320	0.16724825
32	0xbe0ba0d4	-0.1363557
33	0xbddaa39c	-0.10675737
34	0xbd592160	-0.053010345
35	0xbe376756	-0.17910513
36	0xbd8a3c1c	-0.06749746
37	0xbe517cf4	-0.20457822
38	0x3dc2bc34	0.09508553
39	0x3e35229c	0.17688984
40	0x3ca22740	0.019794106
41	0xbe3743f4	-0.17897016
42	0xbe41def0	-0.189327
43	0xbdc75238	-0.09732479
44	0x3d94eabc	0.072713345
45	0x3bc7d1c0	0.006098002
46	0x3d3a2f88	0.045455486
47	0x3e714674	0.23562032
48	0x3dedcb58	0.1161105
49	0x3d5c2ee0	0.05375564
50	0xbd4f2d78	-0.05058047
51	0x3df23378	0.11826223
52	0x3dbb4f74	0.09146014
53	0xbe666d1a	-0.22502556
54	0xbe1738b4	-0.14767724
55	0x3c097c40	0.00839144
56	0x3dc24644	0.09486058
57	0x3df916e8	0.12162572
58	0xbe18642e	-0.14881966
59	0xbe7dfb34	-0.24802858
60	0xbc555e00	-0.0130229
61	0xbcea1f30	-0.028579324
62	0x3d949278	0.07254499
63	0xbd8ccda4	-0.0687516
64	0x3e43b7c4	0.1911307
65	0x3c88a6b0	0.016681045
66	0x3e3af176	0.18256173
67	0xbe3241a8	-0.17407858
68	0x3dccd184	0.100008994
69	0x3cf40820	0.02978903
70	0xbe0009b8	-0.12503707
71	0x3dfdd2a8	0.12393695
72	0xbe7be8b2	-0.24600485
73	0x3e4ef7b2	0.20211676
74	0x3ca50b60	0.020147026
75	0x3cc5bd60	0.024138153
76	0x3decc5ac	0.115611404
77	0x3caa0260	0.020753086
78	0x3ddb7838	0.10716289
79	0x3e22deee	0.15905353
80	0xbe47cc20	-0.19511461
81	0x3e295c06	0.1653901
82	0xbd195520	-0.037434697
83	0xbd6e2158	-0.058137268
84	0x3d4e1cc0	0.050320387
85	0x3e483b18	0.19553792
86	0xbe0b2a5e	-0.1359038
87	0xbe2c86c0	-0.16848278
88	0x3e1ee01e	0.15515181
89	0xbdf07850	-0.11741698
90	0x3da4d6a4	0.08048752
91	0xbd16dca8	-0.036831528
92	0x3d8cedf4	0.068813235
93	0x3e435b82	0.19077876
94	0xbe01bd94	-0.12669975
95	0xbdf87478	-0.1213159
96	0x3dfb32a4	0.12265518
97	0x3c604420	0.013688117
98	0xbce16630	-0.027514547
99	0xbe60de0c	-0.21959704
100	0x3e58e5ec	0.21181458
101	0xbc1b1e80	-0.009467721
102	0xbd3c9ba0	-0.046046853
103	0xbdd22bbc	-0.10262248
104	0xbd4a1308	-0.049334556
105	0x3df8d97c	0.12150857
106	0xbbbc4780	-0.005745828
107	0x3e5aeef4	0.21380216
108	0xbc6c7b40	-0.014433682
109	0xbd12e698	-0.035864443
110	0x3e107fe6	0.1411129
111	0xbbd3f900	-0.006468892
112	0xbd4c6218	-0.049898237
113	0x3dab1fc0	0.08355665
114	0x3e49e3b8	0.19715774
115	0x3d7f89e8	0.062387377
116	0x3e3241e8	0.17407954
117	0x3e25e5d6	0.16200957
118	0x3d90cae0	0.07069945
119	0x3db2043c	0.08692214
120	0x3da536dc	0.08067104
121	0x3cd46eb0	0.025931686
122	0x3e59c9dc	0.2126841
123	0x3e6c52f0	0.23078513
124	0x3db64424	0.088997155
125	0xbc4c8c60	-0.01248464
126	0x3e658730	0.22414851
127	0xbe474004	-0.19458014
128	0x3e3c1acc	0.18369597
129	0x3e07a2a6	0.13245639
130	0x3e246308	0.16053402
131	0xbc9d5c00	-0.019208908
132	0xbe3f0046	-0.18652448
133	0x3e369d60	0.17833471
134	0xbddfdff8	-0.109313905
135	0x3d86b6b0	0.065778136
136	0x3e11091a	0.14163628
137	0xbe6f3d12	-0.2336314
138	0x3c87e9d0	0.016590983
139	0xbdb5e03c	-0.0888066
140	0x3e35b286	0.17743883
141	0xbe22fede	-0.15917537
142	0x3e1b6f7a	0.15179244
143	0x3e1fa248	0.15589249
144	0x3e0d3d30	0.13792872
145	0x3e75c35e	0.24000308
146	0x3d1b1600	0.037862778
147	0xbe680898	-0.22659528
148	0x3e36bfda	0.17846623
149	0x3cbb7ce0	0.022886693
150	0x3ba29200	0.004961252
151	0xbe73dce4	-0.23814732
152	0xbd662680	-0.05618906
153	0xbdf88220	-0.121341944
154	0x3e7abaae	0.24485275
155	0x3e364786	0.17800722
156	0x3e3ef916	0.18649706
157	0x3e2f5174	0.17120916
158	0xbe1eb00e	-0.15496847
159	0xbddbe370	-0.1073674
160	0xbdc85f10	-0.09783757
161	0xbdcd4070	-0.10022056
162	0x3e474754	0.19460803
163	0x3dadf5ec	0.084941715
164	0x3e4d258a	0.20033851
165	0xbc3f9b40	-0.011694729
166	0xbe643492	-0.22285679
167	0xbd948b08	-0.072530806
168	0x3e33ea5a	0.17569867
169	0x3e1bdaae	0.15220138
170	0x3d9e8028	0.077392876
171	0xbd962f0c	-0.07333192
172	0xbe6ef168	-0.23334277
173	0xbe098e3e	-0.13433167
174	0x3e057930	0.1303451
175	0xbdce84e8	-0.100839436
176	0x3df4e8cc	0.11958465
177	0x3d8bcc0c	0.06826028
178	0xbdc4a718	-0.09602183
179	0x3e1bec8e	0.15226957
180	0xbda485b4	-0.08033314
181	0xbc081480	-0.008305669
182	0xbdc30708	-0.095228255
183	0xbe72d596	-0.23714289
184	0x3d251ba0	0.04030955
185	0x3d93f3c8	0.07224232
186	0xbe00e428	-0.12587035
187	0x3e1d0ada	0.15336171
188	0xbe65a56e	-0.22426388
189	0xbe76c72c	-0.24099416
190	0xbe1e1e3e	-0.15441224
191	0xbdb0f320	-0.086401224
192	0xbce37270	-0.027764529
193	0xbd45e2c0	-0.04831195
194	0x3de9abc0	0.11409712
195	0xbe60ac0e	-0.21940634
196	0x3d16c810	0.03681189
197	0x3b8dddc0	0.004329413
198	0x3d873c14	0.06603256
199	0x3e7e7c08	0.24852002
200	0x3e1d8e08	0.15386212
201	0xbe0dbf96	-0.13842615
202	0xbe51c7a4	-0.20486313
203	0xbd77e950	-0.06052524
204	0xbe006aa0	-0.12540674
205	0x3db2d820	0.08732629
206	0x3b163100	0.002291739
207	0x3e4de826	0.20108089
208	0x3dc91de4	0.09820154
209	0xbd3c4880	-0.04596758
210	0x3c0cc780	0.008592486
211	0x3d753bd0	0.059871495
212	0xbcfe2170	-0.031021804
213	0x3e4e9344	0.20173365
214	0xbe482a9e	-0.19547507
215	0x3df98d44	0.121851474
216	0xbe232f86	-0.15936098
217	0xbe6046e0	-0.21902037
218	0xbd523948	-0.05132416
219	0x3df98008	0.12182623
220	0x3e34e13e	0.17664048
221	0x3d807b88	0.06273562
222	0xbcb101b0	-0.02160725
223	0xbc659e80	-0.01401484
224	0xbdcf8e24	-0.10134533
225	0xbcb7c840	-0.022434354
226	0xbc8d8120	-0.017273486
227	0x3e59d8b0	0.21274066
228	0x3e15d290	0.14631104
229	0xbe4cdb7a	-0.20005599
230	0x3a878d00	0.0010341704
231	0xbe1d7538	-0.15376747
232	0xbd228cf8	-0.03968522
233	0xbe4b75ec	-0.19869202
234	0x3d8519a0	0.06499028
235	0xbe389892	-0.18026951
236	0x3e7cba84	0.24680525
237	0x3e4154f4	0.18880063
238	0xbe30384a	-0.17208973
239	0xbe7103c8	-0.23536599
240	0x3c1fd100	0.009754419
241	0xbd8eecf8	-0.06978792
242	0x3d964e60	0.073391676
243	0xbe2d4a3e	-0.16922852
244	0x3dd1952c	0.102335304
245	0xbe5d1eae	-0.21593735
246	0xbe071bf0	-0.13194251
247	0xbe069464	-0.13142544
248	0x3df7c09c	0.12097284
249	0xbbd67a00	-0.0065453053
250	0xbe7605f8	-0.24025714
251	0xbe1234ec	-0.14278
252	0xbdecf118	-0.115694225
253	0xbe6d863e	-0.2319574
254	0x3d031eb8	0.032011718
255	0x3db671ec	0.089084476

encoder.node_encoder.module_4.lin_skip.bias f4 [16]
0	0xbd3be190	-0.04586941
1	0xbdcbbf6c	-0.0994862
2	0xbac6b900	-0.0015161335
3	0xbe4b560c	-0.19857043
4	0xbe1be0f8	-0.15222538
5	0xbbbad440	-0.0057015717
6	0x3e636cb2	0.22209433
7	0xbd9d71bc	-0.07687709
8	0x3dfdc714	0.12391487
9	0xbdc97f70	-0.0983876
10	0xbd884b14	-0.06654945
11	0xbe73b2a2	-0.23798612
12	0x3e541798	0.20712125
13	0x3e794636	0.2434319
14	0xbbac0f00	-0.0052508116
15	0x3e22a798	0.15884244

encoder.node_encoder.module_5.weight f4 [16, 16]
0	0x3e5be43e	0.21473786
1	0x3dc0b9d3	0.09410443
2	0x3deaa2c9	0.1145683
3	0xbe4d1948	-0.20029175
4	0xbe83d0b0	-0.25745153
5	0xbe2e7121	-0.17035343
6	0x3da15c4d	0.07878933
7	0xbe790f3a	-0.24322215
8	0xbe4e7c0a	-0.20164505
9	0xbdf905fc	-0.121593446
10	0xbe754ced	-0.23955126
11	0x3cadf446	0.021234643
12	0x3d4ebbee	0.050472192
13	0xbe297ee8	-0.16552317
14	0x3e02f5d2	0.12789086
15	0xbddbe208	-0.107364714
16	0xbd67098e	-0.056405596
17	0x3e3f2208	0.18665326
18	0x3e60d581	0.21956445
19	0xbc80411a	-0.015656043
20	0xbe4b2d54	-0.1984151
21	0xbdde258a	-0.10847004
22	0x3cc747fd	0.024326319
23	0x3e005abe	0.12534615
24	0x3e065736	0.13119206
25	0xbdf1250e	-0.11774646
26	0xbe76afcb	-0.24090497
27	0xbe4cc1dd	-0.19995828
28	0xbd81c45d	-0.063362814
29	0xba67e387	-0.0008845855
30	0xbe036794	-0.1283248
31	0xbe4cce2b	-0.20000522
32	0x3d1773f0	0.0369758
33	0xbe1927bb	-0.14956562
34	0xbe45f5a0	-0.1933198
35	0xbe710670	-0.23537612
36	0xbd8b813b	-0.06811758
37	0x3e60ac0e	0.21940634
38	0x3daf7430	0.08567083
39	0xbcec2cb7	-0.028829915
40	0x3da81f06	0.08209042
41	0x3dc191ba	0.09451623
42	0x3bafdb3e	0.005366712
43	0xbe580f6a	-0.2109963
44	0xbe273b4a	-0.1633121
45	0xbe161dfa	-0.14659873
46	0x3c14cb23	0.009081635
47	0xbe50c698	-0.20388258
48	0xbd124b3c	-0.03571628
49	0xbdcebdc1	-0.100947864
50	0x3e7264a7	0.23671208
51	0x3e4c0ebe	0.19927499
52	0x3e181f33	0.14855652
53	0x3be766e0	0.007061824
54	0xbdc6648c	-0.096871465
55	0x3d8eacb2	0.06966533
56	0xbe376965	-0.17911299
57	0xbde4586f	-0.1114968
58	0xbd2c3ee3	-0.04205216
59	0xbd80caa9	-0.06288654
60	0xbe79b65b	-0.2438597
61	0x3de08ea1	0.10964704
62	0x3e5592eb	0.20856826
63	0xbe0db7bc	-0.1383962
64	0x3d4fd028	0.050735623
65	0xbd94826e	-0.0725144
66	0xbce86606	-0.028368961
67	0x3c8dedc5	0.017325291
68	0x3e6f5f9a	0.23376313
69	0x3c485cb3	0.0122291325
70	0xbe186502	-0.14882281
71	0xbd9434ea	-0.07236655
72	0x3dba63b1	0.09101046
73	0x3dc68e53	0.09695115
74	0x3c871c89	0.016493099
75	0xbd16b77d	-0.03679608
76	0xbdeeab1d	-0.11653731
77	0xbdb057c5	-0.08610491
78	0xbe081cc6	-0.13292226
79	0x3cba6a17	0.022755666
80	0x3db560e1	0.08856369
81	0x3e46b0f4	0.1940344
82	0xbd5370a7	-0.051621106
83	0x3cea878d	0.028629089
84	0x3e133eee	0.14379475
85	0x3de97a9e	0.114003405
86	0x3c7ffe56	0.015624603
87	0x3d85b916	0.06529443
88	0x3c4fdb1c	0.012686517
89	0xbe6686f0	-0.22512412
90	0x3c528b42	0.012850584
91	0xbd2562a2	-0.040377267
92	0x3e6c11ab	0.23053615
93	0x3e6711d2	0.22565392
94	0x3d38a773	0.045081567
95	0x3e6dab4a	0.23209873
96	0xbdffdb91	-0.12493051
97	0x3e1d9977	0.15390573
98	0x3e535988	0.20639622
99	0x3d2dc208	0.04242137
100	0xbe5d8f64	-0.2163673
101	0xbd9f9935	-0.07792894
102	0xbd7818da	-0.060570575
103	0xbc9048c8	-0.01761283
104	0xbe85b88e	-0.26117367
105	0x3d4d3f39	0.050109122
106	0xbdd2d222	-0.10293986
107	0xbd21c421	-0.039493684
108	0xbde7742f	-0.11301457
109	0xbdaacea5	-0.083401956
110	0xbe8c54cd	-0.27408448
111	0xbe1e4a58	-0.15458047
112	0x3ce4ae1b	0.027915051
113	0x3e25b911	0.16183878
114	0x3e6bd198	0.23029172
115	0xbe2c2673	-0.16811542
116	0x3dbbfee9	0.0917948
117	0xbdfb9915	-0.122850575
118	0xbe43ba44	-0.19114023
119	0xbcf2b30f	-0.029626397
120	0xbdfb49cc	-0.12269935
121	0xbe5ebc77	-0.21751581
122	0xbe79b9cb	-0.2438728
123	0xbe24f8e2	-0.16110566
124	0x3e630bb6	0.22172436
125	0x3e052ee8	0.13006175
126	0xbde51323	-0.11185291
127	0xbe328bc8	-0.17436135
128	0xbe38d55d	-0.18050142
129	0xbe37af78	-0.1793803
130	0xbe068698	-0.13137281
131	0x3e466d6d	0.1937768
132	0x3d7d5e6c	0.061857626
133	0xbd7a175e	-0.06105744
134	0x3e322b3d	0.17399307
135	0xbe383049	-0.1798717
136	0xbe690455	-0.22755559
137	0x3d39912d	0.045304466
138	0xbe28d734	-0.16488343
139	0x3dbf1f66	0.09332161
140	0x3e64827b	0.223154
141	0xbe12e3a8	-0.14344656
142	0xbe5dacf9	-0.21648015
143	0x3dba91e8	0.09109861
144	0xbe5bae91	-0.2145331
145	0x3e300e36	0.17192921
146	0xbe04d6fa	-0.12972632
147	0x3e32bcbb	0.17454807
148	0xbe61fdbb	-0.22069447
149	0xbe1b1705	-0.151455
150	0x3cb866f8	0.022510037
151	0x3d6cb5dc	0.057790622
152	0x3e2522e5	0.16126592
153	0x3e4a9ed1	0.19787146
154	0xbcaaa3d4	-0.020830072
155	0xbb40c1ea	-0.0029412457
156	0x3d75dc6a	0.060024656
157	0xbdc9bb2a	-0.09850152
158	0xbd1776b3	-0.036978435
159	0xbe7b2888	-0.2452718
160	0xbe5ebce5	-0.21751745
161	0x3e007f07	0.12548457
162	0xbe1c225c	-0.15247482
163	0x3e4ea657	0.20180641
164	0x3d27909a	0.040909387
165	0x3d2d2452	0.042270966
166	0x3e6fcf42	0.23418906
167	0xbdf49524	-0.11942509
168	0xbd208e29	-0.039198074
169	0x3d210482	0.03931094
170	0x3da0542e	0.07828556
171	0xbe87081c	-0.26373374
172	0x3da787bd	0.08180187
173	0xbe1a830a	-0.1508905
174	0x3cd83cae	0.026396122
175	0x3e14193c	0.14462751
176	0xbc72bfb7	-0.014816216
177	0x3acfdd88	0.0015858868
178	0xbbe556d3	-0.0069988756
179	0x3e5fce59	0.21856059
180	0x3e051536	0.12996373
181	0x3d5ae7b6	0.053443633
182	0xbe0f6339	-0.14002694
183	0xbe17e741	-0.1483431
184	0x3e5a0d6b	0.21294181
185	0x3e2867c4	0.16445833
186	0x3e064003	0.13110356
187	0xbe3b3611	-0.18282343
188	0x3e561669	0.20906986
189	0xbd19d627	-0.037557747
190	0x3e30b9c0	0.17258358
191	0x3e5a4b45	0.21317776
192	0x3ce1f0e6	0.02758069
193	0xbd6f039c	-0.05835305
194	0x3e74f4cb	0.23921506
195	0xbe3aa81b	-0.1822819
196	0x3e3afcb2	0.18260458
197	0xbe831e1b	-0.25608906
198	0xbdb54744	-0.088514835
199	0xbe412633	-0.18862228
200	0xbda9ca7e	-0.082905754
201	0x3dca4210	0.09875882
202	0xbe33594f	-0.17514537
203	0xbe7b31c0	-0.24530697
204	0x3e22f02d	0.15911932
205	0x3e2f2daf	0.1710727
206	0x3ce9b9fd	0.028531069
207	0xbe1b2eaf	-0.15154527
208	0xbd75cc08	-0.060009032
209	0xbd73c19c	-0.059510812
210	0x3e3dd95c	0.18539947
211	0xbde0368e	-0.109479055
212	0xbd9891fa	-0.07449718
213	0xbe45b13a	-0.19305888
214	0xbe0791c6	-0.13239202
215	0x3e0b8b3e	0.13627335
216	0x3e486e73	0.19573383
217	0x3cff7346	0.031182896
218	0xbd9b9d8a	-0.075984076
219	0x3e6de582	0.23232082
220	0x3d641574	0.05568452
221	0xbd880d5d	-0.06643174
222	0xbd7bcfd4	-0.061477497
223	0xbd21a2c5	-0.03946187
224	0x3df7fa21	0.12108255
225	0x3db00051	0.0859381
226	0x3e5af614	0.21382934
227	0x3b26dc5f	0.0025460941
228	0x3e49f2ae	0.19721481
229	0xbdd0f7a7	-0.10203486
230	0xbdf49dc5	-0.11944155
231	0xbdd22436	-0.10260813
232	0xbe64ab27	-0.22330914
233	0xbe2be98e	-0.16788313
234	0xbe628ca0	-0.22123957
235	0xbc0dd623	-0.008657011
236	0x3cd0d89c	0.025493912
237	0xbd7eecdb	-0.0622376
238	0xbe2c5f62	-0.1683326
239	0x3e45299d	0.19254155
240	0xbdaf6927	-0.08564978
241	0x3de9b609	0.114116736
242	0x3e3e6fbf	0.18597315
243	0xbe32e50d	-0.17470188
244	0xbcdfee5e	-0.027335342
245	0x3e01add1	0.12663962
246	0x3e75d799	0.24008025
247	0xbcd9fb19	-0.02660899
248	0x3e31402a	0.17309633
249	0xbe41dcb6	-0.18931851
250	0xbe0c643b	-0.1371011
251	0x3e4ecc9d	0.20195241
252	0xbce2c963	-0.02768392
253	0x3e8788c0	0.2647152
254	0x3d119dbe	0.035550825
255	0xbded9235	-0.116001524

encoder.node_encoder.module_5.bias f4 [16]
0	0x3e730dbd	0.2373571
1	0x3e4cd416	0.2000278
2	0x3c0c95ab	0.0085806055
3	0xbe0fa217	-0.14026676
4	0x3b29eb47	0.002592759
5	0xbe002a4a	-0.12516132
6	0x3e3e948c	0.18611354
7	0x3c3f5ec8	0.011680312
8	0x3d98f9ff	0.07469558
9	0x3e11c6e1	0.14236023
10	0x3de3b609	0.11118705
11	0xbe2c2f91	-0.1681502
12	0x3e62b115	0.22137864
13	0x3e04bba1	0.129622
14	0xbe253f25	-0.16137369
15	0x3e1e665a	0.15468732

encoder.node_encoder.module_7.linear.weight f4 [16, 16]
0	0x3db2d2c5	0.08731607
1	0xbd7b6d54	-0.06138356
2	0xbe2898a0	-0.16464472
3	0xbd8b27c9	-0.06794698
4	0xbe7fd54a	-0.24983707
5	0x3dfbae91	0.12289155
6	0x3e5215e2	0.2051616
7	0xbddf8d6f	-0.10915648
8	0x3e8f5d9f	0.28001115
9	0xbdbb4d2c	-0.09145579
10	0x3d73c964	0.059518233
11	0xbe2710a0	-0.16314936
12	0xbcfdf65b	-0.03100126
13	0x3dd43a43	0.10362675
14	0x3dd55cba	0.10418077
15	0xbc685dbf	-0.014182507
16	0xbdfa763f	-0.12229585
17	0x3e256194	0.16150504
18	0x3e2ca0de	0.16858241
19	0x3d0cfb7d	0.034419525
20	0xbded0870	-0.11573875
21	0x3cb155df	0.021647392
22	0x3b656a90	0.0035006143
23	0x3e53f797	0.20699917
24	0x3d79b817	0.060966577
25	0x3be6b7a6	0.0070409356
26	0x3ce5d38c	0.028054975
27	0x3e0b2b4e	0.13590738
28	0xbc2ab1b3	-0.010418343
29	0x3e64f4e7	0.22359048
30	0x3e001ad0	0.12510228
31	0xbe4ac080	-0.19799995
32	0x3ab4b40a	0.0013786566
33	0xbe65237b	-0.22376816
34	0xbe49e59c	-0.19716495
35	0x3d54bdaa	0.05193869
36	0x3d827376	0.06369679
37	0xbd07746d	-0.033070017
38	0x3e6de05e	0.2323012
39	0xbe07e090	-0.13269258
40	0xbde69566	-0.11258964
41	0xbd2f3d10	-0.042782843
42	0xbcacf4e8	-0.021112874
43	0xbc76d5d3	-0.015065628
44	0x3e6bb72c	0.23019093
45	0xbdabdf21	-0.08392168
46	0xbdf9ff19	-0.12206859
47	0x3b19432d	0.0023385987
48	0x3e5096e0	0.20370054
49	0x3d80fadf	0.0629785
50	0x3e1ad36c	0.15119714
51	0x3d76d810	0.060264647
52	0x3e58d66c	0.21175545
53	0x3e0d901e	0.13824508
54	0x3e480603	0.19533543
55	0xbd18984f	-0.037254628
56	0xbe497e3f	-0.19677065
57	0xbde5e5be	-0.112254605
58	0x3daf5975	0.085619844
59	0x3e189cc5	0.14903553
60	0xbdc2f26d	-0.09518895
61	0x3e5c743b	0.21528713
62	0x3cfdeb0f	0.030995874
63	0x3c6a16fd	0.014287707
64	0x3b963b0e	0.0045846766
65	0xbd928bf2	-0.07155599
66	0x3e736b03	0.2377129
67	0xbc8885ae	-0.016665306
68	0x3e17eb24	0.14835793
69	0xbe65527f	-0.22394751
70	0xbdfdaca8	-0.12386447
71	0xbc4fdf53	-0.012687522
72	0x3e7c82da	0.24659291
73	0x3de21992	0.110400334
74	0x3d8292c1	0.06375647
75	0xbe85a79b	-0.26104435
76	0xbcac0790	-0.0209997
77	0xbe4914cd	-0.19636841
78	0xbe633ad1	-0.22190405
79	0x3be99916	0.007128845
80	0xbe157942	-0.14597037
81	0x3e5ef4ef	0.21773122
82	0xbdf836de	-0.1211984
83	0x3daef216	0.08542268
84	0x3e137527	0.14400159
85	0xbe5c0a22	-0.2148824
86	0x3e18dea4	0.1492868
87	0xbd853ee8	-0.06506139
88	0x3e3d3c42	0.18480018
89	0x3e8031d9	0.2503803
90	0xbdbfe954	-0.09370676
91	0xbdc318fa	-0.09526248
92	0x3e45101d	0.19244428
93	0x3d06b7b0	0.03289002
94	0xbcf3a206	-0.029740345
95	0x3e374b90	0.17899919
96	0xbdceee78	-0.10104078
97	0x3c9c11f0	0.019051522
98	0x3e1e353b	0.15449993
99	0x3db5f593	0.0888473
100	0xbe245eb0	-0.16051745
101	0x3db50556	0.088389084
102	0xbe469585	-0.19392975
103	0xbda947ce	-0.08265649
104	0x3dde46b7	0.108533315
105	0xbd7c962b	-0.06166665
106	0xbe0cb65d	-0.13741441
107	0x3afdfc04	0.0019377475
108	0x3d8f5d74	0.07000247
109	0xbe0d3603	-0.13790135
110	0xbe1d822d	-0.1538169
111	0xbe4d81d1	-0.20069052
112	0x3d6892e7	0.056780722
113	0xbe21d4a2	-0.15803769
114	0x3c39224c	0.011299681
115	0xbd25c3fa	-0.0404701
116	0xbe26e61c	-0.16298717
117	0xbd9de39a	-0.07709427
118	0xbe5226a3	-0.20522551
119	0xbdfd209b	-0.123597346
120	0xbd3eb303	-0.046557438
121	0xbe5bfcb7	-0.21483122
122	0xbe6bca05	-0.23026283
123	0x3e3d81d0	0.18506551
124	0x3d416676	0.047216855
125	0xbdd6fadf	-0.104970686
126	0xbc1ad441	-0.009450019
127	0x3e46f6e5	0.1943012
128	0xbe52c1da	-0.20581761
129	0xbdfa55ab	-0.12223371
130	0xbe4837d7	-0.19552551
131	0xbcf23935	-0.029568294
132	0xbca46fd3	-0.020072853
133	0xbe392d58	-0.18083704
134	0x3e3372bc	0.17524236
135	0xbe2e92c3	-0.17048173
136	0x3e5db6d8	0.2165178
137	0xbe2e392c	-0.17013997
138	0xbd4a736d	-0.049426485
139	0x3d25b32f	0.040454086
140	0xbdcae60c	-0.09907159
141	0x3e74ff5e	0.2392554
142	0xbe256ba7	-0.16154347
143	0xbb14e565	-0.0022719738
144	0xbe5903f0	-0.21192908
145	0x3d8237d6	0.06358306
146	0x3e545f86	0.20739564
147	0x3e8391ac	0.25697076
148	0x3d36ec64	0.044659033
149	0xbdf1117e	-0.117709145
150	0x3e4fee4c	0.20305747
151	0x3d377e60	0.044798255
152	0x3de54d7c	0.111964196
153	0xbe12c37f	-0.14332388
154	0xbdf4ab89	-0.1194678
155	0xbe5c2174	-0.21497136
156	0x3e84f8b5	0.25970998
157	0x3d064ce0	0.032788157
158	0xbe471ceb	-0.19444625
159	0x3ce83e74	0.028350092
160	0xbdfbb4cf	-0.12290346
161	0x3ca7962b	0.020457348
162	0x3d82f155	0.06393687
163	0xbdcc759e	-0.09983371
164	0x3d438974	0.047738507
165	0xbe09959b	-0.13435976
166	0x3c92b5c4	0.017908938
167	0xbe474e13	-0.19463377
168	0xbcc6caa2	-0.024266545
169	0x3e739190	0.23785996
170	0x3e58f755	0.211881
171	0x3dc690fc	0.09695622
172	0x3e53d1da	0.20685521
173	0x3e7e0d28	0.24809706
174	0x3d98b651	0.07456649
175	0x3dbf2696	0.093335316
176	0x3d1478d4	0.036248043
177	0x3e45e2c9	0.19324793
178	0x3e5d3f67	0.21606217
179	0xbdf45f9e	-0.119323
180	0xbcafcf80	-0.021461248
181	0xbe1ac892	-0.15115574
182	0x3de4a043	0.1116338
183	0xbe9327d6	-0.2874133
184	0x3e0db6fb	0.13839333
185	0xbd8e41e7	-0.069461636
186	0x3dc51986	0.09624009
187	0x3d931cef	0.07183253
188	0xbe1ac70c	-0.15114993
189	0x3def9653	0.11698594
190	0x3dd31413	0.10306563
191	0xbe76ffd7	-0.24121033
192	0x3e8ab419	0.2709053
193	0x3e68ee30	0.22747111
194	0x3e11e8b0	0.1424892
195	0xbcb43d2f	-0.02200183
196	0x3d98b381	0.07456113
197	0xbe02ba6c	-0.12766427
198	0xbda588de	-0.08082746
199	0x3e167bfd	0.14695735
200	0x3da263c4	0.07929185
201	0x3dc99cf0	0.098443866
202	0xbe816d5c	-0.25278747
203	0x3e4f19e1	0.20224716
204	0xbdcf6249	-0.10126168
205	0x3e6fc58d	0.23415203
206	0x3e55e6ce	0.20888826
207	0x3dfb31ed	0.12265382
208	0x3e885c4c	0.26632917
209	0x3dfaae85	0.12240318
210	0x3e236238	0.15955436
211	0xbda71697	-0.081586055
212	0x3e6a2af7	0.22867952
213	0x3d46cefa	0.048537232
214	0x3e38f1ec	0.18061036
215	0xbdd2aa4b	-0.10286387
216	0x3e7c7516	0.2465404
217	0x3e621fd8	0.2208246
218	0xbe38ba7c	-0.18039888
219	0x3e56316a	0.20917287
220	0xbe44cea0	-0.19219446
221	0xbe33ea53	-0.17569856
222	0xbe51c18c	-0.20483989
223	0x3d526e9c	0.051375017
224	0xbe3172b0	-0.17328906
225	0xbdcb3954	-0.09923044
226	0xbde87c17	-0.11351793
227	0x3d2b8fad	0.041885067
228	0xbe793a51	-0.24338652
229	0xbe1a6242	-0.15076545
230	0x3cbe0bb2	0.023198936
231	0xbb04e6a5	-0.0020279076
232	0xbd8e26d1	-0.069409974
233	0x3dc10cb2	0.094262496
234	0xbe164c2c	-0.14677495
235	0xbe54aff6	-0.20770249
236	0xbd3ea5a9	-0.046544705
237	0xbe055425	-0.1302038
238	0x3e1f5d3d	0.15562911
239	0xbe35c4f0	-0.17750907
240	0xbd4580c8	-0.04821852
241	0x3dca4a8e	0.098775014
242	0xbe6e6d5f	-0.2328391
243	0x3e41a0c6	0.18908986
244	0xbde84bd5	-0.11342589
245	0xbd3622e7	-0.04446688
246	0xbe4728a9	-0.19449104
247	0xbd8acb6a	-0.067770794
248	0xbe2b870a	-0.16750732
249	0xbe7635e2	-0.24043992
250	0x3d887b2d	0.06664119
251	0x3b972e00	0.004613638
252	0x3e8bf99b	0.2733887
253	0x3e25c5f0	0.16188788
254	0x3e5472ec	0.20746964
255	0x3da49027	0.080353074

encoder.node_encoder.module_7.linear.bias f4 [16]
0	0x3e040085	0.12890823
1	0x3e65779a	0.22408906
2	0x3e4e0118	0.20117605
3	0xbe43fc39	-0.19139184
4	0xbd910347	-0.07080703
5	0xbe73c758	-0.23806512
6	0x3cf07f78	0.029357657
7	0xbdb3efe1	-0.08785988
8	0x3e65e452	0.22450379
9	0x3cf2c43e	0.029634591
10	0xbafede94	-0.0019444996
11	0xbe43d22c	-0.19123143
12	0xbe4a2938	-0.19742286
13	0x3d22933c	0.039691195
14	0xbe06ea4d	-0.13175316
15	0xbe0135c0	-0.1261816

encoder.node_encoder.module_8.weight f4 [16]
0	0x3f831882	1.0241854
1	0x3f818623	1.011906
2	0x3f80048d	1.0001389
3	0x3f7f5bd0	0.9974947
4	0x3f81fd03	1.0155338
5	0x3f777059	0.96655804
6	0x3f7f76cd	0.9979065
7	0x3f832d49	1.0248195
8	0x3f803715	1.001681
9	0x3f82735a	1.0191453
10	0x3f7cbeee	0.98728836
11	0x3f81da38	1.014472
12	0x3f8048bd	1.0022198
13	0x3f801797	1.0007199
14	0x3f8436b1	1.032919
15	0x3f82281e	1.0168493

encoder.node_encoder.module_8.bias f4 [16]
0	0x3c6c9dd7	0.014441929
1	0xbc8ab788	-0.016933218
2	0xbca2687d	-0.019825215
3	0x3bf80751	0.0075692316
4	0x3cc1d133	0.023659324
5	0xba14e258	-0.000567948
6	0xbc664256	-0.014053902
7	0x3b6bac99	0.003596103
8	0xbc6396be	-0.01389092
9	0xbc795788	-0.015218623
10	0xbc509a68	-0.012732126
11	0xbc671ba8	-0.014105715
12	0x3cf91427	0.030405117
13	0x3c48edeb	0.012263755
14	0xbc1757dc	-0.009237256
15	0x3cf1dfa6	0.02952559

encoder.node_encoder.module_8.running_mean f4 [16]
0	0x3e2736c9	0.16329493
1	0x3eef178b	0.4669765
2	0x3f700e30	0.9377165
3	0xbec833d9	-0.39102057
4	0xbc3bafa1	-0.011455447
5	0xbf1dd905	-0.6165927
6	0x3ef6433f	0.4809818
7	0xbf0894af	-0.53351873
8	0x3f5bcd7c	0.8586042
9	0x3f53cf7a	0.8273846
10	0x3fc1b822	1.5134318
11	0x3f1f555b	0.6223962
12	0x3fb9974e	1.44993
13	0x3f52c6c5	0.8233455
14	0xbe913bb8	-0.28365874
15	0x3f9e5516	1.2369716

encoder.node_encoder.module_8.running_var f4 [16]
0	0x3f281fe9	0.6567369
1	0x3f7dc682	0.99131024
2	0x3eb4861d	0.3525857
3	0x3e35e65c	0.17763656
4	0x3f26c930	0.6515074
5	0x3f943160	1.1577568
6	0x3e5b2031	0.21398999
7	0x3e0ae2ab	0.1356303
8	0x3fcf48ba	1.6194069
9	0x3ed54cae	0.41660064
10	0x3ee1ecd0	0.44125986
11	0x3f04bbfa	0.5184933
12	0x3d7f51b4	0.062333778
13	0x3f6d19ac	0.926173
14	0x3ffb1098	1.9614439
15	0x3fa97d48	1.3241358
