dagformercheckpoint/dagformermodel449.pt (torch, 187067 bytes, 155 tensors)

encoder.node_encoder.module_0.weight f4 [16, 5]
00000000: 48ef a53e 2997 c23e 5f59 15be 04e4 d23e
00000010: 4204 cdbd b6ea c83d 7510 41be 7d2e 923e
00000020: 777b c53e eb0f aabe 6c36 b33e dda4 733d
00000030: 7db5 ca3e d0d0 7d3d af6a 673e 8273 00be
00000040: 7645 b13e 7c7d b33d b342 68be 2a4a a73d
00000050: 546f 42be 80cb 8bbd b85c 72be da90 923e
00000060: 8f71 a2be d0d6 27be de87 03be 14e4 adbe
00000070: 1472 023d 0806 e4be 223a bc3e 00b5 b3be
00000080: dc99 ec3e dcfa f63d 54fe fabd 4e9d 8d3e
00000090: 68d2 0e3d 043f d93e 3973 ba3d 97d5 d3bd
000000a0: 6e4b a43d a103 07be 77b3 de3d 89de cc3e
000000b0: 97a4 653e ba6e 60be a477 763e bd87 a63c
000000c0: fc19 5d3e 8f5e 93be 8b4e f0be 751c 33be
000000d0: faae 9cbe 3796 af3e 0bb4 033e ba89 413e
000000e0: 0d07 0f3e 8da8 99bd 698c bc3e 0a3c a1be
000000f0: b714 8439 c172 89be 63a6 553e 7ec9 1dbe
00000100: 114d 0e3e e607 ccbd ee17 be3e 8d7d b7be
00000110: 649d 91be b4ca 85be 8e9e d33e 5765 053e
00000120: ae3e f43e 2499 bfbe ecf4 e6be 12ac c1be
00000130: eb89 95be a4d8 943e 8e1e 363e b947 be3e
0.3240912 0.3800595 -0.14584874 0.41189587 -0.10010578 0.098103926 -0.18853934 0.28551093
0.3857076 -0.3321527 0.35002458 0.059483398 0.3959159 0.061966717 0.2259929 -0.12544063
0.34623307 0.087641686 -0.22681694 0.081684425 -0.18987781 -0.06825924 -0.23668182 0.28626138
-0.31727263 -0.16390538 -0.12844798 -0.33963072 0.031847075 -0.4453585 0.36763102 -0.3509903
0.46211135 0.120595664 -0.122555405 0.27659076 0.034868628 0.4243089 0.09104008 -0.103434734
0.080221996 -0.13184978 0.10874074 0.4001353 0.22426067 -0.21917239 0.24069077 0.020328397
0.21591944 -0.2878308 -0.46934924 -0.17491324 -0.30602247 0.34294292 0.1286165 0.18900195
0.13967533 -0.07502852 0.36825874 -0.3149112 0.00025192436 -0.26845363 0.20864253 -0.15408894
0.13896586 -0.09962444 0.37127632 -0.35837975 -0.28440392 -0.26131213 0.41331905 0.1302694
0.4770407 -0.37421525 -0.45108736 -0.37826592 -0.29206786 0.29071534 0.17785093 0.37164095

encoder.node_encoder.module_0.bias f4 [16]
00000000: 8277 7dbe b34b abbe 1298 833e 5351 74be
00000010: 9f9a 8e3e 7334 dcbd a431 8a3e 442b b2be
00000020: ee95 52be 7971 0d3e 2966 bd3d 98ea fdbd
00000030: c169 923e 55ad 9a3e 53b4 aabe a91f 7abe
-0.2475262 -0.3345619 0.25701958 -0.23859148 0.27852342 -0.107521914 0.26990998 -0.34798634
-0.20565006 0.13812818 0.09248001 -0.12398261 0.2859631 0.30210367 -0.333407 -0.2442614

encoder.node_encoder.module_1.frequency f4 [8]
00000000: 0000 803f a15a 893e 4264 933d ab29 9e3c
00000010: 95b8 a93b bb1f b63a ea6e c339 17b7 d138
1.0 0.26826957 0.07196857 0.019306978 0.0051794746 0.0013894954 0.00037275936 1e-04

encoder.node_encoder.module_3.weight f4 [16]
00000000: 0eea 853f 5735 7f3f 4497 833f 3306 813f
00000010: 8303 803f 159b 833f d8e4 833f 6f37 823f
00000020: 263f 803f a2f2 813f 2eef 793f 6c66 803f
00000030: 0311 833f d6b5 823f c3e3 783f 7143 843f
1.0462053 0.99690765 1.0280538 1.0080017 1.0001072 1.0281702 1.0304213 1.0173167
1.0019271 1.0152171 0.97630584 1.0031257 1.0239567 1.0211742 0.97222537 1.0333081

encoder.node_encoder.module_3.bias f4 [16]
00000000: 9b10 61bc 8483 693c 4082 703c ef6a 11bc
00000010: 2296 143d 723c 17bc 2eac 72bc 0581 1fbd
00000020: 61c0 933c 3cec afba 0443 96bc 9ce0 083c
00000030: 6f62 1dbd d45d 0a3c dacc dabc 94a5 a4bc
-0.013736869 0.014252547 0.0146794915 -0.008875593 0.03627599 -0.00923072 -0.014811559 -0.038941402
0.01803607 -0.0013421844 -0.018342502 0.008354332 -0.03842395 0.008445222 -0.026709009 -0.020098485

encoder.node_encoder.module_3.running_mean f4 [16]
00000000: 3cc9 b5bd ac2d 413e 6eef 4c3f 8405 f1be
00000010: 1838 cb3d 568d 1dbf 66c1 153f 794a 8ebe
00000020: e1ff 2e3f c4af 163f f3b4 b83f 0c91 363f
00000030: 88d3 c43f abbe f43e 25f5 debc 6ae1 c03f
-0.08876273 0.18865079 0.8005284 -0.4707452 0.099228084 -0.61543787 0.5849823 -0.27791193
0.6835919 0.5886195 1.4430221 0.71315074 1.5377054 0.47801718 -0.027216503 1.5068791

encoder.node_encoder.module_3.running_var f4 [16]
00000000: 5f38 0a3f b392 5f3f a47f aa3e b114 ca3d
00000010: b616 043f 0d72 a03f f980 073e b468 963d
00000020: 2c3e ab3f b6e4 f73e 98cb 933e ee62 003f
00000030: c71c 183e ec3b 3a3f e3ab de3f 937d 903f
0.53992265 0.8733322 0.33300507 0.09867228 0.51597154 1.2534806 0.13232793 0.07344189
1.3378348 0.4841668 0.28866267 0.50150955 0.14854728 0.72747684 1.7396206 1.1288322

encoder.node_encoder.module_4.lin_key.weight f4 [16, 16]
00000000: 7455 a13d ec80 aabd 4f30 0cbb 0935 e5bd
00000010: 3af8 943d f236 283e f165 45bd 0c58 6b3e
00000020: 561f 863e 35a2 33be d3ec 27be 7bda 26be
00000030: 45af 33be ba95 f0bd 48b2 12bd 0ded 48bd
00000040: c10c 2cbe 766f 87bd 6369 e0bd e456 8f3e
00000050: 764d c0bd c9aa 20be 9d17 d43d 40ed 1fbc
00000060: 5c73 db3d 143c 163e 7532 393e f1bd 42be
00000070: 0562 2a3e d8ef 7f3e c18a afbd db0e 493e
00000080: d054 213e 3f70 d23c 420c d83d f1ed c2bd
00000090: 953e 4dbe e412 ac3d 4c69 bc3d dbd3 15be
000000a0: afd3 e03d 7a67 5dbe 9793 3d3e cb3d 843e
000000b0: 8107 513d e647 06be 6df1 153e df01 9a3c
000000c0: 6556 5b3d d4a0 8e3d ac32 453e ae2d b3bd
000000d0: d491 95bd 469b 733d 39da 1e3c 9296 3f3e
000000e0: b0f2 2abe 6a3b c0bb 7ec1 503d e928 adbd
000000f0: 1480 413e 3a35 c03c a975 71be 4145 aebc
00000100: 082e 08be 071a 3b3d 6fe4 46bc 477e 75be
00000110: 938c 1fbd b24b b0bc 4322 86bd a4fe 713e
00000120: 7f38 38bd c0fb 083e 2d4d 833d 9a07 53be
00000130: 4de8 583d a57d 503e 7b75 29be 4864 24be
00000140: 3c69 8b3e 9923 3a3e 7ba2 03be 8208 163e
00000150: 1d14 26bd 5189 85be 01d7 eb3b 55cc 8e3d
00000160: c563 69bd d655 ad3d bd13 41be 42f5 2a3e
00000170: 9229 623e 47b5 f13d 7fda bd3c 078f cb3d
00000180: a45f 7bbe edbd f7bc 5010 8bbc 9576 00be
00000190: cf95 34be 764e 373e d274 393e c5b7 5cbe
000001a0: 9da7 6b3d d439 923d 4c0d 5e3e 65ae 193e
000001b0: bb9b 643e 5803 8cbd 7834 413e 19e5 433e
000001c0: 5464 9cbe 2c8f 4ebe 0425 b63d 3da3 463e
000001d0: 1a5e 1ebe d60a d43b e08f f1bc 217e 103d
000001e0: b49d 0abe 4052 a03d b5b0 273e da66 54be
000001f0: 5963 113d 7fb8 2cbc 787b 8a3d b11a 7f3e
00000200: 88c1 153e c183 f0bc 5b4b 413e b213 17be
00000210: a06b 0dbd f658 4d3d a132 1dbe 9b6c 7d3d
00000220: 4b9b 39be e90e 923d 57b2 2c3b 20bb 993d
00000230: 9171 80be 650a 57be 0ebc 123e a2a8 3c3e
00000240: d9fb 76be bb35 793d 22c5 19be 6d64 7e3d
00000250: d09c 473e 35bc 1f3e dff4 60be d6fd f53d
00000260: 63d5 0a3e 1984 20bd 43e6 873e 0cf2 0dbe
00000270: a981 94bc e6ea 1ebe ef3d ee3b 75c6 c73d
00000280: 5e08 733d 2ca7 b8bd 0079 26be ba26 ba3c
00000290: a1de 27be 6187 413c dd62 473d 741a 4cbd
000002a0: 2eca 8d3d d7ef 933d 1075 0b3e fdfb 0d3d
000002b0: 5423 5dbe 6a7b 633e 5f7d a43d 2051 f5bd
000002c0: 87cd 17be a697 bc3d 5536 89be 2925 203d
000002d0: 0631 1e3e 574b 40be a00e 07be 02f5 17be
000002e0: 3af6 3c3e 5644 723e 5f8a 9ebc dc8c 873e
000002f0: 20a9 ebbd 65a9 56be a66e f43d 6f07 663d
00000300: 4e22 883e bfc3 993c 5ac0 1f3e 71d6 083e
00000310: ba60 543e 7be2 5ebe 3604 6d3e bba8 3dbe
00000320: 32a0 463e 37f5 d73c 4bce 83be 553e c13d
00000330: 941f 9dbd 9efc 42be 09b8 6bbd 9f2d dbbb
00000340: da54 263e 695b d0bd 8e0e 3f3e 1fb4 773d
00000350: c266 c5bc 0a94 5a3c cbaa 48be 58a5 76be
00000360: a41b 33bd 208d 8bbe 43a5 a3bd 3403 a2bc
00000370: e4aa 07be eb8c 0fbe f90a a5bd 29f9 df3b
00000380: 6536 2cbe e422 8abc acc3 313c 4db3 af3d
00000390: 41bb b7bc 3266 2abe bd9b f0bd 2e4d 1bbd
000003a0: ef8d d8bd 13ae a9bc 5321 0e3d bac3 873d
000003b0: da38 b93d 9da2 0d3e b3c2 63bd 2d7e 0ebe
000003c0: 22cc 0c3e 73ee 26be 36a0 84bd 7957 aebd
000003d0: c167 a6bd 0904 94bd 09e6 773e b141 233e
000003e0: 0483 3a3d a882 873e f870 83be 43d7 533d
000003f0: be7a 173e 59d8 453e 2663 31be 13ea 843d
0.07877627 -0.08325371 -0.00213911 -0.11191756 0.07273908 0.1642721 -0.048192922 0.22982806
0.26195782 -0.17542346 -0.16398935 -0.16294281 -0.17547329 -0.11747308 -0.035814553 -0.049054194
-0.1680174 -0.06613056 -0.10957601 0.2799598 -0.093897745 -0.1569015 0.103560664 -0.009761155
0.107153624 0.14671355 0.18085654 -0.1901777 0.16638954 0.24993837 -0.08571387 0.19634573
0.1575501 0.025688289 0.10549213 -0.0951804 -0.20043404 0.084020406 0.09199771 -0.14631598
0.109778754 -0.21621504 0.18513332 0.25828394 0.051032547 -0.13113365 0.14642878 0.01879972
0.05354919 0.06964269 0.19257611 -0.08748947 -0.07303205 0.059474252 0.009695583 0.18709782
-0.1669414 -0.0058664577 0.05096578 -0.084550686 0.18896514 0.02346288 -0.2358004 -0.021273257
-0.1329881 0.04567912 -0.012139424 -0.23973952 -0.03895242 -0.02152047 -0.06549504 0.23632294
-0.044975754 0.13377285 0.064112045 -0.20608369 0.052955914 0.2036043 -0.16548721 -0.1605388
0.27228725 0.18177642 -0.1285495 0.14651683 -0.040546525 -0.26081327 0.0071972613 0.06972567
-0.056979913 0.084636375 -0.18855186 0.16695121 0.2208617 0.11802154 0.023175476 0.0993939
-0.24548203 -0.03024193 -0.016975552 -0.12545235 -0.17635272 0.17901024 0.1811097 -0.21554478
0.057532895 0.07139936 0.2168476 0.15007932 0.22325031 -0.06836575 0.18867671 0.19130363
-0.30545294 -0.20171803 0.08893779 0.19398208 -0.15465584 0.0064710183 -0.02948755 0.035276536
-0.13536721 0.07828188 0.16376002 -0.2074236 0.035495136 -0.010542034 0.06761831 0.24912526
0.14624608 -0.0293597 0.18876402 -0.14753607 -0.034526467 0.050133668 -0.15351345 0.061871152
-0.18125646 0.0713175 0.0026351416 0.075063944 -0.25086644 -0.21000059 0.1432955 0.18423703
-0.2411951 0.060842257 -0.15016606 0.062107492 0.19493413 0.15599139 -0.21968411 0.12011306
0.13557963 -0.03918848 0.26542863 -0.13861865 -0.018128233 -0.15519294 0.0072705667 0.097546495
0.05933415 -0.090162605 -0.16257095 0.022723544 -0.1639352 0.011812062 0.048678268 -0.049829915
0.06923328 0.0722348 0.13618875 0.034664143 -0.21595508 0.22215047 0.08031725 -0.11978364
-0.14824496 0.09208612 -0.26799265 0.03909794 0.15448388 -0.1877874 -0.13189173 -0.14839557
0.18453303 0.2365888 -0.01935309 0.26474655 -0.115068674 -0.20963056 0.11935167 0.056159433
0.26588672 0.018770097 0.1560072 0.13363053 0.20740023 -0.21766083 0.23146138 -0.18521397
0.19397047 0.026362045 -0.25743327 0.09435717 -0.07672039 -0.19041678 -0.057548556 -0.006688788
0.16243306 -0.10173685 0.18657896 0.06047451 -0.02409685 0.013340959 -0.19596402 -0.24086511
-0.043727532 -0.27256107 -0.079905055 -0.019776918 -0.13248783 -0.140186 -0.080587335 0.006835122
-0.16817625 -0.01686234 0.0108498745 0.08579121 -0.022428157 -0.16640547 -0.11748455 -0.0379154
-0.10573947 -0.020712888 0.03469975 0.06629129 0.09044047 0.13831563 -0.0556056 -0.1391532
0.13749745 -0.16301899 -0.0647587 -0.08512778 -0.08125258 -0.07227332 0.24208845 0.15943028
0.045535102 0.2646687 -0.25672126 0.05171896 0.14792916 0.19320811 -0.17322978 0.064899586

encoder.node_encoder.module_4.lin_key.bias f4 [16]
00000000: a7cb 11be 2d1c 20bc e7af 55bd 87c4 55be
00000010: fa28 74be 7a6b 28be 3c56 e83d 6d2f ea3d
00000020: aaab 5ebe 9459 c0bd 0c52 863b 0452 5dbe
00000030: 9044 103e 84d5 673e aa08 353d 6833 3ebe
-0.14237843 -0.009772343 -0.052169707 -0.2087575 -0.23843756 -0.16447249 0.11344573 0.11434827
-0.21745172 -0.09392086 0.004099136 -0.21613318 0.14088655 0.22640043 0.044197716 -0.18574297

encoder.node_encoder.module_4.lin_query.weight f4 [16, 16]
00000000: 3f8c 573b e963 c43d 8c85 573e 4068 31be
00000010: 2cde 7bbe 7fd3 ca3d bf0e 753d 9216 f3bd
00000020: fcee debd 87e7 39be c600 693e c16c b8bd
00000030: 5c37 733e ebc0 3a3e 7a52 1abb fe15 bd3d
00000040: 44c8 69bc 0eb1 3c3e e667 63be ea39 d33d
00000050: 1bb4 a0bc cc35 033e 4cba a7bb aa54 8ebd
00000060: a7c3 143b 73af 163e 4724 36be c669 05be
00000070: df15 9fbd 02a1 a5bd 159a d33d 9666 1d3e
00000080: 3913 58bd e85a 7f3e 1eba 91bd 4e9e 1ebe
00000090: a670 febd 5681 40be 7c07 14be c344 5abe
000000a0: cede 44be 7780 013d 55c4 303e 9cab 533e
000000b0: 3730 833e c5b3 68bd a910 df3c e533 dbbd
000000c0: 62b0 dc3d 66e3 69be 3a94 ea3d a9a7 5a3d
000000d0: 2fd4 c33d e4c7 dd3d 466e e8bd c579 7b3e
000000e0: bba4 0f3e 8a46 3a3e 757c a43c dfb5 303e
000000f0: d1f9 243e 806c f93d f1df 533e fdcf 52bd
00000100: bfd5 0d3e d3b0 6f3d 1a44 303e 5f07 653e
00000110: 9b31 f53c 1619 edbd ce84 cf3b 359d 6e3d
00000120: 0ec9 013d dc5b debd d768 593e 2e8d e33d
00000130: 4a8a e2bd 0b59 67bd 92eb 30bd 9453 fcbd
00000140: 61fd d13c 5064 65bd d533 1ebe 56ab d9bd
00000150: d6b0 82bd d201 8b3e dcfb d83d 736e 583e
00000160: 83a1 723d 7a98 763c a7ca f93d 8090 233d
00000170: a0f7 3ebe ee7f 22be 960a 9ebd c189 ba3b
00000180: 4092 c13d b40d 9a3d 0797 613e c726 9f3d
00000190: cfc6 ddbd 0acc 57be 2643 46be 5609 fabd
000001a0: eebb a53d 20f3 2d3e 9251 4b3e 687a a3bd
000001b0: aa47 d5bc 68ca 7bbd 3746 7c3c 591b 9e3d
000001c0: 6245 68bc d7ad 60bc 5363 9b3d 3533 f33d
000001d0: c6dc efbd d216 43be 7e11 533d 511c 42bc
000001e0: bd70 bcbd 40be ea3d 4eba 2ebb b085 67bd
000001f0: 8f3a e2bd d526 33bd dc87 5ebe 6357 9f3d
00000200: 1dd2 6d3c ea07 2f3e 94f0 30bc 81e1 083d
00000210: fc99 ca3d f816 603e 7e5c 0dbe 6c61 293e
00000220: 189e cf3b d5b4 11be ab9c 853d 1576 ecbd
00000230: 155c ebbd 25a1 a3bd a0a2 0cbe 46f7 1f3e
00000240: 5a41 6fbe 4a0c b53d 5a3c 71be 7e5c f7bb
00000250: 3d16 b0bc 7438 263e 1add cbbd 6e99 c03d
00000260: 14d1 263d d0d9 463e 004b 6ebc 6e19 8f3d
00000270: a8c0 0fbe c806 2bbe bdff 753e 6bc8 3bbe
00000280: 7f02 a7bc a423 1dbd 1579 883e a113 aebd
00000290: 5194 48be 7716 a9bd 50c8 063e 32e8 113d
000002a0: 6a88 783e bc1c e8bd 94e9 433e 2c57 84be
000002b0: 4073 f73d 11a7 8f3d a646 c83d 77e1 c7bd
000002c0: dc11 35bd 14d4 30bc 7dab 16be 3127 67be
000002d0: 0dfc 9ebe 7be3 42bd 8c35 173e c1ab 1fbd
000002e0: 7c34 b23d ed95 4c3c cf38 82bd 0c12 87bd
000002f0: 0f21 963c 736f 52be 3c69 fb3d 22b9 d5bd
00000300: 30a4 2c3d e7e2 5ebe 3cdd e0ba 9c96 afbd
00000310: c959 a33d c55a 18be dd08 153e 3f00 37be
00000320: 6c3a d33d 4d7f 24be 550a da3d deaa c8bd
00000330: e0b1 75bc b852 b2bc 6c5b 383e e19d 8b3d
00000340: 156a 6dbe 461e 933c ffff 3cbe 65e0 403e
00000350: 7828 e03c d98e 90bd c8ef ebbd 3df5 df3d
00000360: 8ad2 4fbe 2808 1f3e 25be d33d 13d9 1a3e
00000370: 92bc 8f3d 7688 4dbe f606 553e b16d bcbd
00000380: 49eb c4bd a618 1abd 7c18 303e 873f 323e
00000390: 3a7b fa3c 05c0 003e 3867 5abe ded8 c3bb
000003a0: 1b4f 57be 2bc1 a13d 1e03 30be e237 ccbd
000003b0: 1bd6 433e 41dd 653e 5e20 1ebe c2db 08be
000003c0: 9c2b e73c 6c56 c43d 1f5e 13bc e469 aebd
000003d0: 7d9a 2dbe 334e b93d a894 7e3e 0667 17be
000003e0: 8af4 3f3e 5c2b 903d de50 7c3e 8a83 48bd
000003f0: b444 e93c f8f6 113e 0eaa e83d f3e4 943e
0.003288999 0.09589369 0.21047038 -0.17324924 -0.2459647 0.09903621 0.059828516 -0.11869539
-0.108854264 -0.18154727 0.22754201 -0.09005118 0.23751587 0.18237655 -0.0023547695 0.0923271
-0.014268938 0.18426916 -0.22207603 0.103137806 -0.019617131 0.1281349 -0.005118644 -0.06949742
0.0022699626 0.14715366 -0.17787276 -0.1302863 -0.077678435 -0.080873504 0.10332123 0.15371165
-0.052752707 0.24937022 -0.07115577 -0.15490076 -0.1242383 -0.18799338 -0.1445598 -0.21315293
-0.19225618 0.031616654 0.17262395 0.20670933 0.25622723 -0.056812067 0.027229624 -0.107032575
0.1077583 -0.22840652 0.11454053 0.05338255 0.09561955 0.10829142 -0.11349158 0.2455817
0.14027683 0.18190971 0.020078877 0.17256878 0.16110922 0.12178898 0.20690896 -0.051467884
0.13851069 0.058518242 0.17213479 0.22366093 0.02993088 -0.115770504 0.00633297 0.058255393
0.03168588 -0.108573645 0.212314 0.11110912 -0.11061533 -0.056481402 -0.043193407 -0.12320629
0.025633516 -0.05600387 -0.1544946 -0.10628383 -0.06381385 0.27149826 0.10594913 0.21135883
0.05923606 0.015051002 0.12196856 0.039932728 -0.18649149 -0.15869114 -0.07716863 0.005692691
0.09451723 0.07522145 0.22030269 0.07771068 -0.10828935 -0.21073928 -0.19361553 -0.12208812
0.08092485 0.16987276 0.19855335 -0.079823315 -0.026035149 -0.061472327 0.0153976 0.0772006
-0.014176698 -0.013713322 0.07587304 0.11875001 -0.11712031 -0.19051674 0.051530354 -0.0118475715
-0.092011906 0.114620686 -0.002666134 -0.05652398 -0.110463254 -0.043738205 -0.21731514 0.077803396
0.014515427 0.17092863 -0.010799546 0.033418182 0.098926514 0.21883762 -0.13804814 0.1654107
0.006335985 -0.14229138 0.06524023 -0.1154596 -0.11492173 -0.0798972 -0.13733912 0.15621671
-0.23364773 0.088402346 -0.23558179 -0.0075488677 -0.021494979 0.16232473 -0.09954281 0.094042644
0.040726736 0.19419026 -0.014544249 0.06987272 -0.14038336 -0.16701806 0.24023338 -0.18338172
-0.020386932 -0.038364068 0.26654878 -0.08499838 -0.19587828 -0.08256238 0.1316235 0.03562183
0.24270788 -0.11333606 0.19132072 -0.25847757 0.12082529 0.07014287 0.097791 -0.09759801
-0.044206485 -0.010792751 -0.14713855 -0.22573544 -0.31051674 -0.047580224 0.1476652 -0.038982157
0.08701417 0.012486917 -0.06358492 -0.06595239 0.01832631 -0.20550327 0.12275931 -0.10435702
0.04214877 -0.21766244 -0.0017155777 -0.08573648 0.079761095 -0.14878376 0.14554162 -0.17871188
0.103138775 -0.16064186 0.10646502 -0.09798215 -0.014996022 -0.021767959 0.18003625 0.068172224
-0.23184998 0.017958771 -0.1845703 0.188356 0.027363047 -0.07058496 -0.11520344 0.10935447
-0.20295158 0.15530455 0.103390016 0.1512187 0.07018389 -0.20071587 0.20803437 -0.092006095
-0.096151896 -0.037621163 0.1719684 0.17407046 0.030576337 0.1257325 -0.21328437 -0.0059767803
-0.2102627 0.07898172 -0.17188689 -0.09971596 0.19124644 0.22447683 -0.15442035 -0.13365081
0.028219037 0.09586796 -0.008994608 -0.08516291 -0.16953464 0.090481184 0.24861395 -0.14785394
0.18745628 0.0703952 0.24640223 -0.04895357 0.028475143 0.14254367 0.1136056 0.29080924

encoder.node_encoder.module_4.lin_query.bias f4 [16]
00000000: 5405 d8bd 163d d03d 013f 003e 5424 2ebe
00000010: 8dd8 8a3d 61e1 d6bc e14b fc3d 6b80 25be
00000020: d6e9 733d 0ddf d23d 7f94 56be b75a 61be
00000030: 909d 00be 7d2f 2b3e eb0a 233e c481 42be
-0.10547891 0.10167901 0.12524034 -0.17006046 0.06779585 -0.026230516 0.1231916 -0.16162269
0.059549175 0.1029645 -0.20955084 -0.22007261 -0.12560105 0.16717334 0.15922134 -0.18994814

encoder.node_encoder.module_4.lin_value.weight f4 [16, 16]
00000000: ecb1 9a3d 9d1f 16be cbef ecbd dbea 4f3e
00000010: 1067 ed3d 7495 aabd e3c7 0f3d fe61 103c
00000020: b9fe 9b3d d574 c3bd 8777 d8bd 411a 173e
00000030: 25e8 483d fe4a a03d f224 11be 4521 163e
00000040: 1207 3c3e 28ff 143e 8e7e f33d 57dc 813e
00000050: ce78 bcbc 40dd 243c 2de5 743e 7588 873e
00000060: 3414 06bd 964a 633e 5a69 e93d f0bb 21bd
00000070: 5220 6d3e 5969 2dbe c0b2 073e 33f7 953e
00000080: 8f74 34be 0d45 21be 5186 75be 80bf 42bd
00000090: 0593 68be af11 c8bd f8d3 a53d 69a7 4f3e
000000a0: 5615 463e c2f0 203e faaa e83d 266e 1bbe
000000b0: 461b 48be 00db 9dbb 6234 6c3e f071 063d
000000c0: b5f9 a1bd 1872 22be 797b 85bd fc7a 44be
000000d0: b0b0 283e f272 bbbd 9585 50be 6339 7b3d
000000e0: 540c 933d d5d6 58bd e6bf be3d 3caa f43d
000000f0: ee7e 61be c82a 66be 2bbc f7bc 9c7f 47be
00000100: ae90 89be 9df1 723e e689 65bb 982c 0ebe
00000110: 8dbc b8bd 4cd3 50be 43bf 6b3e 789c 6fbc
00000120: 2ed1 00be abd2 36be 4b51 153e fb57 37bd
00000130: d596 863b ebfc c1bd a02e dabd ba26 923d
00000140: faee 403e 728e 06be 940c 05bc 0ece 56be
00000150: 1b8b e4bd 1f2e 733e e2c5 a53c 718a 573e
00000160: d4d2 94bd d341 25be f1c6 04be 4b8d 473e
00000170: 3675 26be 2674 e43d cf5f 493d 3df9 bb3d
00000180: 6389 2c3e c53a a6bd 2f96 e73d 7957 3fbe
00000190: 5faa 87bd 1168 623e 132a 2a3d cc16 a1bd
000001a0: cb33 e5bd 500a 20be 3424 183e 8495 24bb
000001b0: de0b e2bc 6854 b93d 0434 3f3e 0f97 21be
000001c0: e6b8 ffbd 7025 5d3e db4e 563e 2e7a eebd
000001d0: 7067 85be c970 573c de3f 203e 82f6 f93d
000001e0: b8b2 503e a285 57be e181 eb3d 65fb 19be
000001f0: 2a2a 1c3e 1073 243e eefd b73d d4b8 683e
00000200: f17f 1ebe 0a4e 4ebe cc68 5abe 474d 1a3e
00000210: d958 903d 53dd 45be a1ab 1d3e bb14 8c3e
00000220: bdda 94be 08d6 323e 2b0a 7d3c 5b39 933c
00000230: c314 7b3e f62d 5c3e 4744 0b3e e015 4e3e
00000240: 91af 183e e219 c13c b557 53be 49ab af3d
00000250: 8f6b 4bbe 1b1e 8c3d 9968 433c 195f 8b3c
00000260: d0da 76be 6381 11be 0a16 0f3e 39c9 fa3d
00000270: 7f67 e53d 81f9 21bd 0eab 89bc 40d9 c3bd
00000280: 6fd2 2a3e 4b27 cabd 2441 4b3e 6765 2e3e
00000290: 07d8 8bbe 4fe2 26bd d5e3 f3bc 846f 06be
000002a0: 46bf dd3d 2761 49bd 4432 693e 89c0 45be
000002b0: ea03 163e c32f 80be 7e71 10be 3d81 713d
000002c0: 9a25 773e 75d0 0c3e ccfd 72be d373 833c
000002d0: 01f7 ffbd f1f9 153d 93be 58be 8aaa e4bd
000002e0: 5c08 fd3d 0fca 65be 78a9 60be 26e6 2e3d
000002f0: b045 113d e597 20bd 90b3 553e 5c23 20be
00000300: 33ef 28be 690f 40be a094 9cbd 2d70 a3bd
00000310: 9ec4 313e 0c7b 1b3c f9ff be3d 5848 c5bd
00000320: c597 383e 3ce4 693e d79e 6fbe c29b 57bd
00000330: 4f71 5bbe b096 f33d 65e4 4dbe 654e 0abe
00000340: 5444 783e 555e 70be 1221 533e b152 453c
00000350: e505 333e 7ae5 1bbe 192b 463e abaf 763d
00000360: 1588 ff3c aa79 383e 1b42 69be 222c 68be
00000370: 38e8 8b3e 7397 44be 7bab 3cbe 2825 103d
00000380: 9f07 5ebc d4a2 84bd 06dd 31be ca0d d63d
00000390: a8ff 71be 743a c73b 8032 fd3d d7d2 903c
000003a0: 24bf 7eba b615 2f3d 7e31 8bbd 62f7 8fbd
000003b0: cf74 cfbd ac60 28be e2fe 15be c7df 7f3e
000003c0: 9874 bcbd 350d d13d 4ce1 583e ff38 20bd
000003d0: 25b8 15be 5841 52be ac61 79bd 1b96 d43d
000003e0: 739a 1abe 6893 2abd 066b fd3d 1b8b 403e
000003f0: 06e3 d63d 5752 ae3b 9dfb 143e ef40 243e
0.07553467 -0.14660497 -0.115691744 0.20304434 0.11591923 -0.08329287 0.035102736 0.008812426
0.07616944 -0.09543768 -0.10569673 0.14756109 0.049049515 0.078268036 -0.1417425 0.14661129
0.18362072 0.1455046 0.11889373 0.25363418 -0.023006823 0.010062516 0.23915549 0.26471296
-0.03273411 0.22196421 0.11397047 -0.03948587 0.2315686 -0.16934718 0.13251781 0.2929016
-0.17622589 -0.15748997 -0.23977019 -0.04754591 -0.22712334 -0.09768998 0.080970705 0.20278706
0.19344077 0.15716842 0.11360736 -0.15178737 -0.19541654 -0.0048173666 0.23066857 0.032823503
-0.07908956 -0.15863836 -0.06517691 -0.1918754 0.16473651 -0.091527835 -0.20363458 0.061334025
0.07180086 -0.052939255 0.093139455 0.11946532 -0.22021076 -0.22477257 -0.030241093 -0.19482273
-0.26868194 0.2372498 -0.003502482 -0.13884199 -0.09020338 -0.20393103 0.2302218 -0.014624707
-0.12579796 -0.17853801 0.14581792 -0.04476164 0.004107336 -0.094720684 -0.10653424 0.07136293
0.18841162 -0.13140276 -0.008120675 -0.20977041 -0.11159345 0.23748063 0.02023596 0.21048905
-0.07266775 -0.16138391 -0.12966515 0.19487493 -0.1625565 0.11154966 0.049163636 0.09178398
0.16849284 -0.08116678 0.11307942 -0.18685712 -0.066242926 0.2211001 0.04154403 -0.07865676
-0.11191519 -0.15628934 0.1485756 -0.0025113532 -0.02759355 0.09049302 0.18672186 -0.1578028
-0.124864385 0.21596313 0.20928518 -0.11644398 -0.2605548 0.013149449 0.15649363 0.12205221
0.20380676 -0.2104707 0.11499382 -0.15037306 0.1525046 0.16059518 0.0898398 0.22726756
-0.15478493 -0.20146957 -0.2132904 0.15068541 0.07048196 -0.1932271 0.15397502 0.27359566
-0.29073134 0.17464459 0.015444319 0.017971685 0.24519639 0.21501908 0.13600264 0.20125532
0.14910723 0.023571912 -0.20638926 0.08577592 -0.19865249 0.0684168 0.0119267935 0.01701312
-0.24106908 -0.14209513 0.13973251 0.122454114 0.11201381 -0.039544586 -0.016805198 -0.095629215
0.16681837 -0.09870776 0.19849068 0.1703087 -0.27313253 -0.04074317 -0.029771725 -0.13128477
0.10827498 -0.049164917 0.22773081 -0.19311728 0.1464993 -0.2503644 -0.14105794 0.05896114
0.24135438 0.13751395 -0.23729628 0.01604644 -0.12498284 0.036615316 -0.21166448 -0.1116534
0.1235511 -0.2244036 -0.21939647 0.042699955 0.03546685 -0.039207358 0.20869279 -0.15638489
-0.16497497 -0.18755879 -0.076455355 -0.0798038 0.1736016 0.009489786 0.09326167 -0.09632939
0.18026645 0.22840971 -0.23400436 -0.052638777 -0.21429943 0.11893976 -0.20106657 -0.13506468
0.24244815 -0.23473485 0.20618084 0.012043641 0.17482717 -0.15224257 0.19352378 0.060226124
0.031192819 0.18015161 -0.22779123 -0.22673085 0.27325606 -0.19198398 -0.1842479 0.035191685
-0.013551622 -0.064763695 -0.1736947 0.10451849 -0.23632681 0.006079966 0.12363148 0.017678661
-0.0009717813 0.042745315 -0.06796549 -0.070296064 -0.10129701 -0.16443127 -0.14648011 0.24987708
-0.09201926 0.10207597 0.21179694 -0.039116856 -0.14621027 -0.20532739 -0.060884163 0.10380193
-0.1509798 -0.041644484 0.12373929 0.18803065 0.1049252 0.0053198743 0.14549108 0.16040395

encoder.node_encoder.module_4.lin_value.bias f4 [16]
00000000: 2c0a da3d 0dea 8ebd ff3d 58be d66f 2cbd
00000010: 8cce e6bc 408e 6dbb 3fa0 cebc 533a 9b3d
00000020: 9f5c 0a3e 88aa f6bd 7cca 85be 4a83 d7bd
00000030: 70e5 83bd ab9b 023e ef42 20be 6559 633c
0.106464714 -0.069782354 -0.211174 -0.042098843 -0.028174661 -0.0036248118 -0.025222896 0.07579484
0.13511895 -0.12044245 -0.26131046 -0.10523088 -0.06440246 0.12754695 -0.15650533 0.013876294

encoder.node_encoder.module_4.lin_skip.weight f4 [16, 16]
00000000: 9006 59bd ea5f 1bbe f414 e83d c446 d5bd
00000010: 20e5 53bc 5cfd 33be 908f cebc f07e 113d
00000020: 80ad 26bc c04e bfbd 581b 983d 70a8 84bd
00000030: 16ed 0dbe 62c8 3cbe d8e9 58bd 72d6 71be
00000040: 307c 543e bc98 f4bd a02e d4bd b050 bd3c
00000050: 38ba 843d 601c c1bc 329f 2f3e 303c 15be
00000060: b07d b73d 00ce 13ba a43f 50be 844b c6bd
00000070: 244c 823d 78a0 433d 8c25 3a3e 2043 2b3e
00000080: d4a0 0bbe 9ca3 dabd 6021 59bd 5667 37be
00000090: 1c3c 8abd f47c 51be 34bc c23d 9c22 353e
000000a0: 4027 a23c f443 37be f0de 41be 3852 c7bd
000000b0: bcea 943d c0d1 c73b 882f 3a3d 7446 713e
000000c0: 58cb ed3d e02e 5c3d 782d 4fbd 7833 f23d
000000d0: 744f bb3d 1a6d 66be b438 17be 407c 093c
000000e0: 4446 c23d e816 f93d 2e64 18be 34fb 7dbe
000000f0: 005e 55bc 301f eabc 7892 943d a4cd 8cbd
00000100: c4b7 433e b0a6 883c 76f1 3a3e a841 32be
00000110: 84d1 cc3d 2008 f43c b809 00be a8d2 fd3d
00000120: b2e8 7bbe b2f7 4e3e 600b a53c 60bd c53c
00000130: acc5 ec3d 6002 aa3c 3878 db3d eede 223e
00000140: 20cc 47be 065c 293e 2055 19bd 5821 6ebd
00000150: c01c 4e3d 183b 483e 5e2a 0bbe c086 2cbe
00000160: 1ee0 1e3e 5078 f0bd a4d6 a43d a8dc 16bd
00000170: f4ed 8c3d 825b 433e 94bd 01be 7874 f8bd
00000180: a432 fb3d 2044 603c 3066 e1bc 0cde 60be
00000190: ece5 583e 801e 1bbc a09b 3cbd bc2b d2bd
000001a0: 0813 4abd 7cd9 f83d 8047 bcbb f4ee 5a3e
000001b0: 407b 6cbc 98e6 12bd e67f 103e 00f9 d3bb
000001c0: 1862 4cbd c01f ab3d b8e3 493e e889 7f3d
000001d0: e841 323e d6e5 253e e0ca 903d 3c04 b23d
000001e0: dc36 a53d b06e d43c dcc9 593e f052 6c3e
000001f0: 2444 b63d 608c 4cbc 3087 653e 0440 47be
00000200: cc1a 3c3e a6a2 073e 0863 243e 005c 9dbc
00000210: 4600 3fbe 609d 363e f8df dfbd b0b6 863d
00000220: 1a09 113e 123d 6fbe d0e9 873c 3ce0 b5bd
00000230: 86b2 353e defe 22be 7a6f 1b3e 48a2 1f3e
00000240: 303d 0d3e 5ec3 753e 0016 1b3d 9808 68be
00000250: dabf 363e e07c bb3c 0092 a23b e4dc 73be
00000260: 8026 66bd 2082 f8bd aeba 7a3e 8647 363e
00000270: 16f9 3e3e 7451 2f3e 0eb0 1ebe 70e3 dbbd
00000280: 105f c8bd 7040 cdbd 5447 473e ecf5 ad3d
00000290: 8a25 4d3e 409b 3fbc 9234 64be 088b 94bd
000002a0: 5aea 333e aeda 1b3e 2880 9e3d 0c2f 96bd
000002b0: 68f1 6ebe 3e8e 09be 3079 053e e884 cebd
000002c0: cce8 f43d 0ccc 8b3d 18a7 c4bd 8eec 1b3e
000002d0: b485 a4bd 8014 08bc 0807 c3bd 96d5 72be
000002e0: a01b 253d c8f3 933d 28e4 00be da0a 1d3e
000002f0: 6ea5 65be 2cc7 76be 3e1e 1ebe 20f3 b0bd
00000300: 7072 e3bc c0e2 45bd c0ab e93d 0eac 60be
00000310: 10c8 163d c0dd 8d3b 143c 873d 087c 7e3e
00000320: 088e 1d3e 96bf 0dbe a4c7 51be 50e9 77bd
00000330: a06a 00be 20d8 b23d 0031 163b 26e8 4d3e
00000340: e41d c93d 8048 3cbd 80c7 0c3c d03b 753d
00000350: 7021 febc 4493 4e3e 9e2a 48be 448d f93d
00000360: 862f 23be e046 60be 4839 52bd 0880 f93d
00000370: 3ee1 343e 887b 803d b001 b1bc 809e 65bc
00000380: 248e cfbd 40c8 b7bc 2081 8dbc b0d8 593e
00000390: 90d2 153e 7adb 4cbe 008d 873a 3875 1dbe
000003a0: f88c 22bd ec75 4bbe a019 853d 9298 38be
000003b0: 84ba 7c3e f454 413e 4a38 30be c803 71be
000003c0: 00d1 1f3c f8ec 8ebd 604e 963d 3e4a 2dbe
000003d0: 2c95 d13d ae1e 5dbe f01b 07be 6494 06be
000003e0: 9cc0 f73d 007a d6bb f805 76be ec34 12be
000003f0: 18f1 ecbd 3e86 6dbe b81e 033d ec71 b63d
-0.052984774 -0.15173307 0.113321215 -0.10413888 -0.012933046 -0.17577118 -0.02521494 0.035521448
-0.010173202 -0.09341192 0.074270904 -0.064774394 -0.13859972 -0.18435815 -0.052957386 -0.2361696
0.20750499 -0.11943194 -0.103604555 0.023109764 0.06480831 -0.0235731 0.17150572 -0.14573741
0.0895952 -0.00056383014 -0.20336777 -0.09682372 0.06362179 0.047760457 0.18178385 0.16724825
-0.1363557 -0.10675737 -0.053010345 -0.17910513 -0.06749746 -0.20457822 0.09508553 0.17688984
0.019794106 -0.17897016 -0.189327 -0.09732479 0.072713345 0.006098002 0.045455486 0.23562032
0.1161105 0.05375564 -0.05058047 0.11826223 0.09146014 -0.22502556 -0.14767724 0.00839144
0.09486058 0.12162572 -0.14881966 -0.24802858 -0.0130229 -0.028579324 0.07254499 -0.0687516
0.1911307 0.016681045 0.18256173 -0.17407858 0.100008994 0.02978903 -0.12503707 0.12393695
-0.24600485 0.20211676 0.020147026 0.024138153 0.115611404 0.020753086 0.10716289 0.15905353
-0.19511461 0.1653901 -0.037434697 -0.058137268 0.050320387 0.19553792 -0.1359038 -0.16848278
0.15515181 -0.11741698 0.08048752 -0.036831528 0.068813235 0.19077876 -0.12669975 -0.1213159
0.12265518 0.013688117 -0.027514547 -0.21959704 0.21181458 -0.009467721 -0.046046853 -0.10262248
-0.049334556 0.12150857 -0.005745828 0.21380216 -0.014433682 -0.035864443 0.1411129 -0.006468892
-0.049898237 0.08355665 0.19715774 0.062387377 0.17407954 0.16200957 0.07069945 0.08692214
0.08067104 0.025931686 0.2126841 0.23078513 0.088997155 -0.01248464 0.22414851 -0.19458014
0.18369597 0.13245639 0.16053402 -0.019208908 -0.18652448 0.17833471 -0.109313905 0.065778136
0.14163628 -0.2336314 0.016590983 -0.0888066 0.17743883 -0.15917537 0.15179244 0.15589249
0.13792872 0.24000308 0.037862778 -0.22659528 0.17846623 0.022886693 0.004961252 -0.23814732
-0.05618906 -0.121341944 0.24485275 0.17800722 0.18649706 0.17120916 -0.15496847 -0.1073674
-0.09783757 -0.10022056 0.19460803 0.084941715 0.20033851 -0.011694729 -0.22285679 -0.072530806
0.17569867 0.15220138 0.077392876 -0.07333192 -0.23334277 -0.13433167 0.1303451 -0.100839436
0.11958465 0.06826028 -0.09602183 0.15226957 -0.08033314 -0.008305669 -0.095228255 -0.23714289
0.04030955 0.07224232 -0.12587035 0.15336171 -0.22426388 -0.24099416 -0.15441224 -0.086401224
-0.027764529 -0.04831195 0.11409712 -0.21940634 0.03681189 0.004329413 0.06603256 0.24852002
0.15386212 -0.13842615 -0.20486313 -0.06052524 -0.12540674 0.08732629 0.002291739 0.20108089
0.09820154 -0.04596758 0.008592486 0.059871495 -0.031021804 0.20173365 -0.19547507 0.121851474
-0.15936098 -0.21902037 -0.05132416 0.12182623 0.17664048 0.06273562 -0.02160725 -0.01401484
-0.10134533 -0.022434354 -0.017273486 0.21274066 0.14631104 -0.20005599 0.0010341704 -0.15376747
-0.03968522 -0.19869202 0.06499028 -0.18026951 0.24680525 0.18880063 -0.17208973 -0.23536599
0.009754419 -0.06978792 0.073391676 -0.16922852 0.102335304 -0.21593735 -0.13194251 -0.13142544
0.12097284 -0.0065453053 -0.24025714 -0.14278 -0.115694225 -0.2319574 0.032011718 0.089084476

encoder.node_encoder.module_4.lin_skip.bias f4 [16]
00000000: 90e1 3bbd 6cbf cbbd 00b9 c6ba 0c56 4bbe
00000010: f8e0 1bbe 40d4 babb b26c 633e bc71 9dbd
00000020: 14c7 fd3d 707f c9bd 144b 88bd a2b2 73be
00000030: 9817 543e 3646 793e 000f acbb 98a7 223e
-0.04586941 -0.0994862 -0.0015161335 -0.19857043 -0.15222538 -0.0057015717 0.22209433 -0.07687709
0.12391487 -0.0983876 -0.06654945 -0.23798612 0.20712125 0.2434319 -0.0052508116 0.15884244

encoder.node_encoder.module_5.weight f4 [16, 16]
00000000: d539 5d3e d612 813d a792 a83d 391c 45be
00000010: 85e0 85be f2b6 29be 5434 c93d 700c 7fbe
00000020: 853b 5ebe 9187 91bd 8de8 6ebe 05b7 273d
00000030: c1f7 253d 7680 22be 7f0f 073e 1ce6 08be
00000040: e3ca 7dbd dbd1 4c3e f4f2 913e 4579 07bd
00000050: 3636 36be dc14 fdbd 3e39 79bc 8f2b 1c3e
00000060: 9736 0d3e b89b 46be d01d 7bbe 6fa2 6dbe
00000070: bf03 ebbc 6dfe efbc e55c d6bd be57 32be
00000080: 4539 e93c 112d 87be 405f 65be 4a50 1dbe
00000090: 5b9d adbd afa7 873e 7a00 033e b030 74bd
000000a0: b763 073d 6f10 103e 7790 97bc f6ff 29be
000000b0: 791a 0fbe 5f28 57be a64e 5cbd afc6 83be
000000c0: 0337 38bd 5210 49bd ba60 783e f5d5 513e
000000d0: 80e9 133e 77ec 4c3c 5a72 b0bd 6141 873d
000000e0: 73ad 51be 9372 d4bd d5f8 99bc 9470 a1bd
000000f0: 3943 7dbe 3106 df3d c7da 5a3e 6627 f6bd
00000100: 9b3a 6a3d 0a26 b73c 4642 bc3b 836a 66bd
00000110: 4671 6f3e 73b0 8f3c bf43 17be 0cd3 8abd
00000120: de76 203e f4a8 b53d bd34 533c 69fd 41bd
00000130: 0100 edbd 0131 19bd a9f6 ccbd 2641 833d
00000140: c7f8 0d3d 2b51 653e 48f8 d3bd 22df 77bc
00000150: 05ca 4b3e 51ea 1d3e 5479 cf3d 43e3 cc3d
00000160: 37be dd3c c4d9 63be 474f 51bc 15fe 00be
00000170: 5317 473e 42b6 803e ef4f f93c 1f36 813e
00000180: 62eb f3bd 04c8 5b3e d889 683e 93a9 d1bb
00000190: 343c 3cbe a729 d8bd 8af9 75bd 5d21 d13c
000001a0: aa7a 9dbe f718 5b3c 37fa 25bd 3f46 9fbd
000001b0: b30c 1abe 58cc f5bc 1c50 32be 84b2 cabd
000001c0: ea10 493c 1c01 223e 1f13 803e e631 42be
000001d0: 65ce ee3d fb74 10be c837 22be 99b6 e6ba
000001e0: ef15 dbbd 4745 3fbe bd2b 71be 8fe0 2ebe
000001f0: 40af 6c3e 2d0a 1c3e 65ce a7bd e94e 57be
00000200: 3c45 37be 6630 76be b140 8ebd 063c 503e
00000210: 147f 853d 518d c4bd 1fcf 123e fe4d 3dbe
00000220: ea33 30be 6017 c83c 1d3b 2dbe bad7 943d
00000230: bba5 953e 37ab 3cbe 5453 51be 8631 8e3d
00000240: 7b78 43be d5c2 6f3e 05e9 39be 791d 163e
00000250: 16bd 6cbe 9123 18be 4143 1d3c 25b0 783d
00000260: 88f9 2b3e ee65 5b3e 9e3e f3bc 4374 3e3c
00000270: 6dc0 b43c 97e0 8abd fcb3 27bd 0448 69be
00000280: 3c67 5cbe c447 fd3d 3ba0 ffbd 5e48 543e
00000290: a48c b03c 819f 843d 69f3 753e 0681 1dbe
000002a0: db87 7fbc 7b00 923d 9047 7a3d 2488 59be
000002b0: 350e fb3d e9ee 3bbe 12e7 ce3c e3bf 073e
000002c0: 9fbc 6fbc d1b1 c53b 7821 1cbd 3234 553e
000002d0: ee40 043e 9325 793c 19a4 32be d238 04be
000002e0: 168d 3a3e 732d 293e 3a7f 203e 3614 4abe
000002f0: a119 403e 9ab6 96bc 702d 423e 4140 673e
00000300: 5db8 433d 245a 96bd 5e8f 813e 98f9 0abe
00000310: c61e 113e ffd5 6ebe 901e d5bd cac6 6ebe
00000320: fa66 a9bd 4b3e cc3d 7603 43be dd85 54be
00000330: 2a40 3c3e 582c 0e3e 740f 1bbc e498 2ebe
00000340: e4d5 95bd c306 b6bd 95ba f53d 6630 29bd
00000350: 205f a5bd 6676 0ebe 4c68 afbd f087 ee3d
00000360: b35e 1e3e 7ff5 a53d cd35 04be 11c3 8a3e
00000370: 1406 333d 2b61 07be 5190 0abe 4651 67bd
00000380: 0f94 013e 3dc6 803d 3dff 363e 60a5 013d
00000390: e662 473e 5cef 9fbd 072e 07be d877 d5bd
000003a0: b418 64be 10a6 5abe 2746 86be 2e1c 9dbc
000003b0: 048a 433d e889 bdbd 2c9d 47be 5e46 553e
000003c0: a06c b2bd 56b6 eb3d a384 0b3e e182 1bbe
000003d0: 37b3 18bd 126b 123e 3d5c 8c3e 8257 3ebd
000003e0: 129f 313e a475 0bbe 683d 20be 89f4 683e
000003f0: 7798 07bd d0e0 713e b9e9 60bb de31 00be
0.21604092 0.06302421 0.08231097 -0.19249047 -0.26147857 -0.16573694 0.09824434 -0.24907088
-0.21702392 -0.07105935 -0.23330899 0.040946025 0.04051948 -0.15869316 0.13189505 -0.1336903
-0.061961066 0.20001929 0.2850567 -0.033074636 -0.17794117 -0.12357494 -0.0152114015 0.15250991
0.13790356 -0.1939534 -0.24523091 -0.23206495 -0.02868831 -0.029296124 -0.10466937 -0.17416283
0.028469691 -0.2640157 -0.22399616 -0.15362659 -0.08477279 0.2649512 0.1279315 -0.059616745
0.03305408 0.14068769 -0.018501503 -0.16601548 -0.13974942 -0.21011494 -0.053785942 -0.2573752
-0.04497434 -0.04908783 0.24255648 0.20491774 0.14444542 0.0125075495 -0.08615561 0.06604267
-0.20476322 -0.10373416 -0.01879541 -0.07882801 -0.24732675 0.10889853 0.2137252 -0.120192334
0.057184797 0.022357006 0.005745205 -0.05625392 0.23383054 0.017540192 -0.14771937 -0.06778535
0.15670344 0.08870116 0.012890992 -0.04736081 -0.11572266 -0.03740025 -0.10007984 0.064089105
0.03466108 0.22394244 -0.1035009 -0.015128883 0.19901283 0.15421416 0.101305634 0.10004284
0.02706824 -0.2225104 -0.012775249 -0.12596925 0.19442491 0.25139052 0.030433623 0.25236604
-0.1191013 0.21463019 0.22708833 -0.0063983887 -0.1838234 -0.105548196 -0.060052432 0.025528604
-0.30757648 0.013372651 -0.040521827 -0.0777707 -0.15043907 -0.030004665 -0.17413372 -0.098973304
0.012272099 0.15820736 0.25014588 -0.18964347 0.116604604 -0.14107125 -0.15841591 -0.0017602026
-0.10697543 -0.18678771 -0.23551841 -0.1707785 0.23113728 0.15238257 -0.081936635 -0.21026196
-0.17897505 -0.240419 -0.06945933 0.20335397 0.06518379 -0.095972665 0.14336823 -0.18486783
-0.17207304 0.024425209 -0.16917081 0.07267709 0.29228005 -0.18424688 -0.20441943 0.069430396
-0.19088928 0.23414166 -0.18155296 0.1465968 -0.23119006 -0.14857318 0.009598554 0.06071486
0.16794407 0.21425602 -0.029692944 0.011624399 0.022064412 -0.06781118 -0.04094313 -0.22781378
-0.21523756 0.12367204 -0.124817334 0.20730731 0.021551438 0.064757355 0.24018635 -0.1538125
-0.015596355 0.07128998 0.061103404 -0.2124334 0.12258569 -0.18352856 0.025256667 0.13256793
-0.014632373 0.0060331603 -0.038117856 0.20820692 0.12915394 0.015206712 -0.17445411 -0.129123
0.18217883 0.16521244 0.15673533 -0.19734272 0.18759777 -0.018397618 0.18962646 0.22583105
0.047783244 -0.07341412 0.25304693 -0.13571775 0.14171895 -0.2332382 -0.1040622 -0.2331802
-0.08271594 0.09972819 -0.19044289 -0.2075419 0.18383852 0.13884103 -0.0094641335 -0.1705051
-0.07316187 -0.088880084 0.11998478 -0.041305922 -0.08074784 -0.13912353 -0.08564815 0.11647022
0.15465812 0.08103465 -0.12911148 0.2710195 0.04370697 -0.1322066 -0.13531615 -0.056473993
0.12654136 0.06287811 0.17870803 0.031651855 0.1947132 -0.07809326 -0.13201152 -0.10423249
-0.22275048 -0.2135241 -0.26225397 -0.019178476 0.047739044 -0.09254819 -0.1949355 0.20827624
-0.08712125 0.11509387 0.13624816 -0.15186645 -0.037280288 0.14298657 0.27414122 -0.046470173
0.17345837 -0.13619095 -0.15648425 0.22749533 -0.033104386 0.23620915 -0.0034318997 -0.12519023

encoder.node_encoder.module_5.bias f4 [16]
00000000: 1a44 6d3e f19e 3a3e 2e89 cbbb 9c4a 24be
00000010: 7548 ebbc 1db8 9abd f779 153e eb82 723b
00000020: a5a2 783d 7548 303e ef61 3e3d 61f7 12be
00000030: 73d8 6a3e 2d25 2f3e 15ac f7bd 6824 4f3e
0.2317051 0.18224694 -0.0062114215 -0.16044086 -0.028721074 -0.07554648 0.14597307 0.0037004303
0.060701985 0.1721514 0.046480116 -0.1435218 0.22934131 0.17104025 -0.12093369 0.20228732

encoder.node_encoder.module_7.Wr.weight f4 [16, 16]
00000000: d411 813d 6c3a 8dbd 547d 45be 0fd8 c23c
00000010: 0b75 8dbe 4737 313e c455 323e 74b2 d1bd
00000020: dec8 653e de65 ddbd 7c99 333d 0c7c bcbd
00000030: b3ca cfbc ea78 9a3d 560d d33d 2185 08bc
00000040: 235d d8bd 4fd2 1c3e 6a3f 4f3e ef5f a03c
00000050: 839d 2abe b48b 4c3c 8ff0 d53b a19d 363e
00000060: 2cf1 9d3d 7850 013d 2756 5cbc bd22 d83d
00000070: a629 54bc c8d3 653e b4d2 ed3d f353 40be
00000080: 474f 85bc 17a1 55be 9693 81be 5566 b63d
00000090: 5e1d 0a3d 769f 2f3d 39d1 503e 1bca d1bd
000000a0: 3106 14be acf1 6abd 6499 ca3c 58c7 b93c
000000b0: 04b6 7b3e fc11 1dbe 56ac 0abe 490d 1c3d
000000c0: 1b16 463e 3a26 b23d 0a77 243e eb81 913d
000000d0: 20bc 773e 2c4f 283e c747 603e 9c68 c2bc
000000e0: 696e 2dbe 582e e1bd f628 ed3d afc0 433e
000000f0: aa4a 95bd 10aa 653e d46f 9c3d f41f f93b
00000100: 7eea eb3b 26ef 93bd ba5e 8c3e 8a8f e13b
00000110: ab4d 113e f41c 87be 1a1f 09be 7271 c9bc
00000120: 4c1a 5d3e c590 f63d 90e1 933d c613 7fbe
00000130: f038 b6bc 8e45 38be 5aa8 81be b3c5 c73c
00000140: b733 01be e8f3 523e 6484 33be 79f2 cc3d
00000150: 988b 053e 31be 2bbe ace9 1d3e 34ca 31bd
00000160: 0f7f ed3d 3302 6a3e 4240 0ebe edc4 c6bd
00000170: bcaa 263e 7bdd 1f3d 1867 b1bc 4bd2 303e
00000180: af1d c8bd 62a8 cd3c ecf6 133e 9deb d23c
00000190: 81e1 0bbe 12a0 6c3d 69d7 24be 15d8 8ebd
000001a0: b3cb f23d 3ea6 53bd 367f 08be d1db 36bd
000001b0: 048d 963d c2fa 08be 60f6 10be d162 56be
000001c0: a832 4b3d f8e6 3dbe 1aaa dd3a 658f c9bd
000001d0: f9a3 29be ee7d 0abe 7756 5dbe 1df9 05be
000001e0: 9959 20bd d1a8 66be 4bbd 79be 2b8d 1b3e
000001f0: b7fb fd3a f31a 01be aa2f e2bc 5c9b 263e
00000200: 28be 66be ec7d 0dbe 9a56 3cbe ae43 ab3c
00000210: 6a1a b8bb 956a 84be 696f 193e d6db 36be
00000220: 12c4 5b3e 691d 4abe 8bb5 9ebd 858e 653d
00000230: ca00 d3bd e764 733e 9182 27be 34f1 0bbd
00000240: f7dd 52be 154b 013d c654 673e 3ce6 773e
00000250: 0edf 8e3d 7428 dbbd 2929 6f3e 4fa7 8b3c
00000260: f242 173e 87f1 c7bd 7b5d adbd 3844 5abe
00000270: 9cef 523e fa99 44ba d9fb 86be 97ab d93c
00000280: e267 16be d663 a83c 0bb6 5d3d e9d0 c9bd
00000290: 5c13 b33d cefa 06be d9ac 7f3d ce03 56be
000002a0: 1722 28bb 49ce 853e 96c3 7f3e bfd2 0c3e
000002b0: 9dd5 323e dfe5 713e 5522 d83c b6d6 a03d
000002c0: 999e 7c3c dca0 4b3e cba1 613e 4591 05be
000002d0: 3162 463c 51be 41be 897d 7d3d 6a62 94be
000002e0: 3969 ed3d 36a0 bebd ede8 1d3e b1e2 a33d
000002f0: dc85 c6bd 8196 fe3d 7ada c63d e8e8 83be
00000300: daed 8f3e 7f5d 733e 9386 683e 38d1 80bd
00000310: ed06 a93d 79ab 2cbe f22d 67bd 70ee e83d
00000320: b9de 113e 2e5b 1a3e 5602 86be 5eaa 213e
00000330: f663 a8bd a837 823e a93b 4b3e f62f 023e
00000340: 0316 803e 53d2 b53d 8642 463e ce47 00bd
00000350: 9881 7e3e 8ff5 943d 1eef 1a3e 550a 00be
00000360: 9e72 5a3e 5e5e 583e 1386 fdbd 8ed6 763e
00000370: a0b1 56be 54c2 50be 8541 78be 1519 583d
00000380: ca36 44be 1e16 83bd 8e82 14be 311f 5d3d
00000390: 9481 5ebe 8982 69bd 1dc8 acbb c18b 8f3d
000003a0: 8b5d 1ebe 3c8d f83d 20ae 36be 199d 65be
000003b0: aab8 083a a35c 04be 2153 1c3e 0d38 0abe
000003c0: 26ae 3b3c c1f9 dc3d 459c 7bbe b14d 5f3e
000003d0: 0493 0fbe db87 72bd 09de 2abe 900f a1bd
000003e0: 36d5 febd 5506 7abe 81ee 9e3d 3f21 4f3c
000003f0: 6b63 763e fbd5 1f3e 8aaa 853e ef1c b53d
0.063022286 -0.06895909 -0.1928609 0.023784665 -0.2762836 0.17306243 0.1741553 -0.10239115
0.22439906 -0.10810445 0.043847546 -0.092033476 -0.02536521 0.07542594 0.10305278 -0.008332522
-0.105646394 0.15314601 0.20239034 0.019576995 -0.16661648 0.01248448 0.006528921 0.17833568
0.077120155 0.03157088 -0.013448275 0.10553501 -0.012949383 0.2244407 0.11612454 -0.18782024
-0.016273154 -0.20862232 -0.25307912 0.08906237 0.033719413 0.042876683 0.20392312 -0.10243627
-0.14455487 -0.057359383 0.024731345 0.022678062 0.24581152 -0.15338892 -0.13542303 0.038098607
0.1934437 0.086986974 0.16061035 0.07104858 0.24192858 0.16436452 0.21902381 -0.023731522
-0.1693665 -0.109951675 0.11580078 0.19116472 -0.07289632 0.22428155 0.07638517 0.007602686
0.0071995845 -0.07223348 0.2741602 0.0068835663 0.14189784 -0.26389277 -0.1339077 -0.024590228
0.21592063 0.12039331 0.07220757 -0.24909887 -0.022243947 -0.17995283 -0.25323755 0.024386263
-0.12617384 0.20600855 -0.17530972 0.100071855 0.13041532 -0.16771771 0.1542117 -0.043405727
0.115965 0.22852401 -0.138917 -0.09705529 0.16276067 0.03902958 -0.021655604 0.1726772
-0.09771287 0.025104705 0.14449662 0.025747115 -0.13660242 0.057769842 -0.16097797 -0.06974808
0.11855259 -0.051672213 -0.13329777 -0.044643227 0.07351115 -0.13376907 -0.14156485 -0.20936133
0.049608856 -0.18545139 0.0016911656 -0.098418035 -0.16566457 -0.13524601 -0.21615015 -0.1308331
-0.039147947 -0.22525336 -0.24388616 0.1519057 0.0019377385 -0.12607937 -0.027610619 0.16270202
-0.22533476 -0.13817567 -0.18392411 0.020906296 -0.005618383 -0.25862566 0.14983906 -0.17857298
0.21461514 -0.19737782 -0.0774947 0.05604412 -0.10302885 0.2376896 -0.16358401 -0.034165576
-0.20592485 0.031565744 0.22590932 0.24208921 0.06976138 -0.10701075 0.23355545 0.017047552
0.14771631 -0.097628646 -0.084650956 -0.21315086 0.20599216 -0.0007499751 -0.2636402 0.026571078
-0.14688066 0.020555418 0.054128688 -0.098542996 0.08743927 -0.13181612 0.0624207 -0.20899889
-0.0025655085 0.26133946 0.24976954 0.13752268 0.174643 0.23622845 0.026383558 0.07853453
0.015418672 0.19885582 0.22034375 -0.13043697 0.012108372 -0.18920256 0.061887298 -0.28981334
0.11592335 -0.093079016 0.15420885 0.08002222 -0.096935004 0.1243105 0.0970964 -0.2576363
0.28111154 0.23766135 0.22707586 -0.06289905 0.08253274 -0.16862287 -0.0564403 0.11373603
0.14245118 0.15073845 -0.26173657 0.15787646 -0.08222191 0.25433087 0.19846977 0.12713608
0.25016794 0.08878007 0.19361314 -0.03131848 0.24854124 0.07273399 0.15130278 -0.12503941
0.21332785 0.21129748 -0.12379088 0.24105284 -0.20966196 -0.2038663 -0.24243744 0.052758295
-0.19161525 -0.06400703 -0.14502928 0.053984825 -0.21729118 -0.057009254 -0.005272879 0.07009078
-0.15465371 0.12136313 -0.17839861 -0.22423209 0.00052155054 -0.12925963 0.15266086 -0.13497944
0.011455094 0.10789824 -0.24571331 0.2180698 -0.14020926 -0.059211593 -0.16686262 -0.078642964
-0.124430105 -0.24416478 0.07760335 0.012642204 0.24061362 0.15608971 0.26106673 0.08843409

encoder.node_encoder.module_7.Wr.bias f4 [16]
00000000: 2ebd fd3d fc66 603e 34a6 5b3e a1b0 26be
00000010: 50bd 95bd 6a09 79be 25cf 293c f168 f7bd
00000020: 599f 503e 3a96 013d a477 b03c 1a8f 39be
00000030: 7d15 19be 262a 5d3d d83c ccbd 911a 03be
0.12389599 0.21914285 0.2145012 -0.16278316 -0.07311499 -0.24319997 0.0103643285 -0.12080563
0.20373286 0.031637408 0.021541424 -0.18120995 -0.14949603 0.053995274 -0.099725425 -0.12803103

encoder.node_encoder.module_7.Ur.weight f4 [16, 16]
00000000: 9178 273e b444 16be 4450 debd 8d1d 503e
00000010: 5b78 8a3d d72e 19be e90b 8b3d 63fb 033e
00000020: 31cf 5dbe 9207 ff3c d04f 4d3d 2d18 c7bc
00000030: 1225 703e 0751 3abe c5fc ef3d 938d 09be
00000040: a456 32be 9e35 2e3e 5542 14be 48e6 723c
00000050: 6167 1b3e a74d 3fbe a69e 6abe dfe3 a53d
00000060: 8828 503e a0f3 60bc 1c62 253e 2985 c53d
00000070: 0248 463d 9361 08be 82a6 813e b9ad bd3d
00000080: 0758 8039 d275 393e bdfb 5dbe 5793 2c3d
00000090: 019d e7bd c272 b5bc 22d2 e73d 060f e83d
000000a0: 9690 843d 455c 3fbe 1d80 20be c9fe 273c
000000b0: ee3d 0fbd 177e 50be 2bb4 823e bbf2 043d
000000c0: 60ab 4abe 2f9d 193e 3e15 e03d 32d4 2abe
000000d0: 211f 2e3e c4da fcbd 195e 0d3e d2bb 7e3e
000000e0: afd5 1e3e f867 283e 143c 1ebd 1b57 c43d
000000f0: 7e39 e03d 3d7a ee3d 1729 263b 7dc5 f43c
00000100: 21a2 d6bd 009b e5bd f61b 8dbe d46e 56be
00000110: c710 e2bd 75a0 923e 6c20 603d 40f7 49be
00000120: 80af 2abe cb1b a33d 7f39 d8bd 984a 21bd
00000130: 589b f6bd a07d 12bc 5ad2 a63d 90bd f8bc
00000140: 3ea0 353e 5157 193e ba6b 613e b899 553d
00000150: 7d3c ffbd 9d82 44bc e43f 51be e896 ce3d
00000160: ecda d9bc d7c9 afbd ab88 57be 6d7e e73d
00000170: 66e8 0c3e 02f1 643e c5c2 c5bd 2097 a53d
00000180: 7cef 083d 4010 41be e551 23be ed64 0c3e
00000190: 207a 2bbe 6b5b 293e 50d5 b53d e3fc cb3d
000001a0: b7ad 3d3e 183f 123e 2b13 d53d 1967 f43d
000001b0: 3b8d d3bd 3def 17be 8b26 2dbd 6b0e 123e
000001c0: 6b8f 3d3e bbd8 3f3e eb18 c0bd 32ce 0fbc
000001d0: 7baf 2abe 31b7 273e db64 40be 9f4b b2bd
000001e0: a00e 4d3e 08ed 6d3d 9d42 00be 09f0 31be
000001f0: e06f 4abe cadc 4e3e fca5 64be 7c01 4d3e
00000200: b856 703e ed1c ab3c 8b55 49bd 697c 383e
00000210: ab27 f23d 9a2e 833e 07b4 513e 7dcf 16be
00000220: 9d3a 0f3e ac9d 173e f658 46be 913c 083e
00000230: 61ae 1bbe 2d3e 18be 42f4 b63b a988 53bd
00000240: b34c 25be a4c0 4ebe b79e a93d 65a7 513e
00000250: 891e 00bd 61c2 fbbd 3628 863c 0127 7ebe
00000260: 9386 3fbe 9ef4 ccbd 5b36 213e af6d 57be
00000270: 4503 fcbc 6c02 0bbe 52e8 6cbe 8a83 7cbd
00000280: a2f1 80bd 5473 0abd 2254 353e 1a0f 843d
00000290: d252 2f3e 9277 dc3d dd2a 9d3d 19ce 0f3e
000002a0: b4d3 15be 35a9 173e 41ce fc3d 34bf a8bd
000002b0: 2ef5 f53b d928 35be 6af6 4fbe 44a2 cd3a
000002c0: db26 203d d280 99bc 0ff4 533d 17d0 64be
000002d0: 06f4 bbbd 5d01 573e c17b 6cbe 0496 b3b9
000002e0: 7c0a 533e 6db5 313e 3601 f93d a8c3 5dbe
000002f0: 330f 363d 4140 ccbd 87df d5bd d2c2 593e
00000300: 10c5 afbd 6c26 4fbe 0ffd 3fbe 5b1a 0c3e
00000310: 4e80 183b f3cb 6e3e 4301 663d 418e 90be
00000320: 6206 973d 8048 6f3e 5076 483e 499f a93d
00000330: 561b 1bbe ade5 09be 76d4 213e 66dd 0ebe
00000340: 545b bb3c 7b26 25bd 48f8 893d 211d aaba
00000350: 671e 19be 60f1 a3bd ce19 593e d09f 383c
00000360: 21f3 193e 3558 e3bd 4acd 5a3e 9516 cabc
00000370: e2dd aebd 480a 983d 80c1 adbd fc21 e1bd
00000380: 9c01 71bd 26bd 5cbd 0a5a e2bd a87a 823d
00000390: ebe9 8dbe ecd4 f23d 9a9d 7b3e d2c3 1b3c
000003a0: 8629 233a dbc9 80be fe8d 1c3e 5e1b 313e
000003b0: 55c1 813e 70b6 b2bc 66ef 413d 28c6 8f3e
000003c0: f888 833d dfd1 c9bd 65c6 87be 9c18 e63d
000003d0: dfba fc3d f24a 7f3e 8eb4 eabd f721 0b3e
000003e0: a181 d7bd 6ad1 88bc a95f f73d 3768 4bbe
000003f0: e57d 283e 03e6 1a3e 9665 ebbd e94f cf3d
0.16354586 -0.14674646 -0.10855153 0.20323773 0.06761237 -0.14959274 0.06789381 0.12888865
-0.21661068 0.03113154 0.050124943 -0.02430352 0.23451641 -0.18194972 0.11718134 -0.13432913
-0.17415863 0.17012641 -0.14478429 0.014825411 0.15176155 -0.18681966 -0.22912082 0.081001036
0.20327961 -0.01372996 0.16150707 0.09644539 0.048408516 -0.13318472 0.25322348 0.092616506
0.00024479648 0.18111351 -0.21678062 0.0421327 -0.11309243 -0.022149447 0.113193765 0.113309905
0.0647289 -0.18687542 -0.15673871 0.010253617 -0.03497117 -0.203606 0.25528082 0.03245805
-0.19791937 0.15001367 0.109415516 -0.16682509 0.17004062 -0.12346414 0.13805427 0.24876335
0.15511201 0.16445911 -0.038631514 0.095869265 0.10948466 0.11644409 0.0025354081 0.029879326
-0.104801424 -0.112112045 -0.27560395 -0.20940715 -0.11038356 0.28638044 0.05471842 -0.19723225
-0.1666851 0.079642855 -0.105578415 -0.03937778 -0.12041348 -0.008941084 0.0814559 -0.030363828
0.17736909 0.14974715 0.2201375 0.05214855 -0.12462709 -0.011994031 -0.20434529 0.10087377
-0.026593648 -0.0858342 -0.21048228 0.11303411 0.13760528 0.22357562 -0.0965629 0.080854654
0.033431515 -0.18853855 -0.15949209 0.13710375 -0.16745806 0.1653878 0.08878577 0.09960344
0.18523298 0.14281881 0.104040466 0.11933727 -0.10329672 -0.14837356 -0.042273086 0.14263313
0.18511741 0.1873502 -0.09379753 -0.008777188 -0.16668503 0.16378476 -0.18788473 -0.0870583
0.2002511 0.05808738 -0.12525411 -0.17376722 -0.1976924 0.20201412 -0.22328943 0.20020097
0.2347058 0.020887816 -0.049153846 0.18016209 0.11823972 0.25621492 0.20478831 -0.14727588
0.13987203 0.14806241 -0.19369873 0.13304354 -0.15203239 -0.14867468 0.005583317 -0.051644
-0.1614254 -0.20190674 0.082822256 0.20474012 -0.03127912 -0.12292934 0.016376596 -0.24819566
-0.1870368 -0.100075945 0.15743391 -0.21037935 -0.030763278 -0.13575143 -0.23135498 -0.061648883
-0.06296088 -0.03380139 0.17707875 0.06448193 0.17121437 0.10764994 0.07674191 0.14043464
-0.1463154 0.14810641 0.12344027 -0.08239594 0.0075060343 -0.17691363 -0.20308843 0.0015688618
0.039099555 -0.018738184 0.051746424 -0.22345005 -0.09177403 0.20996614 -0.23094083 -0.0003425331
0.20609468 0.17354365 0.12158434 -0.21656668 0.04444809 -0.09973193 -0.10443025 0.21265724
-0.085825086 -0.202295 -0.18748878 0.13681929 0.0023269835 0.23319988 0.056153547 -0.2823353
0.07374264 0.233675 0.19576383 0.08282334 -0.15147147 -0.1346652 0.15803704 -0.13951644
0.022870697 -0.0403199 0.06736809 -0.0012978652 -0.14953004 -0.08005023 0.2120125 0.011268571
0.15034153 -0.111008085 0.21367374 -0.024668971 -0.085384145 0.07423836 -0.08484173 -0.1099281
-0.058839425 -0.053891324 -0.1105233 0.06371051 -0.27717528 0.11857018 0.24571839 0.009507136
0.0006224144 -0.25154004 0.1528854 0.17295596 0.25342813 -0.021815509 0.04734745 0.2808087
0.06422609 -0.09854483 -0.2651855 0.112351626 0.1234033 0.24930933 -0.11460219 0.13587175
-0.105227716 -0.016701419 0.120787926 -0.19863974 0.16454275 0.15126805 -0.11493985 0.101226635
