dagformercheckpoint/dagformermodel599.pt (torch, 187067 bytes, 155 tensors)

encoder.node_encoder.module_0.weight f4 [16, 5]
0.3236343 0.38089952 -0.14306085 0.41348156 -0.097440846 0.09784932 -0.19023906 0.28586668
0.3868027 -0.33121735 0.35134482 0.0584232 0.39284018 0.063319825 0.22731923 -0.12384122
0.34597442 0.085295364 -0.22609857 0.0817626 -0.19062041 -0.06772685 -0.23457226 0.28576857
-0.31912187 -0.16536386 -0.12728472 -0.33691305 0.030650176 -0.44738424 0.36855248 -0.35276103
0.4599182 0.121156365 -0.12178332 0.2772422 0.03415778 0.42163783 0.09157906 -0.10462917
0.08051854 -0.13100503 0.10677452 0.39980668 0.22549494 -0.21838532 0.24052627 0.018092142
0.21589576 -0.2883799 -0.46857092 -0.1739677 -0.30719268 0.34166783 0.12691051 0.18828826
0.13956834 -0.07312303 0.36708364 -0.31603372 0.00086648925 -0.2690977 0.20638071 -0.15307632
0.13970335 -0.100723185 0.37333795 -0.35609153 -0.2846149 -0.26098162 0.41479576 0.12955461
0.4744986 -0.37349802 -0.4515117 -0.3768703 -0.29265258 0.28836948 0.17918593 0.37271792
00000000: 65b3 a53e 4305 c33e 8b7e 12be dbb3 d33e
00000010: 118f c7bd 3965 c83d 07ce 42be 1e5d 923e
00000020: 010b c63e 5295 a9be 78e3 b33e 2a4d 6f3d
00000030: 5922 c93e d3ad 813d 5fc6 683e 77a0 fdbd
00000040: 8f23 b13e 56af ae3d 6286 67be 2673 a73d
00000050: ff31 43be 60b4 8abd b633 70be 4250 923e
00000060: f163 a3be 2555 29be ed56 02be de7f acbe
00000070: 1416 fb3c 8c0f e5be e9b2 bc3e 189d b4be
00000080: 667a eb3e d420 f83d 8969 f9bd b1f2 8d3e
00000090: 07e9 0b3d eae0 d73e cd8d bb3d d147 d6bd
000000a0: e8e6 a43d 2f26 06be 99ac da3d 76b3 cc3e
000000b0: 25e8 663e 67a0 5fbe 854c 763e f935 943c
000000c0: c713 5d3e 88a6 93be 87e8 efbe 9724 32be
000000d0: 5c48 9dbe 16ef ae3e d4f4 013e a3ce 403e
000000e0: 01eb 0e3e 87c1 95bd 63f2 bb3e 2ccf a1be
000000f0: 1c25 633a 2cc7 89be 7755 533e 0ac0 1cbe
00000100: 650e 0f3e f547 cebd 2726 bf3e a151 b6be
00000110: 0bb9 91be 629f 85be 1c60 d43e f7a9 043e
00000120: 7bf1 f23e 223b bfbe 8b2c e7be 25f5 c0be
00000130: 8fd6 95be 2aa5 933e 847c 373e e2d4 be3e

encoder.node_encoder.module_0.bias f4 [16]
-0.24794029 -0.33370253 0.2579604 -0.2367342 0.27846047 -0.106625885 0.26787886 -0.3481836
-0.20784992 0.13854052 0.092144005 -0.12441922 0.28392297 0.3036484 -0.33465326 -0.24421616
00000000: 0fe4 7dbe 0fdb aabe 6313 843e 736a 72be
00000010: 5f92 8e3e ac5e dabd 6b27 893e 1f45 b2be
00000020: 9cd6 54be 91dd 0d3e ffb5 bc3d 81cf febd
00000030: 5a5e 913e ce77 9b3e ac57 abbe cd13 7abe

encoder.node_encoder.module_1.frequency f4 [8]
1.0 0.26826957 0.07196857 0.019306978 0.0051794746 0.0013894954 0.00037275936 1e-04
00000000: 0000 803f a15a 893e 4264 933d ab29 9e3c
00000010: 95b8 a93b bb1f b63a ea6e c339 17b7 d138

encoder.node_encoder.module_3.weight f4 [16]
1.046395 0.9980349 1.0284432 1.008216 1.0006745 1.0277375 1.0303923 1.015815
1.0018299 1.0151825 0.9781534 1.0035326 1.0238708 1.0222594 0.97152525 1.0343021
00000000: 45f0 853f 377f 7f3f 07a4 833f 390d 813f
00000010: 1a16 803f e78c 833f e5e3 833f 3a06 823f
00000020: f63b 803f 80f1 813f 4368 7a3f c273 803f
00000030: 330e 833f 65d9 823f e1b5 783f 0364 843f

encoder.node_encoder.module_3.bias f4 [16]
-0.015094284 0.01478812 0.015268377 -0.009060198 0.037263293 -0.010679812 -0.014273076 -0.037988458
0.019480383 0.0007677163 -0.019201437 0.0077957264 -0.0383484 0.007000046 -0.0254711 -0.019612404
00000000: 044e 77bc df49 723c 3728 7a3c 3a71 14bc
00000010: 65a1 183d 61fa 2ebc 9fd9 69bc c999 1bbd
00000020: 5395 9f3c 9240 493a 554c 9dbc 4b73 ff3b
00000030: 3613 1dbd a460 e53b c5a8 d0bc 31aa a0bc

encoder.node_encoder.module_3.running_mean f4 [16]
-0.06799801 0.18329756 0.80245465 -0.46113148 0.094220154 -0.61844265 0.582666 -0.27373728
0.6764476 0.60356224 1.4279515 0.7148148 1.5326884 0.48917013 -0.012115812 1.4980266
00000000: 8a42 8bbd 5bb2 3b3e ab6d 4d3f 6d19 ecbe
00000010: 7ff6 c03d 4252 1ebf 9929 153f 4b27 8cbe
00000020: ab2b 2d3f 0e83 1a3f 1dc7 b63f 1afe 363f
00000030: 222f c43f 8274 fa3e 6681 46bc 56bf bf3f

encoder.node_encoder.module_3.running_var f4 [16]
0.54232126 0.88522834 0.35609812 0.100793526 0.54324645 1.3304344 0.13840312 0.07790179
1.3931712 0.51156867 0.30128628 0.52732855 0.15702347 0.77278787 1.8562986 1.2032496
00000000: 91d5 0a3f 539e 623f 7e52 b63e d66c ce3d
00000010: 3312 0b3f ad4b aa3f 8cb9 0d3e f98a 9f3d
00000020: 6f53 b23f 2af6 023f 3242 9a3e 01ff 063f
00000030: c3ca 203e 6dd5 453f 319b ed3f 1504 9a3f

encoder.node_encoder.module_4.lin_key.weight f4 [16, 16]
0.0790017 -0.08179386 -0.0038066884 -0.11302681 0.07491527 0.16626635 -0.046091907 0.23200831
0.26149663 -0.17444436 -0.16477077 -0.16083065 -0.17758149 -0.11613121 -0.034320552 -0.05073624
-0.1674053 -0.06734897 -0.106978424 0.28072438 -0.095795125 -0.15927441 0.1017905 -0.011694165
0.108990185 0.1450771 0.18211511 -0.19189093 0.16811334 0.24787785 -0.087915756 0.19866928
0.15872097 0.025181688 0.10639288 -0.09497311 -0.20097874 0.083326735 0.09150774 -0.14688726
0.11204829 -0.21733171 0.18577045 0.25777265 0.051526707 -0.1319008 0.14565799 0.019544423
0.0525897 0.0699061 0.19200121 -0.08759487 -0.07271054 0.059868958 0.009968341 0.18743728
-0.16894631 -0.0050456054 0.05067166 -0.08423892 0.18868081 0.02387765 -0.235378 -0.021685842
-0.13209182 0.045494355 -0.0117320875 -0.24058373 -0.039032012 -0.021924928 -0.06552486 0.23625635
-0.043572783 0.13390286 0.06519088 -0.20604216 0.052942213 0.20284462 -0.16617852 -0.15995109
0.27176458 0.1816657 -0.12789279 0.14680257 -0.04093717 -0.26130128 0.006827249 0.069321185
-0.056845218 0.08398462 -0.18806888 0.16658801 0.2212266 0.11748582 0.022637274 0.09991792
-0.24457246 -0.029806461 -0.018161964 -0.1263668 -0.17546482 0.17995588 0.18198854 -0.21464078
0.057297986 0.07271211 0.21593639 0.15096092 0.2223726 -0.06739266 0.18964942 0.1903389
-0.30478752 -0.20130305 0.0881862 0.19315894 -0.15385433 0.007197795 -0.028693847 0.036090318
-0.13544285 0.07918358 0.16348289 -0.20660427 0.034688443 -0.010022098 0.06818539 0.24849358
0.14504427 -0.03070504 0.18997538 -0.14618976 -0.035811115 0.048868164 -0.15484138 0.06056931
-0.1800604 0.070131816 0.003892333 0.0737752 -0.24956156 -0.21125323 0.14204127 0.1854946
-0.24153173 0.060240407 -0.14941235 0.062164124 0.19436555 0.15527391 -0.2202821 0.119507946
0.13676776 -0.039761625 0.26646236 -0.13913397 -0.01757207 -0.15607348 0.0064240256 0.09834849
0.059986353 -0.089265004 -0.16341075 0.021890767 -0.16309124 0.012663765 0.04955421 -0.048970167
0.068233706 0.07311973 0.1353333 0.035505325 -0.21681629 0.22301178 0.08117363 -0.12064061
-0.14844073 0.09264046 -0.26847613 0.03833286 0.15501519 -0.18730599 -0.13134213 -0.14787738
0.18426669 0.23721667 -0.019708568 0.2652984 -0.11562307 -0.20920032 0.11978717 0.055705085
0.2656711 0.020484207 0.154818 0.13228165 0.20885752 -0.21627146 0.23289017 -0.18376724
0.19218014 0.027430698 -0.2586956 0.0958245 -0.0781673 -0.18911164 -0.05621872 -0.008036331
0.16287467 -0.10238086 0.18713962 0.060684804 -0.024633447 0.01274451 -0.19648013 -0.24141178
-0.042444382 -0.27302024 -0.07918232 -0.02028654 -0.13197953 -0.14083818 -0.08123641 0.0074615376
-0.16867419 -0.016579678 0.010846375 0.085510105 -0.022241136 -0.16629294 -0.11730691 -0.037715193
-0.10566 -0.020766968 0.0347191 0.06650137 0.090245485 0.13834193 -0.055554897 -0.13922444
0.13758194 -0.16155982 -0.0658965 -0.08630652 -0.07994069 -0.07099889 0.24337581 0.16071749
0.043983985 0.26571736 -0.2579025 0.053031873 0.14662859 0.19443093 -0.17199513 0.063651286
00000000: a5cb a13d 8a83 a7bd a279 79bb 9a7a e7bd
00000010: 2d6d 993d ba41 2a3e deca 3cbd 9693 6d3e
00000020: e3e2 853e 8ba1 32be abb9 28be cab0 24be
00000030: ecd7 35be 33d6 edbd b593 0cbd ced0 4fbd
00000040: 4c6c 2bbe 42ee 89bd 8117 dbbd 1bbb 8f3e
00000050: 3c30 c4bd d518 23be 8a77 d03d e298 3fbc
00000060: 3f36 df3d 178f 143e 627c 3a3e 0e7f 44be
00000070: e725 2c3e b1d3 7d3e 2d0d b4bd f66f 4b3e
00000080: c087 223e d449 ce3c 83e4 d93d 4381 c2bd
00000090: 5fcd 4dbe 35a7 aa3d 6968 bb3d 9d69 16be
000000a0: 9379 e53d 348c 5ebe 9c3a 3e3e c7fa 833e
000000b0: ab0d 533d 0111 07be 5e27 153e a01b a03c
000000c0: 4c68 573d ee2a 8f3d f79b 443e f064 b3bd
000000d0: 43e9 94bd 2739 753d 4152 233c 8fef 3f3e
000000e0: 4300 2dbe 9b55 a5bb 168d 4f3d 7485 acbd
000000f0: 8b35 413e 109b c33c ee06 71be 82a6 b1bc
00000100: 1443 07be 4a58 3a3d f137 40bc 955b 76be
00000110: 08e0 1fbd e89b b3bc e631 86bd 2fed 713e
00000120: 6079 32bd d51d 093e cc82 853d b7fc 52be
00000130: efd9 583d 80b6 4f3e b42a 2abe 38ca 23be
00000140: ba24 8b3e 9306 3a3e 54f6 02be 6a53 163e
00000150: bcad 27bd 48c9 85be 1eb7 df3b 44f8 8d3d
00000160: 88d6 68bd 2100 ac3d 2195 40be 0c96 2a3e
00000170: 3a89 623e 689c f03d ce71 b93c c4a1 cc3d
00000180: 3471 7abe ae2c f4bc 66c8 94bc 4c66 01be
00000190: 0dad 33be 5b46 383e 345b 3a3e cbca 5bbe
000001a0: 4bb1 6a3d 16ea 943d 6e1e 5d3e 8095 1a3e
000001b0: a5b5 633e 2a05 8abd 7533 423e 33e8 423e
000001c0: 1c0d 9cbe 6322 4ebe f79a b43d 75cb 453e
000001d0: fd8b 1dbe 7bdb eb3b 5c0f ebbc 71d3 133d
000001e0: 88b1 0abe 002b a23d 0f68 273e 1290 53be
000001f0: 7815 0e3d ba33 24bc c8a4 8b3d 1a75 7e3e
00000200: 7c86 143e 2389 fbbc e888 423e c5b2 15be
00000210: adae 12bd fc29 483d bd8e 1ebe 8617 783d
00000220: c161 38be 45a1 8f3d 8316 7f3b 7417 973d
00000230: 118d 7fbe c452 58be 4473 113e 4cf2 3d3e
00000240: 1854 77be a5be 763d 8dff 18be cf9f 7e3d
00000250: c307 473e 2000 1f3e a191 61be 95c0 f43d
00000260: d90c 0c3e 16dd 22bd c16d 883e 2379 0ebe
00000270: 4df3 8fbc bad1 1fbe a280 d23b ef6a c93d
00000280: 40b4 753d 92d0 b6bd 2655 27be 4454 b33c
00000290: 6401 27be ae7b 4f3c 5bf9 4a3d f194 48bd
000002a0: 1dbe 8b3d ccbf 953d d094 0a3e 086e 113d
000002b0: 1705 5ebe 335d 643e 5c3e a63d 6d12 f7bd
000002c0: d900 18be 48ba bd3d b475 89be eb02 1d3d
000002d0: 4dbc 1e3e 24cd 3fbe 8d7e 06be 2b6d 17be
000002e0: 68b0 3c3e ede8 723e dd73 a1bc 31d5 873e
000002f0: cacb ecbd 9c38 56be fa52 f53d 042b 643d
00000300: 0b06 883e 7fce a73c 9c88 1e3e d774 073e
00000310: bfde 553e 4476 5dbe c37a 6e3e 7b2d 3cbe
00000320: dfca 443e 58b6 e03c c073 84be a33f c43d
00000330: 2d16 a0bd 7ba6 41be 9a45 66bd d1aa 03bc
00000340: 9ec8 263e 0ead d1bd 87a1 3f3e a190 783d
00000350: 15cc c9bc 59ce 503c 1632 49be a634 77be
00000360: 29da 2dbd 4fc9 8bbe 572a a2bd f52f a6bc
00000370: a425 07be e237 10be 465f a6bd ea7f f43b
00000380: edb8 2cbe 1bd2 87bc feb4 313c ec1f af3d
00000390: 0b33 b6bc b248 2abe 9b3e f0bd 3f7b 1abd
000003a0: 4564 d8bd 7d1f aabc 9d35 0e3d df31 883d
000003b0: a0d2 b83d 82a9 0d3e 888d 63bd da90 0ebe
000003c0: 48e2 0c3e f06f 25be bff4 86bd 79c1 b0bd
000003d0: f2b7 a3bd de67 91bd 8237 793e 2093 243e
000003e0: 8d28 343d 1b0c 883e cc0b 84be f337 593d
000003f0: ce25 163e e718 473e 7e1f 30be 9b5b 823d

encoder.node_encoder.module_4.lin_key.bias f4 [16]
-0.14237784 -0.009777219 -0.052172866 -0.20875426 -0.23843434 -0.16447045 0.113445565 0.1143507
-0.21745197 -0.093924455 0.004100235 -0.21613316 0.14088413 0.22640093 0.04419487 -0.18574488
00000000: 7fcb 11be a130 20bc 37b3 55bd adc3 55be
00000010: 2228 74be f16a 28be 2656 e83d b330 ea3d
00000020: bbab 5ebe 775b c0bd 445b 863b 0352 5dbe
00000030: ee43 103e a5d5 673e ae05 353d e833 3ebe

encoder.node_encoder.module_4.lin_query.weight f4 [16, 16]
0.0018179127 0.09593604 0.20879361 -0.17465335 -0.24498446 0.10026185 0.060695842 -0.12143236
-0.10908612 -0.1811362 0.22916193 -0.090360306 0.23907374 0.18230791 -0.00249154 0.09238372
-0.012846914 0.18501975 -0.223079 0.102368936 -0.018403394 0.12936553 -0.0046134065 -0.06895121
0.0027546247 0.14765969 -0.17914157 -0.12848927 -0.07951533 -0.07923274 0.10459839 0.1515175
-0.05419379 0.2510907 -0.073600985 -0.156923 -0.1220724 -0.18544282 -0.14284842 -0.21412282
-0.19408122 0.03208228 0.17197685 0.2080878 0.25589088 -0.05485702 0.029125044 -0.109156005
0.10710217 -0.22654141 0.11385992 0.053256433 0.096789494 0.1097914 -0.1126127 0.2476355
0.13832258 0.18185937 0.017851898 0.17416899 0.15973969 0.12374248 0.20949312 -0.053604357
0.13892655 0.057524182 0.17208095 0.22295877 0.029318282 -0.11629301 0.0066379155 0.0569422
0.03251339 -0.1087671 0.21371023 0.10973235 -0.10862984 -0.057844404 -0.044167265 -0.12182749
0.025842296 -0.057871424 -0.15413718 -0.10536295 -0.06509819 0.27030855 0.10535733 0.21118201
0.060623787 0.015621117 0.12251903 0.037961587 -0.18504176 -0.15981704 -0.07789052 0.0075527774
0.09430143 0.07718768 0.2198361 0.07689465 -0.1068544 -0.20943472 -0.19313009 -0.12183459
0.07931854 0.16949488 0.1980044 -0.07775196 -0.027674666 -0.060183093 0.016198913 0.07528673
-0.0148343155 -0.01211633 0.075177 0.118215255 -0.11579201 -0.189218 0.05181451 -0.011632164
-0.09338435 0.114374906 -0.0034526647 -0.054871142 -0.11194239 -0.04230466 -0.21636747 0.07606083
0.012955718 0.16968673 -0.009957921 0.035048332 0.09763559 0.21773314 -0.1392144 0.16594177
0.0072364695 -0.14220148 0.064198256 -0.11654541 -0.114574686 -0.079805106 -0.13727154 0.15668039
-0.2340626 0.090127274 -0.23689595 -0.009093598 -0.019697163 0.16409215 -0.09779673 0.09498305
0.03968642 0.19356519 -0.014566344 0.071354546 -0.14066887 -0.16656776 0.241531 -0.18433519
-0.020272272 -0.03957584 0.26687098 -0.08441866 -0.19698863 -0.08352943 0.13072243 0.034341294
0.2435349 -0.11275631 0.19155662 -0.25967187 0.1214216 0.06975431 0.09685659 -0.09693405
-0.0446182 -0.011503486 -0.14772817 -0.22592758 -0.31099096 -0.047762293 0.14758077 -0.04031874
0.087532766 0.012858386 -0.063342646 -0.06686612 0.01930868 -0.20576161 0.122447155 -0.10404368
0.041616213 -0.21617341 -0.003627556 -0.087430954 0.081868805 -0.14663927 0.14668924 -0.17926681
0.101907864 -0.16003098 0.10552269 -0.09582107 -0.016405324 -0.01963981 0.18171161 0.06559399
-0.23201 0.019098485 -0.18555725 0.18751055 0.028632576 -0.06918334 -0.11426198 0.1103269
-0.20394859 0.15463126 0.1015738 0.15304363 0.0683569 -0.19859637 0.21004781 -0.09447932
-0.09607841 -0.036784727 0.17287225 0.17426729 0.030654773 0.12570918 -0.21303022 -0.004340306
-0.21082203 0.07770436 -0.17297004 -0.09911658 0.19061051 0.22443876 -0.15400389 -0.13406122
0.02856584 0.0949715 -0.009040677 -0.08487011 -0.17013158 0.089825705 0.24806665 -0.1486404
0.18830423 0.07163437 0.24758536 -0.04978435 0.029181529 0.14174448 0.11257895 0.29192173
00000000: 0747 ee3a 1d7a c43d fecd 553e 54d8 32be
00000010: 35dd 7abe 1656 cd3d 349c 783d 87b1 f8bd
00000020: 8b68 dfbd c57b 39be 6da9 6a3e d30e b9bd
00000030: bfcf 743e edae 3a3e 1b49 23bb ad33 bd3d
00000040: dd7b 52bc d175 3d3e d26e 64be cea6 d13d
00000050: b7c2 96bc 6678 043e 0f2c 97bb 4b36 8dbd
00000060: ef86 343b 1a34 173e e370 37be b192 03be
00000070: efd8 a2bd c644 a2bd ae37 d63d 6727 1b3e
00000080: 4ffa 5dbd f68e 803e 1dbc 96bd 6cb0 20be
00000090: 1801 fabd b9e4 3dbe db46 12be 0343 5bbe
000000a0: 3abd 46be b568 033d b31a 303e f814 553e
000000b0: 2104 833e c1b1 60bd a597 ee3c 2f8d dfbd
000000c0: 6258 db3d 79fa 67be 642f e93d 6b23 5a3d
000000d0: 9239 c63d 50da e03d 7da1 e6bd 2994 7d3e
000000e0: 6fa4 0d3e 5839 3a3e 253e 923c 5b59 323e
000000f0: cd92 233e b36c fd3d 5d85 563e 3e90 5bbd
00000100: c342 0e3e 7a9e 6b3d fd35 303e 4e4f 643e
00000110: e52c f03c 082b eebd df82 d93b 393c 693d
00000120: c32c 053d 49c1 debd dbd6 5a3e 5bbb e03d
00000130: 5279 debd 41ee 6cbd bce8 34bd b180 f9bd
00000140: 39b3 d33c 960a 6dbd 23d6 1dbe 88c8 d7bd
00000150: 3352 85bd e265 8a3e 95c5 d73d 1940 583e
00000160: a650 783d b7ef 7f3c 42eb fa3d 9c7d 1b3d
00000170: 967b 3dbe 14a7 23be 1185 9fbd 4a7d f73b
00000180: 1c21 c13d 9314 9e3d b71c 613e f17a 9d3d
00000190: 7bd6 dabd 0e76 56be e5c3 45be 6a84 f9bd
000001a0: c271 a23d 1190 2d3e aac1 4a3e 6b3c 9fbd
000001b0: fbb5 e2bc 8c82 76bd 95b3 843c ee2f 9a3d
000001c0: a10b 73bc 9283 46bc 66f6 993d d71a f23d
000001d0: 5d24 edbd 5dc2 41be 743b 543d d594 3ebc
000001e0: 4b40 bfbd 643d ea3d 1a46 62bb 90c0 60bd
000001f0: 0d42 e5bd a747 2dbd 6f8f 5dbe c8c5 9b3d
00000200: 3844 543c 5cc2 2d3e 8c26 23bc d78e 0f3d
00000210: 2bf5 c73d 70f5 5e3e 388e 0ebe a4ec 293e
00000220: e81f ed3b 449d 11be 607a 833d 5caf eebd
00000230: 22a6 eabd dc70 a3bd e990 0cbe d370 203e
00000240: 1bae 6fbe a694 b83d da94 72be 51fd 14bc
00000250: f25b a1bc c607 283e a749 c8bd 7986 c23d
00000260: 3a8e 223d f435 463e ada7 6ebc 5522 923d
00000270: 800b 10be bd90 2abe e753 773e 5dc2 3cbe
00000280: 0912 a6bc 471a 22bd 50a3 883e b1e3 acbd
00000290: 63b7 49be 7a11 abbd 1adc 053e 75a9 0c3d
000002a0: 3661 793e c8ec e6bd 6b27 443e b6f3 84be
000002b0: e3ab f83d 59db 8e3d bf5c c63d 5c85 c6bd
000002c0: 93c1 36bd 1e79 3cbc 0e46 17be 8f59 67be
000002d0: 353a 9fbe 65a2 43bd 6a1f 173e 4325 25bd
000002e0: 6144 b33d fbab 523c cab9 81bd 1bf1 88bd
000002f0: 3d2d 9e3c 2cb3 52be 93c5 fa3d da14 d5bd
00000300: c375 2a3d 905c 5dbe 4abc 6dbb 000f b3bd
00000310: d5aa a73d 9b28 16be b435 163e b891 37be
00000320: 12b5 d03d 29df 23be 481c d83d d63d c4bd
00000330: 7564 86bc abe3 a0bc 9c12 3a3e 2456 863d
00000340: 0894 6dbe 6d74 9c3c b802 3ebe c402 403e
00000350: dd8e ea3c ffaf 8dbd 2f02 eabd 12f3 e13d
00000360: e6d7 50be a857 1e3e ed05 d03d 78b7 1c3e
00000370: b4fe 8b3d d95c 4bbe c616 573e 607e c1bd
00000380: c2c4 c4bd 95ab 16bd 6c05 313e 2073 323e
00000390: b81f fb3c e8b9 003e 9824 5abe 2039 8ebb
000003a0: bbe1 57be 7723 9f3d 0f1f 31be a2fd cabd
000003b0: 672f 433e 46d3 653e 32b3 1dbe 5847 09be
000003c0: e902 ea3c 6b80 c23d 591f 14bc 61d0 adbd
000003d0: f936 2ebe 8af6 b73d 2f05 7e3e 3035 18be
000003e0: d3d2 403e 0ab5 923d 0487 7d3e adea 4bbd
000003f0: 1a0e ef3c 7725 113e cb8f e63d c476 953e

encoder.node_encoder.module_4.lin_query.bias f4 [16]
-0.10436444 0.10322246 0.12664843 -0.17031124 0.067742564 -0.02623635 0.123230465 -0.16149804
0.058686372 0.104004204 -0.21018946 -0.2203622 -0.1236308 0.16801585 0.15912113 -0.1903834
00000000: 06bd d5bd 4c66 d33d 20b0 013e 1266 2ebe
00000010: 9dbc 8a3d 9ded d6bc 4160 fc3d be5f 25be
00000020: 1f61 703d 2800 d53d e83b 57be a1a6 61be
00000030: 2532 fdbd 590c 2c3e a6f0 223e def3 42be

encoder.node_encoder.module_4.lin_value.weight f4 [16, 16]
0.07497661 -0.14686082 -0.1157563 0.20356236 0.11573928 -0.08338603 0.034781218 0.009087328
0.076688334 -0.09513422 -0.10606547 0.14720842 0.04900004 0.07862937 -0.14122252 0.1466437
0.18386552 0.14546019 0.11883679 0.25241366 -0.022709021 0.01001325 0.23927268 0.26314005
-0.032683298 0.22143179 0.11573542 -0.039433673 0.23181613 -0.17072399 0.13075978 0.29364994
-0.17572291 -0.15792708 -0.24001218 -0.04833879 -0.2268737 -0.097676106 0.08085897 0.20102333
0.19299833 0.15700005 0.11497768 -0.15173338 -0.1953732 -0.0053794696 0.22893643 0.033103578
-0.0800451 -0.15713395 -0.06617152 -0.19362846 0.16614416 -0.090154715 -0.2017319 0.06155049
0.073236115 -0.053411707 0.09398216 0.11942519 -0.21879172 -0.22574796 -0.029641617 -0.19429429
-0.26818684 0.23741694 -0.0045444756 -0.14071643 -0.089200154 -0.20319556 0.23084688 -0.015458032
-0.12496552 -0.17792773 0.1473166 -0.04385566 0.0035478703 -0.09503607 -0.10703877 0.0711377
0.1878801 -0.13076015 -0.0077202045 -0.20948195 -0.11152572 0.23750761 0.020633958 0.21219249
-0.07106485 -0.16175617 -0.1303245 0.19526638 -0.16268557 0.11149338 0.050025698 0.091842055
0.16819863 -0.08082883 0.11364084 -0.18579133 -0.06664596 0.22090776 0.04142581 -0.077059574
-0.111822076 -0.15655172 0.14694612 -0.0025726163 -0.027749332 0.09117042 0.18805756 -0.15829249
-0.12500086 0.21626842 0.20937315 -0.117832325 -0.2601951 0.013204912 0.1570953 0.12068404
0.20433626 -0.21156693 0.116588764 -0.15052916 0.15333608 0.1587311 0.0878572 0.22844665
-0.15419267 -0.20208447 -0.21303073 0.15061228 0.07008541 -0.19377156 0.15342079 0.2726716
-0.2909966 0.17470695 0.016172627 0.017728187 0.24495144 0.21469723 0.13465999 0.20162983
0.15109074 0.023241797 -0.20587443 0.08920604 -0.19928393 0.06802029 0.010026 0.018594135
-0.24271008 -0.14072339 0.1377588 0.122764595 0.11029394 -0.037838373 -0.015704319 -0.09645604
0.16705203 -0.09893879 0.20061998 0.17030314 -0.274235 -0.04243223 -0.030241368 -0.13206285
0.10870902 -0.050656024 0.22893268 -0.19378635 0.14672886 -0.25166434 -0.14310203 0.060297687
0.24133863 0.1372311 -0.23604965 0.01715664 -0.12610812 0.035336815 -0.21296322 -0.11264097
0.12138468 -0.22531901 -0.21932454 0.042064622 0.03512716 -0.039085288 0.20749068 -0.15606655
-0.16532525 -0.18685105 -0.078073904 -0.08081872 0.17483346 0.011100179 0.09486865 -0.095107675
0.18050137 0.22935179 -0.23535122 -0.0516712 -0.21419306 0.11965625 -0.19919021 -0.13646868
0.24285962 -0.23513046 0.20667736 0.011502073 0.17455988 -0.15285476 0.19315599 0.05876442
0.031141035 0.17953585 -0.22639038 -0.22692133 0.27320528 -0.19303076 -0.18612212 0.0359315
-0.012456052 -0.064494215 -0.1721186 0.10514063 -0.23695447 0.0051844474 0.12300481 0.018050302
-0.0022052361 0.042189904 -0.06839564 -0.06984463 -0.10194897 -0.16433994 -0.14678353 0.24957803
-0.093396 0.10278018 0.211101 -0.0418774 -0.14523613 -0.20472653 -0.05904359 0.10241448
-0.1484146 -0.042824138 0.12639146 0.18791306 0.10639889 0.0032148948 0.14406292 0.16164353
00000000: 568d 993d af62 16be a411 edbd a772 503e
00000010: b708 ed3d 4bc6 aabd c076 0e3d 04e3 143c
00000020: c60e 9d3d bbd5 c2bd da38 d9bd cebd 163e
00000030: 44b4 483d 6f08 a13d a39c 10be c429 163e
00000040: 3e47 3c3e 84f3 143e b460 f33d 5d3c 813e
00000050: 4508 babc 9d0e 243c e603 753e 4bba 863e
00000060: ecde 05bd 04bf 623e b106 ed3d 3485 21bd
00000070: 3561 6d3e 45d2 2ebe e4e5 053e 4959 963e
00000080: b5f0 33be a3b7 21be c1c5 75be e5fe 45bd
00000090: 9451 68be 690a c8bd 6399 a53d 0fd9 4d3e
000000a0: 5ba1 453e 9fc4 203e 6b79 eb3d ff5f 1bbe
000000b0: ea0f 48be 4346 b0bb 506e 6a3e 9e97 073d
000000c0: afee a3bd b9e7 20be ef84 87bd 8a46 46be
000000d0: b221 2a3e 09a3 b8bd cf92 4ebe 5e1c 7c3d
000000e0: d1fc 953d 3cc6 5abd b879 c03d 3295 f43d
000000f0: f00a 60be 792a 67be fad2 f2bc 15f5 46be
00000100: c94f 89be 6d1d 733e d3e9 94bb f817 10be
00000110: 92ae b6bd 7f12 50be 2063 6c3e af43 7dbc
00000120: eced ffbd b032 36be 2ada 163e fea1 33bd
00000130: 6383 683b 45a2 c2bd 2537 dbbd a4b0 913d
00000140: a463 403e fde5 05be c5f9 fcbb 7082 56be
00000150: 9967 e4bd 3235 733e 8c08 a93c fd48 593e
00000160: 738a 91bd 69a3 25be c973 05be e9f3 473e
00000170: 0c97 26be a456 e43d bfe7 4c3d b017 bc3d
00000180: 433c 2c3e 9689 a5bd 87bc e83d 1540 3ebe
00000190: ad7d 88bd a535 623e 1cae 293d 69d1 9dbd
000001a0: f902 e5bd 184f 20be 0b79 163e 5799 28bb
000001b0: 9152 e3bc 8fb7 ba3d 2992 403e 6d17 22be
000001c0: 3a00 00be 7875 5d3e ea65 563e 1352 f1bd
000001d0: 4b38 85be 6a59 583c 97dd 203e 3229 f73d
000001e0: 863d 513e 00a5 58be 17c6 ee3d 5124 1abe
000001f0: 2204 1d3e 688a 223e 7aee b33d ebed 693e
00000200: afe4 1dbe 3bef 4ebe ba24 5abe 1b3a 1a3e
00000210: f088 8f3d 0d6c 46be 571a 1d3e 9d9b 8b3e
00000220: 82fd 94be 61e6 323e 757c 843c b43a 913c
00000230: 8dd4 7a3e 97d9 5b3e 4fe4 093e 0d78 4e3e
00000240: 88b7 1a3e 9565 be3c bfd0 52be a8b1 b63d
00000250: 1611 4cbe 394e 8b3d 1844 243c ba52 983c
00000260: fe88 78be cb19 10be a510 0d3e 016c fb3d
00000270: cae1 e13d 69fc 1abd 58a6 80bc bf8a c5bd
00000280: b00f 2b3e 6ca0 cabd 536f 4d3e f263 2e3e
00000290: 8868 8cbe 6bcd 2dbd bfbc f7bc 7c3b 07be
000002a0: d6a2 de3d b17c 4fbd 546d 6a3e ee6f 46be
000002b0: 1740 163e 26da 80be 5789 12be b5fa 763d
000002c0: 7921 773e 4f86 0c3e 00b7 71be 158c 8c3c
000002d0: 7d22 01be 56bd 103d 0813 5abe 4fb0 e6bd
000002e0: 8898 f83d 07ba 66be 9d96 60be f44b 2c3d
000002f0: 7fe1 0f3d e517 20bd 7078 543e e9cf 1fbe
00000300: 064b 29be e255 3fbe 36e5 9fbd 4984 a5bd
00000310: 8b07 333e 86dd 353c 7f4a c23d d0c7 c2bd
00000320: 5ad5 383e 32db 6a3e e9ff 70be 2ea5 53bd
00000330: 6d55 5bbe 560e f53d 85f8 4bbe 72be 0bbe
00000340: 31b0 783e 0ac6 70be 3ba3 533e 3173 3c3c
00000350: d3bf 323e f585 1cbe afca 453e f6b2 703d
00000360: 7c1b ff3c 3fd8 373e e1d2 67be 115e 68be
00000370: 90e1 8b3e dba9 45be cc96 3ebe e92c 133d
00000380: 7814 4cbc 8b15 84bd dc3f 30be f853 d73d
00000390: 31a4 72be 4ce2 a93b f2e9 fb3d 3ade 933c
000003a0: b985 10bb 52cf 2c3d 0313 8cbd b40a 8fbd
000003b0: 9fca d0bd bb48 28be 6c4e 16be 6291 7f3e
000003c0: 6746 bfbd 6a7e d23d dc2a 583e a387 2bbd
000003d0: c8b8 14be d5a3 51be b1d7 71bd afbe d13d
000003e0: fff9 17be 5d68 2fbd c36c 013e 486c 403e
000003f0: a9e7 d93d fcb0 523b 3b85 133e e285 253e

encoder.node_encoder.module_4.lin_value.bias f4 [16]
0.10692507 -0.06831359 -0.21004565 -0.040982828 -0.027577234 -0.0043866537 -0.025641616 0.07672987
0.13483098 -0.1223399 -0.26223764 -0.105170175 -0.06274301 0.1283306 -0.1568658 0.01506227
00000000: 88fb da3d ffe7 8bbd 3516 57be 9cdd 27bd
00000010: a7e9 e1bc ebbd 8fbb 5e0e d2bc 8d24 9d3d
00000020: 2211 0a3e 578d fabd 0344 86be 7663 d7bd
00000030: 687f 80bd 1969 033e 6ea1 20be bdc7 763c

encoder.node_encoder.module_4.lin_skip.weight f4 [16, 16]
-0.052984774 -0.15173307 0.113321215 -0.10413888 -0.012933046 -0.17577118 -0.02521494 0.035521448
-0.010173202 -0.09341192 0.074270904 -0.064774394 -0.13859972 -0.18435815 -0.052957386 -0.2361696
0.20750499 -0.11943194 -0.103604555 0.023109764 0.06480831 -0.0235731 0.17150572 -0.14573741
0.0895952 -0.00056383014 -0.20336777 -0.09682372 0.06362179 0.047760457 0.18178385 0.16724825
-0.1363557 -0.10675737 -0.053010345 -0.17910513 -0.06749746 -0.20457822 0.09508553 0.17688984
0.019794106 -0.17897016 -0.189327 -0.09732479 0.072713345 0.006098002 0.045455486 0.23562032
0.1161105 0.05375564 -0.05058047 0.11826223 0.09146014 -0.22502556 -0.14767724 0.00839144
0.09486058 0.12162572 -0.14881966 -0.24802858 -0.0130229 -0.028579324 0.07254499 -0.0687516
0.1911307 0.016681045 0.18256173 -0.17407858 0.100008994 0.02978903 -0.12503707 0.12393695
-0.24600485 0.20211676 0.020147026 0.024138153 0.115611404 0.020753086 0.10716289 0.15905353
-0.19511461 0.1653901 -0.037434697 -0.058137268 0.050320387 0.19553792 -0.1359038 -0.16848278
0.15515181 -0.11741698 0.08048752 -0.036831528 0.068813235 0.19077876 -0.12669975 -0.1213159
0.12265518 0.013688117 -0.027514547 -0.21959704 0.21181458 -0.009467721 -0.046046853 -0.10262248
-0.049334556 0.12150857 -0.005745828 0.21380216 -0.014433682 -0.035864443 0.1411129 -0.006468892
-0.049898237 0.08355665 0.19715774 0.062387377 0.17407954 0.16200957 0.07069945 0.08692214
0.08067104 0.025931686 0.2126841 0.23078513 0.088997155 -0.01248464 0.22414851 -0.19458014
0.18369597 0.13245639 0.16053402 -0.019208908 -0.18652448 0.17833471 -0.109313905 0.065778136
0.14163628 -0.2336314 0.016590983 -0.0888066 0.17743883 -0.15917537 0.15179244 0.15589249
0.13792872 0.24000308 0.037862778 -0.22659528 0.17846623 0.022886693 0.004961252 -0.23814732
-0.05618906 -0.121341944 0.24485275 0.17800722 0.18649706 0.17120916 -0.15496847 -0.1073674
-0.09783757 -0.10022056 0.19460803 0.084941715 0.20033851 -0.011694729 -0.22285679 -0.072530806
0.17569867 0.15220138 0.077392876 -0.07333192 -0.23334277 -0.13433167 0.1303451 -0.100839436
0.11958465 0.06826028 -0.09602183 0.15226957 -0.08033314 -0.008305669 -0.095228255 -0.23714289
0.04030955 0.07224232 -0.12587035 0.15336171 -0.22426388 -0.24099416 -0.15441224 -0.086401224
-0.027764529 -0.04831195 0.11409712 -0.21940634 0.03681189 0.004329413 0.06603256 0.24852002
0.15386212 -0.13842615 -0.20486313 -0.06052524 -0.12540674 0.08732629 0.002291739 0.20108089
0.09820154 -0.04596758 0.008592486 0.059871495 -0.031021804 0.20173365 -0.19547507 0.121851474
-0.15936098 -0.21902037 -0.05132416 0.12182623 0.17664048 0.06273562 -0.02160725 -0.01401484
-0.10134533 -0.022434354 -0.017273486 0.21274066 0.14631104 -0.20005599 0.0010341704 -0.15376747
-0.03968522 -0.19869202 0.06499028 -0.18026951 0.24680525 0.18880063 -0.17208973 -0.23536599
0.009754419 -0.06978792 0.073391676 -0.16922852 0.102335304 -0.21593735 -0.13194251 -0.13142544
0.12097284 -0.0065453053 -0.24025714 -0.14278 -0.115694225 -0.2319574 0.032011718 0.089084476
00000000: 9006 59bd ea5f 1bbe f414 e83d c446 d5bd
00000010: 20e5 53bc 5cfd 33be 908f cebc f07e 113d
00000020: 80ad 26bc c04e bfbd 581b 983d 70a8 84bd
00000030: 16ed 0dbe 62c8 3cbe d8e9 58bd 72d6 71be
00000040: 307c 543e bc98 f4bd a02e d4bd b050 bd3c
00000050: 38ba 843d 601c c1bc 329f 2f3e 303c 15be
00000060: b07d b73d 00ce 13ba a43f 50be 844b c6bd
00000070: 244c 823d 78a0 433d 8c25 3a3e 2043 2b3e
00000080: d4a0 0bbe 9ca3 dabd 6021 59bd 5667 37be
00000090: 1c3c 8abd f47c 51be 34bc c23d 9c22 353e
000000a0: 4027 a23c f443 37be f0de 41be 3852 c7bd
000000b0: bcea 943d c0d1 c73b 882f 3a3d 7446 713e
000000c0: 58cb ed3d e02e 5c3d 782d 4fbd 7833 f23d
000000d0: 744f bb3d 1a6d 66be b438 17be 407c 093c
000000e0: 4446 c23d e816 f93d 2e64 18be 34fb 7dbe
000000f0: 005e 55bc 301f eabc 7892 943d a4cd 8cbd
00000100: c4b7 433e b0a6 883c 76f1 3a3e a841 32be
00000110: 84d1 cc3d 2008 f43c b809 00be a8d2 fd3d
00000120: b2e8 7bbe b2f7 4e3e 600b a53c 60bd c53c
00000130: acc5 ec3d 6002 aa3c 3878 db3d eede 223e
00000140: 20cc 47be 065c 293e 2055 19bd 5821 6ebd
00000150: c01c 4e3d 183b 483e 5e2a 0bbe c086 2cbe
00000160: 1ee0 1e3e 5078 f0bd a4d6 a43d a8dc 16bd
00000170: f4ed 8c3d 825b 433e 94bd 01be 7874 f8bd
00000180: a432 fb3d 2044 603c 3066 e1bc 0cde 60be
00000190: ece5 583e 801e 1bbc a09b 3cbd bc2b d2bd
000001a0: 0813 4abd 7cd9 f83d 8047 bcbb f4ee 5a3e
000001b0: 407b 6cbc 98e6 12bd e67f 103e 00f9 d3bb
000001c0: 1862 4cbd c01f ab3d b8e3 493e e889 7f3d
000001d0: e841 323e d6e5 253e e0ca 903d 3c04 b23d
000001e0: dc36 a53d b06e d43c dcc9 593e f052 6c3e
000001f0: 2444 b63d 608c 4cbc 3087 653e 0440 47be
00000200: cc1a 3c3e a6a2 073e 0863 243e 005c 9dbc
00000210: 4600 3fbe 609d 363e f8df dfbd b0b6 863d
00000220: 1a09 113e 123d 6fbe d0e9 873c 3ce0 b5bd
00000230: 86b2 353e defe 22be 7a6f 1b3e 48a2 1f3e
00000240: 303d 0d3e 5ec3 753e 0016 1b3d 9808 68be
00000250: dabf 363e e07c bb3c 0092 a23b e4dc 73be
00000260: 8026 66bd 2082 f8bd aeba 7a3e 8647 363e
00000270: 16f9 3e3e 7451 2f3e 0eb0 1ebe 70e3 dbbd
00000280: 105f c8bd 7040 cdbd 5447 473e ecf5 ad3d
00000290: 8a25 4d3e 409b 3fbc 9234 64be 088b 94bd
000002a0: 5aea 333e aeda 1b3e 2880 9e3d 0c2f 96bd
000002b0: 68f1 6ebe 3e8e 09be 3079 053e e884 cebd
000002c0: cce8 f43d 0ccc 8b3d 18a7 c4bd 8eec 1b3e
000002d0: b485 a4bd 8014 08bc 0807 c3bd 96d5 72be
000002e0: a01b 253d c8f3 933d 28e4 00be da0a 1d3e
000002f0: 6ea5 65be 2cc7 76be 3e1e 1ebe 20f3 b0bd
00000300: 7072 e3bc c0e2 45bd c0ab e93d 0eac 60be
00000310: 10c8 163d c0dd 8d3b 143c 873d 087c 7e3e
00000320: 088e 1d3e 96bf 0dbe a4c7 51be 50e9 77bd
00000330: a06a 00be 20d8 b23d 0031 163b 26e8 4d3e
00000340: e41d c93d 8048 3cbd 80c7 0c3c d03b 753d
00000350: 7021 febc 4493 4e3e 9e2a 48be 448d f93d
00000360: 862f 23be e046 60be 4839 52bd 0880 f93d
00000370: 3ee1 343e 887b 803d b001 b1bc 809e 65bc
00000380: 248e cfbd 40c8 b7bc 2081 8dbc b0d8 593e
00000390: 90d2 153e 7adb 4cbe 008d 873a 3875 1dbe
000003a0: f88c 22bd ec75 4bbe a019 853d 9298 38be
000003b0: 84ba 7c3e f454 413e 4a38 30be c803 71be
000003c0: 00d1 1f3c f8ec 8ebd 604e 963d 3e4a 2dbe
000003d0: 2c95 d13d ae1e 5dbe f01b 07be 6494 06be
000003e0: 9cc0 f73d 007a d6bb f805 76be ec34 12be
000003f0: 18f1 ecbd 3e86 6dbe b81e 033d ec71 b63d

encoder.node_encoder.module_4.lin_skip.bias f4 [16]
-0.04586941 -0.0994862 -0.0015161335 -0.19857043 -0.15222538 -0.0057015717 0.22209433 -0.07687709
0.12391487 -0.0983876 -0.06654945 -0.23798612 0.20712125 0.2434319 -0.0052508116 0.15884244
00000000: 90e1 3bbd 6cbf cbbd 00b9 c6ba 0c56 4bbe
00000010: f8e0 1bbe 40d4 babb b26c 633e bc71 9dbd
00000020: 14c7 fd3d 707f c9bd 144b 88bd a2b2 73be
00000030: 9817 543e 3646 793e 000f acbb 98a7 223e

encoder.node_encoder.module_5.weight f4 [16, 16]
0.21691744 0.064044535 0.08314831 -0.19453466 -0.26256448 -0.16537067 0.097087376 -0.24982996
-0.21530467 -0.07072815 -0.23415668 0.04198948 0.041405335 -0.15943363 0.1314988 -0.13406229
-0.06349564 0.19990288 0.2859674 -0.03235443 -0.17683084 -0.12308467 -0.013609836 0.15343523
0.138393 -0.19516462 -0.24697734 -0.23288798 -0.026950689 -0.028063543 -0.10562093 -0.17601864
0.028992912 -0.2625965 -0.22119406 -0.15549915 -0.08529819 0.26489994 0.12643784 -0.059615698
0.034473546 0.14015825 -0.018989684 -0.16555028 -0.1386855 -0.21043143 -0.053131513 -0.25743875
-0.04453554 -0.049142685 0.24240588 0.20548286 0.14250627 0.014267949 -0.08463064 0.06434371
-0.20499605 -0.10403512 -0.018882193 -0.07859253 -0.24683687 0.10868629 0.2130952 -0.12072647
0.057889353 0.022049226 0.0063416837 -0.05400963 0.23145881 0.017853223 -0.14754635 -0.06977791
0.15583347 0.090093605 0.0133777335 -0.046094634 -0.11489288 -0.037515614 -0.09964476 0.06297208
0.03444664 0.2229066 -0.104143016 -0.012960263 0.19970292 0.15463969 0.10203674 0.10064506
0.026004054 -0.22400013 -0.012590041 -0.12706059 0.194322 0.25189376 0.030215211 0.2525294
-0.11937326 0.21373877 0.2250561 -0.0044268644 -0.18348767 -0.106493324 -0.059814196 0.025642289
-0.3098255 0.01406384 -0.03937272 -0.07788437 -0.15234536 -0.029960327 -0.17359863 -0.09783185
0.012689893 0.15786622 0.25075948 -0.19007939 0.11601733 -0.13989058 -0.15786403 -0.0024384202
-0.105551094 -0.18758304 -0.23608087 -0.17082998 0.23196487 0.1533688 -0.082106985 -0.21055019
-0.17866486 -0.23930533 -0.06779054 0.20159382 0.06480232 -0.09568671 0.14270218 -0.18489592
-0.17047372 0.024105383 -0.17037354 0.07312775 0.29376793 -0.18442272 -0.20491712 0.068650484
-0.18963526 0.23361827 -0.18238145 0.14562681 -0.23208159 -0.14898753 0.008881243 0.059390645
0.16975182 0.21640801 -0.029663397 0.011965913 0.021648303 -0.06895708 -0.040975973 -0.22745594
-0.21581753 0.1251252 -0.121691 0.20634018 0.021675307 0.065300815 0.23999536 -0.15326938
-0.0145518305 0.07101164 0.060077928 -0.21201734 0.12401057 -0.18389836 0.024892041 0.13172756
-0.01414529 0.0074536228 -0.037528295 0.20664379 0.12819636 0.01527824 -0.17573592 -0.12942354
0.18234514 0.16527338 0.15683281 -0.19693631 0.18776533 -0.018520907 0.18951401 0.2257757
0.048020374 -0.074551225 0.2510685 -0.13384895 0.14099294 -0.23312218 -0.10354701 -0.23461765
-0.08379743 0.101537265 -0.18992609 -0.20679525 0.18358609 0.13857752 -0.009620606 -0.17085616
-0.07161928 -0.088885196 0.12002031 -0.042295057 -0.081337824 -0.1403802 -0.08809601 0.11622716
0.15651402 0.08168371 -0.12924422 0.27189654 0.043527555 -0.13238639 -0.13512915 -0.056089975
0.12618577 0.06264754 0.1793294 0.03117836 0.19552977 -0.07889841 -0.13229094 -0.10315125
-0.22170363 -0.21577106 -0.2629574 -0.02022206 0.04906898 -0.092735544 -0.19529493 0.20760159
-0.08701652 0.11364673 0.13357373 -0.15035099 -0.037490662 0.14275023 0.2743966 -0.047183923
0.17200892 -0.1349785 -0.15558238 0.22771178 -0.034407977 0.23545386 -0.0035873477 -0.12451628
00000000: 9b1f 5e3e c829 833d a949 aa3d 1834 47be
00000010: da6e 86be ee56 29be bfd5 c63d 6dd3 7fbe
00000020: d478 5cbe ecd9 90bd c5c6 6fbe 29fd 2b3d
00000030: a498 293d 9242 23be 9fa7 063e a047 09be
00000040: 010a 82bd 57b3 4c3e 526a 923e 1486 04bd
00000050: 2513 35be d113 fcbd cafb 5ebc 201e 1d3e
00000060: e5b6 0d3e 3cd9 47be a1e7 7cbe 307a 6ebe
00000070: b1c7 dcbc 84e5 e5bc c94f d8bd 3b3e 34be
00000080: 8b82 ed3c 0c73 86be b280 62be 2b3b 1fbe
00000090: d1b0 aebd f7a0 873e ec78 013e 972f 74bd
000000a0: 2234 0d3d a585 0f3e 4190 9bbc 0386 29be
000000b0: 9203 0ebe 567b 57be 6ea0 59bd 03cf 83be
000000c0: e66a 36bd d749 49bd 3f39 783e 196a 523e
000000d0: 2aed 113e 1ec4 693c d452 adbd a3c6 833d
000000e0: 7cea 51be 5d10 d5bd d4ae 9abc 1ff5 a0bd
000000f0: cec2 7cbe eb96 de3d a135 5a3e 713f f7bd
00000100: 631d 6d3d 94a0 b43c e6cd cf3b 3439 5dbd
00000110: 8a03 6d3e ec40 923c 6416 17be b9e7 8ebd
00000120: cf92 1f3e ff82 b83d 482e 5b3c bacd 3cbd
00000130: f54c ebbd f9a9 19bd 8d12 ccbd 82f7 803d
00000140: ec17 0d3d a141 643e ef48 d5bd 4857 54bc
00000150: ec7e 4c3e de59 1e3e a3f8 d03d ff1e ce3d
00000160: 7406 d53c 4a60 65be 7646 4ebc 2c1c 02be
00000170: 59fc 463e 38f8 803e e485 f73c 894b 813e
00000180: f879 f4bd 56de 5a3e 1b75 663e 3b0f 91bb
00000190: 31e4 3bbe 2c19 dabd bbff 74bd c70f d23c
000001a0: 73a1 9ebe 056c 663c 4a45 21bd d781 9fbd
000001b0: 6c00 1cbe 5c6f f5bc d7c3 31be 115c c8bd
000001c0: 45e9 4f3c afa7 213e 8c63 803e 2ca4 42be
000001d0: 7e9a ed3d 7a3f 0fbe 1ca7 21be e7cd 1fbb
000001e0: 2c2b d8bd c515 40be 2fbf 71be 0eee 2ebe
000001f0: 3388 6d3e b60c 1d3e b527 a8bd 789a 57be
00000200: ecf3 36be 750c 75be c4d5 8abd 9c6e 4e3e
00000210: 14b7 843d 65f7 c3bd 8520 123e 5b55 3dbe
00000220: aa90 2ebe a778 c53c 6776 2ebe 00c4 953d
00000230: c068 963e 4fd9 3cbe cbd5 51be a098 8c3d
00000240: bf2f 42be a139 6f3e 34c2 3abe 321f 153e
00000250: cca6 6dbe 3090 18be a282 113c 9b43 733d
00000260: 6cd3 2d3e 109a 5d3e a700 f3bc ad0c 443c
00000270: c857 b13c 5f39 8dbd 6cd6 27bd 36ea 68be
00000280: 45ff 5cbe d220 003e 2239 f9bd d74a 533e
00000290: 6a90 b13c 6fbc 853d 58c1 753e a6f2 1cbe
000002a0: cd6a 6ebc 8d6e 913d 4614 763d 131b 59be
000002b0: 41f9 fd3d da4f 3cbe 65ea cb3c 97e3 063e
000002c0: a5c1 67bc 853d f43b 45b7 19bd 6e9a 533e
000002d0: e845 033e 9551 7a3c 1ef4 33be 9b87 04be
000002e0: afb8 3a3e 6d3d 293e c898 203e aca9 49be
000002f0: 8e45 403e 28b9 97bc f60f 423e bf31 673e
00000300: 03b1 443d 50ae 98bd 0d8c 803e b30f 09be
00000310: 7460 103e 95b7 6ebe 7410 d4bd 9c3f 70be
00000320: fd9d abbd c5f2 cf3d fc7b 42be 22c2 53be
00000330: fefd 3b3e 44e7 0d3e bf9f 1dbc ebf4 2ebe
00000340: 21ad 92bd 7109 b6bd 35cd f53d 953d 2dbd
00000350: 7294 a6bd d4bf 0fbe ae6b b4bd 8108 ee3d
00000360: 3645 203e ca49 a73d 9958 04be 0636 8b3e
00000370: f349 323d 4c90 07be 4c5f 0abe 9abe 65bd
00000380: d836 013e 5a4d 803d 20a2 373e c369 ff3c
00000390: f538 483e 7d95 a1bd 4777 07be f640 d3bd
000003a0: 4706 63be 17f3 5cbe 5aa2 86be bca8 a5bc
000003b0: 8efc 483d 22ec bdbd 65fb 47be 8395 543e
000003c0: b835 b2bd 9ebf e83d 8dc7 083e 9cf5 19be
000003d0: cf8f 19bd 1e2d 123e b67d 8c3e ee43 41bd
000003e0: 1b23 303e ce37 0abe fd50 1fbe 472d 693e
000003f0: 61ef 0cbd d11a 713e b519 6bbb 6402 ffbd

encoder.node_encoder.module_5.bias f4 [16]
0.23159821 0.18398227 -0.007506204 -0.1601604 -0.029506901 -0.074789636 0.14539582 0.0043307785
0.060816016 0.17263259 0.045436434 -0.14394851 0.22878852 0.17146167 -0.120157495 0.202033
00000000: 1528 6d3e d965 3c3e 9af6 f5bb 1701 24be
00000010: 75b8 f1bc 4f2b 99bd a4e2 143e 34e9 8d3b
00000020: 371a 793d 99c6 303e 8e1b 3a3d 3d67 13be
00000030: 8a47 6a3e a693 2f3e 2215 f6bd bde1 4e3e

encoder.node_encoder.module_7.Wr.weight f4 [16, 16]
0.06239418 -0.06894856 -0.19394529 0.022576753 -0.27712813 0.17232193 0.17346895 -0.10203505
0.22323032 -0.10857096 0.042329915 -0.09322646 -0.025645653 0.07464136 0.101597205 -0.008444883
-0.10502116 0.15318254 0.20326817 0.018691916 -0.16863956 0.0095363315 0.004206253 0.17845331
0.078032255 0.031366784 -0.013313 0.105036035 -0.012724394 0.22434576 0.11594291 -0.18715982
-0.017166747 -0.21132416 -0.25288618 0.0891801 0.031160917 0.041246917 0.20300575 -0.10435501
-0.14424177 -0.058964245 0.026549442 0.022719033 0.243741 -0.15472206 -0.13613465 0.036602806
0.19060653 0.08522235 0.15794045 0.06913683 0.2417125 0.16347684 0.2172751 -0.024784805
-0.17141348 -0.11290984 0.11451128 0.19082443 -0.07514728 0.2220032 0.07633065 0.0048814444
0.0075306627 -0.07232403 0.2739862 0.008002504 0.14289103 -0.26455092 -0.13316862 -0.024036463
0.21567029 0.12059024 0.07171797 -0.24804026 -0.022544984 -0.1796794 -0.25312686 0.023976134
-0.12562339 0.20760171 -0.17563719 0.101112135 0.1323373 -0.1662997 0.15481712 -0.041869458
0.11515744 0.22976315 -0.14039272 -0.096319474 0.16367462 0.039915822 -0.021080224 0.17377265
-0.09836589 0.024333643 0.14454614 0.025287557 -0.13872789 0.057938304 -0.16234253 -0.070801236
0.11846769 -0.05219473 -0.13260846 -0.0451549 0.07317113 -0.13444144 -0.14225148 -0.20976937
0.050656322 -0.18650657 0.003211962 -0.099839516 -0.16770406 -0.1366762 -0.21665227 -0.13299651
-0.03738164 -0.22468495 -0.24206495 0.15153164 0.0021499435 -0.12603176 -0.029132402 0.16299088
-0.22569503 -0.13682745 -0.18596767 0.022154398 -0.002689925 -0.25773335 0.14996092 -0.17633426
0.21307126 -0.19723572 -0.08001708 0.05646089 -0.10248264 0.23832713 -0.16275376 -0.034338973
-0.20544727 0.029658018 0.22712086 0.24390468 0.06839091 -0.10579483 0.23401864 0.01484322
0.14875902 -0.097307146 -0.083162256 -0.21144181 0.2053591 -0.0006473986 -0.26418006 0.025409153
-0.14849049 0.01851496 0.053054113 -0.09621276 0.08842539 -0.12990426 0.062577836 -0.20971455
-0.004069689 0.25959793 0.25024813 0.1392718 0.17269108 0.23473151 0.027201742 0.07610239
0.015161075 0.19951528 0.2192213 -0.12871292 0.013152771 -0.18856429 0.06209436 -0.28920838
0.11472123 -0.09339014 0.15247087 0.08157069 -0.09738575 0.123966336 0.09747083 -0.257603
0.28155485 0.23794392 0.22700827 -0.06111126 0.08415777 -0.16806732 -0.055145666 0.11476182
0.14187455 0.15202692 -0.26296183 0.15861814 -0.082502246 0.25584754 0.19940367 0.12650314
0.25063446 0.08973362 0.19420558 -0.030168032 0.2492791 0.073440656 0.15137704 -0.12466392
0.21389548 0.21197282 -0.12415069 0.24224913 -0.2090184 -0.20281067 -0.24156933 0.05314924
-0.19434509 -0.06691935 -0.14753395 0.05417332 -0.21961188 -0.05483558 -0.0063954047 0.06762509
-0.15729499 0.11819758 -0.17934719 -0.22279759 -0.002679295 -0.13285962 0.1504351 -0.13647853
0.012050689 0.10705298 -0.24354969 0.21833768 -0.14214434 -0.060276676 -0.16654424 -0.079456136
-0.12286567 -0.24363379 0.07949696 0.01153392 0.24131645 0.1563188 0.26037073 0.088977195
00000000: 0a91 7f3d e734 8dbd 9899 46be e2f2 b83c
00000010: bde3 8dbe 2975 303e d8a1 313e c1f7 d0bd
00000020: 7d96 643e 745a debd 2262 2d3d 84ed bebd
00000030: d516 d2bc 92dd 983d 3212 d03d 685c 0abc
00000040: 5515 d7bd e2db 1c3e 8825 503e ca1f 993c
00000050: d9af 2cbe 463e 1c3c 9cd4 893b 77bc 363e
00000060: 60cf 9f3d 757a 003d c51e 5abc 221d d73d
00000070: fa79 50bc e5ba 653e 7a73 ed3d d3a6 3fbe
00000080: 47a1 8cbc 5c65 58be 4c7a 81be 0ea4 b63d
00000090: 2e45 ff3c 87f2 283d bde0 4f3e 14b8 d5bd
000000a0: 1db4 13be 7e84 71bd 377e d93c 441d ba3c
000000b0: 3e97 793e 766f 1ebe e266 0bbe d3ec 153d
000000c0: 5c2e 433e 0e89 ae3d 24bb 213e 9c97 8d3d
000000d0: 7b83 773e 7966 273e 5d7d 5e3e 8109 cbbc
000000e0: 0487 2fbe 463d e7bd e484 ea3d 7b67 433e
000000f0: d1e6 99bd cf54 633e 3e53 9c3d 86f4 9f3b
00000100: c7c3 f63b 9f1e 94bd eb47 8c3e ef1c 033c
00000110: 0752 123e 3873 87be 5b5d 08be 1ee8 c4bc
00000120: acd8 5c3e 04f8 f63d dfe0 923d 44fe 7dbe
00000130: 42b0 b8bc e0fd 37be d899 81be 9969 c43c
00000140: 6ba3 00be 8b95 543e 3cda 33be e113 cf3d
00000150: 6e83 073e 784a 2abe 6188 1e3e 4f7f 2bbd
00000160: aad7 eb3d 0847 6b3e 1cc3 0fbe 2543 c5bd
00000170: 529a 273e c67e 233d 6fb0 acbc 75f1 313e
00000180: 0e74 c9bd 5957 c73c e703 143e da27 cf3c
00000190: af0e 0ebe b750 6d3d 1f3d 26be 3d00 91bd
000001a0: 309f f23d 24ca 55bd 83ca 07be 58f4 38bd
000001b0: bfda 953d 04ab 09be 5faa 11be c8cd 56be
000001c0: 017d 4f3d 94fb 3ebe c87f 523b a978 ccbd
000001d0: 9dba 2bbe d9f4 0bbe 18da 5dbe 3d30 08be
000001e0: 7e1d 19bd d013 66be e0df 77be 1c2b 1b3e
000001f0: 11e6 0c3b 780e 01be 13a7 eebc 15e7 263e
00000200: 991c 67be 7f1c 0cbe 4f6e 3ebe 247d b53c
00000210: 7449 30bb a0f5 83be 5b8f 193e f890 34be
00000220: 5a2f 5a3e 29f8 49be ffdf a3bd 8943 673d
00000230: 6be2 d1bd 070c 743e eca8 26be 06a7 0cbd
00000240: c560 52be 5ff5 f23c 5f92 683e 26c2 793e
00000250: 8910 8c3d f6aa d8bd 95a2 6f3e fa30 733c
00000260: 4954 183e f848 c7bd f950 aabd 3484 58be
00000270: a849 523e 2fb6 29ba 9c42 87be db26 d03c
00000280: e40d 18be afac 973c 454f 593d 320b c5bd
00000290: 5f18 b53d 9f05 05be cf28 803d 69bf 56be
000002a0: 075b 85bb 05ea 843e 8620 803e 449d 0e3e
000002b0: eed5 303e 755d 703e 30d6 de3c 92db 9b3d
000002c0: 2866 783c bc4d 4c3e 8c7b 603e 52cd 03be
000002d0: b87e 573c ff16 41be a856 7e3d 1f13 94be
000002e0: f7f2 ea3d 5443 bfbd 5321 1c3e 890e a73d
000002f0: 2e72 c7bd 10e2 fd3d c99e c73d 8ae4 83be
00000300: f527 903e 92a7 733e db74 683e cd4f 7abd
00000310: e95a ac3d d719 2cbe 6ce0 61bd 3f08 eb3d
00000320: 9047 113e f2ac 1b3e efa2 86be cb6c 223e
00000330: f0f6 a8bd 73fe 823e 7a30 4c3e 0a8a 013e
00000340: 2953 803e 43c6 b73d d4dd 463e f322 f7bc
00000350: 0543 7f3e 0e68 963d 9502 1b3e cc4f ffbd
00000360: 6b07 5b3e 670f 593e b842 febd 2810 783e
00000370: eb08 56be 9aad 4fbe f35d 77be 04b3 593d
00000380: 6602 47be 030d 89bd 2413 17be d8e4 5d3d
00000390: f0e1 60be 469b 60bd 8b90 d1bb 067f 8a3d
000003a0: f011 21be 9311 f23d caa6 37be 0d25 64be
000003b0: 1c97 2fbb 5a0c 08be a90b 1a3e 07c1 0bbe
000003c0: 4170 453c 983e db3d 1765 79be ea93 5f3e
000003d0: 498e 11be ade4 76bd 938a 2abe e6b9 a2bd
000003e0: ffa0 fbbd 237b 79be 4dcf a23d c4f8 3c3c
000003f0: a91b 773e 0912 203e 504f 853e ad39 b63d

encoder.node_encoder.module_7.Wr.bias f4 [16]
0.123391956 0.21800584 0.21232824 -0.16582312 -0.07373213 -0.2424515 0.00985405 -0.12024481
0.20332374 0.032609325 0.02021881 -0.18242724 -0.1496966 0.05543082 -0.10197733 -0.12809697
00000000: ecb4 fc3d ec3c 5f3e 936c 593e 89cd 29be
00000010: df00 97bd 3545 78be e272 213c e942 f6bd
00000020: 1934 503e 5b91 053d eba1 a53c 35ce 3abe
00000030: 114a 19be 6d0b 633d 7ed9 d0bd da2b 03be

encoder.node_encoder.module_7.Ur.weight f4 [16, 16]
0.16289546 -0.14548159 -0.109025694 0.2033823 0.06788533 -0.14887598 0.068172306 0.12987848
-0.21872441 0.030600186 0.049460102 -0.024700362 0.23405969 -0.182363 0.11796045 -0.13494557
-0.1737395 0.17162295 -0.14648107 0.0132753765 0.15342258 -0.18516968 -0.22748345 0.082356334
0.20185931 -0.012024261 0.16012827 0.09800132 0.047073968 -0.13158007 0.25480288 0.091106676
0.0018910543 0.18289587 -0.21905479 0.040846437 -0.11096841 -0.019991908 0.114557475 0.11526118
0.06302564 -0.18494833 -0.15880069 0.012180063 -0.037184075 -0.20176643 0.25722787 0.030295845
-0.1981695 0.14986639 0.10685021 -0.16433236 0.16973613 -0.12195994 0.1358526 0.25152192
0.15349798 0.16329777 -0.041470833 0.09417246 0.1064283 0.11546581 0.0034847213 0.027273985
-0.10424513 -0.113617234 -0.27604282 -0.2080563 -0.1117661 0.28633118 0.053397287 -0.19669537
-0.16774374 0.07988136 -0.10621704 -0.040230498 -0.121089675 -0.008574148 0.08171385 -0.030894302
0.17625988 0.14909585 0.2209689 0.0524628 -0.12535322 -0.0127836205 -0.20455971 0.10031193
-0.02579476 -0.0863994 -0.2096905 0.11242606 0.13841106 0.22278611 -0.09728162 0.08167638
0.0343503 -0.18781562 -0.15991573 0.13702749 -0.16720131 0.16612333 0.08863691 0.09988802
0.18391454 0.1421717 0.10331291 0.11936896 -0.103917435 -0.14811516 -0.041892685 0.14158851
0.18706612 0.18707249 -0.09337432 -0.009672291 -0.16681243 0.1634034 -0.18788055 -0.08757551
0.20082715 0.058247443 -0.124573626 -0.17356299 -0.1973523 0.201701 -0.22383553 0.20064108
0.23344295 0.01999281 -0.048348203 0.18145756 0.11688101 0.2551593 0.20363626 -0.14773323
0.14018749 0.14649706 -0.1934794 0.13131897 -0.15186827 -0.1502125 0.004471616 -0.050900787
-0.16157958 -0.20396584 0.0844568 0.20574376 -0.03237335 -0.12543693 0.015058921 -0.24990503
-0.18680918 -0.09971363 0.15809569 -0.21017471 -0.03031087 -0.13457303 -0.23176584 -0.06098312
-0.063416116 -0.03273178 0.17604917 0.06582556 0.17198205 0.10874283 0.07584684 0.1416148
-0.14830033 0.14819948 0.12189501 -0.081818186 0.005915288 -0.17532086 -0.20179105 4.628987e-05
0.039401975 -0.01805353 0.05117815 -0.22253434 -0.0918754 0.21070236 -0.23119695 0.0015395455
0.20546938 0.17337519 0.11989169 -0.2168894 0.043024655 -0.09964881 -0.103161015 0.21132714
-0.086327314 -0.2037637 -0.18634284 0.13884787 0.00072885683 0.23181033 0.053657737 -0.2829005
0.07421129 0.23299584 0.19616401 0.08140347 -0.15133862 -0.13563877 0.15689497 -0.13877068
0.023202593 -0.041587397 0.069011025 -0.00083933224 -0.15056905 -0.08156906 0.21174745 0.010610104
0.15170185 -0.11069447 0.2147191 -0.024514781 -0.08416943 0.07453248 -0.08501635 -0.10900701
-0.059408784 -0.053586457 -0.11149469 0.06399794 -0.27713373 0.119227566 0.24513035 0.0107493745
0.00039804817 -0.25339872 0.1513362 0.17207095 0.25170022 -0.022822894 0.04733751 0.27969235
0.0654571 -0.0971295 -0.26649684 0.10984 0.12496347 0.2507051 -0.1127921 0.13687487
-0.10625161 -0.01510066 0.11999649 -0.19689433 0.16365188 0.15276045 -0.11363279 0.100021824
00000000: 11ce 263e 20f9 14be dd48 dfbd 7343 503e
00000010: 7707 8b3d f272 18be ec9d 8b3d ddfe 043e
00000020: 4bf9 5fbe 3ead fa3c ad96 4a3d 6a58 cabc
00000030: 58ad 6f3e 5ebd 3abe 4095 f13d 2c2f 0abe
00000040: c4e8 31be edbd 2f3e 22ff 15be f780 593c
00000050: cf1a 1d3e 1f9d 3dbe 6cf1 68be 70aa a83d
00000060: 35b4 4e3e 6801 45bc aaf8 233e ebb4 c83d
00000070: a2d0 403d edbc 06be 8675 823e 2396 ba3d
00000080: 41dd f73a 0e49 3b3e e64f 60be 984e 273d
00000090: 6843 e3bd 12c6 a3bc 1c9d ea3d 0e0e ec3d
000000a0: 9613 813d 1863 3dbe a69c 22be e38e 473c
000000b0: 544e 18bd dc9b 4ebe 5fb3 833e fe2e f83c
000000c0: f2ec 4abe 9376 193e 48d4 da3d be46 28be
000000d0: 4fcf 2d3e 22c6 f9bd f21c 0b3e 7bc7 803e
000000e0: 932e 1d3e 8837 273e 52dd 29bd 7edd c03d
000000f0: 15f7 d93d 5779 ec3d ec5f 643b b16d df3c
00000100: 797e d5bd 27b0 e8bd 7c55 8dbe b60c 55be
00000110: a0e5 e4bd 009a 923e 1db7 5a3d 836a 49be
00000120: 04c5 2bbe d798 a33d 5288 d9bd bcc8 24bd
00000130: ddfd f7bd 957a 0cbc 9759 a73d 0c16 fdbc
00000140: 787d 343e 95ac 183e ac45 623e 3ce3 563d
00000150: 985c 00be 6472 51bc 1a78 51be 5770 cd3d
00000160: 884f d3bc 2bf2 b0bd 1bb9 56be a23f e63d
00000170: a1bb 0d3e 0b22 643e 963b c7bd f245 a73d
00000180: e6b2 0c3d bd52 40be f3c0 23be ef50 0c3e
00000190: d236 2bbe 3c1c 2a3e 4587 b53d 1792 cc3d
000001a0: 1854 3c3e 7595 113e b895 d33d b777 f43d
000001b0: aad2 d4bd 80ab 17be aa97 2bbd 94fc 103e
000001c0: 438e 3f3e ee8f 3f3e 093b bfbd 8778 1ebc
000001d0: e1d0 2abe 3953 273e c263 40be ca5a b3bd
000001e0: a2a5 4d3e df94 6e3d 7520 ffbd 7fba 31be
000001f0: b916 4abe b58a 4e3e 2435 65be db74 4d3e
00000200: ab0b 6f3e f6c7 a33c c408 46bd 03d0 393e
00000210: 505f ef3d 3da4 823e 0686 503e 6147 17be
00000220: 4f8d 0f3e 5303 163e 771f 46be 7b78 063e
00000230: 5b83 1bbe 4ed1 19be a286 923b 587d 50bd
00000240: 1e75 25be 6cdc 50be b0f7 ac3d 7eae 523e
00000250: eb99 04bd 8a72 00be b1b9 763c 1be7 7fbe
00000260: e84a 3fbe a936 ccbd d6e3 213e 0a38 57be
00000270: 804e f8bc 83cd 09be 0654 6dbe 70c9 79bd
00000280: 4fe0 81bd c211 06bd 3c46 343e 8dcf 863d
00000290: 101c 303e 90b4 de3d 9755 9b3d 7803 113e
000002a0: 0bdc 17be 9bc1 173e 17a4 f93d 4b90 a7bd
000002b0: 08d5 c13b 5087 33be 50a2 4ebe 5f27 4238
000002c0: f763 213d ffe4 93bc 2ea0 513d 0be0 63be
000002d0: 2b29 bcbd 5cc2 573e e5be 6cbe 93ca c93a
000002e0: 9166 523e 4489 313e c689 f53d 4118 5ebe
000002f0: 9f3a 303d ad14 ccbd 1546 d3bd 2466 583e
00000300: 60cc b0bd 6ea7 50be a8d0 3ebe 232e 0e3e
00000310: c110 3f3a b05f 6d3e 37c8 5b3d 56d8 90be
00000320: 17fc 973d 7696 6e3e 38df 483e ddb6 a63d
00000330: 83f8 1abe e4e4 0abe 13a9 203e e719 0ebe
00000340: 5d13 be3c 8c57 2abd a755 8d3d a206 5cba
00000350: c62e 1abe ae0d a7bd 53d4 583e 00d6 2d3c
00000360: bb57 1b3e c8b3 e2bd 53df 5b3e 39d3 c8bc
00000370: 0661 acbd 7ca4 983d 0d1d aebd 113f dfbd
00000380: a056 73bd 797d 5bbd 5457 e4bd 5a11 833d
00000390: 79e4 8dbe 952d f43d 7303 7b3e 251e 303c
000003a0: 1fb1 d039 7abd 81be e0f7 1a3e 5e33 303e
000003b0: dade 803e 14f7 babc fae4 413d d633 8f3e
000003c0: 5f0e 863d d5eb c6bd 4672 88be cbf3 e03d
000003d0: d9ec ff3d 6b5c 803e 8bff e6bd ed28 0c3e
000003e0: 729a d9bd c268 77bc b8c0 f53d ab9e 49be
000003f0: 5c94 273e 3c6d 1c3e 4fb8 e8bd 3ed8 cc3d

encoder.node_encoder.module_7.Ur.bias f4 [16]
-0.07085566 0.0064094034 -0.059846237 -0.2185017 -0.04356701 0.12064463 -0.02869042 -0.15505096
-0.005733551 0.0387048 -0.05228649 -0.19546016 -0.08754945 -0.024683202 0.11227889 0.20903455
00000000: c61c 91bd f905 d23b 5421 75bd e9be 5fbe
00000010: 5273 32bd 8814 f73d 2c08 ebbc aec5 1ebe
00000020: 83e0 bbbb ed88 1e3d 5c2a 56bd b526 48be
00000030: 204d b3bd 6d34 cabc 7af2 e53d 270d 563e
