dagformercheckpoint/dagformermodel799.pt (torch, 187067 bytes, 155 tensors)

encoder.node_encoder.module_0.weight f4 [16, 5]
000000 9a 90 a6 3e 29 77 c3 3e 6a 59 12 be ec fa d3 3e
       0.32532197 0.3817685 -0.14291921 0.41402376
000010 ff 99 c5 bd 9c 8c ca 3d 04 9a 42 be ee 82 92 3e
       -0.09648513 0.098901 -0.19004065 0.28615516
000020 29 fd c5 3e 06 c1 a9 be 66 cd b3 3e f8 2e 6d 3d
       0.38669708 -0.33155078 0.35117644 0.05790612
000030 3e 28 c9 3e ef cd 83 3d 8b 84 69 3e d4 1c 00 be
       0.39288515 0.06435763 0.22804467 -0.12510997
000040 15 08 b1 3e 33 f6 ad 3d 73 fe 67 be 7e ff a5 3d
       0.3457648 0.084942244 -0.22655658 0.08105372
000050 93 ae 42 be 53 75 88 bd 33 e5 6f be f1 20 92 3e
       -0.19011907 -0.06663003 -0.23427276 0.28540757
000060 ec 42 a3 be df 7b 28 be 69 71 01 be db 4b ac be
       -0.31886995 -0.16453503 -0.12640919 -0.33651623
000070 9f 62 f6 3c bc 99 e5 be 48 6d bc 3e 4a 00 b5 be
       0.030076323 -0.44843853 0.36802125 -0.35351783
000080 71 17 eb 3e c8 c1 f8 3d cf 78 f8 bd 02 cb 8d 3e
       0.45916322 0.12146336 -0.121324174 0.27693945
000090 4d 25 08 3d ac ab d7 3e 23 3e bb 3d a8 66 d8 bd
       0.033238698 0.42123163 0.09142711 -0.10566455
0000a0 f7 49 a2 3d 96 89 06 be 89 1b da 3d be 85 cc 3e
       0.07924264 -0.13138422 0.10649783 0.39945787
0000b0 94 cb 66 3e c8 f0 60 be 35 80 75 3e 62 53 90 3c
       0.22538596 -0.21966851 0.23974688 0.017617885
0000c0 39 a2 5c 3e 70 fa 93 be f4 77 f0 be 44 99 32 be
       0.21546258 -0.28902006 -0.46966517 -0.17441279
0000d0 64 bd 9d be 09 df ae 3e eb d3 00 3e 64 cb 41 3e
       -0.30808556 0.34154537 0.1258084 0.18925244
0000e0 76 a8 0f 3e b3 c5 94 bd c8 fa bb 3e bb 33 a1 be
       0.14029106 -0.07264271 0.36714768 -0.3148478
0000f0 15 cd e4 38 da 1f 8a be 8f d4 52 3e a2 9a 1c be
       0.00010910087 -0.26977426 0.20588897 -0.15293363
000100 d7 39 0e 3e fe 8b ce bd 29 c3 bf 3e d3 05 b6 be
       0.13889252 -0.10085295 0.37453583 -0.3555132
000110 af a1 91 be 07 3c 85 be 19 05 d4 3e d6 14 04 3e
       -0.28443667 -0.2602236 0.4141014 0.12898573
000120 51 a2 f2 3e 43 63 bf be 33 b2 e7 be a4 52 c1 be
       0.47389463 -0.37380418 -0.45253143 -0.37758362
000130 52 58 96 be df 5d 93 3e 03 a2 37 3e 60 59 be 3e
       -0.29364258 0.28782555 0.17932896 0.37177563

encoder.node_encoder.module_0.bias f4 [16]
000000 66 bd 7e be 70 23 ab be a9 80 84 3e 88 4d 73 be
       -0.24876937 -0.33425474 0.2587941 -0.23760045
000010 a4 d8 8d 3e 77 fe da bd 08 d9 88 3e c1 09 b2 be
       0.27704346 -0.106930666 0.26728082 -0.34773067
000020 43 bb 54 be d7 99 0e 3e 3f 37 be 3d a3 fd ff bd
       -0.2077456 0.13925873 0.09287881 -0.12499549
000030 e4 59 91 3e 91 6f 9b 3e 59 d2 ab be 3c 31 79 be
       0.28388894 0.30358556 -0.3355892 -0.24335188

encoder.node_encoder.module_1.frequency f4 [8]
000000 00 00 80 3f a1 5a 89 3e 42 64 93 3d ab 29 9e 3c
       1.0 0.26826957 0.07196857 0.019306978
000010 95 b8 a9 3b bb 1f b6 3a ea 6e c3 39 17 b7 d1 38
       0.0051794746 0.0013894954 0.00037275936 1e-04

encoder.node_encoder.module_3.weight f4 [16]
000000 32 ef 85 3f 47 7f 7f 3f 75 8f 83 3f 49 f8 80 3f
       1.0463622 0.99803585 1.0278155 1.0075771
000010 5b ce 7f 3f 4e 5f 83 3f 93 f8 83 3f 8b f9 81 3f
       0.9992425 1.026346 1.0310234 1.015428
000020 dc 28 80 3f 06 11 82 3f ef 42 7a 3f 7e 5b 80 3f
       1.0012469 1.0161445 0.9775838 1.0027921
000030 77 11 83 3f f4 c4 82 3f 80 8b 78 3f e1 4b 84 3f
       1.0239705 1.0216355 0.9708786 1.0335656

encoder.node_encoder.module_3.bias f4 [16]
000000 3d a9 68 bc 5f e6 6a 3c bd 56 7c 3c 07 a9 0b bc
       -0.014200506 0.014337151 0.015401539 -0.008524186
000010 90 2e 14 3d 2b 23 3a bc 20 fb 5d bc 09 dd 18 bd
       0.036177218 -0.011360924 -0.013548642 -0.03732017
000020 82 7b a4 3c 50 38 44 3a ee 88 97 bc 08 73 de 3b
       0.020078424 0.0007485198 -0.01849791 0.006788615
000030 fa e5 18 bd b9 2e c7 3b 78 6c cb bc 3d a0 99 bc
       -0.037328698 0.006078568 -0.024831995 -0.018753165

encoder.node_encoder.module_3.running_mean f4 [16]
000000 9f 58 5a bd cd 62 69 3e 79 cc 4b 3f ac 7e e8 be
       -0.053307172 0.22791596 0.79608876 -0.45409143
000010 b8 b0 f2 3d 34 0e 15 bf 2e c0 18 3f 6a fd 7c be
       0.11850113 -0.582248 0.5966824 -0.24706045
000020 57 f8 23 3f 7b 63 23 3f 42 ca b1 3f 73 bb 41 3f
       0.6405081 0.6382367 1.3889849 0.7567665
000030 12 44 c1 3f 60 92 07 3f 84 a6 85 3d ea c1 b8 3f
       1.5098898 0.52957726 0.06525901 1.4434178

encoder.node_encoder.module_3.running_var f4 [16]
000000 34 95 0d 3f 1f fe 4f 3f e1 b7 a3 3e a3 0f da 3d
       0.5530579 0.81247133 0.31976226 0.10647514
000010 c3 cd f5 3e 89 9a 95 3f 51 05 09 3e 93 a3 93 3d
       0.48008546 1.1687785 0.13380934 0.07208934
000020 0f 3b a2 3f 87 40 ed 3e 52 1f 89 3e d1 09 ed 3e
       1.2674273 0.46338293 0.26781708 0.46296552
000030 ef 11 15 3e 4a 27 2f 3f c5 ac cd 3f b4 4e 86 3f
       0.14557622 0.68419325 1.606835 1.0492768

encoder.node_encoder.module_4.lin_key.weight f4 [16, 16]
000000 88 98 a0 3d d1 ed a5 bd 69 51 8d bb f5 15 e7 bd
       0.07841593 -0.081020005 -0.0043126834 -0.11283485
000010 98 e2 9a 3d 03 3a 2b 3e df 09 3a bd 2b 4e 6e 3e
       0.075627506 0.16721348 -0.04541957 0.23272006
000020 9e c1 85 3e 83 fe 32 be c0 af 29 be 0e 20 24 be
       0.2612428 -0.17479901 -0.1657095 -0.16027853
000030 8e 77 36 be b3 d9 eb bd 73 8f 08 bd 39 db 53 bd
       -0.17819044 -0.11516132 -0.03333993 -0.05172274
000040 02 84 2a be b6 df 8b bd fd af da bd 4a 9e 8f 3e
       -0.1665192 -0.06829779 -0.10678098 0.28050452
000050 51 fd c4 bd 37 c7 23 be df c0 cf 3d 7e fd 45 bc
       -0.09618629 -0.15993963 0.10144209 -0.012084363
000060 d8 51 e1 3d 5a cb 14 3e 9f 36 3b 3e 96 c6 44 be
       0.110019386 0.14530697 0.18282555 -0.1921638
000070 c7 76 2c 3e 11 06 7d 3e 62 a8 b5 bd 16 3a 4c 3e
       0.16842185 0.24709345 -0.08870007 0.19944033
000080 0e d3 23 3e 89 88 cf 3c 55 2e d9 3d 1f 8b c3 bd
       0.1599848 0.02533366 0.1060454 -0.095480196
000090 ac 40 4d be 9b 94 ab 3d bc 8a bc 3d 67 de 15 be
       -0.20044202 0.083779536 0.09206149 -0.14635621
0000a0 06 8f e7 3d 68 8c 5e be 43 ee 3d 3e 8a 42 84 3e
       0.113065764 -0.21733248 0.18547921 0.25832015
0000b0 61 cc 50 3d ec ba 06 be 5f 85 15 3e 55 e8 9c 3c
       0.05097616 -0.13157243 0.14601658 0.019153753
0000c0 6a 8f 55 3d 11 c0 8d 3d f6 dd 44 3e ea 84 b3 bd
       0.052138723 0.069213994 0.19225296 -0.08765586
0000d0 60 4c 96 bd d4 70 72 3d db 4e 18 3c e2 42 3f 3e
       -0.07338786 0.059189633 0.009296144 0.18677858
0000e0 29 76 2d be 91 73 91 bb 3d 92 52 3d 65 cb ad bd
       -0.16939606 -0.0044388254 0.051408995 -0.0848606
0000f0 07 df 41 3e 68 3f be 3c c6 b4 71 be 28 2e ac bc
       0.18932734 0.023223594 -0.23604116 -0.021018103
000100 36 24 06 be 2c 8f 3e 3d 98 41 58 bc ff f3 77 be
       -0.13099751 0.046523258 -0.0131992325 -0.24214171
000110 d4 df 19 bd 46 39 a8 bc cf 2a 83 bd 29 70 73 3e
       -0.037566975 -0.020535123 -0.064046495 0.23773254
000120 6d 6f 35 bd 21 af 0a 3e 2f 89 83 3d 19 74 51 be
       -0.044295717 0.13543369 0.0642265 -0.20454444
000130 57 c0 52 3d be f9 50 3e 36 dd 28 be 52 24 25 be
       0.05145296 0.20407769 -0.16490635 -0.16127136
000140 95 75 8a 3e 2a 2f 39 3e 0f f5 01 be dc 60 18 3e
       0.27042833 0.18084398 -0.12691139 0.14880699
000150 5a 2c 2d bd 71 47 86 be 3e eb b1 3b 6a 33 8b 3d
       -0.042278625 -0.2622638 0.0054296544 0.06796916
000160 11 82 69 bd 95 f7 a8 3d 38 a4 40 be 77 12 29 3e
       -0.057008807 0.082503475 -0.18812644 0.1651095
000170 98 03 64 3e 4c ae ef 3d fc d8 b4 3c 89 15 ce 3d
       0.22266996 0.11703166 0.022076122 0.10062701
000180 d8 b6 79 be 2d d1 e7 bc a9 78 a3 bc 43 66 03 be
       -0.24386156 -0.028297985 -0.019954996 -0.12831978
000190 30 d1 31 be 4e 13 3a 3e f5 38 3c 3e ec eb 59 be
       -0.17364955 0.18171427 0.18381102 -0.21281403
0001a0 d3 c3 65 3d 32 ad 98 3d dc 9d 5b 3e 63 78 1c 3e
       0.056094956 0.074549094 0.21446937 0.15280299
0001b0 b0 d5 61 3e 6c a6 86 bd f7 ea 43 3e 3b 28 41 3e
       0.22054172 -0.06574711 0.191326 0.18863003
0001c0 14 8f 9b be a6 b1 4d be 33 1c b4 3d e7 4a 44 3e
       -0.30382597 -0.20087299 0.08794441 0.19169198
0001d0 91 c5 1c be 63 fe f6 3b 37 5e e4 bc 04 f3 16 3d
       -0.1530974 0.0075376495 -0.027876956 0.03685285
0001e0 fa 0b 0a be c4 a0 a3 3d 75 ea 27 3e 03 a4 52 be
       -0.13481131 0.07989648 0.16398032 -0.20570378
0001f0 49 86 0a 3d 05 71 26 bc a1 8b 8b 3d 0e 5e 7e 3e
       0.03381947 -0.010158782 0.068137415 0.24840567
000200 7c 1e 15 3e 13 2b f5 bc fb f6 41 3e 1f 63 16 be
       0.1456241 -0.029927766 0.18941872 -0.14686249
000210 dd e8 0f bd 43 d0 4a 3d ea dc 1d be 28 df 7a 3d
       -0.035134185 0.04951502 -0.15416303 0.061247975
000220 56 05 39 be 34 a3 90 3d 52 81 57 3b 64 7d 98 3d
       -0.18068442 0.070623785 0.0032883477 0.07445791
000230 e3 1f 80 be 66 b1 57 be 9b 16 12 3e dc 4c 3d 3e
       -0.25024328 -0.21063766 0.14266436 0.18486351
000240 f5 d3 77 be b1 1f 7c 3d b3 0d 1a be 95 01 7a 3d
       -0.24201949 0.06155366 -0.15044288 0.061036665
000250 fe 3f 48 3e b3 2f 20 3e 61 56 60 be da 32 f7 3d
       0.19555661 0.15643196 -0.21907951 0.12070246
000260 36 ea 0a 3e f6 4d 1f bd 9a dc 87 3e e0 3f 0d be
       0.13565907 -0.03889271 0.26535493 -0.13793898
000270 76 cf 99 bc 31 ab 1e be 08 76 f7 3b b4 14 c7 3d
       -0.018775683 -0.15494992 0.007551912 0.09720746
000280 7d c3 78 3d 5a 59 b9 bd 73 5e 26 be 23 59 ba 3c
       0.060733307 -0.090502456 -0.16246967 0.022747582
000290 de 21 28 be 84 84 3d 3c 02 71 46 3d dd 1a 4d bd
       -0.1641917 0.011567239 0.048447616 -0.050074447
0002a0 9d d1 8d 3d 74 6c 94 3d 0f bb 0b 3e f6 f7 0c 3d
       0.06924746 0.07247248 0.13645576 0.03441616
0002b0 5b e4 5c be 76 3e 63 3e a6 01 a4 3d d3 d3 f4 bd
       -0.21571486 0.22191796 0.08008127 -0.11954465
0002c0 b4 15 18 be e3 ba bb 3d 83 1b 89 be bc fa 1f 3d
       -0.14852029 0.09166505 -0.26778802 0.03905748
0002d0 72 e4 1d 3e 10 a0 40 be d3 56 07 be 49 45 18 be
       0.15419176 -0.18811059 -0.13216715 -0.1487018
0002e0 85 af 3d 3e 8b 52 72 3e 0a f8 9a bc af 69 87 3e
       0.18523987 0.236643 -0.018917102 0.26447818
0002f0 c4 1c eb bd 8e 06 57 be 3c b4 f3 3d 22 6d 67 3d
       -0.11480096 -0.20998594 0.11899611 0.05650056
000300 47 a7 87 3e 53 f9 a4 3c 42 ef 1e 3e 5c f5 07 3e
       0.2649481 0.020138418 0.15520957 0.13277191
000310 14 78 55 3e e4 d7 5d be e5 10 6e 3e b3 94 3c be
       0.20846587 -0.21664387 0.23248632 -0.18416099
000320 96 1f 45 3e 59 e3 dc 3c 23 4b 84 be 67 6d c3 3d
       0.1925033 0.026963877 -0.25838575 0.09542351
000330 8a 43 9f bd 18 02 42 be f6 b8 67 bd d4 83 fb bb
       -0.07776554 -0.18946111 -0.056572877 -0.0076756272
000340 18 f0 27 3e f4 69 d1 bd aa 73 3f 3e bc d2 76 3d
       0.16400182 -0.10225287 0.18696466 0.060259566
000350 ed 43 c8 bc 93 2b 53 3c d8 fa 48 be 2d 02 77 be
       -0.024446452 0.012888807 -0.1962694 -0.24121924
000360 9e d0 2d bd 6a 9e 8b be 36 3e a2 bd 6f 7b a4 bc
       -0.04243528 -0.27269298 -0.07922022 -0.020078389
000370 c0 5c 07 be 82 1d 10 be 23 27 a6 bd a9 85 f0 3b
       -0.13218975 -0.14073756 -0.081129335 0.0073401523
000380 83 c8 2d be d4 d8 86 bc d0 b5 33 3c 7e 07 b0 3d
       -0.1697102 -0.016460814 0.01096864 0.08595179
000390 73 f3 b6 bc 24 50 2a be fb 72 f0 bd 35 e4 1a bd
       -0.022332883 -0.16632134 -0.11740681 -0.03781529
0003a0 0d 1d d9 bd d6 e1 ac bc 4c 97 0d 3d 3e f0 87 3d
       -0.10601244 -0.02110378 0.034568116 0.066376194
0003b0 fb 0d b9 3d 47 b6 0d 3e 81 6d 63 bd 3c 93 0e be
       0.0903587 0.13839065 -0.055524353 -0.13923353
0003c0 11 49 0d 3e 23 eb 25 be d3 31 86 bd bd 60 b0 bd
       0.13797404 -0.16202979 -0.06552472 -0.08612201
0003d0 33 84 a4 bd 16 44 92 bd 65 d2 78 3e 7a 2e 24 3e
       -0.080330275 -0.071418926 0.24299009 0.16033354
0003e0 8e 6b 36 3d 70 eb 87 3e f9 cb 83 be b5 b1 57 3d
       0.044536166 0.26546812 -0.25741556 0.05265971
0003f0 76 88 16 3e be a2 46 3e 2d 94 30 be d8 3f 83 3d
       0.14700493 0.19398019 -0.17244025 0.064086616

encoder.node_encoder.module_4.lin_key.bias f4 [16]
000000 63 cb 11 be 8a 30 20 bc a3 b3 55 bd 5f c3 55 be
       -0.14237742 -0.009777198 -0.052173268 -0.2087531
000010 60 28 74 be 21 6a 28 be 43 54 e8 3d 6d 30 ea 3d
       -0.23843527 -0.16446735 0.11344197 0.11435018
000020 bb ab 5e be 5f 5c c0 bd b7 67 86 3b e7 51 5d be
       -0.21745197 -0.093926184 0.0041017192 -0.21613275
000030 1f 44 10 3e 4e d5 67 3e 79 02 35 3d 40 33 3e be
       0.14088486 0.22639963 0.04419181 -0.18574238

encoder.node_encoder.module_4.lin_query.weight f4 [16, 16]
000000 0b 55 0c 3b da 3e c6 3d 67 9b 54 3e 32 5b 34 be
       0.0021412994 0.09679957 0.20762406 -0.17612913
000010 b7 c1 79 be 15 7c cf 3d 32 95 7d 3d 57 57 fb bd
       -0.24390303 0.10131089 0.061909862 -0.12272518
000020 f4 5d de bd 1e eb 38 be df 5a 6c 3e 0b 2d b8 bd
       -0.10857764 -0.1805844 0.2308154 -0.08992966
000030 72 a4 75 3e 6f fc 39 3e 6c 23 34 bb 0f 66 bd 3d
       0.23988512 0.18162702 -0.0027486933 0.09247982
000040 35 c4 50 bc fd d2 3c 3e 0b 77 64 be 34 9e d3 3d
       -0.012742092 0.1843986 -0.22311036 0.10332909
000050 2c b7 9a bc 44 2e 04 3e 38 fc b2 bb 0f 7b 8d bd
       -0.018886171 0.12908274 -0.0054621957 -0.06908237
000060 de e6 4b 3b d5 9b 17 3e 65 24 38 be 9e 23 04 be
       0.003111295 0.14805539 -0.17982633 -0.12904212
000070 d0 fd a2 bd 49 a3 a0 bd af 03 d7 3d bb 1c 1b 3e
       -0.07958567 -0.07843644 0.104987495 0.15147679
000080 4b 7f 5d bd 2b d9 80 3e 6e e4 98 bd a4 a9 21 be
       -0.054076474 0.25165686 -0.074654445 -0.15787369
000090 51 03 f8 bd 06 f4 3c be 84 7c 11 be 36 6a 5b be
       -0.121100076 -0.18452463 -0.14207655 -0.21427235
0000a0 ea fc 46 be e8 7e 07 3d 7a a5 30 3e ae d5 55 3e
       -0.19432417 0.03308001 0.17250624 0.20882294
0000b0 f2 dc 82 3e df 2e 5f bd ee 18 f2 3c 6e 8e e0 bd
       0.25559193 -0.05448806 0.029552903 -0.10964666
0000c0 77 95 da 3d a0 da 67 be 7f 6c ea 3d b6 90 5d 3d
       0.106730394 -0.22641993 0.11446475 0.054093085
0000d0 72 ac c5 3d f6 47 e0 3d df be e7 bd 5e e0 7e 3e
       0.09652032 0.109512255 -0.11315703 0.24890277
0000e0 f1 f0 0c 3e 59 72 3a 3e a7 5d 89 3c 77 b6 32 3e
       0.13763787 0.18207683 0.01676829 0.17452417
0000f0 13 9d 22 3e c3 db fe 3d c2 26 57 3e 00 c9 5d bd
       0.15880232 0.1244426 0.21010879 -0.054146767
000100 6a 81 0f 3e b7 22 69 3d 57 f3 30 3e 75 62 63 3e
       0.14014211 0.056917872 0.17280327 0.22205527
000110 9e 76 eb 3c 94 18 f0 bd 4d 40 dd 3b e7 6c 62 3d
       0.028743085 -0.11723438 0.00675205 0.05527964
000120 b5 93 08 3d 8f 70 e0 bd 33 2d 5d 3e 73 31 de 3d
       0.03334399 -0.10958969 0.21599273 0.108492754
000130 0f df da bd 07 7e 75 bd ef 75 3c bd d4 c0 f5 bd
       -0.10687076 -0.059934642 -0.046010908 -0.1199967
000140 bd 11 d7 3c 2b a4 6e bd 32 fa 1b be 76 92 d6 bd
       0.026253575 -0.05826203 -0.1523216 -0.10477154
000150 d8 1b 88 bd 9a 96 89 3e d1 52 d6 3d 85 6b 57 3e
       -0.06645936 0.26872712 0.10465015 0.21037109
000160 26 4c 7a 3d a3 5e 62 3c 63 5c fc 3d 44 aa 15 3d
       0.061107777 0.013816508 0.12322309 0.03653933
000170 df 99 3c be db 38 25 be ce 03 a3 bd ba 68 14 3c
       -0.18418072 -0.1613497 -0.0795971 0.009058172
000180 8b d9 bf 3d ce 4c 9f 3d 68 0e 5f 3e d4 5b 9c 3d
       0.09367665 0.07778321 0.2178284 0.07634702
000190 1a b9 d7 bd ec a5 54 be 07 fc 44 be 00 91 f7 bd
       -0.10533352 -0.20766419 -0.19236766 -0.120882034
0001a0 b0 35 a1 3d b9 70 2f 3e b6 d9 49 3e 82 0d 9c bd
       0.07871568 0.17132844 0.19711956 -0.07619764
0001b0 c8 2a eb bc df 74 6f bd 62 dc 93 3c 7a c4 96 3d
       -0.028706923 -0.058461066 0.018049423 0.07361694
0001c0 c6 78 7c bc 0f 10 35 bc 95 17 95 3d cb b9 f0 3d
       -0.015409654 -0.011051192 0.072798885 0.11754187
0001d0 ed 2c e9 bd 29 8c 3f be b2 5c 58 3d 75 ad 29 bc
       -0.11385522 -0.1870581 0.052822776 -0.010356297
0001e0 f2 be c0 bd 2a 57 ee 3d d9 85 9e bb 67 78 58 bd
       -0.0941142 0.11637719 -0.004837733 -0.0528492
0001f0 c8 88 e8 bd 53 4e 24 bd ad 59 5b be a3 4d 97 3d
       -0.11354214 -0.04011376 -0.21420927 0.07387855
000200 e1 41 36 3c 8f ca 2d 3e 9b 91 11 bc 66 3c 15 3d
       0.011124105 0.16971801 -0.008884813 0.036434554
000210 d3 79 c6 3d bf 41 5e 3e fb ad 0f be 03 23 2a 3e
       0.09691205 0.21704768 -0.14031212 0.16614918
000220 5b 3c e4 3b 50 cf 12 be 8d c0 81 3d 1e a6 ef bd
       0.0069652027 -0.14336896 0.06335554 -0.11701606
000230 cd 71 eb bd 02 a7 a2 bd bf 9c 0c be ff 8b 20 3e
       -0.11496315 -0.079420105 -0.13731669 0.15678404
000240 a7 df 6e be e3 96 b7 3d e4 b8 72 be 64 60 1e bc
       -0.23327504 0.08964326 -0.23703343 -0.009666536
000250 25 b2 a3 bc dc ae 27 3e ee 74 c7 bd 2b f0 c1 3d
       -0.019982407 0.16375297 -0.097390994 0.094696365
000260 87 46 23 3d da e0 46 3e 30 7d 5e bc be 17 91 3d
       0.039862182 0.19421712 -0.013579652 0.070846066
000270 d2 10 0f be 97 bf 2b be 4d 9f 76 3e d8 e2 3b be
       -0.1397126 -0.16772304 0.24084206 -0.18348253
000280 1f 1c aa bc d8 6c 1f bd 67 5d 88 3e f8 9c ac bd
       -0.020765362 -0.03892216 0.2663376 -0.08428377
000290 c7 fd 48 be c4 6e a9 bd 79 d4 05 3e 29 a2 0e 3d
       -0.19628058 -0.0827308 0.13069333 0.034822617
0002a0 50 38 79 3e 83 aa e7 bd 4e fd 42 3e 86 72 84 be
       0.24337888 -0.113118194 0.1904194 -0.25868624
0002b0 1e 05 f6 3d e4 3b 92 3d 6d a9 c8 3d d5 66 c9 bd
       0.12012695 0.071403295 0.097979404 -0.09834067
0002c0 1c 23 38 bd 2c 8b 2f bc 86 21 18 be 81 6f 67 be
       -0.044955358 -0.0107143335 -0.14856538 -0.22601129
0002d0 46 bf 9e be f2 71 3f bd 38 4b 17 3e 9e 77 22 bd
       -0.31005305 -0.046739526 0.14774787 -0.039664857
0002e0 01 de b2 3d a8 a6 50 3c b0 37 84 bd 8f 4f 86 bd
       0.0873375 0.012735046 -0.06455934 -0.06558143
0002f0 0d eb 91 3c ae e2 50 be af 7f fd 3d d6 71 d8 bd
       0.017812276 -0.20398971 0.12377869 -0.105685875
000300 a1 95 2a 3d ba 0b 5d be a6 41 ab bb e2 a8 b5 bd
       0.041646603 -0.21586505 -0.0052263318 -0.088701025
000310 7f 43 aa 3d a8 dc 14 be be 39 17 3e 1f c5 37 be
       0.08313655 -0.14537299 0.1476812 -0.1794629
000320 01 cd cf 3d 06 22 22 be 30 e4 d8 3d 81 35 c2 bd
       0.10146523 -0.15833291 0.10590398 -0.09482861
000330 9d 8c 88 bc d4 47 9a bc 56 00 3b 3e 0f 88 84 3d
       -0.016668612 -0.018833078 0.18261847 0.064712636
000340 fb 6f 6d be ef c4 98 3c b5 84 3e be 59 53 40 3e
       -0.23187248 0.018648593 -0.18605311 0.18781795
000350 1c 5d e9 3c 0e c3 8d bd 5b e9 ea bd d4 6b e1 3d
       0.02848678 -0.06921969 -0.1147029 0.11006895
000360 5d 8c 50 be 15 36 1f 3e 71 fd cf 3d 85 84 1c 3e
       -0.20366044 0.15547974 0.10155762 0.15284927
000370 e9 d8 8b 3d 49 d2 4a be 86 48 57 3e b9 83 c1 bd
       0.06828482 -0.1980678 0.21023759 -0.09448952
000380 57 65 c4 bd 9d 05 1a bd 9c 36 32 3e 66 bb 33 3e
       -0.095896415 -0.03760301 0.17403644 0.17551956
000390 0f de f1 3c 75 2e ff 3d 47 5f 5b be 8f 67 92 bb
       0.029524831 0.12460033 -0.21423064 -0.0044679116
0003a0 5b 31 57 be 7d ba 9d 3d 4a 7f 31 be 45 12 cd bd
       -0.21014921 0.077015854 -0.17333713 -0.1001325
0003b0 cb 5a 43 3e 75 71 65 3e b7 87 1e be 95 65 08 be
       0.19077604 0.22406562 -0.15481459 -0.1332
0003c0 9a 73 e9 3c bd 93 c3 3d d1 d4 1d bc 03 62 af bd
       0.028497506 0.09549663 -0.009633259 -0.08563616
0003d0 32 8f 2d be ec 37 b9 3d 27 dd 7e 3e d3 d7 17 be
       -0.16949156 0.090438694 0.2488905 -0.14828424
0003e0 63 59 40 3e 30 f8 92 3d 59 a5 7d 3e 36 44 49 bd
       0.18784098 0.07176244 0.24770106 -0.049137317
0003f0 fc b7 ed 3c 8f 3d 11 3e 9f 97 e7 3d 4d 30 95 3e
       0.029018395 0.14183639 0.11308216 0.29138413

encoder.node_encoder.module_4.lin_query.bias f4 [16]
000000 44 5e d3 bd 54 2e d2 3d 6d 8e 02 3e 33 e4 2e be
       -0.10320714 0.10262743 0.12749644 -0.17079239
000010 c1 56 8e 3d 6c 01 d0 bc 6f 48 fa 3d 50 51 26 be
       0.06950141 -0.025391303 0.12220847 -0.16241956
000020 38 82 6d 3d 9a 1f d5 3d 8d 11 57 be 42 6a 61 be
       0.057985514 0.10406418 -0.21002789 -0.2201319
000030 88 8e fb bd 3e 5d 2b 3e 03 ac 21 3e c3 13 42 be
       -0.12283045 0.16734788 0.15788274 -0.18952851

encoder.node_encoder.module_4.lin_value.weight f4 [16, 16]
000000 6e 04 9b 3d f4 09 17 be a6 de ea bd 3c 3e 51 3e
       0.07569204 -0.1474989 -0.11468248 0.20433897
000010 01 51 eb 3d 3d 9a ac bd 73 00 0c 3d af d2 20 3c
       0.1149006 -0.08427856 0.034180116 0.009815856
000020 9e b2 9f 3d f0 30 c3 bd 75 c9 da bd 3e dc 16 3e
       0.077977404 -0.095308185 -0.10682956 0.14732453
000030 64 85 46 3d 02 a7 a1 3d e6 59 10 be 47 d4 15 3e
       0.048467055 0.07893182 -0.14096794 0.14631759
000040 c3 fa 3b 3e b3 95 15 3e 64 b5 f0 3d d5 c6 80 3e
       0.18357377 0.14607887 0.117533475 0.25151697
000050 c7 20 b1 bc b9 64 36 3c 72 98 75 3e 91 86 86 3e
       -0.021622075 0.011132413 0.23983935 0.2627454
000060 f3 32 0c bd f9 ab 63 3e 77 3b ee 3d 8d 32 1f bd
       -0.034228276 0.22233571 0.11632436 -0.03886657
000070 93 83 6d 3e 1e 75 2e be 76 49 06 3e a2 25 96 3e
       0.23194723 -0.17036864 0.1311396 0.29325587
000080 3e 86 34 be 4a 26 21 be 2d 15 77 be 6c 4e 49 bd
       -0.17629334 -0.15737262 -0.24129172 -0.049147055
000090 50 3e 67 be 73 a4 c5 bd 86 c5 a6 3d 59 0b 4d 3e
       -0.22582364 -0.09650507 0.08143143 0.2002386
0000a0 f5 15 44 3e 46 6d 21 3e d9 9c ec 3d a7 2f 1b be
       0.19149001 0.15764341 0.11553354 -0.15154897
0000b0 43 94 47 be 7e 2d a8 bb 71 f2 6a 3e 5f 5e 06 3d
       -0.19490151 -0.005132376 0.22944047 0.032804843
0000c0 9b d5 a3 bd 3d 03 21 be 08 64 86 bd 9f 3c 46 be
       -0.079997264 -0.15723892 -0.06562048 -0.19359063
0000d0 8c a1 29 3e a3 7e b9 bd 82 41 4e be 94 4d 7e 3d
       0.16565531 -0.09057357 -0.20142177 0.062085703
0000e0 80 21 98 3d a8 3a 5d bd 5d a3 bf 3d 89 f3 f3 3d
       0.074282646 -0.054011017 0.09357331 0.11911685
0000f0 06 b1 5f be ad 9e 67 be 26 76 f3 bc db b9 46 be
       -0.21844873 -0.22619124 -0.029719424 -0.19406836
000100 cc 30 89 be 3d fc 73 3e 3f 1c c8 bb 06 29 11 be
       -0.26795042 0.2382669 -0.006106883 -0.14175805
000110 7f 07 b4 bd b1 c0 4e be 6e 2d 6d 3e c3 2b 78 bc
       -0.08790492 -0.20190693 0.23161861 -0.015147152
000120 cc 6c 01 be 64 a2 34 be 34 0b 17 3e 03 20 2f bd
       -0.12639159 -0.17640072 0.14750367 -0.042755138
000130 0b 88 35 3b a6 ba c0 bd 64 62 d9 bd fc e9 8f 3d
       0.0027699496 -0.094106 -0.1061447 0.07027051
000140 a1 ee 40 3e 07 1c 06 be c6 f1 d9 bb f4 d3 55 be
       0.1884103 -0.13096629 -0.006651136 -0.20881635
000150 29 ba e5 bd 2c 5f 72 3e 8b 7d a5 3c 3e 3a 5a 3e
       -0.11217148 0.23669118 0.020201465 0.2131128
000160 88 f3 8e bd 6f 19 26 be ea ef 05 be ae 22 48 3e
       -0.06980044 -0.1622064 -0.13079801 0.19544479
000170 4f 2c 27 be bf f1 e3 3d 2d b7 4b 3d ef 4b bc 3d
       -0.16325496 0.11130094 0.049735237 0.09194171
000180 2e 6e 2c 3e ba ba a7 bd 3b 18 ec 3d 9e ff 3c be
       0.16838905 -0.08189912 0.11528059 -0.18456885
000190 f2 8d 8b bd c1 8c 60 3e 5b b2 24 3d f1 fa 9d bd
       -0.06814183 0.21928693 0.040209156 -0.07713879
0001a0 69 93 e1 bd 7f 74 21 be 2b 6a 16 3e 5b 8a 74 bb
       -0.110144444 -0.15767096 0.14688937 -0.0037313912
0001b0 75 61 e4 bc ed 3f b9 3d 11 49 3f 3e 6a 08 21 be
       -0.027878502 0.09045396 0.18680216 -0.15725866
0001c0 39 47 00 be 1b 37 5e 3e 3d 60 55 3e 80 63 f3 bd
       -0.1252717 0.21700709 0.20837493 -0.118842125
0001d0 2b bd 84 be e3 ed 67 3c f4 b8 21 3e e6 6e f6 3d
       -0.25925574 0.014155838 0.1579321 0.12032871
0001e0 35 df 4f 3e 3b 2b 58 be ce 52 f0 3d a8 d7 19 be
       0.2029999 -0.21110241 0.11734544 -0.15023673
0001f0 9a ad 1d 3e 3f f1 21 3e 35 cd b3 3d 01 2f 6a 3e
       0.15398255 0.15814684 0.087793745 0.22869493
000200 f9 3c 1e be da 3c 4e be 20 50 5b be 7b 54 19 3e
       -0.15452947 -0.201404 -0.21417284 0.14973633
000210 dc b6 91 3d db 5a 45 be 35 be 1d 3e 95 57 8b 3e
       0.07114956 -0.1927294 0.1540459 0.27215257
000220 3e b4 95 be 31 ad 33 3e 43 06 8a 3c d6 f4 95 3c
       -0.29239076 0.17546536 0.016848689 0.018305223
000230 bf 10 7b 3e 26 0c 5c 3e 18 35 0a 3e 7b 24 4e 3e
       0.24518107 0.2148901 0.13496816 0.20131104
000240 55 46 1b 3e 75 f3 bc 3c 33 50 52 be b8 4d b7 3d
       0.15163548 0.023065308 -0.20538406 0.089503706
000250 5a 62 4c be 87 92 8a 3d 47 af 1f 3c e9 69 97 3c
       -0.19959393 0.06766229 0.009746379 0.01848312
000260 f8 42 78 be e2 71 10 be 0e 20 0d 3e 3b fe fa 3d
       -0.24244297 -0.14105943 0.13781759 0.12255522
000270 63 f9 e1 3d 23 df 1b bd 74 e1 82 bc ba 22 c5 bd
       0.11033895 -0.038054597 -0.015976645 -0.09625764
000280 2d 29 2b 3e 91 33 c8 bd 2a 9d 4c 3e 8d 6a 2d 3e
       0.16714926 -0.097754605 0.19981828 0.16935177
000290 51 cc 8b be 79 3a 29 bd 68 e0 ee bc 57 d1 06 be
       -0.2730432 -0.04131553 -0.02915974 -0.13165794
0002a0 59 ea db 3d b0 6f 4d bd 0d 9c 6a 3e 08 8a 45 be
       0.10738058 -0.05015534 0.22911091 -0.19290936
0002b0 e5 67 16 3e 90 f3 80 be d4 0f 12 be 51 c7 75 3d
       0.1468807 -0.25185823 -0.1426385 0.060004536
0002c0 a3 b0 76 3e f6 23 0d 3e 4c b8 71 be 19 31 8a 3c
       0.24090819 0.1378325 -0.2360546 0.016869115
0002d0 ff f5 00 be 28 ea 10 3d 34 ed 59 be 55 6f e8 bd
       -0.1259384 0.03537956 -0.21281892 -0.1134936
0002e0 72 b6 f6 3d 5c 35 67 be 24 c7 5f be 1c 51 2a 3d
       0.120465174 -0.22578949 -0.2185331 0.04158126
0002f0 76 a4 11 3d c0 e4 21 bd 89 bc 53 3e 75 38 1f be
       0.035557233 -0.039524794 0.20677389 -0.1554888
000300 77 bf 29 be ee 0e 40 be 2d e4 9e bd 0a 69 a4 bd
       -0.16576944 -0.18755695 -0.07758365 -0.08027847
000310 3d 6e 32 3e 3d e5 2a 3c 1a b0 c0 3d 75 e2 c3 bd
       0.17424865 0.010430631 0.09408589 -0.095646776
000320 df f3 39 3e 99 82 6a 3e 47 8c 70 be 3d 26 56 bd
       0.18159436 0.22901382 -0.23491012 -0.05228256
000330 2e 5c 5b be 5f a1 f4 3d 86 b3 4c be 0f 1b 0b be
       -0.21421883 0.119448416 -0.19990358 -0.13584541
000340 3a 80 78 3e 5c 09 70 be 48 7b 52 3e d0 b0 2e 3c
       0.24267665 -0.2344107 0.2055484 0.010662273
000350 0b de 33 3e 2a 71 1b be bd 5b 46 3e 8e 2c 6f 3d
       0.17565171 -0.15179887 0.19370933 0.0583921
000360 1b 0b f3 3c df a7 38 3e 30 32 67 be 76 c0 67 be
       0.029668381 0.18032788 -0.22577739 -0.22632012
000370 36 f0 8b 3e 4e 68 45 be 84 41 3e be 38 dc 11 3d
       0.27331704 -0.1927807 -0.1857968 0.035610408
000380 6e ac 45 bc fe 89 82 bd c4 b4 30 be 58 3b d6 3d
       -0.012065036 -0.06373976 -0.17256457 0.10460538
000390 24 d4 71 be 3a eb bc 3b 7e ee fc 3d 02 62 96 3c
       -0.23616081 0.005765346 0.12350176 0.01835728
0003a0 97 f4 58 bb 21 1c 2f 3d bc cc 8b bd 4c ce 8d bd
       -0.0033104771 0.042751435 -0.06826159 -0.06924114
0003b0 60 17 d1 bd a8 46 28 be 58 16 16 be c1 57 7f 3e
       -0.102095366 -0.16433203 -0.14656961 0.24935819
0003c0 91 84 be bd 43 5f d3 3d 5a e4 57 3e ea 83 2d bd
       -0.09302629 0.10320904 0.21083203 -0.04236213
0003d0 67 49 14 be 3f 4b 51 be 74 52 6f bd 73 e9 d2 3d
       -0.14481126 -0.2043886 -0.058428243 0.10298433
0003e0 fb 06 18 be d9 35 2d bd 5d 7d 01 3e eb f3 40 3e
       -0.14846413 -0.04228768 0.12645479 0.18843047
0003f0 e2 97 d9 3d fd f5 4b 3b a6 ca 13 3e 07 60 25 3e
       0.106246725 0.0031121962 0.14432773 0.16149913

encoder.node_encoder.module_4.lin_value.bias f4 [16]
000000 44 80 d9 3d c6 ba 8a bd 9c d5 56 be 75 02 27 bd
       0.10620168 -0.067739055 -0.20979923 -0.040773828
000010 05 2e e3 bc ad b8 97 bb 5a a4 d6 bc 40 bc 9f 3d
       -0.027731905 -0.0046301694 -0.026201416 0.07799578
000020 d3 fd 0a 3e a3 e9 f9 bd 79 c2 85 be db 84 d5 bd
       0.13573389 -0.12202766 -0.26124933 -0.10425731
000030 4f 98 81 bd 20 40 04 3e 3c c4 1f be 81 4e 76 3c
       -0.06327879 0.12915087 -0.15602201 0.015033365

encoder.node_encoder.module_4.lin_skip.weight f4 [16, 16]
000000 90 06 59 bd ea 5f 1b be f4 14 e8 3d c4 46 d5 bd
       -0.052984774 -0.15173307 0.113321215 -0.10413888
000010 20 e5 53 bc 5c fd 33 be 90 8f ce bc f0 7e 11 3d
       -0.012933046 -0.17577118 -0.02521494 0.035521448
000020 80 ad 26 bc c0 4e bf bd 58 1b 98 3d 70 a8 84 bd
       -0.010173202 -0.09341192 0.074270904 -0.064774394
000030 16 ed 0d be 62 c8 3c be d8 e9 58 bd 72 d6 71 be
       -0.13859972 -0.18435815 -0.052957386 -0.2361696
000040 30 7c 54 3e bc 98 f4 bd a0 2e d4 bd b0 50 bd 3c
       0.20750499 -0.11943194 -0.103604555 0.023109764
000050 38 ba 84 3d 60 1c c1 bc 32 9f 2f 3e 30 3c 15 be
       0.06480831 -0.0235731 0.17150572 -0.14573741
000060 b0 7d b7 3d 00 ce 13 ba a4 3f 50 be 84 4b c6 bd
       0.0895952 -0.00056383014 -0.20336777 -0.09682372
000070 24 4c 82 3d 78 a0 43 3d 8c 25 3a 3e 20 43 2b 3e
       0.06362179 0.047760457 0.18178385 0.16724825
000080 d4 a0 0b be 9c a3 da bd 60 21 59 bd 56 67 37 be
       -0.1363557 -0.10675737 -0.053010345 -0.17910513
000090 1c 3c 8a bd f4 7c 51 be 34 bc c2 3d 9c 22 35 3e
       -0.06749746 -0.20457822 0.09508553 0.17688984
0000a0 40 27 a2 3c f4 43 37 be f0 de 41 be 38 52 c7 bd
       0.019794106 -0.17897016 -0.189327 -0.09732479
0000b0 bc ea 94 3d c0 d1 c7 3b 88 2f 3a 3d 74 46 71 3e
       0.072713345 0.006098002 0.045455486 0.23562032
0000c0 58 cb ed 3d e0 2e 5c 3d 78 2d 4f bd 78 33 f2 3d
       0.1161105 0.05375564 -0.05058047 0.11826223
0000d0 74 4f bb 3d 1a 6d 66 be b4 38 17 be 40 7c 09 3c
       0.09146014 -0.22502556 -0.14767724 0.00839144
0000e0 44 46 c2 3d e8 16 f9 3d 2e 64 18 be 34 fb 7d be
       0.09486058 0.12162572 -0.14881966 -0.24802858
0000f0 00 5e 55 bc 30 1f ea bc 78 92 94 3d a4 cd 8c bd
       -0.0130229 -0.028579324 0.07254499 -0.0687516
000100 c4 b7 43 3e b0 a6 88 3c 76 f1 3a 3e a8 41 32 be
       0.1911307 0.016681045 0.18256173 -0.17407858
000110 84 d1 cc 3d 20 08 f4 3c b8 09 00 be a8 d2 fd 3d
       0.100008994 0.02978903 -0.12503707 0.12393695
000120 b2 e8 7b be b2 f7 4e 3e 60 0b a5 3c 60 bd c5 3c
       -0.24600485 0.20211676 0.020147026 0.024138153
000130 ac c5 ec 3d 60 02 aa 3c 38 78 db 3d ee de 22 3e
       0.115611404 0.020753086 0.10716289 0.15905353
000140 20 cc 47 be 06 5c 29 3e 20 55 19 bd 58 21 6e bd
       -0.19511461 0.1653901 -0.037434697 -0.058137268
000150 c0 1c 4e 3d 18 3b 48 3e 5e 2a 0b be c0 86 2c be
       0.050320387 0.19553792 -0.1359038 -0.16848278
000160 1e e0 1e 3e 50 78 f0 bd a4 d6 a4 3d a8 dc 16 bd
       0.15515181 -0.11741698 0.08048752 -0.036831528
000170 f4 ed 8c 3d 82 5b 43 3e 94 bd 01 be 78 74 f8 bd
       0.068813235 0.19077876 -0.12669975 -0.1213159
000180 a4 32 fb 3d 20 44 60 3c 30 66 e1 bc 0c de 60 be
       0.12265518 0.013688117 -0.027514547 -0.21959704
000190 ec e5 58 3e 80 1e 1b bc a0 9b 3c bd bc 2b d2 bd
       0.21181458 -0.009467721 -0.046046853 -0.10262248
0001a0 08 13 4a bd 7c d9 f8 3d 80 47 bc bb f4 ee 5a 3e
       -0.049334556 0.12150857 -0.005745828 0.21380216
0001b0 40 7b 6c bc 98 e6 12 bd e6 7f 10 3e 00 f9 d3 bb
       -0.014433682 -0.035864443 0.1411129 -0.006468892
0001c0 18 62 4c bd c0 1f ab 3d b8 e3 49 3e e8 89 7f 3d
       -0.049898237 0.08355665 0.19715774 0.062387377
0001d0 e8 41 32 3e d6 e5 25 3e e0 ca 90 3d 3c 04 b2 3d
       0.17407954 0.16200957 0.07069945 0.08692214
0001e0 dc 36 a5 3d b0 6e d4 3c dc c9 59 3e f0 52 6c 3e
       0.08067104 0.025931686 0.2126841 0.23078513
0001f0 24 44 b6 3d 60 8c 4c bc 30 87 65 3e 04 40 47 be
       0.088997155 -0.01248464 0.22414851 -0.19458014
000200 cc 1a 3c 3e a6 a2 07 3e 08 63 24 3e 00 5c 9d bc
       0.18369597 0.13245639 0.16053402 -0.019208908
000210 46 00 3f be 60 9d 36 3e f8 df df bd b0 b6 86 3d
       -0.18652448 0.17833471 -0.109313905 0.065778136
000220 1a 09 11 3e 12 3d 6f be d0 e9 87 3c 3c e0 b5 bd
       0.14163628 -0.2336314 0.016590983 -0.0888066
000230 86 b2 35 3e de fe 22 be 7a 6f 1b 3e 48 a2 1f 3e
       0.17743883 -0.15917537 0.15179244 0.15589249
000240 30 3d 0d 3e 5e c3 75 3e 00 16 1b 3d 98 08 68 be
       0.13792872 0.24000308 0.037862778 -0.22659528
000250 da bf 36 3e e0 7c bb 3c 00 92 a2 3b e4 dc 73 be
       0.17846623 0.022886693 0.004961252 -0.23814732
000260 80 26 66 bd 20 82 f8 bd ae ba 7a 3e 86 47 36 3e
       -0.05618906 -0.121341944 0.24485275 0.17800722
000270 16 f9 3e 3e 74 51 2f 3e 0e b0 1e be 70 e3 db bd
       0.18649706 0.17120916 -0.15496847 -0.1073674
000280 10 5f c8 bd 70 40 cd bd 54 47 47 3e ec f5 ad 3d
       -0.09783757 -0.10022056 0.19460803 0.084941715
000290 8a 25 4d 3e 40 9b 3f bc 92 34 64 be 08 8b 94 bd
       0.20033851 -0.011694729 -0.22285679 -0.072530806
0002a0 5a ea 33 3e ae da 1b 3e 28 80 9e 3d 0c 2f 96 bd
       0.17569867 0.15220138 0.077392876 -0.07333192
0002b0 68 f1 6e be 3e 8e 09 be 30 79 05 3e e8 84 ce bd
       -0.23334277 -0.13433167 0.1303451 -0.100839436
0002c0 cc e8 f4 3d 0c cc 8b 3d 18 a7 c4 bd 8e ec 1b 3e
       0.11958465 0.06826028 -0.09602183 0.15226957
0002d0 b4 85 a4 bd 80 14 08 bc 08 07 c3 bd 96 d5 72 be
       -0.08033314 -0.008305669 -0.095228255 -0.23714289
0002e0 a0 1b 25 3d c8 f3 93 3d 28 e4 00 be da 0a 1d 3e
       0.04030955 0.07224232 -0.12587035 0.15336171
0002f0 6e a5 65 be 2c c7 76 be 3e 1e 1e be 20 f3 b0 bd
       -0.22426388 -0.24099416 -0.15441224 -0.086401224
000300 70 72 e3 bc c0 e2 45 bd c0 ab e9 3d 0e ac 60 be
       -0.027764529 -0.04831195 0.11409712 -0.21940634
000310 10 c8 16 3d c0 dd 8d 3b 14 3c 87 3d 08 7c 7e 3e
       0.03681189 0.004329413 0.06603256 0.24852002
000320 08 8e 1d 3e 96 bf 0d be a4 c7 51 be 50 e9 77 bd
       0.15386212 -0.13842615 -0.20486313 -0.06052524
000330 a0 6a 00 be 20 d8 b2 3d 00 31 16 3b 26 e8 4d 3e
       -0.12540674 0.08732629 0.002291739 0.20108089
000340 e4 1d c9 3d 80 48 3c bd 80 c7 0c 3c d0 3b 75 3d
       0.09820154 -0.04596758 0.008592486 0.059871495
000350 70 21 fe bc 44 93 4e 3e 9e 2a 48 be 44 8d f9 3d
       -0.031021804 0.20173365 -0.19547507 0.121851474
000360 86 2f 23 be e0 46 60 be 48 39 52 bd 08 80 f9 3d
       -0.15936098 -0.21902037 -0.05132416 0.12182623
000370 3e e1 34 3e 88 7b 80 3d b0 01 b1 bc 80 9e 65 bc
       0.17664048 0.06273562 -0.02160725 -0.01401484
000380 24 8e cf bd 40 c8 b7 bc 20 81 8d bc b0 d8 59 3e
       -0.10134533 -0.022434354 -0.017273486 0.21274066
000390 90 d2 15 3e 7a db 4c be 00 8d 87 3a 38 75 1d be
       0.14631104 -0.20005599 0.0010341704 -0.15376747
0003a0 f8 8c 22 bd ec 75 4b be a0 19 85 3d 92 98 38 be
       -0.03968522 -0.19869202 0.06499028 -0.18026951
0003b0 84 ba 7c 3e f4 54 41 3e 4a 38 30 be c8 03 71 be
       0.24680525 0.18880063 -0.17208973 -0.23536599
0003c0 00 d1 1f 3c f8 ec 8e bd 60 4e 96 3d 3e 4a 2d be
       0.009754419 -0.06978792 0.073391676 -0.16922852
0003d0 2c 95 d1 3d ae 1e 5d be f0 1b 07 be 64 94 06 be
       0.102335304 -0.21593735 -0.13194251 -0.13142544
0003e0 9c c0 f7 3d 00 7a d6 bb f8 05 76 be ec 34 12 be
       0.12097284 -0.0065453053 -0.24025714 -0.14278
0003f0 18 f1 ec bd 3e 86 6d be b8 1e 03 3d ec 71 b6 3d
       -0.115694225 -0.2319574 0.032011718 0.089084476

encoder.node_encoder.module_4.lin_skip.bias f4 [16]
000000 90 e1 3b bd 6c bf cb bd 00 b9 c6 ba 0c 56 4b be
       -0.04586941 -0.0994862 -0.0015161335 -0.19857043
000010 f8 e0 1b be 40 d4 ba bb b2 6c 63 3e bc 71 9d bd
       -0.15222538 -0.0057015717 0.22209433 -0.07687709
000020 14 c7 fd 3d 70 7f c9 bd 14 4b 88 bd a2 b2 73 be
       0.12391487 -0.0983876 -0.06654945 -0.23798612
000030 98 17 54 3e 36 46 79 3e 00 0f ac bb 98 a7 22 3e
       0.20712125 0.2434319 -0.0052508116 0.15884244

encoder.node_encoder.module_5.weight f4 [16, 16]
000000 2c 6c 5f 3e b4 bf 83 3d 50 c0 ab 3d 37 3b 47 be
       0.21818608 0.06433049 0.0838629 -0.19456182
000010 e3 e2 86 be d3 aa 29 be 63 c5 c4 3d b8 f5 7f be
       -0.26344976 -0.1656907 0.09607961 -0.24996078
000020 39 c1 5d be a5 d3 91 bd 52 8e 6e be ba ad 30 3d
       -0.2165574 -0.07120446 -0.23296478 0.04313443
000030 e2 d8 27 3d b5 de 22 be 68 a5 07 3e 24 f2 08 be
       0.04097832 -0.15905268 0.13246691 -0.1337362
000040 14 49 82 bd cd 72 4c 3e 22 ca 92 3e 0f bb 04 bd
       -0.06361595 0.19965668 0.2866984 -0.032404955
000050 2c 4c 35 be ea fd fa bd 94 55 58 bc 2d cf 1c 3e
       -0.17704839 -0.122554615 -0.013203997 0.15313406
000060 4e b7 0e 3e 48 21 48 be bb 9c 7d be 3e 45 6e be
       0.13937113 -0.19543946 -0.24766819 -0.23268601
000070 76 60 d4 bc 81 d8 e5 bc b4 e7 d8 bd 3d e6 34 be
       -0.025924902 -0.028057339 -0.10591069 -0.17665954
000080 d2 ad f6 3c d1 3f 86 be ba b0 61 be 50 47 1f be
       0.03011218 -0.26220563 -0.22040072 -0.15554547
000090 c3 d6 af bd c7 75 87 3e 51 66 00 3e b5 1c 73 bd
       -0.085858844 0.26457044 0.1253903 -0.05935355
0000a0 59 dc 07 3d 41 c7 0e 3e 5a 61 91 bc 22 93 28 be
       0.033169124 0.13943197 -0.017746616 -0.16462377
0000b0 ef 8d 0e be 9a 06 57 be 88 0e 55 bd 81 8e 83 be
       -0.13921331 -0.20998612 -0.05201581 -0.2569466
0000c0 a7 47 37 bd 35 44 4a bd b5 02 79 3e 70 12 53 3e
       -0.044746067 -0.049381454 0.24317439 0.20612502
0000d0 aa d5 0f 3e 03 cf 80 3c cc a5 aa bd d4 11 80 3d
       0.1404635 0.01572371 -0.083324045 0.062534004
0000e0 90 b7 51 be b8 8d d3 bd 0d e0 9c bc d9 28 9f bd
       -0.2048018 -0.10329765 -0.019149804 -0.07771463
0000f0 fd 1c 7c be 06 68 dd 3d b6 f2 59 3e 4a d2 f8 bd
       -0.24620433 0.108108565 0.21283993 -0.121494845
000100 2b 4f 69 3d 45 6b b1 3c 12 00 cf 3b 3c 2a 5a bd
       0.056960266 0.021657595 0.006317147 -0.053262934
000110 99 4d 6b 3e e2 e9 9d 3c 7f b1 15 be c0 55 93 bd
       0.2297882 0.019276563 -0.1461849 -0.0719409
000120 52 b6 20 3e d7 5e bb 3d 51 69 4e 3c 1c 10 3c bd
       0.1569455 0.09148949 0.012598352 -0.0459138
000130 a5 a8 e8 bd 5a dc 1c bd 2e 38 cd bd 1d ac 7b 3d
       -0.113602914 -0.03829608 -0.10020481 0.061443437
000140 47 0e 0b 3d 9e 3d 64 3e 50 c3 d4 bd 74 1e 42 bc
       0.033949163 0.2228913 -0.103888154 -0.011848081
000150 f1 25 4c 3e a0 23 1e 3e ae c8 d0 3d c5 e0 cc 3d
       0.19936348 0.15443277 0.101945266 0.10003809
000160 7a 14 d7 3c e4 d5 64 be c1 43 53 bc 83 fd 01 be
       0.026254881 -0.22347218 -0.012894572 -0.12694363
000170 d3 9a 47 3e 56 ad 80 3e 61 49 f6 3c 43 fd 80 3e
       0.19492655 0.25132245 0.030064287 0.25193223
000180 6b 93 f6 bd c8 af 5a 3e 67 60 66 3e e3 d1 86 bb
       -0.120398365 0.21356118 0.22497712 -0.004114376
000190 c8 39 3b be 65 a3 db bd 50 f6 73 bd d8 ed d3 3c
       -0.1828376 -0.107245244 -0.059561074 0.025870249
0001a0 8f 1e 9e be 41 a3 79 3c b5 ea 24 bd ed 1f a0 bd
       -0.3088269 0.015236677 -0.040262897 -0.07818589
0001b0 95 5a 1b be 8e 3b fb bc f5 45 32 be ea a1 c9 bd
       -0.15171273 -0.030668046 -0.17409499 -0.09845336
0001c0 41 86 45 3c 5a f5 20 3e 5a 81 80 3e b9 ac 42 be
       0.012055934 0.15718594 0.25098687 -0.19011201
0001d0 0d f2 ed 3d a4 d1 0e be 94 34 21 be ed 27 40 bb
       0.11618433 -0.13947159 -0.15742713 -0.0029320673
0001e0 88 2d d7 bd a5 10 40 be a3 bc 71 be 78 a0 2f be
       -0.10506731 -0.1875635 -0.23607115 -0.17151058
0001f0 1f af 6d 3e 28 f8 1b 3e 29 f4 a7 bd 54 79 57 be
       0.23211335 0.15231383 -0.08200867 -0.21042377
000200 21 d7 35 be 0d da 74 be a7 4a 89 bd a1 60 4e 3e
       -0.17757846 -0.23911305 -0.06703692 0.20154049
000210 b2 80 83 3d df a9 c4 bd 8d 3b 11 3e 29 48 3d be
       0.06421031 -0.09602713 0.14182873 -0.18484558
000220 96 aa 2f be 83 c6 c0 3c 7c 5b 2d be 5e ab 97 3d
       -0.17154917 0.023532158 -0.1692943 0.074057326
000230 45 48 96 3e 5e 95 3c be e0 e0 50 be 79 f2 8c 3d
       0.29352012 -0.18416354 -0.20398283 0.068821855
000240 8f 23 42 be 22 6d 6e 3e 2e 63 3b be 72 8b 15 3e
       -0.18958877 0.23283818 -0.18299553 0.14603975
000250 21 f0 6d be a5 9b 18 be 88 6d 13 3c 21 5c 70 3d
       -0.23236133 -0.14903124 0.008998282 0.05868161
000260 8d 2e 2e 3e e4 0c 5e 3e 8e 90 f3 bc e3 4a 3c 3c
       0.17009945 0.21684605 -0.029732015 0.011492464
000270 d3 dd af 3c 3a 5d 8e bd e1 5a 28 bd d3 e1 68 be
       0.021468079 -0.06951375 -0.041102294 -0.22742395
000280 15 15 5c be af 95 00 3e f5 0a f7 bd 02 5f 53 3e
       -0.21492417 0.125571 -0.12062637 0.20641711
000290 ad eb af 3c 77 01 85 3d 90 f9 74 3e 65 5d 1c be
       0.021474684 0.0649442 0.23923326 -0.15270002
0002a0 23 bc 7d bc 22 d9 8f 3d 34 25 79 3d 50 a6 58 be
       -0.01548675 0.07023837 0.060826495 -0.21157193
0002b0 7e 51 fd 3d 56 b9 3b be e7 8e d2 3c df 42 07 3e
       0.12369059 -0.18332419 0.025702907 0.13209103
0002c0 da e2 6c bc 9e c9 f8 3b 12 cc 18 bd 7b a3 53 3e
       -0.0144583825 0.007592394 -0.03730399 0.20667832
0002d0 c2 9e 03 3e 94 0f 7d 3c b9 8f 33 be f5 4b 04 be
       0.1285353 0.015445609 -0.17535295 -0.129196
0002e0 eb 33 3b 3e 3b 68 29 3e 5e 1f 20 3e 70 80 49 be
       0.18281524 0.16543667 0.15636966 -0.19677901
0002f0 56 ab 40 3e c7 9b 99 bc 83 a3 41 3e 59 c8 66 3e
       0.1881536 -0.018751038 0.18910031 0.22537364
000300 0d 8b 40 3d 4a db 99 bd 1f 92 80 3e 79 7e 08 be
       0.04700761 -0.07512529 0.25111482 -0.13329495
000310 d2 96 10 3e 27 99 6e be 71 77 d2 bd b4 09 71 be
       0.14120033 -0.2330061 -0.10276688 -0.23538858
000320 53 74 a9 bd 9b 25 d2 3d a7 81 43 be 2a 5e 54 be
       -0.0827414 0.10261079 -0.19092427 -0.20739046
000330 46 dd 3c 3e 70 28 0d 3e 53 d3 26 bc f4 a9 2f be
       0.18443784 0.13784957 -0.01018222 -0.17154676
000340 2e b8 92 bd 9f ce b7 bd 4d 1a f5 3d fa 5b 2c bd
       -0.07164036 -0.08974957 0.11967907 -0.042079903
000350 ee 54 a5 bd c7 17 11 be 2b f1 b5 bd e5 3c ef 3d
       -0.0807284 -0.14169227 -0.0888389 0.116815366
000360 b0 bf 1f 3e b0 f8 a5 3d 95 97 03 be f3 dd 8a 3e
       0.15600467 0.08104074 -0.12850793 0.2712246
000370 3f 67 30 3d 8f d8 07 be 19 1c 0a be 19 0b 64 bd
       0.043067213 -0.13266204 -0.13487281 -0.055674646
000380 b0 f6 01 3e fd cc 80 3d 01 5d 38 3e ac 17 fe 3c
       0.1269176 0.062890984 0.18004228 0.031017147
000390 8f 38 48 3e f1 55 a3 bd 9e 77 08 be 55 97 d1 bd
       0.19552825 -0.079753764 -0.1332688 -0.102339424
0003a0 8f 22 64 be 52 be 5d be a5 2b 86 be 02 82 a0 bc
       -0.22278808 -0.21654633 -0.26205173 -0.019593243
0003b0 14 70 47 3d 18 3c bd bd 4e 3a 47 be f9 31 55 3e
       0.04869087 -0.092399776 -0.19455835 0.20819844
0003c0 ef fd b3 bd 2d 8e e7 3d 9a f2 07 3e 69 8e 19 be
       -0.08788668 0.11306415 0.13276139 -0.14995731
0003d0 1c fc 17 bd bf 0c 12 3e 10 ca 8c 3e ed b6 42 bd
       -0.037105665 0.14262675 0.2749791 -0.047537733
0003e0 89 12 31 3e 95 4d 09 be 82 4a 20 be ef 7d 68 3e
       0.17292227 -0.13408501 -0.15653422 0.2270429
0003f0 4a 89 0b bd 4c 4d 70 3e db 82 8f bb f7 9f ff bd
       -0.034066476 0.23466986 -0.004379613 -0.12481683

encoder.node_encoder.module_5.bias f4 [16]
000000 f4 24 6c 3e 86 99 3c 3e 14 2b 0f bc 44 ee 24 be
       0.23060971 0.1841794 -0.008738298 -0.16106516
000010 05 0a f1 bc 1d 95 99 bd ed 9b 14 3e 55 71 86 3b
       -0.029423723 -0.07499144 0.14512606 0.0041028657
000020 86 2e 75 3d ae 48 31 3e cb aa 35 3d b3 51 13 be
       0.05985882 0.17312881 0.044352334 -0.14386635
000030 5b 21 6a 3e b7 dc 2f 3e 20 8e f7 bd 8f 77 4f 3e
       0.22864287 0.1717404 -0.12087655 0.20260452

encoder.node_encoder.module_7.Wr.weight f4 [16, 16]
000000 6c 4b 80 3d df da 8c bd f5 91 46 be fb 16 b1 3c
       0.062643856 -0.06877684 -0.19391616 0.021617403
000010 26 4d 8e be f5 38 30 3e 60 c1 31 3e 53 07 d2 bd
       -0.27793235 0.17209227 0.17358923 -0.10255303
000020 79 7b 64 3e b7 d7 dd bd 45 08 2d 3d e1 c4 bf bd
       0.22312726 -0.1083216 0.042244215 -0.093637235
000030 5a f0 d1 bc f0 b8 98 3d e0 44 ce 3d e9 c7 02 bc
       -0.025627304 0.07457149 0.100717306 -0.007982233
000040 2a 85 d7 bd c0 0a 1c 3e 37 ab 4f 3e 51 f3 9d 3c
       -0.10523446 0.15238476 0.20280157 0.019281061
000050 e0 e6 2d be 0f 4c 1e 3c 98 66 94 3b 4a d3 35 3e
       -0.16982603 0.0096616885 0.0045288317 0.17756382
000060 1b b9 9e 3d 2d de fb 3c 9b 54 62 bc c4 32 d8 3d
       0.0775015 0.03074559 -0.013814117 0.10556558
000070 54 cf 5b bc bd 0e 65 3e 77 84 eb 3d 0b fe 3f be
       -0.01341613 0.22368903 0.11499875 -0.18749253
000080 7e a8 8e bc f5 c9 58 be fc 77 81 be d7 37 b5 3d
       -0.017414328 -0.2117079 -0.25286853 0.08848541
000090 90 03 f9 3c ae c3 24 3d 8e d8 4e 3e 6c 25 d6 bd
       0.030397207 0.040225677 0.20199797 -0.104563564
0000a0 18 b0 13 be 1e 6e 72 bd 90 bc dc 3c 37 f9 b2 3c
       -0.14422643 -0.059187047 0.026945382 0.02184735
0000b0 7a 54 79 3e ae bb 1e be 3d af 0b be e4 88 16 3d
       0.24348632 -0.15501282 -0.13641067 0.036751643
0000c0 25 9e 41 3e 20 2e ac 3d 6b 56 20 3e e4 9b 8d 3d
       0.18907984 0.08407235 0.15657966 0.069144994
0000d0 a2 c4 76 3e 50 a1 28 3e 70 41 5f 3e e0 f6 d3 bc
       0.24098447 0.16467786 0.21802306 -0.025874555
0000e0 7d df 30 be 05 76 ea bd 5c a8 e8 3d 12 60 43 3e
       -0.17272754 -0.11448292 0.11360237 0.19079617
0000f0 d9 3b 9d bd d6 c5 61 3e a1 df 9a 3d 57 ef 88 3b
       -0.07677431 0.22048125 0.07562185 0.004178922
000100 ac 1b eb 3b 63 e6 95 bd 10 e2 8b 3e 24 07 03 3c
       0.0071749296 -0.073193334 0.2732091 0.007997308
000110 f8 9f 11 3e 7e 62 87 be 58 8f 07 be 96 93 c9 bc
       0.1422118 -0.2644233 -0.13238275 -0.024606507
000120 2d 0c 5c 3e 56 74 f5 3d b6 91 90 3d c9 77 7e be
       0.2148902 0.1198508 0.07059042 -0.24850382
000130 0a d2 bf bc 97 a7 38 be ef d2 81 be e8 18 be 3c
       -0.023415584 -0.1803268 -0.25356242 0.023205236
000140 7f 1c 00 be ed fb 55 3e c3 4b 33 be 71 49 d0 3d
       -0.1251087 0.20896883 -0.1750937 0.10170258
000150 c0 24 09 3e 04 d4 28 be 31 51 1f 3e ca 35 26 bd
       0.13392925 -0.16487128 0.15558316 -0.04057864
000160 8f fa ec 3d b4 3b 6c 3e c7 91 0f be 62 54 c5 bd
       0.11571228 0.2306965 -0.14020453 -0.09635235
000170 a9 d6 28 3e b0 2a 28 3d c2 8d a1 bc 57 f8 32 3e
       0.16488136 0.041056335 -0.019720916 0.17477547
000180 00 cd c7 bd e3 9e cd 3c 71 11 15 3e dc b4 cb 3c
       -0.097558975 0.025100177 0.14557435 0.024866514
000190 43 61 0e be 73 b3 69 3d 1a 5f 27 be 58 2c 90 bd
       -0.1390429 0.0570559 -0.16344872 -0.07039708
0001a0 fc b0 f4 3d 00 fd 51 bd 9d 70 06 be 0b d2 38 bd
       0.119478196 -0.05126667 -0.13128896 -0.045122188
0001b0 bd 13 98 3d dc be 08 be 8e 58 11 be 3b 6b 56 be
       0.0742564 -0.13354057 -0.14193937 -0.20939343
0001c0 2e 0e 50 3d 93 e7 3e be 22 53 65 3b e9 8e cd bd
       0.050794773 -0.18643026 0.0034992178 -0.100370236
0001d0 ee 48 2c be 57 8a 0c be 11 0b 5f be 42 9b 08 be
       -0.16824695 -0.13724647 -0.21781565 -0.13340476
0001e0 b8 ef 17 bd f9 f7 65 be c8 a7 77 be ee 73 1b 3e
       -0.037093848 -0.22457875 -0.24185097 0.15180942
0001f0 76 be 17 3b ed 19 01 be c2 86 f3 bc 54 3f 27 3e
       0.0023154295 -0.12607546 -0.029727343 0.16332752
000200 02 43 67 be 51 d7 0a be 00 97 3e be ce ad bf 3c
       -0.22584155 -0.13558699 -0.1861229 0.023398306
000210 32 2c 58 ba da 61 83 be bc bc 1a 3e 32 eb 32 be
       -0.00082463317 -0.25660592 0.15111059 -0.17472532
000220 8b 7a 5a 3e c1 8f 49 be 95 72 a4 bd 3e 11 6a 3d
       0.21335809 -0.19683744 -0.08029667 0.05714535
000230 1b f4 cf bd 65 5c 75 3e ea 11 25 be 6e 50 0c bd
       -0.10153981 0.23961027 -0.16120115 -0.03425639
000240 1f 83 52 be 2d a9 f8 3c 6a 35 69 3e 02 c3 79 3e
       -0.20557831 0.030354107 0.22774282 0.24390796
000250 88 f8 8c 3d 18 4c d9 bd ad 22 6f 3e 6c 77 7a 3c
       0.06883341 -0.10610217 0.23353072 0.015287261
000260 5d 16 19 3e 8c 77 c6 bd 71 38 a7 bd 7b 61 58 be
       0.14949937 -0.096907705 -0.08165062 -0.21130936
000270 15 31 53 3e 9a cd 92 b9 ae 27 87 be e9 a6 d1 3c
       0.20624192 -0.00028000475 -0.2639746 0.025592284
000280 79 4a 18 be e8 92 9d 3c d0 fa 5a 3d 6b 93 c3 bd
       -0.14872159 0.01923509 0.05346185 -0.09549602
000290 f0 3d b7 3d 1a d8 04 be b6 35 81 3d 5d c2 55 be
       0.089473605 -0.12973061 0.06309073 -0.20874925
0002a0 bc 6c 7d bb 19 38 85 3e a7 ce 80 3e 7d 99 0e 3e
       -0.0038669547 0.26019362 0.25157663 0.13925739
0002b0 b8 66 31 3e 82 f2 70 3e 5d d4 e4 3c 68 cd 9b 3d
       0.1732434 0.2353001 0.027933294 0.076075375
0002c0 7a 50 79 3c 38 59 4b 3e 5d cc 5f 3e 76 13 04 be
       0.015216941 0.19858253 0.21855302 -0.12898049
0002d0 fe 9d 4f 3c 9e 94 40 be e9 6a 80 3d fd 7a 94 be
       0.012671946 -0.18806693 0.062703915 -0.29000083
0002e0 46 2c e9 3d 41 29 c0 bd ad ee 1a 3e 9e 4f a6 3d
       0.113853976 -0.093828686 0.1513011 0.081206545
0002f0 36 15 ca bd a9 a3 fc 3d 4e e2 c6 3d da 13 84 be
       -0.09867327 0.12335903 0.09711133 -0.25796396
000300 bd 0a 90 3e 92 ca 73 3e b0 71 68 3e 07 73 75 bd
       0.28133193 0.23807743 0.22699618 -0.05992415
000310 27 6c af 3d 1c a0 2b be a4 7c 5d bd 26 98 ec 3d
       0.0856555 -0.16760296 -0.054073945 0.115524575
000320 b8 3f 11 3e ce e7 1b 3e ea 9a 86 be bf 17 23 3e
       0.14184463 0.15225145 -0.26290065 0.15927027
000330 31 05 a8 bd 95 65 83 3e 75 06 4d 3e ac 6c 00 3e
       -0.08204115 0.25663438 0.20021994 0.12541455
000340 60 92 80 3e 1b 93 b6 3d 63 d0 46 3e 38 87 fc bc
       0.25111675 0.08914777 0.1941543 -0.030826196
000350 54 1e 7e 3e 4b 52 96 3d 2c 3d 1b 3e ed 80 00 be
       0.24816257 0.07339915 0.15160054 -0.12549181
000360 80 cc 5a 3e 1a 27 59 3e aa 4c 00 be e2 44 77 3e
       0.21367073 0.21206322 -0.12529245 0.2414737
000370 52 d1 56 be fd ab 4f be 8c a1 77 be 7a 50 59 3d
       -0.20978287 -0.20280452 -0.24182719 0.053055264
000380 f1 62 47 be 21 4c 8a bd 63 fe 16 be 54 bb 5b 3d
       -0.19471337 -0.06752802 -0.14745478 0.053645447
000390 d4 40 62 be 7a 60 62 bd 60 d0 ee bb 69 23 88 3d
       -0.22095042 -0.05526779 -0.007288024 0.06647379
0003a0 fc d0 20 be f5 52 f1 3d 22 c4 36 be 7f a4 63 be
       -0.15704721 0.11783401 -0.17848256 -0.22230719
0003b0 b5 de 4a bb 3a d9 08 be 8a 18 19 3e 44 ce 0b be
       -0.0030955498 -0.13364115 0.14950767 -0.13652903
0003c0 4c 8d 57 3c 8a f8 dd 3d 75 b3 77 be 03 3c 5f 3e
       0.013156246 0.10838421 -0.24189551 0.21800236
0003d0 ea c8 11 be c6 4c 7c bd c2 bd 2b be 9e 5b a0 bd
       -0.14236799 -0.061596654 -0.16771606 -0.078299746
0003e0 6c ee f8 bd aa 02 78 be 0d 2f a5 3d 5b 60 32 3c
       -0.1215485 -0.24219766 0.08065615 0.010887231
0003f0 12 11 79 3e 78 78 21 3e 16 94 85 3e 98 db b8 3d
       0.24322918 0.15768611 0.26089543 0.09026259

encoder.node_encoder.module_7.Wr.bias f4 [16]
000000 01 d3 fc 3d 15 c7 5e 3e 48 95 58 3e 93 a3 2a be
       0.12344933 0.21755631 0.21150696 -0.16663961
000010 08 90 98 bd 25 0e 77 be 94 d3 23 3c 82 fa f6 bd
       -0.07449347 -0.2412649 0.009999175 -0.12059499
000020 57 58 51 3e 3a 46 0a 3d 7a cf ac 3c 33 1a 3c be
       0.20443855 0.03375838 0.021095026 -0.18369369
000030 4d 33 18 be fe e5 5e 3d 38 81 d1 bd 6d 59 03 be
       -0.1486332 0.054418556 -0.10229725 -0.12827082
