dagformercheckpoint/pre.pt (torch, 177886 bytes, 155 tensors)

encoder.node_encoder.module_0.weight f4 [16, 5]
0.28925657 0.35719773 -0.090725645 0.40334752 -0.1330911 0.13751954 -0.17558669 0.30283418
0.3895383 -0.35379487 0.4177611 0.07172213 0.4147722 0.06752829 0.17675684 -0.042768683
0.34801286 0.12313569 -0.20329885 0.12098002 -0.22022979 -0.070698395 -0.1458333 0.2706633
-0.3765545 -0.20808889 -0.13857923 -0.34314942 0.03637923 -0.41485596 0.42577925 -0.36588866
0.42143318 0.10930904 -0.11731824 0.25336063 0.04871093 0.38553572 0.11662611 -0.09326307
0.17082866 -0.1276387 0.18910757 0.42021444 0.28006092 -0.22445673 0.24485174 0.01237585
0.23891148 -0.2574375 -0.467608 -0.1735239 -0.35239667 0.34246153 0.13640296 0.13735507
0.117826745 -0.074560344 0.3423073 -0.3118315 0.05683183 -0.30276966 0.21526262 -0.13405454
0.14039505 -0.0804863 0.36300853 -0.31272417 -0.25454238 -0.24368279 0.40950325 0.14530294
0.5143301 -0.34884083 -0.4499657 -0.31613237 -0.3003114 0.27160463 0.182914 0.37730312
00000000: 7019 943e 9fe2 b63e 5ece b9bd 9183 ce3e
00000010: 0949 08be ecd1 0c3e ffcc 33be 150d 9b3e
00000020: 9071 c73e 9a24 b5be c8e4 d53e 0de3 923d
00000030: 065d d43e 464c 8a3d bfff 343e 372e 2fbd
00000040: be2e b23e 912e fc3d 932d 50be 5fc4 f73d
00000050: eb83 61be 52ca 90bd 5355 15be 6194 8a3e
00000060: c0cb c0be 4115 55be b7e7 0dbe 48b1 afbe
00000070: 6302 153d 0068 d4be bdff d93e c255 bbbe
00000080: 17c6 d73e 6bdd df3d 8c44 f0bd 7cb8 813e
00000090: 1d85 473d f064 c53e acd9 ee3d b500 bfbd
000000a0: b5ed 2e3e b8b3 02be 6aa5 413e 5926 d73e
000000b0: 2564 8f3e fcd7 65be 6aba 7a3e 14c4 4a3c
000000c0: 36a5 743e d9ce 83be 516a efbe 40b0 31be
000000d0: 566d b4be 1e57 af3e 38ad 0b3e cfa6 0c3e
000000e0: 264f f13d 18b3 98bd e742 af3e 61a8 9fbe
000000f0: 7ec8 683d a004 9bbe ce6d 5c3e 9845 09be
00000100: b8c3 0f3e 00d6 a4bd 41dc b93e 621d a0be
00000110: 6153 82be fb87 79be 69aa d13e 4bca 143e
00000120: 23ab 033f 449b b2be e761 e6be 1adc a1be
00000130: 6ac2 99be c30f 8b3e cf4d 3b3e e02d c13e

encoder.node_encoder.module_0.bias f4 [16]
-0.23689349 -0.29391354 0.25208724 -0.20468184 0.24965821 -0.12211607 0.27514628 -0.34785324
-0.20962034 0.1453114 0.07799455 -0.08750822 0.27791676 0.3164953 -0.29012445 -0.20514837
00000000: 3594 72be d67b 96be 9411 813e 1e98 51be
00000010: 67a6 7f3e fd17 fabd f9df 8c3e d219 b2be
00000020: b7a6 56be 83cc 143e 9bbb 9f3d 8237 b3bd
00000030: 1b4b 8e3e ac0b a23e 318b 94be 6a12 52be

encoder.node_encoder.module_1.frequency f4 [8]
1.0 0.26826957 0.07196857 0.019306978 0.0051794746 0.0013894954 0.00037275936 1e-04
00000000: 0000 803f a15a 893e 4264 933d ab29 9e3c
00000010: 95b8 a93b bb1f b63a ea6e c339 17b7 d138

encoder.node_encoder.module_3.weight f4 [16]
0.9913506 0.99384975 1.0147041 1.0245157 0.9751595 1.0285032 1.0214018 1.0500692
1.024996 0.9856616 0.9807067 1.0328451 1.0117002 1.0060068 1.0031344 0.9997364
00000000: 27c9 7d3f f06c 7e3f d3e1 813f 5523 833f
00000010: 0ea4 793f fea5 833f 4bbd 823f ab68 863f
00000020: 1233 833f 5254 7c3f 980f 7b3f 4534 843f
00000030: 647f 813f d5c4 803f b566 803f baee 7f3f

encoder.node_encoder.module_3.bias f4 [16]
0.013473482 -0.029437035 0.038464956 0.038601328 0.074415654 -0.024290094 0.06780467 0.031690646
-0.0064627286 0.04476012 -0.044585984 -0.012521852 0.023099946 0.03226999 -0.061563052 0.084145404
00000000: e1bf 5c3c f025 f1bc 6e8d 1d3d 6d1c 1e3d
00000010: 3c67 983d 05fc c6bc 2ddd 8a3d 0dce 013d
00000020: 4cc5 d3bb 6356 373d cb9f 36bd 7428 4dbc
00000030: 193c bd3c 892d 043d 8a29 7cbd 6d54 ac3d

encoder.node_encoder.module_3.running_mean f4 [16]
-0.087983735 0.15079586 0.80869496 -0.31655762 -0.060723595 -0.68687826 0.58220255 -0.25494286
0.8713023 0.6152253 1.4109432 0.70327157 1.5874975 0.5193931 0.0054911943 1.6065519
00000000: d130 b4bd 3b6a 1a3e a206 4f3f d713 a2be
00000010: 4eb9 78bd 41d7 2fbf 3a0b 153f df87 82be
00000020: ab0d 5f3f 687f 1d3f c999 b43f 9b09 343f
00000030: 1e33 cb3f f2f6 043f 7aef b33b 7ea3 cd3f

encoder.node_encoder.module_3.running_var f4 [16]
0.5835278 1.1697942 0.26933166 0.1448422 0.96439195 1.3823744 0.15651603 0.08238423
1.8677691 0.50728345 0.41380474 0.63790697 0.20862879 0.8109076 2.2913759 1.508431
00000000: 1462 153f d1bb 953f d7e5 893e 8451 143e
00000010: 64e2 763f a5f1 b03f bd45 203e 10b9 a83d
00000020: 0f13 ef3f 54dd 013f 37de d33e df4d 233f
00000030: c9a2 553e a497 4f3f e7a5 1240 4414 c13f

encoder.node_encoder.module_4.lin_key.weight f4 [16, 16]
0.029570464 -0.10440495 0.0068003545 -0.045703262 0.030675365 0.15469241 -0.09142335 0.19359265
0.20942713 -0.207387 -0.18685903 -0.21056268 -0.12796958 -0.10504094 -0.026119543 -0.05296598
-0.14524795 -0.06863992 -0.09630209 0.2428478 -0.08477328 -0.17055283 0.11127018 -0.00657153
0.18374299 0.15737225 0.21740335 -0.17585556 0.15402249 0.21924897 -0.113765225 0.22075108
0.17190759 0.00045090175 0.12478768 -0.07709338 -0.22149222 0.061159145 0.07083165 -0.16549568
0.12712541 -0.22405666 0.21183372 0.23777808 0.072885126 -0.15699656 0.121694475 0.04359221
0.06416581 0.09240456 0.17629667 -0.122929506 -0.044755135 0.079397194 0.03884922 0.2112945
-0.14720754 0.00856204 0.037246384 -0.054832462 0.1582324 0.038250636 -0.22054678 -0.038139332
-0.13418053 -0.019471783 0.01050772 -0.20613503 -0.08668628 -0.06533475 -0.11595959 0.18824059
-0.011187502 0.12253265 0.10314395 -0.2523982 0.10018925 0.16613567 -0.20463897 -0.12048501
0.23055169 0.24214417 -0.17865461 0.11263488 0.00767952 -0.20609458 0.05896284 0.12092862
-0.10969851 0.12192372 -0.25562888 0.21271275 0.17330389 0.1786936 0.08321031 0.041727718
-0.16725703 -0.07990127 -0.00028560602 -0.123895384 -0.20365608 0.14690736 0.14974278 -0.24616645
0.09904045 0.082384236 0.26487562 0.12706243 0.24834843 -0.10607897 0.15139437 0.22615974
-0.24474923 -0.23591612 0.08303724 0.17445621 -0.15879653 -0.005722873 -0.035451744 0.02848483
-0.104355864 0.10558291 0.19388978 -0.20913266 0.037679516 -0.030022856 0.049160354 0.26462927
0.034687005 -0.0196149 0.19166267 -0.12275026 -0.038966104 0.0526493 -0.15812561 0.057957552
-0.2069272 0.048068687 -0.016403481 0.06654147 -0.24322326 -0.19965164 0.15231341 0.1775872
-0.17568764 0.07726092 -0.16865289 0.027031224 0.21801193 0.17402545 -0.19656703 0.14199209
0.14549223 -0.010883537 0.25979698 -0.11277818 -0.04431134 -0.14311764 0.019479709 0.08247802
-0.017776487 -0.18875194 -0.073788576 0.1188242 -0.26053274 -0.08211741 -0.04687595 -0.14125454
0.14677544 -0.0144726345 0.22485349 -0.061997596 -0.11708266 0.13085249 -0.010409412 -0.026902815
-0.1286633 0.00778683 -0.1948979 0.097026184 0.07804278 -0.26826227 -0.20798454 -0.22055778
0.25797674 0.19059531 0.07122696 0.19263524 -0.039910983 -0.29495117 0.035729364 0.1395074
0.24018073 0.0051444 0.19816658 0.16101299 0.17932145 -0.24978918 0.20234163 -0.21579885
0.21878763 -0.021163886 -0.22220226 0.06722302 -0.048164804 -0.22561444 -0.09158984 0.027159771
0.19098234 -0.11956512 0.18628757 0.070143685 -0.031740505 0.0075968853 -0.20320486 -0.24703595
-0.030738989 -0.26891905 -0.07759654 -0.028872052 -0.12494534 -0.1430338 -0.08464525 0.01109641
-0.14524585 -0.03710968 0.0034020084 0.10883242 -0.03122256 -0.16806054 -0.12796941 -0.04501745
-0.10201525 -0.014004034 0.02672111 0.054808952 0.10093188 0.14391345 -0.051816203 -0.14137745
0.11060276 -0.107218236 -0.09871167 -0.14353298 -0.031886805 -0.028641509 0.29342535 0.20677032
0.00078879204 0.29985654 -0.29004353 0.10333183 0.09724378 0.22960052 -0.13508002 0.025173178
00000000: c23d f23c 43d2 d5bd 82d5 de3b 5833 3bbd
00000010: e74a fb3c b067 1e3e 2a3c bbbd 273d 463e
00000020: 1174 563e 425d 54be f957 3fbe be9d 57be
00000030: 750a 03be b41f d7bd a7f8 d5bc dbf2 58bd
00000040: e1bb 14be 1693 8cbd 083a c5bd 18ad 783e
00000050: 9d9d adbd 67a5 2ebe 9fe1 e33d fd55 d7bb
00000060: 1f27 3c3e 3126 213e fc9e 5e3e 7b13 34be
00000070: 12b8 1d3e cd82 603e befd e8bd 920c 623e
00000080: 8b08 303e 0267 ec39 af90 ff3d 22e3 9dbd
00000090: dbce 62be 0382 7a3d 2f10 913d b377 29be
000000a0: 2a2d 023e 1c6f 65be f0ea 583e 197c 733e
000000b0: cc44 953d b5c3 20be f43a f93d bf8d 323d
000000c0: 5d69 833d 9a3e bd3d 1d87 343e 77c2 fbbd
000000d0: 2951 37bd ff9a a23d 5c20 1f3d 965d 583e
000000e0: 93bd 16be cc47 0c3c aa8f 183d 0198 60bd
000000f0: ad07 223e b3ac 1c3d 04d7 61be fd37 1cbd
00000100: 9f66 09be 4a83 9fbc 9228 2c3c 1015 53be
00000110: 9488 b1bd 3ace 85bd 397c edbd 24c2 403e
00000120: c94b 37bc 66f2 fa3d 233d d33d 563a 81be
00000130: 0630 cd3d 781f 2a3e e18c 51be d8c0 f6bd
00000140: be15 6c3e a4f4 773e 3cf1 36be 1ead e63d
00000150: 7ca4 fb3b 750a 53be 0583 713d 6da9 f73d
00000160: 9da9 e0bd 25b3 f93d cae1 82be 5fd1 593e
00000170: 9376 313e 75fb 363e 2b6a aa3d afea 2a3d
00000180: 6d45 2bbe 47a3 a3bd 64bd 95b9 ddbc fdbd
00000190: 388b 50be e26e 163e 2c56 193e 0f13 7cbe
000001a0: b8d5 ca3d 11b9 a83d c79d 873e a71c 023e
000001b0: 0d4f 7e3e ee3f d9bd 2007 1b3e 6b96 673e
000001c0: 8b9f 7abe ff93 71be 6e0f aa3d a6a4 323e
000001d0: 8f9b 22be f086 bbbb d935 11bd 0559 e93c
000001e0: 87b8 d5bd da3b d83d 0b8b 463e df26 56be
000001f0: d655 1a3d 7ef2 f5bc 5e5c 493d 7d7d 873e
00000200: f613 0e3d 6daf a0bc 3843 443e 7d64 fbbd
00000210: ec9a 1fbd cba6 573d aeeb 21be e664 6d3d
00000220: b9e4 53be ace3 443d 9860 86bc e546 883d
00000230: 850f 79be 7b71 4cbe 0cf8 1b3e 6bd9 353e
00000240: 76e7 33be f93a 9e3d 58b3 2cbe 9670 dd3c
00000250: 853e 5f3e ba33 323e de48 49be 6066 113e
00000260: eafb 143e dd50 32bc 1c04 853e 3ff8 e6bd
00000270: cf7f 35bd 6e8d 12be e993 9f3c 3cea a83d
00000280: ff9f 91bc 3048 41be 771e 97bd 1a5a f33d
00000290: 8c64 85be 2c2d a8bd ff00 40bd 08a5 10be
000002a0: 4d4c 163e a11e 6dbc fe3f 663e 31f1 7dbd
000002b0: 09c9 efbd 32fe 053e 3d8c 2abc 4b63 dcbc
000002c0: 50c0 03be aa28 ff3b 5193 47be aab5 c63d
000002d0: e5d4 9f3d ac59 89be e6f9 54be e6d9 61be
000002e0: 8715 843e 6b2b 433e 71df 913d 2c42 453e
000002f0: b379 23bd d703 97be f458 123d 07db 0e3e
00000300: f0f1 753e 5b92 a83b 2eec 4a3e 97e0 243e
00000310: 0ba0 373e bcc8 7fbe a532 4f3e 60fa 5cbe
00000320: dd09 603e e35f adbc fd88 63be 39ac 893d
00000330: 7548 45bd 7907 67be 7493 bbbd 2b7e de3c
00000340: e090 433e 8fde f4bd 2bc2 3e3e 7ea7 8f3d
00000350: 5502 02bd 4bef f83b ef14 50be fef6 7cbe
00000360: 55d0 fbbc c2af 89be efea 9ebd 1585 ecbc
00000370: 58e3 ffbd 7477 12be 7d5a adbd b8cd 353c
00000380: 54bb 14be 5200 18bd 3bf4 5e3b 88e3 de3d
00000390: 74c6 ffbc 1018 2cbe 6a0a 03be 3864 38bd
000003a0: 5fed d0bd 2d71 65bc 3be6 da3c 5a7f 603d
000003b0: 60b5 ce3d 0c5e 133e 3a3d 54bd 40c5 10be
000003c0: b383 e23d 3c95 dbbd 5829 cabd 4ffa 12be
000003d0: bd9b 02bd 99a1 eabc d93b 963e 99bb 533e
000003e0: f0c6 4e3a cc86 993e 9680 94be a39f d33d
000003f0: bf27 c73d 661c 6b3e 6b52 0abe fb37 ce3c

encoder.node_encoder.module_4.lin_key.bias f4 [16]
-0.14242251 -0.009773771 -0.05216772 -0.20874889 -0.2384689 -0.16447961 0.11344446 0.11437497
-0.2174419 -0.09386836 0.0040601124 -0.21612485 0.14093477 0.2264468 0.04418244 -0.18579543
00000000: 35d7 11be 2b22 20bc d2ad 55bd 45c2 55be
00000010: 3131 74be 586d 28be 9255 e83d 6d3d ea3d
00000020: 17a9 5ebe 0e3e c0bd b10a 853b d54f 5dbe
00000030: 3451 103e ace1 673e a5f8 343d 2841 3ebe

encoder.node_encoder.module_4.lin_query.weight f4 [16, 16]
0.061008357 0.107736975 0.19110237 -0.14226705 -0.20732722 0.12408436 0.011372861 -0.09448488
-0.12045192 -0.14619103 0.20873897 -0.026103195 0.16013011 0.23978159 0.02765397 0.038136408
-0.019303424 0.16854942 -0.23281488 0.097493425 -0.037926126 0.12216325 -0.007703884 -0.115725495
-0.0205894 0.106470734 -0.18305011 -0.15881005 -0.072681986 -0.06884193 0.098458804 0.14238073
-0.03324803 0.23223051 -0.10261331 -0.14162965 -0.113681555 -0.17164072 -0.18040656 -0.24710849
-0.21156794 0.032650102 0.15346727 0.22923239 0.21144249 -0.009066254 0.03827267 -0.15596376
0.06738831 -0.23459417 0.10724813 0.030315766 0.08325423 0.09806179 -0.100537986 0.20612662
0.11281684 0.15456738 0.046404332 0.1510206 0.19329384 0.10045876 0.18262002 -0.03151237
0.1591873 0.08626624 0.12902202 0.22532077 0.0904871 -0.060178135 -0.0034593118 0.07672784
0.015097548 -0.056822553 0.18989724 0.16581264 -0.15204774 -0.015277814 -0.008958735 -0.16566245
0.04852394 -0.09846708 -0.18413632 -0.12293204 -0.07552911 0.2673633 0.12629692 0.20308553
0.08901944 0.052195307 0.13607393 0.019932628 -0.15972568 -0.17359193 -0.07942639 0.023087472
0.07908695 0.11834166 0.25089046 0.09297038 -0.0975401 -0.21434793 -0.21515545 -0.11100355
0.054050975 0.13635945 0.18772982 -0.057411168 -0.056665674 -0.047850337 0.015368646 0.061270874
-0.01890623 0.033852678 0.08877932 0.1368572 -0.090777025 -0.17882197 0.027367232 0.013192871
-0.1343908 0.10684462 -0.03125206 -0.012775982 -0.15898725 -0.0061908113 -0.19405888 0.03760494
0.005675075 0.17584264 -0.017205834 0.006594962 0.10066059 0.22751299 -0.103105314 0.17443252
0.022677062 -0.13842751 0.04062206 -0.11224696 -0.10879055 -0.07014894 -0.12556143 0.14906459
-0.22160323 0.06861276 -0.17161144 0.018219663 -0.04265825 0.12091314 -0.1516248 0.049447544
0.102618456 0.118132696 0.051546946 0.055891737 -0.14442404 -0.21224728 0.1773819 -0.1466025
-0.05319526 -0.041286472 0.21368001 -0.05062989 -0.17772481 -0.04101059 0.12769054 0.12605642
0.2494162 -0.014041119 0.08116465 -0.20797774 0.066467464 0.14862235 0.20038277 -0.18605627
-0.079228446 0.03000759 -0.19397742 -0.18077394 -0.24461716 0.019642077 0.13459486 0.08380048
0.07613916 0.11901777 -0.18430236 0.04369831 -0.09350632 -0.09737667 0.24268904 -0.22854592
0.027301315 -0.2304048 0.062211234 -0.06624598 0.042712137 -0.19139442 0.11593463 -0.19374698
0.151575 -0.2162592 0.14465977 -0.12336915 -0.012074096 -0.06398135 0.13716176 0.10662704
-0.22787385 0.0070008645 -0.0913432 0.23732655 -0.0069372244 -0.123600535 -0.16958956 0.10381461
-0.1383744 0.092812486 0.14389329 0.13279523 0.055313505 -0.24109204 0.1547294 -0.050137818
-0.06981219 -0.008398031 0.15662833 0.17712314 0.063774735 0.14685225 -0.20627384 0.022646423
-0.23289116 0.109193556 -0.19820607 -0.06377138 0.16564545 0.2578791 -0.12518321 -0.16178492
0.04884603 0.11549685 -0.12327304 -0.13635069 -0.11706709 0.16793649 0.29441312 -0.13735896
0.103870966 0.1545359 0.19257578 -0.002799193 0.013339854 0.20986137 0.18969183 0.21102798
00000000: e6e3 793d 34a5 dc3d 57b0 433e 74ae 11be
00000010: 964d 54be f11f fe3d 3d55 3a3c 4a81 c1bd
00000020: 7faf f6bd 1ab3 15be abbf 553e 5ed6 d5bc
00000030: 26f9 233e 4e89 753e 948a e23c ec34 1c3d
00000040: 3722 9ebc 3898 2c3e 0667 6ebe a2aa c73d
00000050: 6d58 1bbd ba30 fa3d dd70 fcbb 7d01 edbd
00000060: 1aab a8bc 540d da3d 7d71 3bbe 1a9f 22be
00000070: 4bda 94bd fffc 8cbd c5a4 c93d 41cc 113e
00000080: 162f 08bd d6cd 6d3e ed26 d2bd 5d07 11be
00000090: e0d1 e8bd 96c2 2fbe 7fbc 38be 020a 7dbe
000000a0: 44a5 58be 1dbc 053d 8626 1d3e e5bb 6a3e
000000b0: 6184 583e a08a 14bc cec3 1c3d f7b4 1fbe
000000c0: e202 8a3d 7439 70be e8a4 db3d c558 f83c
000000d0: 3281 aa3d 9fd4 c83d dce6 cdbd db12 533e
000000e0: 840c e73d e946 1e3e 7812 3e3d 25a5 1a3e
000000f0: d2ee 453e 53bd cd3d be00 3b3e 1d13 01bd
00000100: ff01 233e 5bac b03d 591e 043e 7dba 663e
00000110: 4d51 b93d 597d 76bd 9fb5 62bb 7c23 9d3d
00000120: b55b 773c c4be 68bd 6c74 423e caca 293e
00000130: 67b2 1bbe cc4f 7abc a8c7 12bc 6ba3 29be
00000140: 0ac1 463d 1ca9 c9bd 3b8e 3cbe cbc3 fbbd
00000150: 02af 9abd d8e3 883e fb53 013e a7f5 4f3e
00000160: d34f b63d bfca 553d f756 0b3e c049 a33c
00000170: 218f 23be 15c2 31be 4eaa a2bd f021 bd3c
00000180: 57f8 a13d 1d5d f23d b774 803e 4167 be3d
00000190: 1bc3 c7bd 067e 5bbe b651 5cbe d455 e3bd
000001a0: 8e64 5d3d d0a1 0b3e 3f3c 403e f927 6bbd
000001b0: 441a 68bd b7fe 43bd c6cc 7b3c 2bf7 7a3d
000001c0: 3de1 9abc 1ba9 0a3d efd1 b53d 4b24 0c3e
000001d0: 4ee9 b9bd 1b1d 37be 3f31 e03c e926 583c
000001e0: be9d 09be 5ad1 da3d 2902 00bd 5a52 51bc
000001f0: 8ecd 22be 4adc cabb 5fb7 46be a307 1a3d
00000200: fbf5 b93b 1810 343e 40f3 8cbc 8d1a d83b
00000210: 2427 ce3d 2af9 683e e128 d3bd 709e 323e
00000220: 3fc5 b93c f1bf 0dbe 5163 263d bce1 e5bd
00000230: 94cd debd 3faa 8fbd 2d93 00be 63a4 183e
00000240: f5eb 62be d984 8c3d e9ba 2fbe 6741 953c
00000250: 6bba 2ebd 4fa1 f73d 8843 1bbe 8289 4a3d
00000260: a029 d23d 8eef f13d e422 533d bcee 643d
00000270: e5e3 13be 5a57 59be 9aa3 353e f71e 16be
00000280: 46e3 59bd 011c 29bd efce 5a3e 4a61 4fbd
00000290: 7efd 35be b8fa 27bd 4fc1 023e ef14 013e
000002a0: f666 7f3e b90c 66bc a739 a63d 1ef8 54be
000002b0: 1820 883d 7530 183e 2431 4d3e 8985 3ebe
000002c0: 8642 a2bd 7ad2 f53c 04a2 46be ce1c 39be
000002d0: ec7c 7abe 6ce8 a03c 3cd3 093e 969f ab3d
000002e0: d9ee 9b3d 97bf f33d c2b9 3cbe 00fd 323d
000002f0: 3e80 bfbd 6b6d c7bd 7a83 783e f107 6abe
00000300: 02a7 df3c 3cef 6bbe 35d1 7e3d f9ab 87bd
00000310: ecf2 2e3d e6fc 43be 236f ed3d 9c65 46be
00000320: 7a36 1b3e 0d73 5dbe b121 143e f7a8 fcbd
00000330: 6ed2 45bc a708 83bd 2274 0c3e 475f da3d
00000340: c357 69be 8267 e53b 2512 bbbd bb05 733e
00000350: a851 e3bb 4722 fdbd e3a8 2dbe c19c d43d
00000360: 05b2 0dbe 7914 be3d c358 133e 79fb 073e
00000370: 6a90 623d d5e0 76be 6271 1e3e 505d 4dbd
00000380: b2f9 8ebd e597 09bc 2d63 203e c55f 353e
00000390: 549c 823d 7060 163e 7339 53be fe84 b93c
000003a0: 057b 6ebe dfa0 df3d 88f6 4abe 929a 82bd
000003b0: f69e 293e bb08 843e 0730 00be f2aa 25be
000003c0: c612 483d 9d89 ec3d 9376 fcbd 849f 0bbe
000003d0: dfc0 efbd 8bf7 2b3e 51bd 963e d4a7 0cbe
000003e0: 4dba d43d a93e 1e3e 9632 453e aa72 37bb
000003f0: 678f 5a3c e6e5 563e 933e 423e b817 583e

encoder.node_encoder.module_4.lin_query.bias f4 [16]
-0.057711825 0.09912855 0.17660134 -0.15888615 0.055519093 -0.06815893 0.17312112 -0.09963679
0.005867136 0.11064978 -0.29341823 -0.28476122 -0.123179056 0.16087271 0.16556847 -0.15830468
00000000: 3c63 6cbd e903 cb3d fbd6 343e 0db3 22be
00000010: fd67 633d e996 8bbd aa46 313e 600e ccbd
00000020: 1b41 c03b 5a9c e23d ea3a 96be 39cc 91be
00000030: 4d45 fcbd d1bb 243e c88a 293e 9f1a 22be

encoder.node_encoder.module_4.lin_value.weight f4 [16, 16]
0.057053532 -0.13654277 -0.14748414 0.21279013 0.14478491 -0.04265832 0.02129799 0.019668069
0.035676505 -0.077609204 -0.14296664 0.17844948 0.024021365 0.13834907 -0.08670325 0.09335727
0.17114176 0.13619071 0.10822253 0.25782353 -0.027112192 0.018923225 0.23647846 0.25086972
-0.07484707 0.22259621 0.10669001 -0.039627265 0.22446832 -0.15577023 0.14203942 0.27317038
-0.18466829 -0.15413037 -0.21384223 -0.014682825 -0.24454609 -0.10494922 0.058294956 0.19045776
0.15594088 0.13325316 0.10049021 -0.15737541 -0.2046177 0.0015392134 0.23191546 0.02212911
-0.03704288 -0.13778758 -0.11999559 -0.21359818 0.207769 -0.033872604 -0.16924238 0.080122575
0.013502797 -0.01178464 0.060911607 0.14650849 -0.2275782 -0.19719602 0.0166706 -0.23451869
-0.24858099 0.24538408 0.017618831 -0.12861772 -0.09547327 -0.20897672 0.2386224 0.0050425087
-0.12529929 -0.18680476 0.12438843 -0.03293099 -0.0017277605 -0.09500351 -0.09885195 0.057530556
0.19141358 -0.09704076 -0.036892015 -0.24429534 -0.061304018 0.26889458 0.05936982 0.26962548
-0.07941501 -0.08703758 -0.15442057 0.26658922 -0.20032737 0.15065734 0.09436124 0.046851292
0.14995307 -0.045403324 0.111626126 -0.23009202 -0.05269975 0.21656099 0.08345731 -0.055183336
-0.0847511 -0.13909759 0.16762364 0.013646491 -0.017075201 0.07476122 0.1851368 -0.14261055
-0.08480468 0.16049558 0.17805775 -0.107224055 -0.2702214 0.018898124 0.1387243 0.0933254
0.19716544 -0.18686044 0.1199805 -0.16509965 0.15571871 0.161242 0.08232601 0.22055267
-0.18022123 -0.20810416 -0.21617888 0.14913686 0.08201524 -0.193746 0.16475385 0.2850092
-0.2306975 0.20760171 0.011317099 0.03351732 0.23502034 0.21187605 0.133018 0.19862406
0.09872057 0.03003093 -0.21318103 0.062422566 -0.1932402 0.068158075 0.006921511 -0.026759336
-0.15522437 -0.19486442 0.19394784 0.10154835 0.14102069 -0.078309365 -0.05717236 -0.05684308
0.14914939 -0.056025345 0.11945588 0.12679616 -0.17985187 0.049116835 0.01390324 -0.09454063
0.08668484 -0.004486178 0.19462651 -0.122318126 0.1179435 -0.20051567 -0.08179225 -0.005656696
0.17567661 0.16074027 -0.23908885 -0.001374384 -0.11591409 0.044731032 -0.20297706 -0.09941884
0.15441187 -0.24163713 -0.21948065 0.058255415 0.029740768 -0.028596131 0.22234918 -0.16563343
-0.15268798 -0.19108798 -0.010423874 -0.07230647 0.12918243 -0.041900862 0.105024874 -0.101050995
0.22683264 0.18673353 -0.21644726 -0.081799604 -0.19139192 0.0758013 -0.236933 -0.092509136
0.22233841 -0.21689986 0.24237753 0.020588204 0.18031414 -0.15845314 0.1946465 0.06444805
0.04039632 0.15757395 -0.23123033 -0.21160355 0.26958603 -0.19448814 -0.18844923 0.022375926
-0.065690435 -0.015221813 -0.22431114 0.05418141 -0.17072158 0.06521656 0.14545509 0.013057813
0.0040014344 0.045408063 -0.056704376 -0.024379058 -0.122547455 -0.14061159 -0.13182044 0.22318636
-0.056559306 0.13020927 0.17299846 -0.054785874 -0.11240532 -0.15150225 -0.017617118 0.1621401
-0.21518114 0.0057079387 0.06505898 0.23040728 0.09210726 0.037539724 0.21267483 0.10910511
00000000: f7b0 693d ded1 0bbe 1506 17be a8e5 593e
00000010: 7f42 143e 7eba 2ebd 1f79 ae3c ee1e a13c
00000020: 8721 123d 93f1 9ebd d965 12be 76bb 363e
00000030: 74c8 c43c 61ab 0d3e 7991 b1bd 1932 bf3d
00000040: c93f 2f3e 9475 0b3e c6a3 dd3d 7201 843e
00000050: 631a debc e104 9b3c 6927 723e ff71 803e
00000060: 6c49 99bd 43f0 633e 4b80 da3d 3350 22bd
00000070: 06db 653e 3b82 1fbe c872 113e fddc 8b3e
00000080: af19 3dbe 5ad4 1dbe 75f9 5abe 3b90 70bc
00000090: 4a6a 7abe 9eef d6bd b1c6 6e3d 5c07 433e
000000a0: f7ae 1f3e 8473 083e d0cd cd3d 0527 21be
000000b0: 4d87 51be 6ebf c93a 3f7b 6d3e 1b48 b53c
000000c0: 46ba 17bd 3018 0dbe 3fc0 f5bd 7bb9 5abe
000000d0: 66c1 543e 00be 0abd e04d 2dbe 4e17 a43d
000000e0: d63a 5d3c 5d14 41bc 737e 793d 5206 163e
000000f0: 420a 69be c1ed 49be c890 883c ab25 70be
00000100: 048c 7ebe f745 7b3e 5e55 903c 5db4 03be
00000110: 7d87 c3bd fefd 55be 6e59 743e a13b a53b
00000120: 754e 00be bf49 3fbe 5cbf fe3d a5e2 06bd
00000130: 0676 e2ba 3391 c2bd e472 cabd 29a5 6b3d
00000140: ec01 443e 4ebd c6bd 151c 17bd 8f28 7abe
00000150: ec19 7bbd 8dac 893e c52d 733d 5a0c 8a3e
00000160: 56a4 a2bd c240 b2bd 6d20 1ebe 627e 883e
00000170: 9e22 4dbe eb45 1a3e 7740 c13d 24e7 3f3d
00000180: 4c8d 193e d6f8 39bd 3d9c e43d 3e9d 6bbe
00000190: b1db 57bd 2ac2 5d3e abeb aa3d ec07 62bd
000001a0: fc91 adbd 996f 0ebe 88a5 2b3e 8895 5f3c
000001b0: 4be1 8bbc 691c 993d 8094 3d3e 8008 12be
000001c0: 13ae adbd f458 243e c554 363e 4998 dbbd
000001d0: 765a 8abe 3dd0 9a3c be0d 0e3e 6321 bf3d
000001e0: bde5 493e 5858 3fbe 56b8 f53d e20f 29be
000001f0: ba74 1f3e 9f1c 253e 8a9a a83d 8fd8 613e
00000200: ea8b 38be 4219 55be ff5d 5dbe 55b7 183e
00000210: 9bf7 a73d 5a65 46be 3cb5 283e baec 913e
00000220: f73b 6cbe 8b95 543e 5b6b 393c 7549 093d
00000230: 2ca9 703e 09f6 583e df35 083e 1b64 4b3e
00000240: 032e ca3d 6d03 f63c 214c 5abe ceae 7f3d
00000250: c2e0 45be 7696 8b3d d8cd e23b 6536 dbbc
00000260: 23f3 1ebe 8a8a 47be 439a 463e 95f8 cf3d
00000270: ba67 103e a960 a0bd 912d 6abd 4ad4 68bd
00000280: 9eba 183e d57a 65bd 49a5 f43d dad6 013e
00000290: 172b 38be bc2e 493d 6aca 633c 859e c1bd
000002a0: d287 b13d ca00 93bb 2c4c 473e ed81 fabd
000002b0: 5d8c f13d fb53 4dbe b282 a7bd ce5b b9bb
000002c0: 92e4 333e 1999 243e b5d3 74be ad24 b4ba
000002d0: 5e64 edbd e337 373d 38d9 4fbe 1b9c cbbd
000002e0: 251e 1e3e b96f 77be 89bf 60be 3b9d 6e3d
000002f0: e9a2 f33c 6f42 eabc 81af 633e cf9b 29be
00000300: 3d5a 1cbe 91ac 43be e5c8 2abc 6a15 94bd
00000310: 6648 043e 3da0 2bbd 4817 d73d d3f3 cebd
00000320: d146 683e 1337 3f3e 5aa4 5dbe 8d86 a7bd
00000330: 3efc 43be b63d 9b3d 909e 72be 6e75 bdbd
00000340: aeac 633e ff1a 5ebe d131 783e 98a8 a83c
00000350: 45a4 383e 8a41 22be 6951 473e 57fd 833d
00000360: 9d76 253d 115b 213e a5c7 6cbe 9aae 58be
00000370: 2e07 8a3e e627 47be d6f8 40be b84d b73c
00000380: b588 86bd e964 79bc d2b1 65be 54ed 5d3d
00000390: a3d1 2ebe 4390 853d 2ef2 143e 70f0 553c
000003a0: 771e 833b cefd 393d d942 68bd 97b6 c7bc
000003b0: 29fa fabd 7cfc 0fbe f0fb 06be f78a 643e
000003c0: bbaa 67bd 9455 053e 8226 313e 2767 60bd
000003d0: c334 e6bd 6823 1bbe c651 90bc 0e08 263e
000003e0: 7258 5cbe a909 bb3b a43d 853d e3ef 6b3e
000003f0: bba2 bc3d 41c3 193d 6ec7 593e 8072 df3d

encoder.node_encoder.module_4.lin_value.bias f4 [16]
0.12848087 -0.04470321 -0.2056115 -0.07039262 -0.028525628 0.043926224 -0.047691576 0.11935472
0.1728862 -0.15661602 -0.24289748 -0.15484779 -0.08430797 0.20533642 -0.13939816 -0.013097594
00000000: 7d90 033e b71a 37bd d28b 52be 022a 90bd
00000010: 94ae e9bc fceb 333d 3e58 43bd 3f70 f43d
00000020: 1409 313e f35f 20be 1eba 78be 6b90 1ebe
00000030: a8a9 acbd b643 523e 64be 0ebe 4a97 56bc

encoder.node_encoder.module_4.lin_skip.weight f4 [16, 16]
-0.052984774 -0.15173307 0.113321215 -0.10413888 -0.012933046 -0.17577118 -0.02521494 0.035521448
-0.010173202 -0.09341192 0.074270904 -0.064774394 -0.13859972 -0.18435815 -0.052957386 -0.2361696
0.20750499 -0.11943194 -0.103604555 0.023109764 0.06480831 -0.0235731 0.17150572 -0.14573741
0.0895952 -0.00056383014 -0.20336777 -0.09682372 0.06362179 0.047760457 0.18178385 0.16724825
-0.1363557 -0.10675737 -0.053010345 -0.17910513 -0.06749746 -0.20457822 0.09508553 0.17688984
0.019794106 -0.17897016 -0.189327 -0.09732479 0.072713345 0.006098002 0.045455486 0.23562032
0.1161105 0.05375564 -0.05058047 0.11826223 0.09146014 -0.22502556 -0.14767724 0.00839144
0.09486058 0.12162572 -0.14881966 -0.24802858 -0.0130229 -0.028579324 0.07254499 -0.0687516
0.1911307 0.016681045 0.18256173 -0.17407858 0.100008994 0.02978903 -0.12503707 0.12393695
-0.24600485 0.20211676 0.020147026 0.024138153 0.115611404 0.020753086 0.10716289 0.15905353
-0.19511461 0.1653901 -0.037434697 -0.058137268 0.050320387 0.19553792 -0.1359038 -0.16848278
0.15515181 -0.11741698 0.08048752 -0.036831528 0.068813235 0.19077876 -0.12669975 -0.1213159
0.12265518 0.013688117 -0.027514547 -0.21959704 0.21181458 -0.009467721 -0.046046853 -0.10262248
-0.049334556 0.12150857 -0.005745828 0.21380216 -0.014433682 -0.035864443 0.1411129 -0.006468892
-0.049898237 0.08355665 0.19715774 0.062387377 0.17407954 0.16200957 0.07069945 0.08692214
0.08067104 0.025931686 0.2126841 0.23078513 0.088997155 -0.01248464 0.22414851 -0.19458014
0.18369597 0.13245639 0.16053402 -0.019208908 -0.18652448 0.17833471 -0.109313905 0.065778136
0.14163628 -0.2336314 0.016590983 -0.0888066 0.17743883 -0.15917537 0.15179244 0.15589249
0.13792872 0.24000308 0.037862778 -0.22659528 0.17846623 0.022886693 0.004961252 -0.23814732
-0.05618906 -0.121341944 0.24485275 0.17800722 0.18649706 0.17120916 -0.15496847 -0.1073674
-0.09783757 -0.10022056 0.19460803 0.084941715 0.20033851 -0.011694729 -0.22285679 -0.072530806
0.17569867 0.15220138 0.077392876 -0.07333192 -0.23334277 -0.13433167 0.1303451 -0.100839436
0.11958465 0.06826028 -0.09602183 0.15226957 -0.08033314 -0.008305669 -0.095228255 -0.23714289
0.04030955 0.07224232 -0.12587035 0.15336171 -0.22426388 -0.24099416 -0.15441224 -0.086401224
-0.027764529 -0.04831195 0.11409712 -0.21940634 0.03681189 0.004329413 0.06603256 0.24852002
0.15386212 -0.13842615 -0.20486313 -0.06052524 -0.12540674 0.08732629 0.002291739 0.20108089
0.09820154 -0.04596758 0.008592486 0.059871495 -0.031021804 0.20173365 -0.19547507 0.121851474
-0.15936098 -0.21902037 -0.05132416 0.12182623 0.17664048 0.06273562 -0.02160725 -0.01401484
-0.10134533 -0.022434354 -0.017273486 0.21274066 0.14631104 -0.20005599 0.0010341704 -0.15376747
-0.03968522 -0.19869202 0.06499028 -0.18026951 0.24680525 0.18880063 -0.17208973 -0.23536599
0.009754419 -0.06978792 0.073391676 -0.16922852 0.102335304 -0.21593735 -0.13194251 -0.13142544
0.12097284 -0.0065453053 -0.24025714 -0.14278 -0.115694225 -0.2319574 0.032011718 0.089084476
00000000: 9006 59bd ea5f 1bbe f414 e83d c446 d5bd
00000010: 20e5 53bc 5cfd 33be 908f cebc f07e 113d
00000020: 80ad 26bc c04e bfbd 581b 983d 70a8 84bd
00000030: 16ed 0dbe 62c8 3cbe d8e9 58bd 72d6 71be
00000040: 307c 543e bc98 f4bd a02e d4bd b050 bd3c
00000050: 38ba 843d 601c c1bc 329f 2f3e 303c 15be
00000060: b07d b73d 00ce 13ba a43f 50be 844b c6bd
00000070: 244c 823d 78a0 433d 8c25 3a3e 2043 2b3e
00000080: d4a0 0bbe 9ca3 dabd 6021 59bd 5667 37be
00000090: 1c3c 8abd f47c 51be 34bc c23d 9c22 353e
000000a0: 4027 a23c f443 37be f0de 41be 3852 c7bd
000000b0: bcea 943d c0d1 c73b 882f 3a3d 7446 713e
000000c0: 58cb ed3d e02e 5c3d 782d 4fbd 7833 f23d
000000d0: 744f bb3d 1a6d 66be b438 17be 407c 093c
000000e0: 4446 c23d e816 f93d 2e64 18be 34fb 7dbe
000000f0: 005e 55bc 301f eabc 7892 943d a4cd 8cbd
00000100: c4b7 433e b0a6 883c 76f1 3a3e a841 32be
00000110: 84d1 cc3d 2008 f43c b809 00be a8d2 fd3d
00000120: b2e8 7bbe b2f7 4e3e 600b a53c 60bd c53c
00000130: acc5 ec3d 6002 aa3c 3878 db3d eede 223e
00000140: 20cc 47be 065c 293e 2055 19bd 5821 6ebd
00000150: c01c 4e3d 183b 483e 5e2a 0bbe c086 2cbe
00000160: 1ee0 1e3e 5078 f0bd a4d6 a43d a8dc 16bd
00000170: f4ed 8c3d 825b 433e 94bd 01be 7874 f8bd
00000180: a432 fb3d 2044 603c 3066 e1bc 0cde 60be
00000190: ece5 583e 801e 1bbc a09b 3cbd bc2b d2bd
000001a0: 0813 4abd 7cd9 f83d 8047 bcbb f4ee 5a3e
000001b0: 407b 6cbc 98e6 12bd e67f 103e 00f9 d3bb
000001c0: 1862 4cbd c01f ab3d b8e3 493e e889 7f3d
000001d0: e841 323e d6e5 253e e0ca 903d 3c04 b23d
000001e0: dc36 a53d b06e d43c dcc9 593e f052 6c3e
000001f0: 2444 b63d 608c 4cbc 3087 653e 0440 47be
00000200: cc1a 3c3e a6a2 073e 0863 243e 005c 9dbc
00000210: 4600 3fbe 609d 363e f8df dfbd b0b6 863d
00000220: 1a09 113e 123d 6fbe d0e9 873c 3ce0 b5bd
00000230: 86b2 353e defe 22be 7a6f 1b3e 48a2 1f3e
00000240: 303d 0d3e 5ec3 753e 0016 1b3d 9808 68be
00000250: dabf 363e e07c bb3c 0092 a23b e4dc 73be
00000260: 8026 66bd 2082 f8bd aeba 7a3e 8647 363e
00000270: 16f9 3e3e 7451 2f3e 0eb0 1ebe 70e3 dbbd
00000280: 105f c8bd 7040 cdbd 5447 473e ecf5 ad3d
00000290: 8a25 4d3e 409b 3fbc 9234 64be 088b 94bd
000002a0: 5aea 333e aeda 1b3e 2880 9e3d 0c2f 96bd
000002b0: 68f1 6ebe 3e8e 09be 3079 053e e884 cebd
000002c0: cce8 f43d 0ccc 8b3d 18a7 c4bd 8eec 1b3e
000002d0: b485 a4bd 8014 08bc 0807 c3bd 96d5 72be
000002e0: a01b 253d c8f3 933d 28e4 00be da0a 1d3e
000002f0: 6ea5 65be 2cc7 76be 3e1e 1ebe 20f3 b0bd
00000300: 7072 e3bc c0e2 45bd c0ab e93d 0eac 60be
00000310: 10c8 163d c0dd 8d3b 143c 873d 087c 7e3e
00000320: 088e 1d3e 96bf 0dbe a4c7 51be 50e9 77bd
00000330: a06a 00be 20d8 b23d 0031 163b 26e8 4d3e
00000340: e41d c93d 8048 3cbd 80c7 0c3c d03b 753d
00000350: 7021 febc 4493 4e3e 9e2a 48be 448d f93d
00000360: 862f 23be e046 60be 4839 52bd 0880 f93d
00000370: 3ee1 343e 887b 803d b001 b1bc 809e 65bc
00000380: 248e cfbd 40c8 b7bc 2081 8dbc b0d8 593e
00000390: 90d2 153e 7adb 4cbe 008d 873a 3875 1dbe
000003a0: f88c 22bd ec75 4bbe a019 853d 9298 38be
000003b0: 84ba 7c3e f454 413e 4a38 30be c803 71be
000003c0: 00d1 1f3c f8ec 8ebd 604e 963d 3e4a 2dbe
000003d0: 2c95 d13d ae1e 5dbe f01b 07be 6494 06be
000003e0: 9cc0 f73d 007a d6bb f805 76be ec34 12be
000003f0: 18f1 ecbd 3e86 6dbe b81e 033d ec71 b63d

encoder.node_encoder.module_4.lin_skip.bias f4 [16]
-0.04586941 -0.0994862 -0.0015161335 -0.19857043 -0.15222538 -0.0057015717 0.22209433 -0.07687709
0.12391487 -0.0983876 -0.06654945 -0.23798612 0.20712125 0.2434319 -0.0052508116 0.15884244
00000000: 90e1 3bbd 6cbf cbbd 00b9 c6ba 0c56 4bbe
00000010: f8e0 1bbe 40d4 babb b26c 633e bc71 9dbd
00000020: 14c7 fd3d 707f c9bd 144b 88bd a2b2 73be
00000030: 9817 543e 3646 793e 000f acbb 98a7 223e

encoder.node_encoder.module_5.weight f4 [16, 16]
0.20005648 0.043683805 0.08886723 -0.19886523 -0.24753128 -0.18472484 0.10035795 -0.25272116
-0.24593987 -0.08794439 -0.2129419 0.026154276 0.06687048 -0.20003147 0.13029294 -0.13355358
-0.051989485 0.25768346 0.23587635 -0.071529455 -0.18478712 -0.14649212 -0.010100333 0.17895141
0.15920319 -0.15103695 -0.22643006 -0.23318587 -0.10011748 0.06492339 -0.07477472 -0.17682876
0.03262634 -0.2752134 -0.21553774 -0.17651461 -0.08933768 0.21135114 0.11031506 -0.059611958
0.0077745235 0.12827536 0.009045519 -0.16512677 -0.12640363 -0.20619126 -0.030690461 -0.27929395
-0.06311733 -0.14746226 0.21887527 0.21336067 0.16354965 -0.012627638 -0.10153838 0.083957486
-0.19342397 -0.07125168 -0.039210983 -0.06691622 -0.25882468 0.10660458 0.22719526 -0.16882452
0.059396777 0.003759238 0.023787769 0.001765553 0.20939542 0.030725308 -0.16189885 -0.08894328
0.11296806 0.065690815 0.01767428 -0.018824093 -0.09058301 -0.08189636 -0.115326874 0.047426872
0.054373533 0.22481534 -0.10473113 -0.016307347 0.20733604 0.09532299 0.019307772 0.12362599
0.07245101 -0.242837 -0.016431235 -0.1240397 0.15654878 0.28495467 0.059135575 0.23269528
-0.15671763 0.14961833 0.21276735 0.013041931 -0.18611068 -0.11571127 -0.07833264 0.007169336
-0.27144495 0.09392401 -0.08237683 -0.05383606 -0.12255327 -0.08962353 -0.21232781 -0.15428086
0.0490187 0.15790212 0.19578457 -0.20519406 0.0942405 -0.18411319 -0.23539793 0.021738382
-0.13496916 -0.23803903 -0.22692785 -0.175409 0.17775202 0.19865665 -0.08788596 -0.17678328
-0.18273737 -0.09661768 -0.08170405 0.12295285 0.051521532 -0.098668374 0.1715301 -0.17454161
-0.23956613 0.06761717 -0.092806876 0.122650325 0.21651578 -0.08439516 -0.15387762 0.10156893
-0.23668045 0.14650989 -0.16290957 0.13025683 -0.19914578 -0.19694966 0.0155715365 0.09207177
0.13735817 0.2489067 0.016990807 -0.03191603 0.02258272 -0.073138356 0.0075169746 -0.25650868
-0.22778568 0.2241509 -0.13349165 0.17056118 0.046602596 0.059280835 0.23535493 -0.11654161
-0.04335167 0.03730295 0.100216344 -0.25529307 0.08364592 -0.11050519 0.07411139 0.18972331
-0.032107 -0.035087183 -0.022861715 0.20772618 0.14286217 0.035425905 -0.15232106 -0.13350523
0.1817872 0.180219 0.15203434 -0.19738518 0.19596964 -0.023017094 0.19278702 0.21551834
0.005314845 -0.117840305 0.20052291 -0.16486621 0.18214527 -0.26959693 -0.09840779 -0.1843964
-0.17036824 0.13103648 -0.13974011 -0.22284557 0.14425376 0.1402146 0.0105042765 -0.16023378
-0.07098835 -0.07259756 0.18000257 -0.11250924 -0.093757235 -0.1916284 -0.12924619 0.13871883
0.12733103 0.042473137 -0.0662605 0.26052946 0.07231797 -0.08587802 -0.069951594 -0.05067276
0.1326523 0.09524919 0.2112894 -0.0050741765 0.18216568 -0.080045775 -0.12291267 -0.12975597
-0.22506355 -0.17353445 -0.21877953 0.01975548 0.040756755 -0.087626055 -0.17655414 0.23880517
-0.12778491 0.069415525 0.13543028 -0.14905307 0.0042471853 0.09268367 0.25084153 0.0009565763
0.12989838 -0.14362611 -0.15052901 0.20030919 -0.05336252 0.21877909 0.03558468 -0.1238099
00000000: 9bdb 4c3e caed 323d 0600 b63d 54a3 4bbe
00000010: d778 7dbe 8228 3dbe 7888 cd3d ab64 81be
00000020: a9d7 7bbe 301c b4bd 710d 5abe 7e41 d63c
00000030: 64f3 883d 0dd5 4cbe 836b 053e 45c2 08be
00000040: edf2 54bd 16ef 833e 9289 713e 097e 92bd
00000050: d638 3dbe 0802 16be de7b 25bc 0a3f 373e
00000060: 2906 233e 6ea9 1abe 48dd 67be 47c8 6ebe
00000070: 650a cdbd 8ef6 843d 7d23 99bd 9912 35be
00000080: 32a3 053d c5e8 8cbe edb5 5cbe 3fc0 34be
00000090: acf6 b6bd 6f6c 583e ddec e13d ab2b 74bd
000000a0: 6ec1 fe3b 9e5a 033e a833 143c fe16 29be
000000b0: f46f 01be cd23 53be 906a fbbc 9eff 8ebe
000000c0: a943 81bd 5900 17be d720 603e 387b 5a3e
000000d0: 8f79 273e 27e4 4ebc 5bf3 cfbd e7f1 ab3d
000000e0: ef10 46be 67ec 91bd b29b 20bd 5f0b 89bd
000000f0: ab84 84be 8153 da3d e0a5 683e 56e0 2cbe
00000100: 094a 733d 8c5d 763b 91de c23c 216a e73a
00000110: c16b 563e a4b3 fb3c d0c8 25be e527 b6bd
00000120: cc5b e73d e888 863d a7c9 903c fc34 9abc
00000130: 9683 b9bd 47b9 a7bd 7f30 ecbd ae42 423d
00000140: c8b6 5e3d fe35 663e 467d d6bd fc96 85bc
00000150: e64f 543e b338 c33d 552b 9e3c 9f2f fd3d
00000160: 3261 943d 43aa 78be cc9a 86bc 8708 febd
00000170: 534e 203e 94e5 913e 2538 723d ac47 6e3e
00000180: 967a 20be 8c35 193e afdf 593e d3ad 553c
00000190: cc93 3ebe 08fa ecbd dd6c a0bd c0ec ea3b
000001a0: d5fa 8abe 3b5b c03d 2fb5 a8bd 3383 5cbd
000001b0: 35fd fabd 8b8c b7bd 766c 59be cdfb 1dbe
000001c0: d5c7 483d 18b1 213e c07b 483e 641e 52be
000001d0: 2a01 c13d 2b88 3cbe 280c 71be b114 b23c
000001e0: 5b35 0abe 81c0 73be c65f 68be 6b9e 33be
000001f0: a004 363e a66c 4b3e 8efd b3bd ad06 35be
00000200: 811f 3bbe 7ddf c5bd 7454 a7bd b4ce fb3d
00000210: 3e08 533d a512 cabd 96a5 2f3e 09bb 32be
00000220: d350 75be df7a 8a3d 8811 bebd 1830 fb3d
00000230: 50b6 5d3e 5fd7 acbd 1892 1dbe 5f03 d03d
00000240: 5c5c 72be b006 163e c4d1 26be 0c62 053e
00000250: dfec 4bbe 2cad 49be c21f 7f3c 2090 bc3d
00000260: 9fa7 0c3e 66e1 7e3e 4e30 8b3c 62ba 02bd
00000270: 65ff b83c 90c9 95bd f450 f63b 1b55 83be
00000280: a640 69be d087 653e 09b2 08be 97a7 2e3e
00000290: 5de2 3e3d 76d0 723d e200 713e 5ead eebd
000002a0: 8591 31bd faca 183d 3a3e cd3d c6b5 82be
000002b0: 8d4e ab3d 8c50 e2bd b6c7 973d d446 423e
000002c0: a182 03bd 94b7 0fbd 7e48 bbbc 2cb6 543e
000002d0: 764a 123e c11a 113d 0dfa 1bbe 98b5 08be
000002e0: 6c26 3a3e 548b 383e e4ae 1b3e 571f 4abe
000002f0: 44ac 483e 588e bcbc f669 453e d7b0 5c3e
00000300: 2728 ae3b 4256 f1bd e155 4d3e b0d2 28be
00000310: 4a84 3a3e 9c08 8abe 068a c9bd 69d2 3cbe
00000320: 0375 2ebe 6d2e 063e 0818 0fbe a131 64be
00000330: 42b7 133e 6b94 0f3e 211a 2c3c 5314 24be
00000340: 5762 91bd 08ae 94bd 9852 383e 3f6b e6bd
00000350: cb03 c0bd 3c3a 44be 1d59 04be 4f0c 0e3e
00000360: 1163 023e 50f8 2d3d 96b3 87bd 1e64 853e
00000370: 721b 943d d1e0 afbd c842 8fbd 3d8e 4fbd
00000380: 01d6 073e 0212 c33d 405c 583e 4745 a6bb
00000390: a489 3a3e 0aef a3bd a3b9 fbbd c0de 04be
000003a0: 0f77 66be 04b3 31be be07 60be 3fd6 a13c
000003b0: 8ef0 263d 4a75 b3bd 9cca 34be 5889 743e
000003c0: 0cda 02be ba29 8e3d 3cae 0a3e 5ea1 18be
000003d0: f92b 8b3b f0d0 bd3d 4d6e 803e c0c2 7a3a
000003e0: 1504 053e b912 13be 4724 1abe da1d 4d3e
000003f0: a892 5abd a007 603e 3ec1 113d 0b90 fdbd

encoder.node_encoder.module_5.bias f4 [16]
0.24976873 0.23575002 0.03907679 -0.14045025 -0.039278932 -0.055101722 0.16033283 0.030445445
0.01910721 0.14363436 0.06638406 -0.15783554 0.19034977 0.09616258 -0.16474374 0.17579451
00000000: 60c3 7f3e 7468 713e fc0e 203d 31d2 0fbe
00000010: f2e2 20bd 58b2 61bd 4a2e 243e ba68 f93c
00000020: b986 9c3c e314 133e 5ef4 873d a49f 21be
00000030: 0deb 423e e3f0 c43d 95b2 28be 7a03 343e

encoder.node_encoder.module_7.Wr.weight f4 [16, 16]
0.022641007 -0.11128712 -0.23150182 -0.028420605 -0.28211308 0.05415055 0.13755016 -0.10304328
0.19315733 -0.10343062 0.0067282785 -0.16881272 -0.040639568 0.08137729 0.10386113 -0.088830814
-0.12980631 0.19613963 0.16164963 -0.013146356 -0.09650939 0.12026201 0.018894305 0.2429313
0.02308871 0.016154634 0.052337132 0.13543752 -0.00014496018 0.19001512 0.15648295 -0.16138479
-0.028416593 -0.15718949 -0.23733906 0.071606666 0.078482434 0.025009897 0.24855891 -0.071061045
-0.15255243 -0.019166106 0.025616251 -0.031036295 0.256012 -0.07001042 -0.12171612 0.028667483
0.2172772 0.039425984 0.16206056 0.07626816 0.21677196 0.08285229 0.21142492 -0.05762891
-0.15669781 -0.077362984 0.06488272 0.19120751 -0.062456522 0.24675323 0.046951987 -0.043706
0.029181687 -0.045168564 0.23659651 0.08454709 0.13419022 -0.2683628 -0.08782385 0.039336663
0.21868311 0.16690356 0.02474133 -0.23699799 0.040752362 -0.117986135 -0.21451098 -0.006096267
-0.13043952 0.2171523 -0.15085553 0.08910575 0.12562543 -0.19504851 0.12813757 -0.047859423
0.097902544 0.23157373 -0.11262174 -0.09733041 0.17987576 0.023649625 -0.04084465 0.1920918
-0.12728035 0.040602516 0.16790633 0.06332803 -0.14344272 0.15043852 -0.18155096 -0.0828942
0.11704789 -0.07384603 -0.0957887 0.0015019791 0.060188882 -0.1701753 -0.171292 -0.17769939
0.063958295 -0.17375353 0.019347945 -0.08243542 -0.17687133 -0.036406085 -0.21439195 -0.106828205
-0.0031358865 -0.241754 -0.22967944 0.16589518 -0.0058423784 -0.13836712 0.025363838 0.20589036
-0.20944288 -0.12345723 -0.17579284 -0.003516583 -0.022398734 -0.18394302 0.15634619 -0.20515738
0.1939143 -0.16985996 -0.019019438 0.05008661 -0.12937067 0.2263301 -0.18889113 0.0056774137
-0.21840239 -0.0031964201 0.21090844 0.26809642 0.011606876 -0.1828166 0.22708663 -0.031728588
0.2287536 -0.13495775 -0.12684903 -0.18770379 0.22771856 0.0022452401 -0.2045675 -0.053049345
-0.093203455 -0.013723906 0.121387 -0.15822068 0.06116103 -0.21417658 0.05132462 -0.28452182
0.103854336 0.23683672 0.21460539 0.09822857 0.1837636 0.21993576 0.045584712 0.06398751
0.018114852 0.18304794 0.21919148 -0.089352496 -0.01964224 -0.15204078 0.07569501 -0.26821175
0.11989588 -0.064864084 0.08115473 0.08925511 -0.10639562 0.12277459 0.07704368 -0.23951446
0.24068691 0.21120565 0.17708395 -0.07144452 0.08533819 -0.12304717 -0.14914943 0.09120264
0.08687131 0.07381813 -0.23181623 0.21601601 -0.1315208 0.16157368 0.17116114 0.14164156
0.26065457 0.10345875 0.21622816 -0.025621308 0.23925479 0.0059341597 0.16169596 -0.103345424
0.24880211 0.23620085 -0.17046687 0.23003377 -0.14179298 -0.17258261 -0.23530264 0.03806585
-0.20124659 -0.069663905 -0.09579391 0.0062736482 -0.19212665 -0.120240316 -0.020521464 0.03385055
-0.078907214 0.08359705 -0.1526967 -0.22738898 -0.022650056 -0.13920796 0.18300799 -0.13364474
-0.03270706 0.16213809 -0.26895833 0.22569041 -0.10555806 -0.00031029424 -0.13489693 -0.029689128
-0.16353296 -0.21431057 0.10977136 -0.0062108776 0.25340986 0.19980372 0.23996846 0.09951244
00000000: a279 b93c 80ea e3bd d00e 6dbe 54d2 e8bc
00000010: 2071 90be f8cc 5d3d f3d9 0c3e 5b08 d3bd
00000020: 09cb 453e 6fd3 d3bd e478 dc3b 3edd 2cbe
00000030: ad75 26bd 23a9 a63d 25b5 d43d eeec b5bd
00000040: f2eb 04be d4d8 483e 7b87 253e d063 57bc
00000050: b7a6 c5bd ee4b f63d 3bc8 9a3c fcc2 783e
00000060: 8924 bd3c b956 843c 765f 563d 22b0 0a3e
00000070: 7400 18b9 5393 423e 113d 203e 0e42 25be
00000080: eac9 e8bc 48f6 20be 0309 73be 84a6 923d
00000090: 66bb a03d 8ee1 cc3c 3a86 7e3e 7488 91bd
000000a0: b436 1cbe 3d02 9dbc 2cd9 d13c d43f febc
000000b0: 0114 833e a061 8fbd 4d46 f9bd 12d8 ea3c
000000c0: ea7d 5e3e 247d 213d 34f3 253e 7b32 9c3d
000000d0: 78f9 5d3e 76ae a93d c67f 583e 4b0c 6cbd
000000e0: 6475 20be 7c70 9ebd 3be1 843d e7cb 433e
000000f0: 69d2 7fbd e1ac 7c3e ba50 403d 1005 33bd
00000100: 6f0e ef3c ac02 39bd 5b46 723e 0627 ad3d
00000110: 2969 093e d966 89be fedc b3bd 7b1f 213d
00000120: 77ee 5f3e c4e8 2a3e 54ae ca3c 9aaf 72be
00000130: f3eb 263d b7a2 f1bd c4a8 5bbe 32c3 c7bb
00000140: f091 05be 2c5d 5e3e df79 1abe 137d b63d
00000150: f4a3 003e ccba 47be 7f36 033e 3e08 44bd
00000160: 2181 c83d aa21 6d3e 3aa6 e6bd 2a55 c7bd
00000170: 5a31 383e dcbc c13c b84c 27bd b6b3 443e
00000180: c855 02be d34e 263d a3ef 2b3e 20b2 813d
00000190: a6e2 12be 8e0c 1a3e 7fe8 39be 6fc4 a9bd
000001a0: ceb6 ef3d 963c 97bd de2c c4bd 0ede c43a
000001b0: 9e88 763d 6f42 2ebe 2c67 2fbe d4f6 35be
000001c0: 91fc 823d 72ec 31be 957f 9e3c e7d3 a8bd
000001d0: c21d 35be 8c1e 15bd 9089 5bbe bfc8 dabd
000001e0: 7283 4dbb 5c8e 77be 1631 6bbe 6de0 293e
000001f0: 6c71 bfbb 1cb0 0dbe d3c7 cf3c ecd4 523e
00000200: 3278 56be 25d7 fcbd 0a03 34be 7976 66bb
00000210: 8d7d b7bc 8f5b 3cbe 3719 203e c714 52be
00000220: 7891 463e c5ef 2dbe a7ce 9bbc 9e27 4d3d
00000230: bf79 04be 14c3 673e ad6c 41be 9909 ba3b
00000240: e0a4 5fbe 087b 51bb 62f8 573e ef43 893e
00000250: c42a 3e3c 4634 3bbe 6689 683e d6f5 01bd
00000260: 623e 6a3e 5d32 0abe b6e4 01be 6c35 40be
00000270: 0e2f 693e e124 133b 257a 51be 454a 59bd
00000280: 74e1 bebd 3cda 60bc bf99 f83d 9a04 22be
00000290: fd83 7a3d 1b51 5bbe c439 523d d8ac 91be
000002a0: 95b1 d43d 5385 723e 84c1 5b3e 0f2c c93d
000002b0: 862c 3c3e d736 613e 09b7 3a3d e20b 833d
000002c0: 9965 943c eb70 3b3e bb73 603e 71fe b6bd
000002d0: c3e8 a0bc 94b0 1bbe fc05 9b3d 0d53 89be
000002e0: f98b f53d 76d7 84bd 7334 a63d 62cb b63d
000002f0: f2e5 d9bd 3f71 fb3d 14c9 9d3d 4743 75be
00000300: a176 763e 4b46 583e 7f55 353e 8151 92bd
00000310: cac5 ae3d 2800 fcbd a1ba 18be 73c8 ba3d
00000320: 96e9 b13d f62d 973d 3c61 6dbe 4d33 5d3e
00000330: 63ad 06be 9273 253e de44 2f3e 7c0a 113e
00000340: 8474 853e 2ee2 d33d ea6a 5d3e c7e3 d1bc
00000350: 35ff 743e 5773 c23b a093 253e c4a6 d3bd
00000360: fbc5 7e3e a3de 713e de8e 2ebe f98d 6b3e
00000370: 2e32 11be 7fb9 30be 2df3 70be f0ea 1b3d
00000380: 9613 4ebe f3ab 8ebd 992f c4bd 2d93 cd3b
00000390: d9bc 44be 8e40 f6bd a11c a8bc e0a6 0a3d
000003a0: 1b9a a1bd ee34 ab3d 865c 1cbe a8d8 68be
000003b0: 9c8c b9bc 888c 0ebe 7266 3b3e 2bda 08be
000003c0: d7f7 05bd 8707 263e e8b4 89be 631b 673e
000003d0: d32e d8bd fdae a2b9 6c22 0abe 9d36 f3bc
000003e0: 2f75 27be 3b74 5bbe cfcf e03d 9e84 cbbb
000003f0: f0be 813e 5999 4c3e 4bba 753e 2ecd cb3d

encoder.node_encoder.module_7.Wr.bias f4 [16]
0.06477183 0.25304207 0.20336911 -0.1748433 -0.060570627 -0.23795868 0.04144845 -0.10650624
0.21892928 -0.027531264 0.040870458 -0.19797352 -0.19768752 0.062126398 -0.09838115 -0.122648016
00000000: 18a7 843d bb8e 813e fe3f 503e 1f0a 33be
00000010: e818 78bd 71ab 73be dac5 293d f21f dabd
00000020: ff2e 603e 3f89 e1bc c867 273d 92b9 4abe
00000030: 996e 4abe 4078 7e3d 0e7c c9bd e22e fbbd

encoder.node_encoder.module_7.Ur.weight f4 [16, 16]
0.21348545 -0.14476521 -0.16630475 0.23918797 0.09821298 -0.10799294 0.015766624 0.17873028
-0.25900266 0.00013769016 -0.00443993 -0.055025585 0.17169702 -0.20686404 0.1252007 -0.19130185
-0.20712475 0.13324308 -0.09699663 0.02565218 0.0999108 -0.23883355 -0.21196799 0.06996182
0.24316768 -0.012675826 0.19498326 0.06960881 0.09336296 -0.1828512 0.21622244 0.13865523
0.040302087 0.1877254 -0.21177101 0.038134307 -0.11704534 -0.026848638 0.10569559 0.12441917
0.05477208 -0.18725969 -0.1556009 0.0037537138 -0.041423075 -0.2269814 0.24589778 0.03422893
-0.20259154 0.09879432 0.11482541 -0.11911618 0.1153553 -0.16528945 0.056988165 0.18860145
0.17972791 0.094658226 -0.025485672 0.041717157 0.10089977 0.062609844 -0.09167404 0.050622497
-0.089642905 -0.13939267 -0.23111221 -0.19629182 -0.15551333 0.23888244 0.020697372 -0.23037033
-0.13106304 0.04478404 -0.07410294 -0.07025669 -0.10319518 -0.059144262 0.020144807 0.011814416
0.18195736 0.16608346 0.20261434 -0.01839537 -0.10481465 0.005791208 -0.15495166 0.10667057
-0.031097978 -0.06902407 -0.21337192 0.1317361 0.13687575 0.23597017 -0.083104454 0.07132205
-0.013024879 -0.12506334 -0.123956114 0.10103282 -0.12391476 0.1782462 0.1412898 0.09946151
0.16003647 0.17821294 0.12299102 0.16761929 -0.07309515 -0.10279158 0.007949571 0.16065338
0.15259884 0.17909797 -0.08233667 -0.016747354 -0.17732471 0.15507308 -0.15969357 -0.090267286
0.20839283 0.045673653 -0.12574889 -0.17965207 -0.18297449 0.19861178 -0.2221815 0.20652984
0.24272357 0.010579748 -0.02137805 0.17668496 0.11122297 0.23574576 0.21102487 -0.16347992
0.1580025 0.14729467 -0.1736529 0.12755159 -0.12840164 -0.15262859 0.0021725872 -0.029132403
-0.067774676 -0.19978887 0.06998694 0.26846558 -0.058359087 -0.12520951 -0.08390437 -0.22505008
-0.25470108 -0.12747516 0.11354791 -0.24606651 -0.10757707 -0.15889797 -0.26924065 -0.11587194
-0.05187881 -0.05540212 0.20111898 0.09412161 0.14260723 0.0828288 0.019838516 0.08835031
-0.13898414 0.09264762 0.15638007 -0.11889307 0.028590582 -0.1935098 -0.24496607 0.029730227
0.015775934 -0.03428865 0.038355388 -0.20355941 -0.093192905 0.22900166 -0.251231 0.030680701
0.16706826 0.16390793 0.07102304 -0.23027249 0.012979699 -0.074861534 -0.058613673 0.16231842
-0.042102605 -0.16525875 -0.21351516 0.110556334 0.02918655 0.26242536 0.09361996 -0.2299649
0.0795653 0.24445558 0.16059169 0.09307417 -0.17904106 -0.16083364 0.17392929 -0.1638396
0.0643877 -0.00046490895 0.06090806 0.0025069898 -0.1290263 -0.053441513 0.19733557 -0.014631371
0.103416346 -0.13116136 0.221324 -0.024434503 -0.078019135 0.087658815 -0.08182268 -0.11523505
-0.074068345 -0.0010497755 -0.14524436 0.042398404 -0.23278975 0.1607031 0.28017485 0.038869493
-0.06281603 -0.21917681 0.1248156 0.21452855 0.23327285 0.02862347 0.092971474 0.24338637
0.062661394 -0.12692915 -0.21704794 0.13245934 0.08047961 0.20443836 -0.13058652 0.1322266
-0.0756433 -0.04891794 0.13896483 -0.23869328 0.18080021 0.08431545 -0.15132211 0.13303106
00000000: ee9b 5a3e 553d 14be cb4b 2abe b1ed 743e
00000010: e323 c93d 672b ddbd 0229 813c 1205 373e
00000020: ff9b 84be ec60 1039 d57c 91bb 8262 61bd
00000030: 58d1 2f3e 2bd4 53be 9d34 003e a2e4 43be
00000040: 8318 54be e070 083e 2ba6 c6bd 8524 d23c
00000050: 099e cc3d c890 74be 230e 59be 2548 8f3d
00000060: f300 793e 45ae 4fbc b1a9 473e 108f 8e3d
00000070: 1435 bf3d 583d 3bbe 6a69 5d3e a3fb 0d3e
00000080: cd13 253d 163b 403e 80da 58be b832 1c3d
00000090: 78b5 efbd adf1 dbbc ee76 d83d 7acf fe3d
000000a0: b058 603d 01c1 3fbe d855 1fbe de00 763b
000000b0: 3eab 29bd d06d 68be a1cc 7b3e a233 0c3d
000000c0: 2874 4fbe ad54 ca3d 9629 eb3d 2ff3 f3bd
000000d0: 663f ec3d a341 29be 6c6c 693d bd20 413e
000000e0: 980a 383e 2cdc c13d 54c7 d0bc 9cdf 2a3d
000000f0: 8aa4 ce3d 9739 803d 99bf bbbd 8959 4f3d
00000100: b396 b7bd f4bc 0ebe aea8 6cbe b900 49be
00000110: e33e 1fbe 999d 743e 898d a93c 33e6 6bbe
00000120: 6435 06be 786f 373d 48c3 97bd bde2 8fbd
00000130: ff57 d3bd 4141 72bd b906 a53c 4191 413c
00000140: 0853 3a3e c811 2a3e 227a 4f3e e3b1 96bc
00000150: 10a9 d6bd 2cc4 bd3b a6ab 1ebe 1a76 da3d
00000160: 30c1 febc 7e5c 8dbd 2b7e 5abe d4e5 063e
00000170: 2829 0c3e 2aa2 713e ab32 aabd 4c11 923d
00000180: 4d66 55bc 9b10 00be b4dc fdbd 4cea ce3d
00000190: 06c7 fdbd 2c86 363e 46ae 103e 7ab2 cb3d
000001a0: 9ae0 233e 747d 363e b7e2 fb3d 64a4 2b3e
000001b0: e9b2 95bd 6484 d2bd eb3e 023c 5282 243e
000001c0: df42 1c3e 7565 373e 21a0 a8bd bf31 89bc
000001d0: 9c94 35be 7acb 1e3e b686 23be 0ede b8bd
000001e0: ee64 553e 4c14 3b3d 51c4 00be b6f6 37be
000001f0: aa5d 3bbe e360 4b3e 8c83 63be 8f7c 533e
00000200: 878c 783e ae56 2d3c 0521 afbc e7ec 343e
00000210: dec8 e33d 5667 713e e716 583e 4867 27be
00000220: 68cb 213e 6ad4 163e 11d2 31be e29c 023e
00000230: b87b 03be ab4a 1cbe f761 0e3b 14a7 eebc
00000240: 73cd 8abd 7495 4cbe 5055 8f3d 5274 893e
00000250: f009 6fbd ec36 00be 0ed6 abbd 8773 66be
00000260: 2e68 82be d988 02be ce8b e83d dcf8 7bbe
00000270: 5e51 dcbd 26b6 22be e9d9 89be 454e edbd
00000280: e07e 54bd 55ed 62bd 22f2 4d3e d5c2 c03d
00000290: a107 123e 25a2 a93d 6284 a23c 02f1 b43d
000002a0: dc51 0ebe 09be bd3d 1922 203e 367e f3bd
000002b0: cc36 ea3c 6f27 46be 63d8 7abe ce8c f33c
000002c0: 883c 813c 4172 0cbd 8a1a 1d3d e171 50be
000002d0: ecdb bebd 697f 6a3e 5aa1 80be 1856 fb3c
000002e0: f113 2b3e 7bd7 273e 8774 913d 8dcc 6bbe
000002f0: cea8 543c 0151 99bd e414 70bd cd36 263e
00000300: c873 2cbd 9739 29be b8a3 5abe 5c6b e23d
00000310: a218 ef3c 9e5c 863e d2bb bf3d eb7b 6bbe
00000320: 22f3 a23d 9052 7a3e 2672 243e ac9d be3d
00000330: 8a56 37be 93b1 24be 851a 323e 91c5 27be
00000340: b3dd 833d 06bf f3b9 bb7a 793d 4f4c 243b
00000350: 781f 04be 7de5 5abd 5612 4a3e 6bb8 6fbc
00000360: f3cb d33d 2a4f 06be c2a2 623e de2a c8bc
00000370: 7fc8 9fbd 7786 b33d a692 a7bd 5b00 ecbd
00000380: 25b1 97bd 9f98 89ba f0ba 14be f3a9 2d3d
00000390: 7060 6ebe 5a8f 243e 1473 8f3e 9e35 1f3d
000003a0: b1a5 80bd e36f 60be 529f ff3d 5fad 5b3e
000003b0: 14df 6e3e c47b ea3c d467 be3d 473a 793e
000003c0: 9e54 803d b7f9 01be d141 5ebe 6ca3 073e
000003d0: 7ed2 a43d 4a58 513e 79b8 05be 6966 073e
000003e0: e0ea 9abd 2e5e 48bd cc4c 0e3e 036c 74be
000003f0: b123 393e 94ad ac3d 2ff4 1abe 4b39 083e
