checkpoint/dag599.pt (torch, 97959 bytes, 40 tensors)

encoder.node_encoder.mlp_prep.0.weight f4 [32, 5]
0.3820562 0.38393387 -0.16645703 0.46045884 -0.04579137 0.12532963 -0.22822176 0.19238475
0.41767222 -0.32013828 0.3798805 0.05368264 0.40952313 0.033450853 0.24141861 -0.037589267
0.33253253 0.12457083 -0.20110023 0.14217281 -0.20661876 -0.028641231 -0.25515744 0.31577662
-0.35280532 -0.18872838 -0.14563547 -0.34000942 0.08088123 -0.4654488 0.40816793 -0.40507624
0.4113198 0.06974588 -0.057025544 0.24912813 0.033469975 0.44396612 0.05691077 -0.13347238
0.117957056 -0.14869939 0.27929235 0.4071376 0.30811822 -0.20391312 0.23745234 0.13889459
0.22544236 -0.27063888 -0.42229736 -0.22461373 -0.297679 0.3262653 0.12533921 0.20337175
0.15301861 -0.08499917 0.3692405 -0.27964097 0.03763057 -0.33530548 0.23998132 -0.1415286
0.2102651 -0.08133717 0.37431222 -0.32947287 -0.28911415 -0.30312213 0.36638057 0.11688353
0.43174493 -0.37461028 -0.4697304 -0.37509727 -0.33707187 0.26473972 0.12985344 0.3829202
-0.23068717 -0.3264188 0.36159354 -0.1886484 0.32308426 -0.041778475 0.3227102 -0.3186797
-0.13870233 0.19710854 0.13585274 -0.103776634 0.19084439 0.31680003 -0.3355305 -0.20268068
0.41125455 -0.1912722 -0.15456836 -0.4791993 -0.3433917 0.14415593 -0.09410533 -0.37260205
-0.074160144 -0.2776347 -0.34051502 -0.35501745 -0.39471996 -0.32821703 0.5053752 0.08406194
0.09688231 -0.41707638 -0.33383366 -0.10087879 0.10026268 -0.3571418 -0.18022344 -0.26453775
0.00024284028 -0.10419108 -0.12660353 -0.3270522 -0.35211897 -0.17219673 -0.1430368 -0.35510826
0.43770403 -0.010150105 0.44760847 0.14818957 -0.4507968 0.34948608 -0.082755096 -0.15484776
-0.3516319 -0.59060645 0.13802738 -0.12187972 0.25060877 -0.35830086 0.33033302 -0.33823746
-0.08155073 0.07478091 0.26485446 0.27514282 0.4368924 -0.35386968 0.091933824 -0.21764384
0.07028409 -0.35079253 0.42522776 -0.3163781 0.2518695 0.111138515 0.16056472 -0.2378058
00000000: df9c c33e fb92 c43e b673 2abe 43c1 eb3e
00000010: bb8f 3bbd 6956 003e f7b2 69be 8200 453e
00000020: 22d9 d53e 2ae9 a3be b27f c23e 54e2 5b3d
00000030: 04ad d13e c303 093d 7136 773e 34f7 19bd
00000040: b441 aa3e fe1e ff3d 38ed 4dbe c095 113e
00000050: de93 53be 04a1 eabc ffa3 82be 79ad a13e
00000060: e6a2 b4be 0342 41be 7721 15be b715 aebe
00000070: 0fa5 a53d 4e4f eebe 63fb d03e 2766 cfbe
00000080: 8298 d23e eed6 8e3d 9e93 69bd 721b 7f3e
00000090: d017 093d 874f e33e 441b 693d fcac 08be
000000a0: 7893 f13d a744 18be 68ff 8e3e 5774 d03e
000000b0: acc1 9d3e 9ace 50be b526 733e 623a 0e3e
000000c0: 5dda 663e 2e91 8abe 5c37 d8be 2401 66be
000000d0: 6269 98be 3f0c a73e ec58 003e af40 503e
000000e0: e9b0 1c3e 0b14 aebd 170d bd3e 1a2d 8fbe
000000f0: 8322 1a3d 29ad abbe aabd 753e e0ec 10be
00000100: bc4f 573e 1a94 a6bd daa5 bf3e abb0 a8be
00000110: c506 94be d332 9bbe 3c96 bb3e a260 ef3d
00000120: ac0d dd3e ebcc bfbe 8180 f0be c00c c0be
00000130: af94 acbe f78b 873e 4df8 043e 1e0e c43e
00000140: 4239 6cbe 5d20 a7be ca22 b93e 0c2d 41be
00000150: 4d6b a53e e81f 2bbd 453a a53e fc29 a3be
00000160: fc07 0ebe d2d6 493e fb1c 0b3e d888 d4bd
00000170: b66c 433e 9d33 a23e a7ca abbe 868b 4fbe
00000180: f58f d23e dcdc 43be 2b47 1ebe 9c59 f5be
00000190: 09d1 afbe 9d9d 133e 4cba c0bd b2c5 bebe
000001a0: 46e1 97bd 2326 8ebe fc57 aebe d9c4 b5be
000001b0: bc18 cabe 100c a8be 4560 013f ab28 ac3d
000001c0: 3c6a c63d 098b d5be 3fec aabe 8a99 cebd
000001d0: 8556 cd3d 4adb b6be 7e8c 38be 7e71 87be
000001e0: f1a2 7e39 2262 d5bd 5ba4 01be 6373 a7be
000001f0: f048 b4be 5754 30be 3d78 12be c0d0 b5be
00000200: be1a e03e a04c 26bc f02c e53e 02bf 173e
00000210: d7ce e6be d7ef b23e 817b a9bd 6990 1ebe
00000220: 1909 b4be fc31 17bf 0d57 0d3e 139c f9bd
00000230: cb4f 803e 3673 b7be 6921 a93e 762d adbe
00000240: 1204 a7bd bc26 993d 019b 873e 85df 8c3e
00000250: 5cb0 df3e 682e b5be cd47 bc3d 07de 5ebe
00000260: 1bf1 8f3d 149b b3be 74b7 d93e 4ffc a1be
00000270: 0af5 803e 979c e33d 146b 243e 5d83 73be

encoder.node_encoder.mlp_prep.0.bias f4 [32]
0.045061413 0.0077076363 0.0018810268 0.012410138 0.0037563515 0.020756442 0.02632394 0.035312332
0.05214334 0.017800637 0.002114694 0.017438026 0.04208647 -0.049727775 -0.07411939 -0.0053979456
0.023430966 0.08262836 0.012461766 -0.0038209248 -0.1300538 -0.038290113 0.031410985 0.083670236
-0.06952004 0.061296474 0.030455714 -0.018593857 -0.008484634 0.0023562547 0.007691984 0.0007121467
00000000: 5192 383d 5790 fc3b c98c f63a e453 4b3c
00000010: 1f2d 763b 6a09 aa3c 4ea5 d73c aaa3 103d
00000020: 4194 553d a4d2 913c ae96 0a3b 31da 8e3c
00000030: dd62 2c3d 5aaf 4bbd e8cb 97bd 40e1 b0bb
00000040: 4cf2 bf3c 0f39 a93d 6f2c 4c3c 7b68 7abb
00000050: d32c 05be 18d6 1cbd cea8 003d 4d5b ab3d
00000060: 8660 8ebd 0312 7b3d 437e f93c 2552 98bc
00000070: 2203 0bbc 656b 1a3b 0a0d fc3b 5baf 3a3a

encoder.node_encoder.mlp_prep.2.weight f4 [16, 32]
0.15867402 0.19177979 -0.040419318 -0.02191857 0.0760963 0.10965071 0.07806152 0.036201216
-0.13952252 -0.046077143 0.18983637 0.13267863 0.0070272945 -0.08413633 -0.10280861 -0.15969452
-0.080039434 0.109733686 0.14964144 0.122841835 -0.19528426 -0.079027645 0.011532599 0.20640624
0.03662789 0.018087266 0.1906547 0.019299345 -0.10407631 0.14057936 -0.11474632 -0.0114747295
-0.20467213 0.13481568 0.18267716 0.063583374 -0.1649712 -0.22068779 -0.09164517 0.17584625
0.12856834 0.13174677 0.10161686 0.013431222 0.08367915 -0.19923657 -0.1555111 -0.10324947
0.17630465 -0.13658653 -0.015715111 -0.14529003 -0.05992894 -0.122767106 -0.15249439 -0.00045353876
-0.06697537 0.08106225 -0.14695668 -0.14454103 0.038518514 -0.08709207 0.037032943 -0.17692079
0.13813408 -0.14142416 0.095851354 0.086760975 0.13292827 -0.14584064 0.09505359 -0.11091613
0.084321894 0.17378259 0.01222507 0.021087497 -0.08581657 -0.1301252 0.060750425 -0.17723525
0.05705927 0.18762192 0.1459544 -0.045706626 -0.16496505 0.015959768 0.101816446 -0.17238101
-0.066420294 -0.06493924 0.057698037 -0.090769574 -0.11921363 -0.05411912 -0.18305242 0.13961673
0.1823314 0.02809409 -0.015868727 -0.058655024 -0.09481979 -0.1304277 0.10297579 -0.10495343
-0.08643807 -0.0012280537 0.012190962 -0.02728526 0.020768208 -0.014875795 -0.066747986 -0.071784765
-0.16564907 0.18601783 -0.03909986 0.05131859 -0.103735104 0.0075456584 0.19184978 0.0843878
-0.16860044 0.16490346 0.24210465 0.11486714 0.11515111 0.18246229 -0.035030905 0.038024697
-0.10696991 -0.056038495 0.12597026 0.09479803 -0.1285967 -0.1344117 -0.16332611 -0.18932293
-0.13747002 -0.04049579 0.15331066 0.03949678 -0.17595194 -0.122444585 0.10052286 -0.13512257
-0.08010068 0.10657186 -0.103127986 -0.028328449 0.0017141843 -0.04660531 -0.063232385 -0.16020969
-0.14623083 -0.058992404 0.21011008 -0.07300477 -0.14239784 0.04127436 0.019571781 0.089193575
0.15833862 0.10132721 -0.17473693 0.037602622 0.12176936 -0.009351585 -0.12820025 0.16225584
-0.061738156 -0.08634456 -0.120712906 0.026542118 0.040736914 0.09446841 0.0586527 -0.15307705
-0.22587334 0.050160024 0.15580812 0.1290461 -0.10220951 -0.03809486 -0.081202105 -0.06905863
0.02114967 0.14052284 0.19350034 -0.14774807 0.08161711 -0.1182662 0.03163053 0.15700209
0.04597407 0.13902728 -0.14713031 -0.062244054 0.09377478 -0.039475076 -0.0693166 -0.09576064
0.14022397 0.09868677 0.07823202 -0.0724379 -0.18496189 0.020324923 0.030470913 -0.08074991
-0.095027655 0.14190637 -0.009378596 -0.021960683 -0.05160761 -0.1924257 -0.1767628 -0.09768342
-0.12031586 0.0812925 0.022710621 -0.06958195 0.11003166 0.07153177 0.095043465 -0.08833198
-0.01455241 0.09530526 -0.10963969 -0.10142074 0.036847863 -0.028702999 -0.12446216 0.109003
0.16376421 0.05675123 0.006723747 -0.1056821 -0.084384106 0.054293267 0.08763391 -0.019199302
-0.108366005 0.13267553 -0.11488812 0.113371976 -0.10148165 -0.023940064 -0.021078147 0.019287093
-0.07881782 0.18961027 0.10580862 0.19082846 0.108201005 -0.055999678 -0.16422819 0.15327927
00000000: 717b 223e ec61 443e ba8e 25bd 938e b3bc
00000010: 60d8 9b3d 8d90 e03d b8de 9f3d ba47 143d
00000020: fede 0ebe 63bb 3cbd 7764 423e e8dc 073e
00000030: 3845 e63b ab4f acbd 528d d2bd f686 23be
00000040: b7eb a3bd 0ebc e03d 9b3b 193e 8094 fb3d
00000050: 99f8 47be 3fd9 a1bd 3af3 3c3c 285c 533e
00000060: 2007 163d bf2b 943c fc3a 433e a919 9e3c
00000070: f625 d5bd 09f4 0f3e 1e00 ebbd 8100 3cbc
00000080: 9295 51be 1f0d 0a3e b90f 3b3e 0038 823d
00000090: 36ee 28be fbfb 61be 76b0 bbbd 0a11 343e
000000a0: 6ba7 033e a0e8 063e 801c d03d a10e 5c3c
000000b0: f95f ab3d ac04 4cbe 4d3e 1fbe 7574 d3bd
000000c0: 3589 343e 57dd 0bbe fabc 80bc e9c6 14be
000000d0: 0c78 75bd 526d fbbd 7d27 1cbe f1c8 edb9
000000e0: 622a 89bd f703 a63d d07b 16be 9002 14be
000000f0: 97c5 1d3d 545d b2bd dbaf 173d b92a 35be
00000100: 0573 0d3e 7fd1 10be b74d c43d bdaf b13d
00000110: 591e 083e 4057 15be 75ab c23d ff27 e3bd
00000120: f5b0 ac3d 10f4 313e a94b 483c b0bf ac3c
00000130: 99c0 afbd 8a3f 05be 70d5 783d 287d 35be
00000140: fbb6 693d f61f 403e 1275 153e df36 3bbd
00000150: 99ec 28be 0fbe 823c 2485 d03d a684 30be
00000160: 5d07 88bd ddfe 84bd c754 6c3d 66e5 b9bd
00000170: 4726 f4bd 03ac 5dbd 1872 3bbe b0f7 0e3e
00000180: 15b5 3a3e 9425 e63c 22ff 81bc 4040 70bd
00000190: e130 c2bd d78e 05be f9e4 d23d d3f1 d6bd
000001a0: 7106 b1bd a5f6 a0ba 9abc 473c 5685 dfbc
000001b0: 1722 aa3c 9bb9 73bc 2bb3 88bd e403 93bd
000001c0: e99f 29be 757b 3e3e 2d27 20bd 7133 523d
000001d0: 1273 d4bd 9241 f73b 4574 443e 83d3 ac3d
000001e0: 98a5 2cbe 74dc 283e 48ea 773e 773f eb3d
000001f0: 58d4 eb3d 65d7 3a3e 917c 0fbd c9bf 1b3d
00000200: 0a13 dbbd 9f88 65bd 59fe 003e 7825 c23d
00000210: daae 03be 38a3 09be f63e 27be dfdd 41be
00000220: f1c4 0cbe eade 25bd 78fd 1c3e 60c7 213d
00000230: bf2c 34be 3ac4 fabd eede cd3d 925d 0abe
00000240: d30b a4bd 5942 da3d c434 d3bd 1011 e8bc
00000250: 7bae e03a 36e5 3ebd fb7f 81bd 020e 24be
00000260: 89bd 15be 05a2 71bd 1927 573e 8683 95bd
00000270: bdd0 11be 4e0f 293d 0055 a03c 1fab b63d
00000280: 8523 223e a484 cf3d 3dee 32be 3505 1a3d
00000290: 3762 f93d 6437 19bc ed46 03be 6526 263e
000002a0: 26e1 7cbd 6bd5 b0bd 5438 f7bd db6e d93c
000002b0: c0db 263d a778 c13d d03d 703d 3bc0 1cbe
000002c0: 574b 67be 9974 4d3d 2a8c 1f3e a924 043e
000002d0: 3853 d1bd 5b09 1cbd 4a4d a6bd 9c6e 8dbd
000002e0: 1342 ad3c 38e5 0f3e f424 463e 454b 17be
000002f0: df26 a73d 8d35 f2bd 048f 013d 28c5 203e
00000300: 4e4f 3c3d 2b5d 0e3e 54a9 16be 9ff3 7ebd
00000310: fe0c c03d 9eb0 21bd ddf5 8dbd 281e c4bd
00000320: df96 0f3e 4a1c ca3d 1c38 a03d 525a 94bd
00000330: a666 3dbe 7480 a63c 239e f93c 3560 a5bd
00000340: dc9d c2bd e74f 113e afa8 19bc e4e6 b3bc
00000350: 8062 53bd 3e0b 45be 4f01 35be 3f0e c8bd
00000360: 2968 f6bd af7c a63d a00b ba3c fb80 8ebd
00000370: 4758 e13d 407f 923d 26a6 c23d 66e7 b4bd
00000380: 3b6d 6ebc 672f c33d c68a e0bd adb5 cfbd
00000390: c9ed 163d 8d22 ebbc 04e6 febd f73c df3d
000003a0: ceb1 273e fa73 683d e152 dc3b db6f d8bd
000003b0: 93d1 acbd 9e62 5e3d 6879 b33d db47 9dbc
000003c0: ffee ddbd 18dc 073e 764a ebbd 912f e83d
000003d0: 9cd5 cfbd f41d c4bc 14ac acbc f7ff 9d3c
000003e0: 3d6b a1bd 3229 423e 31b2 d83d 8968 433e
000003f0: 7d98 dd3d eb5f 65bd 6f2b 28be 3ef5 1c3e

encoder.node_encoder.mlp_prep.2.bias f4 [16]
0.073292725 0.042173006 0.0100018 0.05008636 -0.00064896676 0.020831328 -0.0051985676 0.030432342
-0.02962485 0.038963396 0.081283554 0.03158507 0.039708707 0.00981674 0.026239874 0.042600106
00000000: 7f1a 963d 9abd 2c3d 97de 233c 5b27 4d3d
00000010: 6c1f 2aba 76a6 aa3c bf58 aabb 3f4d f93c
00000020: d0af f2bc 1598 1f3d fe77 a63d 595f 013d
00000030: 99a5 223d 64d6 203c 01f5 d63c 737d 2e3d

encoder.node_encoder.mlp_prep.4.weight f4 [16, 16]
-0.033483606 0.09178861 0.10397487 0.24098793 -0.058731455 0.09958093 0.11586732 -0.16744044
-0.2378464 -0.15450293 0.15573323 -0.2850847 -0.27789035 0.16866909 0.10698505 0.25936255
-0.16565318 -0.24796386 0.13449162 0.25192803 0.1811554 0.056646187 0.10333442 0.29671758
-0.14660795 -0.15553686 0.15858473 -0.22624484 -0.19353892 0.20734596 0.03447522 0.13584922
-0.088683866 -0.05604124 0.2234083 -0.14374268 0.0055917534 0.1127643 -0.15744473 0.24928786
-0.104209475 -0.10859421 -0.109069645 -0.21386662 -0.29445183 0.18144819 0.009371489 -0.21308993
-0.18577471 0.32422072 0.087737106 0.07670557 -0.16792564 -0.1221575 -0.042596538 -0.078961216
-0.20802091 0.08889036 0.07511902 0.035366666 0.09295264 -0.13190916 0.13976584 0.059935972
-0.10356648 -0.29514214 0.14194788 0.08584386 -0.10996905 0.24977966 -0.078106545 0.20780914
0.13478146 -0.25197375 0.116642095 -0.28057867 -0.17961551 0.0028334213 -0.2307463 0.28236496
-0.06516265 0.12358496 -0.22816516 0.11709598 -0.12750056 -0.20074579 0.03259667 0.101046994
0.21029946 -0.13782299 -0.08753594 0.06628699 0.12197419 0.09409845 0.15477443 -0.09133173
0.13034539 0.2115806 -0.091943875 0.14617638 0.097021334 0.20335607 -0.19131345 -0.12890017
-0.09585526 0.03353806 0.20702863 -0.12523021 0.16336177 -0.121956564 0.18409781 -0.035201885
-0.22432846 -0.18290913 -0.18089467 0.12660299 -0.14983498 -0.023191964 0.06718537 -0.14812523
0.11842852 -0.29173684 -0.25077555 -0.26400444 -0.13005276 -0.07097339 -0.012948626 -0.04424558
0.115600444 0.2968815 0.094499536 -0.10352549 -0.25106877 0.09643787 -0.14611684 0.117807984
0.13777944 0.15985665 0.3065214 0.2961222 0.123513736 -0.21044736 0.29510877 -0.13325174
-0.13318789 0.27590406 0.18642823 0.03745216 -0.027310446 -0.23544496 -0.04092715 0.17489745
0.04859682 0.061944995 -0.043735243 -0.03143202 0.21146671 0.009368475 0.20541179 -0.096656196
0.08880396 0.05654769 0.029544296 0.13601398 0.14201011 0.1960735 0.20218968 -0.085918166
-0.1618728 -0.006659864 -0.07100379 -0.11767026 -0.10738753 0.03481795 0.12852506 0.06254562
-0.14030425 -0.13022791 -0.092745066 -0.13403872 0.2262852 0.09540748 0.20592384 -0.060731094
0.10077389 0.050971583 -0.31393102 0.0032559268 -0.06865931 -0.16734429 -0.2255305 0.17267117
0.27024573 0.08908153 0.3265661 0.005780922 0.00623115 0.18015704 0.05028263 0.055055294
-0.24031584 0.075505435 -0.12312554 0.0069828746 0.23618756 -0.015578855 -0.09288474 0.2679587
-0.15073478 0.035218675 0.21735692 -0.1577449 -0.17958044 -0.17519781 -0.12181459 -0.2119436
-0.12637278 0.13651018 0.03152963 -0.006454522 -0.16357827 -0.14003797 -0.06307859 -0.18072493
-0.26200813 0.05218615 -0.21390438 -0.24182029 -0.22514065 0.06949684 -0.21305554 -0.13602813
0.20431669 0.124911316 0.16000444 -0.24358566 -0.175441 -0.15304025 0.2070872 -0.025947373
-0.22700627 0.089129716 -0.20763122 -0.0946711 -0.0958064 0.19284159 0.049074586 -0.11273373
0.0132396035 -0.002570087 0.13027927 0.18508328 0.1290692 -0.14545673 0.28598306 -0.100334235
00000000: 1b26 09bd abfb bb3d c7f0 d43d 8ac5 763e
00000010: 6590 70bd 16f1 cb3d d84b ed3d 8275 2bbe
00000020: 028e 73be 0436 1ebe 8878 1f3e 9ff6 91be
00000030: a547 8ebe 97b7 2c3e fa1a db3d 2bcb 843e
00000040: fda0 29be 3dea 7dbe 2cb8 093e b6fc 803e
00000050: cd80 393e d505 683d ffa0 d33d 5eeb 973e
00000060: 6520 16be 0e45 1fbe 0964 223e baac 67be
00000070: 112f 46be 8052 543e e335 0d3d 0f1c 0b3e
00000080: e39f b5bd 808b 65bd 25c5 643e 4831 13be
00000090: 073b b73b f8f0 e63d 3139 21be 5145 7f3e
000000a0: c76b d5bd a466 debd e85f dfbd daff 5abe
000000b0: 64c2 96be 8ecd 393e e08a 193c 3f34 5abe
000000c0: ba3b 3ebe 4200 a63e 83af b33d cf17 9d3d
000000d0: b3f4 2bbe b62d fabd b579 2ebd 6bb6 a1bd
000000e0: 6f03 55be 260c b63d 00d8 993d a3dc 103d
000000f0: f45d be3d 3213 07be c71e 0f3e 6c7f 753d
00000100: aa1a d4bd df1c 97be c95a 113e e8ce af3d
00000110: 7437 e1bd 3dc6 7f3e 53f6 9fbd ebcb 543e
00000120: 2704 0a3e b402 81be 0de2 ee3d 02a8 8fbe
00000130: 21ed 37be ecb0 393b c248 6cbe 2492 903e
00000140: ff73 85bd 1d1a fd3d 21a4 69be 04d0 ef3d
00000150: 828f 02be 4e90 4dbe 1684 053d baf1 ce3d
00000160: be58 573e 7821 0dbe 0b46 b3bd 79c1 873d
00000170: 9bcd f93d b0b6 c03d 307d 1e3e 210c bbbd
00000180: 4379 053e 96a8 583e 124d bcbd 43af 153e
00000190: 1fb3 c63d 933c 503e ace7 43be 68fe 03be
000001a0: c34f c4bd 345f 093d 50ff 533e 593c 00be
000001b0: 4f48 273e 5dc4 f9bd 2384 3c3e da2f 10bd
000001c0: 5cb6 65be 884c 3bbe 743c 39be 37a4 013e
000001d0: 576e 19be 13fd bdbc 7c98 893d 24ae 17be
000001e0: a78a f23d 885e 95be a765 80be 972b 87be
000001f0: 8d2c 05be 7f5a 91bd 7926 54bc da3a 35bd
00000200: edbf ec3d da00 983e f988 c13d 2c05 d4bd
00000210: 168c 80be 3881 c53d a79f 15be 5045 f13d
00000220: 0e16 0d3e 76b1 233e 5ff0 9c3e 549d 973e
00000230: c5f4 fc3d 837f 57be 7f18 973e 2573 08be
00000240: 6862 08be 4c43 8d3e 0be7 3e3e 7067 193d
00000250: 28ba dfbc 7c18 71be 3aa3 27bd 5118 333e
00000260: 760d 473d 09ba 7d3d ba23 33bd ddbe 00bd
00000270: bb8a 583e 3b7e 193c 7857 523e aff3 c5bd
00000280: dade b53d 8d9e 673d e106 f23c 4047 0b3e
00000290: 196b 113e 7ec7 483e d00a 4f3e ddf5 afbd
000002a0: fcc1 25be fd3a dabb 6f6a 91bd 1bfd f0bd
000002b0: feed dbbd 449d 0e3d 139c 033e eb17 803d
000002c0: ebab 0fbe 775a 05be 20f1 bdbd 7241 09be
000002d0: 4fb7 673e ff64 c33d b3dd 523e 2bc1 78bd
000002e0: 8b62 ce3d 94c7 503d 91bb a0be 6361 553b
000002f0: 419d 8cbd 4d5c 2bbe 78f1 66be b6d0 303e
00000300: a65d 8a3e 6170 b63d ac33 a73e e36d bd3b
00000310: ad2e cc3b 167b 383e 29f5 4d3d a981 613d
00000320: 5b15 76be 98a2 9a3d 3e29 fcbd 99d0 e43b
00000330: 27db 713e 743e 7fbc 5b3a bebd e231 893e
00000340: 385a 1abe 7541 103d d092 5e3e e187 21be
00000350: efe3 37be 0e67 33be ee79 f9bd be07 59be
00000360: de67 01be 53c9 0b3e 3725 013d 7480 d3bb
00000370: 1081 27be 1d66 0fbe 592f 81bd f50f 39be
00000380: ee25 86be 25c1 553d c009 5bbe bd9f 77be
00000390: 458b 66be 5c54 8e3d 3b2b 5abe f54a 0bbe
000003a0: 6538 513e 81d1 ff3d 34d8 233e 856e 79be
000003b0: cea6 33be 95b6 1cbe ab0e 543e 968f d4bc
000003c0: 5574 68be a489 b63d 479d 54be ece2 c1bd
000003d0: 2536 c4bd 4478 453e 6f02 493d f1e0 e6bd
000003e0: ecea 583c e86e 28bb ee67 053e 7986 3d3e
000003f0: b72a 043e 9cf2 14be 5f6c 923e 097c cdbd

encoder.node_encoder.mlp_prep.4.bias f4 [16]
0.017309347 0.010733001 -0.04449038 0.030902585 -0.03642333 0.01413507 0.052044112 -0.07899211
0.06973374 -0.034619026 -0.07320594 -0.09086845 0.07722213 -0.03227489 0.018068545 0.0056688515
00000000: 55cc 8d3c 78d9 2f3c 8b3b 36bd 6b27 fd3c
00000010: a130 15bd c896 673c 352c 553d 9ec6 a1bd
00000020: 90d0 8e3d aecc 0dbd ffec 95bd 3d19 babd
00000030: a326 9e3d ad32 04bd 7c04 943c c6c1 b93b

encoder.node_encoder.mlp_msg.0.weight f4 [32, 16]
-0.060391508 -0.29396737 0.1785962 -0.06357273 -0.08313735 0.04781275 -0.022518806 -0.26597995
0.16263552 -0.039016128 -0.124885134 0.042366218 -0.14248408 -0.10582882 -0.092446744 -0.045674816
-0.09841725 -6.4871296e-05 0.09838118 -0.26527283 -0.08995897 -0.016809713 0.03833158 0.1660126
-0.2357523 0.015151751 0.14245126 0.16531311 -0.2203796 -0.11335061 -0.20741212 -0.1929972
0.15862535 0.03346291 0.108837776 -0.21934892 0.088258184 -0.15365063 0.13804731 -0.09654016
-0.10404208 -0.2739426 0.00091725355 0.2364124 0.10987463 -0.15168513 0.026482655 -0.06454716
-0.24122791 0.100499235 -0.016769823 0.117505126 -0.15001063 -0.046499543 0.04437396 0.06824346
0.09813018 -0.029999314 0.23933384 -0.053951148 -0.20228626 -0.08336612 0.25527573 0.07580838
-0.06969908 -0.19223846 -0.08812868 -0.15964195 -0.2400771 0.1928551 0.21470284 0.21136637
-0.14284796 0.20748034 -0.15379934 0.13010235 0.16052341 0.2079682 0.18424508 0.21239817
-0.017818334 0.034627784 -0.09530354 0.14849082 -0.10756889 0.027070794 -0.21981822 -0.077624284
-0.10508494 -0.042102244 -0.17324427 -0.23378056 -0.006685642 0.17267802 0.22709614 0.19370125
-0.16897155 -0.34559855 0.058791436 0.20270813 -0.27177644 0.15085569 0.23304047 -0.028367033
-0.09561018 0.29120037 0.103623524 0.13145477 -0.20392102 0.1530492 -0.15361121 0.31231222
-0.12060385 0.075965226 0.028800277 0.11522115 -0.0717786 0.13740632 -0.07987898 -0.26680064
-0.059127472 0.25618955 -0.062296346 0.05323244 -0.10787656 0.20078313 0.14616345 0.13628025
-0.15040097 -0.2372236 0.01585186 -0.12537439 0.1790124 -0.24231032 0.09757238 0.2508733
0.13779348 0.06968157 -0.26478207 0.24041109 -0.042811096 -0.22069678 0.2543262 -0.07536736
0.0038112064 0.18489859 -0.18203194 -0.13978057 0.029708328 -0.012502861 0.06971349 -0.21042535
0.022004241 -0.07487894 -0.117770076 -0.25099272 0.11258274 0.042102765 -0.2096706 0.23006871
0.092693314 0.122063205 -0.11953911 -0.021542666 0.29361367 0.13810806 -0.20958668 0.27015787
-0.0317243 0.042613097 0.17945641 0.23986681 -0.18892312 0.21563092 -0.16524258 -0.036870714
-0.10118826 0.014594577 -0.0045839692 -0.09168144 0.010904358 -0.02007725 0.2611336 0.1478385
0.11463529 0.034850523 0.22702715 -0.012912845 0.05144345 -0.0030752267 -0.24151562 -0.25378036
-0.0063432213 -0.20581363 -0.033391953 0.008711958 -0.015749881 0.22260821 -0.07537135 0.16719426
0.24720587 -0.10860463 -0.18960257 -0.22603896 -0.17086266 -0.07050364 -0.006337816 0.013613405
-0.15066569 -0.1630274 -0.12441992 0.31739482 -0.15423627 -0.14771324 0.11066764 -0.052832738
0.24992882 0.23648661 0.22779968 -0.21403301 0.14533645 0.22601102 -0.12225219 0.28776512
0.20097846 -0.036748767 0.11024288 -0.058290925 -0.23384506 0.082346246 0.08807749 -0.17416985
0.13874532 -0.18123884 0.20829453 0.22094622 0.052680764 -0.16759907 0.118493974 0.065387696
0.063678406 0.018376792 0.16581817 -0.044952486 -0.1153191 0.09283743 0.015825827 0.18602219
-0.078719586 0.05270874 0.04491804 -0.0888694 0.1506662 0.052932058 -0.2349911 0.008168477
00000000: 165d 77bd e482 96be ece1 363e 6b32 82bd
00000010: ea43 aabd 4dd7 433d 5c79 b8bc 862e 88be
00000020: ed89 263e 60cf 1fbd c7c3 ffbd 3388 2d3d
00000030: 59e7 11be c8bc d8bd b854 bdbd 8415 3bbd
00000040: fc8e c9bd 830b 88b8 127c c93d d7d1 87be
00000050: 693c b8bd 86b4 89bc 9301 1d3d 35ff 293e
00000060: 0d69 71be 0d3f 783c bede 113e d747 293e
00000070: 31ab 61be 5d24 e8bd d863 54be 0fa1 45be
00000080: af6e 223e 6810 093d 57e6 de3d 019d 60be
00000090: b5c0 b43d 9756 1dbe 465c 0d3e d9b6 c5bd
000000a0: 0414 d5bd 3442 8cbe d873 703a 1816 723e
000000b0: f305 e13d 5953 1bbe 27f2 d83c 4d31 84bd
000000c0: 7304 77be 8bd2 cd3d de60 89bc 87a6 f03d
000000d0: 639c 19be 4e76 3ebd 78c1 353d 3ac3 8b3d
000000e0: 7af8 c83d 1fc1 f5bc ee13 753e e1fb 5cbd
000000f0: 2124 4fbe dbbb aabd 80b3 823e 6d41 9b3d
00000100: 64be 8ebd 29da 44be cf7c b4bd 2e79 23be
00000110: c5d6 75be cf7b 453e 10db 5b3e 6d70 583e
00000120: bc46 12be ba75 543e 937d 1dbe 8d39 053e
00000130: 4060 243e 9ef5 543e beaa 3c3e e87e 593e
00000140: c1f7 91bc ddd5 0d3d 812e c3bd fa0d 183e
00000150: 144d dcbd 92c3 dd3c 0718 61be 7bf9 9ebd
00000160: c636 d7bd 6773 2cbd f266 31be 2c64 6fbe
00000170: 3b13 dbbb 82d2 303e e48b 683e 9f59 463e
00000180: e106 2dbe 4bf2 b0be 4acf 703d b892 4f3e
00000190: 4826 8bbe ea79 1a3e 29a2 6e3e fb61 e8bc
000001a0: 45cf c3bd 3718 953e 9238 d43d 149c 063e
000001b0: acd0 50be eeb8 1c3e 424c 1dbe 63e7 9f3e
000001c0: 27ff f6bd a893 9b3d 8fee eb3c 11f9 eb3d
000001d0: a900 93bd 3eb4 0c3e 9797 a3bd 189a 88be
000001e0: a62f 72bd 472b 833e 742a 7fbd 420a 5a3d
000001f0: 63ee dcbd 189a 4d3e dfab 153e 0d8d 0b3e
00000200: b602 1abe beea 72be c3db 813c 2562 00be
00000210: 074f 373e 3220 78be 07d4 c73d 7772 803e
00000220: bc19 0d3e 36b5 8e3d 8491 87be 532e 763e
00000230: b05a 2fbd 56fe 61be 0b37 823e 345a 9abd
00000240: 6fc5 793b 0e56 3d3e 9566 3abe a322 0fbe
00000250: e15e f33c cdd8 4cbc f2c5 8e3d be79 57be
00000260: 3d42 b43c 215a 99bd 7031 f1bd 1e82 80be
00000270: c891 e63d f373 2c3d e4b3 56be 2297 6b3e
00000280: fed5 bd3d 46fc f93d ecd0 f4bd 3f7a b0bc
00000290: 8854 963e 336c 0d3e e49d 56be 2252 8a3e
000002a0: 57f1 01bd 128b 2e3d 6cc3 373e a59f 753e
000002b0: 1075 41be 5ace 5c3e 5a35 29be bf05 17bd
000002c0: ca3b cfbd 181e 6f3c 1f35 96bb 7bc3 bbbd
000002d0: 31a8 323c 0c79 a4bc 4eb3 853e fa62 173e
000002e0: e8c5 ea3d 6cbf 0e3d ce79 683e 6690 53bc
000002f0: 5eb6 523d be89 49bb df4f 77be 80ef 81be
00000300: ccda cfbb cfc0 52be 00c6 08bd 9abc 0e3c
00000310: e505 81bc 68f3 633e 4b5c 9abd f934 2b3e
00000320: 8923 7d3e 1b6c debd 2d27 42be c276 67be
00000330: 9ff6 2ebe 3664 90bd 74ad cfbb c20a 5f3c
00000340: 1b48 1abe a8f0 26be dfcf febd 9381 a23e
00000350: 1df0 1dbe 2442 17be b7a5 e23d 2467 58bd
00000360: 57ed 7f3e 8c29 723e 5244 693e 782b 5bbe
00000370: 14d3 143e 6f6f 673e 5b5f fabd f355 933e
00000380: 4ccd 4d3e e085 16bd 05c7 e13d 77c2 6ebd
00000390: 1475 6fbe 26a5 a83d f961 b43d 9559 32be
000003a0: 4113 0e3e ad96 39be 294b 553e ba3f 623e
000003b0: c9c7 573d 179f 2bbe f8ac f23d fce9 853d
000003c0: d369 823d ed8a 963c 3dcc 293e 1920 38bd
000003d0: 6c2c ecbd 8d21 be3d 2aa5 813c 9a7c 3e3e
000003e0: bc37 a1bd 1fe5 573d fbfb 373d 2901 b6bd
000003f0: 3e48 1a3e 49cf 583d 82a1 70be 13d5 053c

encoder.node_encoder.mlp_msg.0.bias f4 [32]
0.026677804 -0.0136233345 0.0070737754 0.004602364 0.011880173 0.019801864 0.030148268 0.020251727
0.016690144 0.013220991 -0.02354407 0.014276505 0.016184654 0.020981751 0.022352045 0.009311496
0.028759988 -0.010539914 0.01788375 0.02041962 -0.015287107 -0.016829107 0.026311269 0.028532997
-0.006674771 0.0063336496 -0.013657554 0.007988837 0.0028230813 -0.035610322 0.019076316 -0.007579245
00000000: 698b da3c 6834 5fbc 21cb e73b 6dcf 963b
00000010: 0fa5 423c 8537 a23c 80f9 f63c f3e6 a53c
00000020: c5b9 883c db9c 583c 7edf c0bc 01e8 693c
00000030: ae95 843c ece1 ab3c a31b b73c 3f8f 183c
00000040: 119a eb3c 9aaf 2cbc f180 923c 0c47 a73c
00000050: c676 7abc 32dd 89bc bb8a d73c 08be e93c
00000060: 0ab8 dabb 818a cf3b efc3 5fbc 9ce3 023c
00000070: 7203 393b 21dc 11bd ef45 9c3c 515b f8bb

encoder.node_encoder.mlp_msg.2.weight f4 [16, 32]
-0.0012578745 -0.039774884 -0.09520063 -0.05755757 -0.07343096 0.16408949 0.036311638 0.15847005
0.07802862 0.014636684 0.09275211 0.0056236093 -0.1491967 -0.14254631 -0.07061438 0.0075471797
0.06976671 0.090261936 0.11833198 0.0099450275 -0.024110645 -0.10320514 -0.14734782 -0.1186717
0.042044245 0.118824825 0.17566794 -0.11528203 -0.017052684 -0.04200705 -0.014638917 0.04864016
-0.03089241 0.027536144 0.031287957 0.06713272 -0.05970448 -0.116202086 0.018830568 -0.03190952
-0.06138606 0.07856569 0.016798584 -0.028668074 -0.10316373 -0.051644493 -0.14507753 0.048561696
-0.0038748488 0.1225893 -0.0028502923 -0.00083382934 0.055256736 0.15867138 -0.10857598 0.0844044
0.050839547 -0.14952007 0.07096931 -0.13050443 -0.05725617 -0.07238877 -0.12979215 0.12427712
-0.19975622 0.110039614 -0.11467723 -0.039781585 -0.0071514477 0.11130472 -0.106813654 0.017653288
0.076243 0.10282674 0.034676377 0.08411289 -0.12626453 -0.16520044 0.13833623 -0.10974443
-0.014945687 0.030074509 0.13829598 -0.06969573 -0.11665556 -0.021803616 0.05246537 0.031854242
0.16457799 -0.02655644 0.10330176 -0.22233494 0.08261316 0.09371337 0.087775186 -0.08017159
-0.07540283 0.059860468 -0.102085486 -0.13824074 -0.17743967 -0.0006218011 0.056900736 0.02099289
0.054213542 0.07327197 -0.1083912 0.01803387 -0.06559413 -0.121778466 0.15555112 -0.124539085
0.02465751 -0.13020325 -0.024308085 -0.1152096 0.05173915 -0.100241676 0.08836311 -0.1712469
0.1262001 -0.14292139 0.10710012 -0.12588018 0.028487688 -0.025171228 0.10132897 0.058801413
-0.2024895 0.049516402 -0.10368634 0.109879315 0.008664394 -0.06876716 -0.14368679 0.031244654
-0.06893532 0.0879653 0.12864079 0.1081839 0.008739871 -0.20525512 0.11168968 -0.032189433
-0.035291545 0.018617036 0.0931597 0.091464296 0.052508682 0.11991837 -0.20974472 -0.04545851
-0.14477466 0.075255506 -0.104252346 -0.11787508 0.15474652 0.18855911 -0.13435853 -0.09119336
0.05796525 0.036095504 -0.059309524 -0.023796989 -0.07786927 0.108701594 0.23947085 -0.040187214
0.04225143 0.07425997 0.11660345 -0.010451402 0.053250447 0.17771628 0.13185337 0.1447721
-0.07155353 0.014795888 0.16611394 -0.06176864 0.02635764 -0.054136466 0.1618469 -0.029564017
-0.0029438103 0.09597794 -0.19844055 -0.09875295 -0.13869274 0.09162704 0.15801223 -0.1323217
0.08555434 -0.12428424 -0.08464355 0.18619426 0.1110194 -0.015919346 0.09067501 0.076937415
-0.013359201 -0.04992835 -0.14311309 0.1443777 0.06876226 0.13418423 -0.022362648 0.06573024
0.119672775 0.052336335 0.09584213 0.23004007 -0.029711893 0.0056217033 0.22277434 0.22643737
-0.063372605 0.14736901 0.039837223 0.04216197 0.104445055 -0.09402909 0.15474266 0.18094455
-0.093316585 -0.11796724 -0.17971341 -0.03016367 -0.12635757 -0.05200535 0.095988594 0.14577352
0.091267385 0.09190382 0.06706557 -0.09756853 -0.115955375 0.02951469 0.168198 0.00046693825
-0.017653037 -0.16422991 -0.07437834 -0.10711725 0.13127138 -0.04594261 -0.13923766 0.03824009
0.0008615726 -0.018163072 0.04899289 0.13126814 -0.16745938 -0.16358407 -0.002412757 -0.15736367
00000000: 44df a4ba fdea 22bd 8cf8 c2bd 7dc1 6bbd
00000010: f962 96bd 1307 283e 83bb 143d f945 223e
00000020: 78cd 9f3d b4ce 6f3c d1f4 bd3d 4146 b83b
00000030: 05c7 18be a9f7 11be 469e 90bd 554e f73b
00000040: d9e1 8e3d 40db b83d 0a58 f23d 78f0 223c
00000050: b083 c5bc 375d d3bd 59e2 16be 260a f3bd
00000060: 9636 2c3d 6e5a f33d 4ce2 333e fc18 ecbd
00000070: 12b2 8bbc 960f 2cbd 11d8 6fbc e83a 473d
00000080: 1412 fdbc 7b93 e13c cd27 003d e17c 893d
00000090: af8c 74bd 5cfb edbd 9042 9a3c 8fb3 02bd
000000a0: f36f 7bbd 0ce7 a03d 2f9d 893c 4fd9 eabc
000000b0: 8147 d3bd 2d89 53bd 348f 14be a1e8 463d
000000c0: 2df1 7dbb 1910 fb3d f8cb 3abb 5795 5aba
000000d0: e354 623d c07a 223e 155d debd 37dc ac3d
000000e0: 213d 503d ca1b 19be 5c58 913d f4a2 05be
000000f0: 7285 6abd 9040 94bd 3ce8 04be 0185 fe3d
00000100: e58c 4cbe 735c e13d e5db eabd 04f2 22bd
00000110: b156 eabb bbf3 e33d 1ec1 dabd a19d 903c
00000120: 4a25 9c3d d396 d23d d108 0e3d 6143 ac3d
00000130: 7d4b 01be 4e2a 29be 03a8 0d3e b0c1 e0bd
00000140: c1de 74bc d15e f63c 769d 0d3e a3bc 8ebd
00000150: 1ce9 eebd 7f9d b2bc eee5 563d 9879 023d
00000160: 2287 283e e48c d9bc e08f d33d c5ab 63be
00000170: 1731 a93d ccec bf3d 7ac3 b33d 0131 a4bd
00000180: cd6c 9abd 4030 753d 3212 d1bd fb8e 0dbe
00000190: bfb2 35be 5e00 23ba bf10 693d 48f9 ab3c
000001a0: 050f 5e3d 9d0f 963d 35fc ddbd c4bb 933c
000001b0: 3756 86bd fd66 f9bd cb48 1f3e 590e ffbd
000001c0: 8cfe c93c 0054 05be c021 c7bc 03f3 ebbd
000001d0: 6eec 533d 824b cdbd b8f7 b43d 595b 2fbe
000001e0: 993a 013e fc59 12be 4f57 db3d bce6 00be
000001f0: 035f e93c e433 cebc 9085 cf3d c0d9 703d
00000200: 6859 4fbe b6d1 4a3d 8159 d4bd 6808 e13d
00000210: 1af5 0d3c ccd5 8cbd a122 13be caf4 ff3c
00000220: f62d 8dbd 2727 b43d 69ba 033e 858f dd3d
00000230: ad31 0f3c 662e 52be 8fbd e43d 11d9 03bd
00000240: de8d 10bd c182 983c 83ca be3d a251 bb3d
00000250: 5813 573d c397 f53d 52c7 56be b432 3abd
00000260: cf3f 14be 8f1f 9a3d 4182 d5bd 7d68 f1bd
00000270: df75 1e3e a415 413e 4895 09be 96c3 babd
00000280: f86c 6d3d e1d8 133d 8bee 72bd e7f1 c2bc
00000290: ed79 9fbd f19e de3d d937 753e 599b 24bd
000002a0: d60f 2d3d 9c15 983d cacd ee3d 5b3c 2bbc
000002b0: 241d 5a3d 42fb 353e 9204 073e 233f 143e
000002c0: a88a 92bd 746a 723c c619 2a3e 1d01 7dbd
000002d0: faeb d73c 33be 5dbd 32bb 253e 3d30 f2bc
000002e0: f1ec 40bb 1590 c43d 0034 4bbe fd3e cabd
000002f0: 7805 0ebe f5a6 bb3d f5cd 213e 577f 07be
00000300: 1d37 af3d bc88 febd 9959 adbd b5a9 3e3e
00000310: 245e e33d 4a69 82bc d2b3 b93d 5d91 9d3d
00000320: 8de0 5abc ab81 4cbd 3d8c 12be bfd7 133e
00000330: 3ad3 8c3d 9767 093e df31 b7bc 939d 863d
00000340: 0017 f53d a05e 563d e148 c43d a08f 6b3e
00000350: 5b66 f3bc 4436 b83b f51e 643e 33df 673e
00000360: 7fc9 81bd e7e7 163e 5b2c 233d 08b2 2c3d
00000370: 4ae7 d53d 5392 c0bd dc74 1e3e 8749 393e
00000380: c41c bfbd cf98 f1bd cb06 38be cd19 f7bc
00000390: e163 01be 9003 55bd ab95 c43d a745 153e
000003a0: 65ea ba3d 1238 bc3d ac59 893d 02d2 c7bd
000003b0: 037a edbd cbc8 f13c 193c 2c3e 64cf f439
000003c0: 1a9d 90bc e32b 28be ac53 98bd 4a60 dbbd
000003d0: 016c 063e 512e 3cbd 5194 0ebe a4a1 1c3d
000003e0: 29db 613a b9ca 94bc c5ac 483d 286b 063e
000003f0: 797a 2bbe 9582 27be 581f 1ebb f123 21be

encoder.node_encoder.mlp_msg.2.bias f4 [16]
-0.00012230974 -0.0027138065 0.007247848 0.01043435 -0.0073817237 0.010088649 0.029478684 0.005106112
-0.0062521733 0.029737288 0.023705395 0.017931001 0.024740232 0.010992737 0.026039483 0.020172147
00000000: 4540 00b9 1eda 31bb 5b7f ed3b d6f4 2a3c
00000010: 63e2 f1bb dc4a 253c 487d f13c 2c51 a73b
00000020: 08df ccbb 9d9b f33c d131 c23c 09e4 923c
00000030: 07ac ca3c e11a 343c c150 d53c 0f40 a53c

encoder.node_encoder.mlp_msg.4.weight f4 [16, 16]
0.23214819 0.056107122 0.16822013 -0.15514949 0.14609721 -0.015663728 -0.17036358 0.1539717
-0.18366785 0.15474468 -0.02128521 0.0830337 0.07553178 -0.01967901 0.07196773 0.11022562
-0.19510467 0.16466545 -0.016417103 -0.04924502 0.031029716 0.22043352 -0.11421365 -0.19136703
0.16693057 -0.09785958 0.10660541 -0.052967284 0.09074059 0.21436758 -0.104227655 -0.101527974
0.13066937 0.016945148 -0.04244353 -0.22029753 0.24415138 -0.032321088 -0.06986385 -0.06458094
-0.043256164 0.09792709 -0.028509473 0.23637924 -0.03809198 -0.050691545 0.119100265 -0.03131839
-0.058106083 0.074347116 0.20384522 0.048037052 0.12960953 0.2042002 0.11572112 0.032550965
0.08733202 0.064793825 0.25714964 0.19432247 0.12680386 0.029948525 0.2678817 -0.15315637
0.19953741 0.12554577 0.16756757 -0.03850079 -0.19194223 0.1881528 -0.097221054 0.059632163
0.1701826 -0.22764786 0.03216122 -0.09685475 0.19054776 -0.14076307 0.1732624 0.1619285
0.11689739 0.21138713 0.046811394 -0.26186547 0.1394006 0.057854537 0.04056441 -0.26393077
-0.05421409 -0.08505582 0.28752345 0.12670374 0.22234625 0.20880972 -0.11513221 -0.07107627
-0.082677834 -0.08238803 0.19919053 0.10965791 0.2312529 -0.04910287 -0.2627394 -0.040324166
0.1368353 0.11986487 0.03328164 -0.028794948 -0.26701275 -0.17494673 0.090791106 -0.13684218
0.13495408 0.08952397 -0.114322625 0.16292307 -0.0310966 -0.059279677 -0.14667356 -0.1763583
0.04323481 0.023955457 -0.18017596 0.20501126 -0.2715208 -0.28980917 -0.2040124 -0.1355197
-0.025149936 -0.03825439 0.0932145 -0.19568384 0.046494156 -0.012477717 0.047990058 0.24715133
0.19067806 -0.15555799 -0.22792749 -0.0491346 -0.14755169 0.05819263 -0.022345956 0.1843822
0.10682176 -0.03370816 -0.013362063 0.062234484 0.016991315 0.15511046 -0.2441565 0.18272448
-0.13373147 -0.26601124 -0.1009772 0.1596296 0.13031521 0.016867429 -0.06906406 -0.060072556
-0.087094724 -0.0036817284 -0.038590014 0.22337882 0.19363526 -0.25199962 -0.053022485 -0.096653834
-0.05012679 -0.24801473 0.008708696 -0.13336296 0.19852109 0.13687894 -0.22451256 -0.2859803
0.0049224463 -0.076986015 0.09381291 -0.16460203 0.1158425 -0.22239107 -0.13741933 -0.107888415
0.08995328 -0.01154973 -0.24793063 -0.13145335 -0.11573617 -0.2357009 0.029890236 0.084045395
-0.054571655 -0.10940236 0.011544539 -0.20352703 -0.18655829 0.03782431 0.26877162 -0.12575355
0.12786117 -0.065551236 -0.020061841 -0.27047592 0.24714613 0.28839034 0.04040325 0.19890356
0.21105139 0.1331507 0.13911232 -0.22296876 -0.22033763 -0.20899071 0.060334228 -0.19406666
-0.22650713 -0.13028336 -0.2522904 0.01956404 0.023428077 -0.16503058 0.14332157 -0.110439
-0.07088074 0.19912812 0.19958878 -0.02961617 -0.1499602 -0.16352174 -0.007327222 0.19074292
0.119087525 -0.14160603 -0.2776357 -0.18644167 -0.11438204 -0.03575302 -0.15250891 -0.23281918
0.014405463 -0.20883693 -0.18162104 -0.21607447 -0.10840663 0.26448992 0.14335397 -0.07094918
0.057653505 0.13423215 0.047857765 -0.23796572 -0.11240214 -0.12652485 0.039050195 -0.18597029
00000000: 41b8 6d3e 95d0 653d e641 2c3e 82df 1ebe
00000010: 829a 153e 3851 80bc ca73 2ebe c2aa 1d3e
00000020: 6d13 3cbe 6475 1e3e 525e aebc 930d aa3d
00000030: 68b0 9a3d e035 a1bc d163 933d f8bd e13d
00000040: 85c9 47be 0f9e 283e 297d 86bc 25b5 49bd
00000050: 0832 fe3c 53b9 613e d9e8 e9bd b8f5 43be
00000060: d9ef 2a3e 9a6a c8bd f053 da3d 39f4 58bd
00000070: 34d6 b93d 2d83 5b3e 4f75 d5bd e6ed cfbd
00000080: 31ce 053e 8dd0 8a3c 44d9 2dbd ad95 61be
00000090: d202 7a3e 1e63 04bd c714 8fbd 0343 84bd
000000a0: 602d 31bd 008e c83d b38c e9bc 660d 723e
000000b0: 5606 1cbd f0a1 4fbd d7ea f33d b647 00bd
000000c0: a500 6ebd 4d43 983d cdbc 503e 80c2 443d
000000d0: 5cb8 043e db19 513e 32ff ec3d 2954 053d
000000e0: 21db b23d a0b2 843d 1ea9 833e 78fc 463e
000000f0: dfd8 013e 9c56 f53c ca27 893e 06d5 1cbe
00000100: 8953 4c3e 128f 003e d596 2b3e 01b3 1dbd
00000110: 818c 44be 21ab 403e d51b c7bd db40 743d
00000120: 5944 2e3e 851c 69be 7cbb 033d c85b c6bd
00000130: f41e 433e 3224 10be b36b 313e 96d0 253e
00000140: e667 ef3d de75 583e 4ebd 3f3d 3b13 86be
00000150: 08bf 0e3e e1f8 6c3d de26 263d ef21 87be
00000160: 980f 5ebd bf31 aebd 4636 933e a0be 013e
00000170: bcae 633e 37d2 553e 70ca ebbd 6f90 91bd
00000180: ff52 a9bd 0ebb a8bd 9af8 4b3e 5494 e03d
00000190: 8fcd 6c3e 1720 49bd c785 86be f42a 25bd
000001a0: 8e1e 0c3e b77b f53d 5452 083d 62e3 ebbc
000001b0: e5b5 88be 3c25 33be b0f0 b93d 5b20 0cbe
000001c0: 6731 0a3e 5858 b73d fb21 eabd 4ed5 263e
000001d0: 4cbe febc 3fcf 72bd 9831 16be 4597 34be
000001e0: fc16 313d 3c3e c43c 0c80 38be 79ee 513e
000001f0: c604 8bbe de61 94be a0e8 50be adc5 0abe
00000200: 3d07 cebc a3b0 1cbd 3ee7 be3d 5861 48be
00000210: a870 3e3d 576f 4cbc 3991 443d 3d15 7d3e
00000220: 1c41 433e 984a 1fbe d365 69be 5d41 49bd
00000230: ca17 17be 655b 6e3d de0e b7bc b0ce 3c3e
00000240: 5ec5 da3d 9111 0abd 8eec 5abc 96e9 7e3d
00000250: 5f31 8b3c 47d5 1e3e 2904 7abe 201c 3b3e
00000260: e7f0 08be a032 88be 22cd cebd f175 233e
00000270: 5a71 053e 902d 8a3c 7571 8dbd a40e 76bd
00000280: b85e b2bd 2749 71bb 9010 1ebd 6bbd 643e
00000290: 5248 463e 1806 81be 1b2e 59bd 72f2 c5bd
000002a0: c051 4dbd 93f7 7dbe ebae 0e3c 4d90 08be
000002b0: 1d49 4b3e fe29 0c3e 9fe6 65be 036c 92be
000002c0: 794c a13b d8aa 9dbd fc20 c03d 6f8d 28be
000002d0: d53e ed3d 7cba 63be a7b7 0cbe 9af4 dcbd
000002e0: 6d39 b83d 143b 3dbc 87e1 7dbe b59b 06be
000002f0: 1607 edbd 945b 71be 5edc f43c fe1f ac3d
00000300: 8786 5fbd 580e e0bd 4e25 3d3c 6469 50be
00000310: 2309 3fbe aaed 1a3d 6f9c 893e 8ac5 00be
00000320: 0aee 023e ba3f 86bd bb58 a4bc d27b 8abe
00000330: e013 7d3e e6a7 933e e17d 253d 60ad 4b3e
00000340: db1d 583e a858 083e 7673 0e3e ec51 64be
00000350: 30a0 61be a901 56be 0621 773d 69b9 46be
00000360: 7cf1 67be 0069 05be 352c 81be c444 a03c
00000370: 3dec bf3c c7fd 28be e4c2 123e d82d e2bd
00000380: ec29 91bd 3ee8 4b3e 0061 4c3e 9c9d f2bc
00000390: 2b8f 19be 3e72 27be 3119 f0bb 1d52 433e
000003a0: 29e4 f33d 2c01 11be 4426 8ebe 91ea 3ebe
000003b0: 2241 eabd c271 12bd 4c2b 1cbe 2768 6ebe
000003c0: e404 6c3c 59d9 55be defa 39be a042 5dbe
000003d0: 4c04 debd 396b 873e 62cb 123e ce4d 91bd
000003e0: 1526 6c3d 2774 093e 8106 443d 49ad 73be
000003f0: 1833 e6bd bb8f 01be 19f3 1f3d ff6e 3ebe

encoder.node_encoder.mlp_msg.4.bias f4 [16]
-0.0015224753 0.020214025 -0.013536093 0.011018645 0.0046860785 0.019399248 -0.0054332064 -0.028472269
-0.004554013 -0.029045664 -0.029481728 0.009703718 0.010305297 0.0017686047 -0.020438444 0.007597221
00000000: cb8d c7ba e297 a53c 7dc6 5dbc 8c87 343c
00000010: ad8d 993b 2ceb 9e3c 0a09 b2bb ad3e e9bc
00000020: d439 95bb 2cf1 edbc aa83 f1bc 58fc 1e3c
00000030: 8cd7 283c 87d0 e73a 866e a7bc 1cf2 f83b

encoder.node_encoder.mlp_update.0.weight f4 [32, 16]
0.15408854 -0.018174943 -0.11995392 0.07619098 0.18826964 0.07361948 -0.16990471 -0.16137806
0.19038124 0.041466434 -0.033305056 -0.11161198 -0.047883086 -0.15285124 -0.1698907 0.10823396
0.1456789 0.1984004 -0.1635155 0.07837022 0.11180627 0.15231349 0.021681119 0.01219901
0.08046262 -0.24205542 -0.029516598 -0.12607229 0.25860617 0.18081976 0.032340985 0.26587054
-0.18358973 0.21533057 0.29732504 -0.0694033 -0.18091409 -0.113464236 -0.043982968 0.05733916
-0.25316253 0.07595046 -0.071542315 0.009344964 -0.16691184 -0.003396019 -0.2088401 -0.16684052
0.09107319 0.17759828 0.17739168 -0.13617583 0.11788947 -0.09592731 -0.23617566 -0.06600975
-0.13751884 -0.25764298 -0.28252834 -0.22984645 0.25560784 0.08668234 -0.14416666 -0.11663769
-0.15387021 -0.18403868 -0.19569251 0.22862042 0.018847002 -0.020260299 0.123758614 -0.21514802
-0.15483733 0.022000683 -0.2087896 -0.013510899 0.23784374 -0.1409951 -0.18027933 0.17936553
-0.098510206 0.25342613 -0.24753714 0.19953962 -0.27329227 -0.17057525 0.14244182 -0.017178945
0.30902746 0.24638146 0.01449908 -0.13685289 0.07414558 -0.13959208 0.018177511 -0.19570328
-0.12347537 0.16481015 -0.26722565 0.277893 -0.025717031 0.11713017 0.20897692 -0.2192839
0.041296862 0.013835838 0.02718483 -0.34480825 0.13847826 -0.21387388 0.0062321923 0.25077802
-0.065061554 0.004106853 -0.018872604 0.15885462 0.11543521 -0.0033979064 -0.09381973 -0.09273989
0.24441531 0.22895244 0.20040359 -0.15312839 0.1544192 0.011252987 0.22113228 0.18174584
0.11531841 -0.020014128 0.16232423 -0.10896142 0.1997295 -0.2567507 -0.060175974 -0.2818184
-0.09197528 0.05935246 -0.16651754 -0.24565406 0.24537219 0.05835191 -0.06728005 -0.18129262
-0.13410796 -0.12193254 0.24175625 -0.12244738 -0.052805543 -0.19120187 -0.113243945 0.19404063
0.10227232 0.063761935 -0.090152316 0.30308238 0.014795318 -0.053450502 -0.06197908 -0.049358618
0.16786425 0.13795617 0.15107056 0.017001387 0.22101328 -0.07422808 -0.13566865 -0.112253964
-0.24364632 -0.17435786 -0.24453259 -0.042408288 0.018792033 -0.08615567 -0.1818112 0.24446239
-0.10495024 0.1191746 0.16544332 -0.16433232 -0.023301302 0.14129902 0.23660101 -0.031501368
0.16381651 -0.20869298 -0.1554552 0.22179696 -0.021269118 0.24897589 0.011279556 -0.10578095
0.19240128 0.2031406 0.10861894 -0.20322768 0.0063566477 -0.14189513 0.16850132 0.068378374
-0.0023187753 0.17824672 0.10493537 -0.08205372 0.17119095 0.19677614 -0.13046424 0.13680926
0.12570707 -0.020014308 -0.21850298 -0.073782906 -0.27181706 0.07758459 0.30551887 -0.08019377
0.2857748 -0.043297444 0.12127737 -0.17375575 -0.01868239 0.06831149 0.13391699 -0.04098729
-0.11359445 0.19196276 0.15593922 0.09782761 -0.06917206 0.105269276 -0.07877152 0.1870942
-0.01176105 -0.034826536 -0.037944254 0.10189655 0.038124595 0.19644335 0.08449428 -0.17431173
0.056446742 -0.15803191 -0.24295485 0.0699699 0.051467344 -0.029723475 0.24945511 -0.17057738
-0.0562764 -0.0474442 0.009364311 -0.05371004 0.2561618 -0.14280328 -0.16338079 0.031705927
00000000: 63c9 1d3e 9ee3 94bc 67aa f5bd 040a 9c3d
00000010: c2c9 403e cfc5 963d 80fb 2dbe 4a40 25be
00000020: 4df3 423e b5d8 293d e26a 08bd d294 e4bd
00000030: 0e21 44bd 0985 1cbe d4f7 2dbe c4a9 dd3d
00000040: d92c 153e 7929 4b3e 9b70 27be 9180 a03d
00000050: b0fa e43d 11f8 1b3e 9a9c b13c 5bde 473c
00000060: 96c9 a43d 60dd 77be cbcc f1bc 1819 01be
00000070: 0768 843e d128 393e fb77 043d 2f20 883e
00000080: f2fe 3bbe 9e7f 5c3e fd3a 983e 5123 8ebd
00000090: 8b41 39be f05f e8bd 7c27 34bd 78dc 6a3d
000000a0: 859e 81be ea8b 9b3d c784 92bd 9f1b 193c
000000b0: f0ea 2abe bf8f 5ebb 2eda 55be 3ed8 2abe
000000c0: 9584 ba3d 53dc 353e 2aa6 353e ad71 0bbe
000000d0: 0970 f13d 8a75 c4bd 08d8 71be 1f30 87bd
000000e0: bdd1 0cbe c8e9 83be 8ea7 90be de5c 6bbe
000000f0: 08df 823e 8386 b13d 6da0 13be bedf eebd
00000100: 2790 1dbe a374 3cbe 9e63 48be 791b 6a3e
00000110: 0765 9a3c edf8 a5bc 2875 fd3d c34f 5cbe
00000120: ad8d 1ebe c73a b43c f1cc 55be d15c 5dbc
00000130: 4f8d 733e 0561 10be 259b 38be 99ab 373e
00000140: b8bf c9bd 12c1 813e 607a 7dbe 1d54 4c3e
00000150: f7ec 8bbe 47ab 2ebe 45dc 113e dcba 8cbc
00000160: d938 9e3e 6c4b 7c3e 8d8d 6d3c 2a23 0cbe
00000170: a3d9 973d 3af1 0ebe 01e9 943c 7166 48be
00000180: a8e0 fcbd fec3 283e cdd1 88be fe47 8e3e
00000190: 86ac d2bc f1e1 ef3d 0cfe 553e f58b 60be
000001a0: e626 293d b6af 623c b8b2 de3c b58a b0be
000001b0: 3fcd 0d3e c101 5bbe 6b37 cc3b fa65 803e
000001c0: fe3e 85bd c892 863b b89a 9abc c9aa 223e
000001d0: 4c69 ec3d 69af 5ebb 8f24 c0bd 69ee bdbd
000001e0: 0248 7a3e 8272 6a3e 9936 4d3e b0cd 1cbe
000001f0: 1120 1e3e 735e 383c 8070 623e 951b 3a3e
00000200: 0f2c ec3d abf4 a3bc 5338 263e 2a27 dfbd
00000210: e485 4c3e d474 83be 157b 76bd 804a 90be
00000220: 895d bcbd 911b 733d 9383 2abe bd8c 7bbe
00000230: d942 7b3e 6a02 6f3d 1fca 89bd c6a4 39be
00000240: 9953 09be c4b7 f9bd f38e 773e b1c5 fabd
00000250: a04a 58bd 6cca 43be 71ec e7bd 96b2 463e
00000260: 2674 d13d 9e95 823d c7a1 b8bd 9d2d 9b3e
00000270: 1068 723c eaee 5abd c7dd 7dbd 432c 4abd
00000280: 9be4 2b3e 6244 0d3e 3eb2 1a3e 7e46 8b3c
00000290: 4e51 623e e404 98bd b9ec 0abe 68e5 e5bd
000002a0: 6c7e 79be de8a 32be c066 7abe 50b4 2dbd
000002b0: c0f1 993c 6272 b0bd b72c 3abe 5954 7a3e
000002c0: 27f0 d6bd d011 f43d f969 293e bb46 28be
000002d0: 5fe2 bebc b1b0 103e 8947 723e 9407 01bd
000002e0: 84bf 273e 9db3 55be a62f 1fbe be1e 633e
000002f0: 933c aebc 89f3 7e3e e3cd 383c afa3 d8bd
00000300: d704 453e 1704 503e 9b73 de3d eb1a 50be
00000310: 6d4b d03b f54c 11be 9c8b 2c3e f609 8c3d
00000320: 98f6 17bb 4f86 363e 5be8 d63d c80b a8bd
00000330: ae4c 2f3e af7f 493e 6b98 05be ba17 0c3e
00000340: 5bb9 003e 0cf5 a3bc 3fbf 5fbe 7e1b 97bd
00000350: 9b2b 8bbe abe4 9e3d f86c 9c3e a23c a4bd
00000360: 1351 923e a958 31bd 4560 f83d 07ed 31be
00000370: d00b 99bc e5e6 8b3d 8921 093e 4ae2 27bd
00000380: 35a4 e8bd e391 443e 88ae 1f3e d859 c83d
00000390: 15aa 8dbd 6b97 d73d f652 a1bd 9f95 3f3e
000003a0: 6bb1 40bc 45a6 0ebd 6f6b 1bbd 23af d03d
000003b0: 8928 1c3d 7228 493e 560b ad3d c67e 32be
000003c0: b334 673d 1ed3 21be 28c9 78be 614c 8f3d
000003d0: 6ccf 523d a57e f3bc 2971 7f3e d6ab 2ebe
000003e0: 1582 66bd d954 42bd c46c 193c 0fff 5bbd
000003f0: a427 833e 063b 12be 4b4d 27be 13de 013d

encoder.node_encoder.mlp_update.0.bias f4 [32]
0.0788034 0.06894992 -0.030223453 0.053439848 0.06058948 0.11888193 0.07512801 -0.02251853
0.0641041 -0.064925455 0.022417234 0.0009983896 -0.03499528 0.06868499 -0.0015882389 0.030469319
0.005773951 -0.053224914 0.06444053 0.07300887 0.076959096 0.05792664 0.017381633 -0.057208627
-0.046609707 -0.043346126 0.08050998 0.029853018 0.09740801 -0.040763427 -0.04868009 -0.049592275
00000000: ad63 a13d 9e35 8d3d 2d97 f7bc bee3 5a3d
00000010: ad2c 783d 5f78 f33d b7dc 993d c878 b8bc
00000020: 0349 833d a3f7 84bd 59a4 b73c 65dc 823a
00000030: 3657 0fbd b7aa 8c3d 742c d0ba cb9a f93c
00000040: 6933 bd3b 5e02 5abd 66f9 833d ad85 953d
00000050: bb9c 9d3d 7c44 6d3d ed63 8e3c 9853 6abd
00000060: d2e9 3ebd b58b 31bd 6be2 a43d 518e f43c
00000070: da7d c73d 8df7 26bd c664 47bd 4521 4bbd
