checkpoint/dagformerv2.pt (torch, 107557 bytes, 61 tensors)

encoder.node_encoder.module_0.weight f4 [16, 5]
0	0x3ebdb89c	0.37054908
1	0x3ec06674	0.37578166
2	0xbd800d4a	-0.06252535
3	0x3eddbe90	0.4330945
4	0xbd1c99dc	-0.03823267
5	0x3e02016f	0.1269586
6	0xbe330ca1	-0.17485286
7	0x3eaf875b	0.34282956
8	0x3ed4bd3b	0.4155062
9	0xbeab3ead	-0.33446255
10	0x3eb4ef69	0.35338905
11	0x3d8d1b5d	0.06889985
12	0x3ee77069	0.4520295
13	0x3d63634f	0.05551463
14	0x3e7870cf	0.24261783
15	0xbe0fca71	-0.14042069
16	0x3eb142f0	0.34621382
17	0x3e62bc23	0.22142081
18	0xbe3af62e	-0.18257973
19	0x3e316316	0.17322955
20	0xbe592cd3	-0.21208505
21	0xbddac918	-0.10682887
22	0xbe94ee85	-0.29088226
23	0x3e80863a	0.25102407
24	0xbededcd3	-0.4352785
25	0xbe3a4a3c	-0.1819238
26	0xbdd738b4	-0.10508862
27	0xbef392ee	-0.47573036
28	0xbccda824	-0.02510459
29	0xbf0db4d0	-0.5535402
30	0x3ebc3571	0.36759523
31	0xbec142b7	-0.37746212
32	0x3ee5232d	0.447534
33	0x3d643c62	0.055721648
34	0xbe23c5c4	-0.1599341
35	0x3e857595	0.2606627
36	0x3d9c6cb3	0.0763792
37	0x3e4b120f	0.19831108
38	0xbd0373fa	-0.032093026
39	0xbe57d4bf	-0.2107725
40	0x3db72b96	0.0894386
41	0xbe11a04a	-0.14221302
42	0x3ea22fd1	0.31677106
43	0x3ed9533b	0.42446312
44	0x3e92f88b	0.28705248
45	0xbe30376f	-0.17208646
46	0x3e894b19	0.26815107
47	0xbe113aff	-0.14182661
48	0x3defb853	0.11705079
49	0xbec935cd	-0.3929886
50	0xbede2613	-0.43388423
51	0xbe233eca	-0.15941921
52	0xbe4eef91	-0.20208575
53	0x3ec3736e	0.38174003
54	0x3df34327	0.11878043
55	0x3e41b28b	0.18915765
56	0x3db2c7a4	0.08729485
57	0xbe78cdad	-0.24297209
58	0x3e81fef3	0.25389823
59	0xbec8f09f	-0.3924608
60	0x3d1fe4f4	0.039036706
61	0xbe94c25e	-0.2905454
62	0x3e8c74e7	0.2743294
63	0xbe19ad8e	-0.15007612
64	0x3e25e4c9	0.16200556
65	0xbd5a4989	-0.053292785
66	0x3eccef7c	0.40026462
67	0xbed272f3	-0.41103324
68	0xbe86266e	-0.26201195
69	0xbe9cf9d5	-0.30659357
70	0x3ee0bd23	0.438943
71	0x3e208425	0.15675409
72	0x3e662032	0.22473219
73	0xbed0c8a4	-0.40778077
74	0xbf0d705f	-0.5524959
75	0xbecc5702	-0.39910132
76	0xbe9f040c	-0.31057775
77	0x3e9f3425	0.3109447
78	0x3e2f7dd0	0.17137837
79	0x3ecaa3e7	0.39578173

encoder.node_encoder.module_0.bias f4 [16]
0	0xbe538a77	-0.20658289
1	0xbe82ecff	-0.2557144
2	0x3e56da98	0.20981824
3	0xbe62b9af	-0.22141145
4	0x3e715585	0.2356778
5	0xbe0a8ea3	-0.13530974
6	0x3e7e6d6c	0.24846429
7	0xbea0554d	-0.3131508
8	0xbe4f71c4	-0.20258242
9	0x3ddb9628	0.107219994
10	0x3e07c794	0.13259727
11	0xbe0f24a0	-0.13978815
12	0x3ea44a3e	0.32087892
13	0x3e9bf0bb	0.304571
14	0xbe8fbd53	-0.2807413
15	0xbe81adfb	-0.2532805

encoder.node_encoder.module_1.frequency f4 [8]
0	0x3f800000	1.0
1	0x3e895aa1	0.26826957
2	0x3d936442	0.07196857
3	0x3c9e29ab	0.019306978
4	0x3ba9b895	0.0051794746
5	0x3ab61fbb	0.0013894954
6	0x39c36eea	0.00037275936
7	0x38d1b717	1e-04

encoder.node_encoder.module_3.gamma f4 [16]
0	0x3f8941ee	1.0723245
1	0x3f7f1bf3	0.9965202
2	0x3f830a24	1.023747
3	0x3f8293ae	1.0201318
4	0x3f81897e	1.0120084
5	0x3f88677a	1.0656579
6	0x3f83eea4	1.0307202
7	0x3f72361e	0.94613826
8	0x3f80c0e6	1.0058868
9	0x3f7fec7f	0.9997024
10	0x3f85facc	1.0467162
11	0x3f8576d6	1.0426891
12	0x3f7d2eda	0.98899615
13	0x3f8de04f	1.1084079
14	0x3f804e0c	1.0023818
15	0x3f7c3b37	0.98527855

encoder.node_encoder.module_3.beta f4 [16]
0	0x3cc8be62	0.024504844
1	0xbc2d5794	-0.010579962
2	0xbd3cf225	-0.046129365
3	0xbc28da00	-0.0103058815
4	0x3c3d7433	0.011563349
5	0xbc14c606	-0.009080416
6	0x3c33d308	0.010975607
7	0xbda9fb30	-0.08299863
8	0xbd0a254f	-0.033726986
9	0x3d664632	0.056219287
10	0xbc65deca	-0.014030168
11	0xbd2a68e8	-0.041603953
12	0xbced3db1	-0.02896008
13	0x3d9840bf	0.07434224
14	0x3d1224a9	0.035679493
15	0x3a87a66a	0.0010349278

encoder.node_encoder.module_3.transformer_conv.lin_key.weight f4 [16, 16]
0	0x3cdbf19b	0.026848605
1	0xbe0acb58	-0.13554132
2	0xbd52800e	-0.051391654
3	0xbd3db374	-0.046313718
4	0x3d149fbf	0.03628516
5	0x3e378d4d	0.17924996
6	0xbda4d8f9	-0.08049197
7	0x3e5f39f4	0.21799451
8	0x3e3cb8ac	0.18429822
9	0xbe188238	-0.14893425
10	0xbe79b985	-0.24387176
11	0xbe51fcfa	-0.20506659
12	0xbe078ee8	-0.13238108
13	0xbd7fb970	-0.062432706
14	0x3c5d9c55	0.013526042
15	0xbdb2cab5	-0.087300695
16	0xbddc44a2	-0.10755278
17	0xbcf44dd2	-0.029822264
18	0xbd6bdd6c	-0.05758421
19	0x3e5db206	0.21649942
20	0xbd9aae2d	-0.07552753
21	0xbe3c968e	-0.18416807
22	0x3dec1391	0.115271695
23	0xbca9c0cb	-0.020721814
24	0x3e441e78	0.19152248
25	0x3e054e7b	0.13018219
26	0x3e8c3be3	0.2738944
27	0xbe292190	-0.1651671
28	0x3e0fc0c6	0.14038381
29	0x3e3c43a7	0.18385182
30	0xbe16022d	-0.14649267
31	0x3e7c3229	0.2462851
32	0x3e2058f1	0.15658928
33	0xbc0134b7	-0.007886103
34	0x3d9321b8	0.07184166
35	0xbdb1167c	-0.08646867
36	0xbe50c24a	-0.20386615
37	0x3dc1619a	0.09442444
38	0x3dc00a1d	0.09376929
39	0xbe06a413	-0.13148527
40	0x3dafc918	0.085832775
41	0xbe32528b	-0.174143
42	0x3e1af246	0.15131482
43	0x3e82b3e3	0.25527868
44	0x3d6340b0	0.055481613
45	0xbde06269	-0.1095627
46	0x3e2acbe6	0.16679344
47	0x3b3d49af	0.002888303
48	0x3d2d74d5	0.042347748
49	0x3cbe845f	0.023256479
50	0x3de997bd	0.11405895
51	0xbdb3cae4	-0.08778933
52	0xbd794ee7	-0.060866263
53	0x3dc1e020	0.094665766
54	0x3ceea0ff	0.029129503
55	0x3e69f15f	0.22845982
56	0xbdf2d8aa	-0.11857732
57	0x3d25b8d5	0.040459473
58	0xbcb03e86	-0.021514188
59	0xbd925603	-0.07145312
60	0x3e34e5fa	0.17665854
61	0x3da44c39	0.08022351
62	0xbe39d944	-0.18149287
63	0xbd8c30ef	-0.06845271
64	0xbe3d77be	-0.1850271
65	0xbcb19097	-0.021675391
66	0xbe2c0f87	-0.16802798
67	0xbe749e3e	-0.2388849
68	0x3b22adac	0.0024822755
69	0x3dabbef8	0.08386034
70	0xbbefb079	-0.0073147384
71	0x3eac3744	0.33635914
72	0xbd05ed6f	-0.032697137
73	0x3e79514c	0.24347419
74	0xbd823415	-0.0635759
75	0xbe2b65b8	-0.16738021
76	0x3c8dbee0	0.01730293
77	0x3eaaa973	0.33332404
78	0xbd1b39c4	-0.037896886
79	0xbe90936f	-0.28237483
80	0x3e60f48b	0.21968286
81	0x3e8aeefc	0.27135456
82	0xbdcd363f	-0.10020112
83	0x3e0d6e9c	0.13811725
84	0xbc2d8e33	-0.010592985
85	0xbe74efc5	-0.2391959
86	0x3d0e9828	0.034813076
87	0x3db314ae	0.08744179
88	0xbdd6b678	-0.10484022
89	0x3d17c367	0.037051585
90	0xbe4e86ba	-0.20168582
91	0x3e468a6b	0.1938874
92	0x3e43e73b	0.19131176
93	0x3e078394	0.13233787
94	0x3d1ed70a	0.038779296
95	0x3da821af	0.0820955
96	0xbe2baaea	-0.16764417
97	0xbe0c77f1	-0.13717629
98	0xbd68e532	-0.056859203
99	0xbde948f6	-0.11390869
100	0xbe5b2d5e	-0.21404025
101	0x3e2045d8	0.15651643
102	0x3e1614ce	0.14656374
103	0xbe73b735	-0.23800357
104	0x3de7268b	0.11286648
105	0x3e0ff0bf	0.14056681
106	0x3e6306e4	0.22170597
107	0x3dec3c5c	0.1153495
108	0x3e85a8f9	0.26105478
109	0xbd9d9f27	-0.076963715
110	0x3e35c651	0.17751433
111	0x3e52cc31	0.20585705
112	0xbe48c18b	-0.19605081
113	0xbe657646	-0.22408399
114	0x3dde6514	0.10859123
115	0x3e07c8bf	0.13260172
116	0xbe22b000	-0.15887451
117	0xbd00a465	-0.03140678
118	0xbd19dc70	-0.03756374
119	0x3b4fd4bc	0.0031712493
120	0xbd909eaf	-0.070615165
121	0x3defd196	0.11709897
122	0x3e82c197	0.25538322
123	0xbe53bb42	-0.20676902
124	0x3d0d8e4d	0.034559537
125	0xbd9bbe87	-0.076046996
126	0x3bb10734	0.00540247
127	0x3e9ac4b7	0.30228207
128	0x3df31677	0.11869519
129	0xbcac6c74	-0.021047808
130	0x3ea84c18	0.32870555
131	0xbdd4b58f	-0.10386192
132	0xbdc50c65	-0.09621505
133	0xbd3e4a56	-0.04645761
134	0xbe62ba93	-0.22141485
135	0xbd1a2275	-0.037630517
136	0xbe1a1376	-0.15046486
137	0xbd180f90	-0.037124217
138	0x3e0b3459	0.13594188
139	0x3c435b23	0.011923584
140	0xbe43122c	-0.19049901
141	0xbea9f82a	-0.33197147
142	0x3cc5d36f	0.024148671
143	0x3e975382	0.295559
144	0xbe819524	-0.25309098
145	0x3e2a8b33	0.16654663
146	0xbe3d925c	-0.18512863
147	0xbc585426	-0.013203656
148	0x3e8db280	0.27675247
149	0x3e67c996	0.22635493
150	0xbe1393c8	-0.14411843
151	0x3e43a383	0.19105344
152	0x3da35143	0.07974484
153	0xbc787767	-0.0151651865
154	0x3e5f3f1d	0.2180142
155	0xbd6348a9	-0.055489216
156	0xbdd2d0a9	-0.10293705
157	0xbdc837f3	-0.097762965
158	0x3d872f6d	0.066008426
159	0x3d0b56e8	0.034018427
160	0x3db2e5a3	0.08735206
161	0xbe6e0c4d	-0.2324688
162	0xbd9edbe8	-0.077567875
163	0x3dedfea4	0.116208345
164	0xbe93c15f	-0.28858468
165	0xbde77bec	-0.11302933
166	0xbd978cb1	-0.07399882
167	0xbe32a99a	-0.1744751
168	0x3e219303	0.15778737
169	0x3cb71563	0.022349065
170	0x3e813c72	0.2524143
171	0xbdb7d69c	-0.0897648
172	0xbdb7212c	-0.08941874
173	0x3dd09684	0.101849586
174	0xbd250dd4	-0.04029639
175	0x3b2ed0b2	0.0026674685
176	0xbe24c571	-0.16090943
177	0x3dea0ca7	0.114281945
178	0xbe58cc87	-0.21171771
179	0x3d1a3391	0.037646834
180	0x3e15a04f	0.14611934
181	0xbe5c5805	-0.21517952
182	0xbe16a1fd	-0.14710231
183	0xbe348bf6	-0.17631516
184	0x3e511d90	0.20421433
185	0x3e3f2a40	0.18668461
186	0x3d3dfdcf	0.04638463
187	0x3e83ef4e	0.25768512
188	0xbddd5e13	-0.10808959
189	0xbe838192	-0.25684792
190	0x3d9b87cf	0.07594263
191	0x3dc1249c	0.09430811
192	0x3e9a630b	0.3015369
193	0xbd87769d	-0.066144206
194	0x3e711125	0.23541696
195	0x3e43038e	0.19044325
196	0x3df31378	0.11868948
197	0xbea138bf	-0.31488606
198	0x3e1598fe	0.14609143
199	0xbe8f4088	-0.2797892
200	0x3e882ce4	0.2659675
201	0xbcbbb853	-0.022915041
202	0xbe1c035b	-0.15235655
203	0x3c03842c	0.008027118
204	0x3c28b238	0.010296397
205	0xbe95b620	-0.29240513
206	0xbe22a6e3	-0.15883975
207	0x3dbe4f0b	0.0929242
208	0x3e51ac76	0.20475945
209	0xbc2e7d10	-0.010649934
210	0x3e38e804	0.18057257
211	0x39d92e9b	0.0004142419
212	0x3d0f14da	0.034931995
213	0x3d58c4dd	0.05292212
214	0xbe144085	-0.14477737
215	0xbe505fed	-0.20349093
216	0xbdfe5b2b	-0.12419733
217	0xbe8454a1	-0.25845817
218	0xbdc58405	-0.09644321
219	0x3d1fb716	0.038992964
220	0xbe489c18	-0.19590795
221	0xbdec4b7f	-0.11537837
222	0xbd5e84cf	-0.054325875
223	0xbcc7d035	-0.024391273
224	0xbe4c9fda	-0.19982854
225	0x3d349f17	0.044097032
226	0xbdbe7a27	-0.093006425
227	0x3d3e4c37	0.046459403
228	0x3d8021df	0.062564604
229	0xbd74aee9	-0.05973712
230	0xbd101c86	-0.035183452
231	0x3d7d848e	0.061893992
232	0xbe3873ff	-0.18012999
233	0x3d3a7a94	0.045527056
234	0xbdcb3992	-0.0992309
235	0x3e16dbf7	0.14732347
236	0x3c1b4240	0.009476244
237	0x3e85e86a	0.2615388
238	0x3d85d9d1	0.06535686
239	0xbe8249a8	-0.2544682
240	0x3de7a1fd	0.11310194
241	0xbe594ee3	-0.21221499
242	0xbd9a08d4	-0.07521215
243	0xbd82b8c6	-0.06382899
244	0xbdd99b06	-0.106252715
245	0xbdadebb8	-0.084922254
246	0x3e64df3e	0.22350785
247	0x3e1b78d5	0.15182813
248	0x3d747a8e	0.05968719
249	0x3e8b25c2	0.27177244
250	0xbe8a3ee3	-0.27001104
251	0x3cebdd15	0.028791944
252	0x3e3113ad	0.17292662
253	0x3e458a88	0.19291127
254	0xbe3322e3	-0.17493777
255	0x3d9137cc	0.070907205

encoder.node_encoder.module_3.transformer_conv.lin_key.bias f4 [16]
0	0xbe11d7ab	-0.14242427
1	0xbc2053ca	-0.009785602
2	0xbd55b6b0	-0.052176178
3	0xbe55a826	-0.20864925
4	0xbe741fdc	-0.23840278
5	0xbe285d38	-0.1644181
6	0x3de7e94e	0.11323796
7	0x3de9e407	0.11420446
8	0xbe5ecdec	-0.2175824
9	0xbdbfce1d	-0.09365485
10	0x3b818fe6	0.0039539216
11	0xbe5d3c7d	-0.21605106
12	0x3e100b6a	0.14066854
13	0x3e67e782	0.22646907
14	0x3d35a9ce	0.04435139
15	0xbe3e3b48	-0.18577302

encoder.node_encoder.module_3.transformer_conv.lin_query.weight f4 [16, 16]
0	0x3e1adf53	0.15124254
1	0x3d7abfed	0.06121819
2	0x3e6b7e26	0.2299734
3	0xbd9cd136	-0.07657091
4	0xbe82eb1e	-0.25570005
5	0x3d9662c6	0.07343058
6	0xbcfa9ef6	-0.030593377
7	0xbda3e5d1	-0.080028184
8	0xbdb72674	-0.08942881
9	0xbdb6ca56	-0.08925311
10	0x3e5683ec	0.20948762
11	0xbcc1e3dc	-0.023668222
12	0x3e32e382	0.174696
13	0x3e87d796	0.26531667
14	0x3d2eae89	0.04264692
15	0x3d4ecd0b	0.050488513
16	0xbd4c59bb	-0.04989026
17	0x3dbdb804	0.09263614
18	0xbe4cecba	-0.20012179
19	0x3e103bd8	0.14085329
20	0xbe01ea4c	-0.12687033
21	0x3d8420b8	0.06451553
22	0xbcdceac7	-0.02696742
23	0xbde7f1bf	-0.11325406
24	0x3ca03017	0.019554181
25	0x3dd47b30	0.10375059
26	0xbe2ea28a	-0.17054191
27	0xbe567bd9	-0.20945682
28	0xbd435e20	-0.047697186
29	0xbdfaaf7d	-0.12240503
30	0x3d724b2a	0.059153713
31	0x3e417fd8	0.18896425
32	0xbdc92062	-0.0982063
33	0x3e433f0c	0.19067019
34	0xbdc58527	-0.096445374
35	0xbda22969	-0.079180546
36	0xbe51e18f	-0.204962
37	0xbe4d689d	-0.20059438
38	0xbe4c5e16	-0.19957766
39	0xbe4089e5	-0.18802603
40	0xbe5db438	-0.21650779
41	0xbca61a29	-0.020276146
42	0x3dd7a3a3	0.10529258
43	0x3e0ef300	0.13959885
44	0x3e3da5c0	0.1852026
45	0xbde21d74	-0.11040774
46	0x3c2b05e0	0.010438412
47	0xbe250128	-0.16113722
48	0x3c75b6c9	0.014997193
49	0xbe720de6	-0.23638114
50	0x3db8de0a	0.090267256
51	0x3cb0331e	0.02150875
52	0x3da0d638	0.07853359
53	0x3dec507a	0.11538787
54	0xbdca61bd	-0.09881923
55	0x3e616b61	0.22013618
56	0x3de089a8	0.10963756
57	0x3dd91bf3	0.10601034
58	0x3c457b77	0.012053362
59	0x3dec1b2c	0.1152862
60	0x3e20d040	0.15704441
61	0x3d37c213	0.044862818
62	0x3e263cdf	0.16234158
63	0xbd4f7def	-0.05065721
64	0x3e8dc328	0.27687955
65	0x3dfe6b9e	0.1242287
66	0x3e13710b	0.14398591
67	0x3e546fd6	0.20745787
68	0x3e24e23b	0.16101925
69	0xbd734ae8	-0.059397608
70	0xbc9c8ed0	-0.019111067
71	0x3d8890db	0.06668254
72	0x3c8565e6	0.01628394
73	0x3d03fc99	0.032223318
74	0x3e64e289	0.22352041
75	0x3e80d6bf	0.25163838
76	0xbe1699c4	-0.14707094
77	0x3dc24b59	0.09487028
78	0x3d1d10ef	0.038346227
79	0xbe2b6cad	-0.16740675
80	0xbc14ba30	-0.009077594
81	0xbc8a1be8	-0.01685901
82	0xbe0f30b5	-0.13983424
83	0xbdf518d3	-0.119676255
84	0xbd221b4e	-0.03957682
85	0x3e8ba590	0.27274752
86	0x3e0c6a7e	0.13712499
87	0x3e83cfc2	0.25744444
88	0x3d4a1d80	0.04934454
89	0x3d5bac71	0.05363125
90	0x3dd7fae4	0.105459005
91	0x3d7af909	0.061272655
92	0xbe407edc	-0.18798393
93	0xbe1d7c24	-0.15379387
94	0xbcd6171c	-0.026134066
95	0x3b5f4a1d	0.0034071275
96	0x3e197fa9	0.14990105
97	0x3c648c56	0.013949474
98	0x3e6e66ac	0.23281354
99	0x3de3790e	0.11107074
100	0xbe2648a6	-0.1623865
101	0xbe81096c	-0.252025
102	0xbe6fb205	-0.23407753
103	0xbe2e3fa4	-0.17016464
104	0x3de6a460	0.11261821
105	0x3e19e232	0.15027693
106	0x3e66ddf5	0.22545607
107	0xbdc08ec3	-0.0940223
108	0xbc93d4c4	-0.01804579
109	0xbd5f92ab	-0.054583233
110	0xbd0cc9eb	-0.03437225
111	0x3dbd9191	0.0925628
112	0xbd45de13	-0.04830749
113	0xbd8237a9	-0.063582726
114	0x3d44eaa0	0.04807532
115	0x3dd3248a	0.10309704
116	0xbe076dbe	-0.13225457
117	0xbe42b187	-0.19013034
118	0x3d3f0ddc	0.046644077
119	0xbd8b02a4	-0.06787613
120	0xbd8360aa	-0.064149216
121	0x3dbe2f46	0.092863604
122	0x3c9fd55b	0.019510916
123	0xbd8533da	-0.065040305
124	0xbdd485c1	-0.10377074
125	0xbd2a2134	-0.04153557
126	0xbe80ca13	-0.2515417
127	0x3dab9612	0.08378233
128	0xbdf295de	-0.11844991
129	0x3dc540d1	0.096315034
130	0x3c45e4e5	0.0120784985
131	0x3cf9080e	0.030399349
132	0xbb4895b0	-0.0030606799
133	0x3e2f644a	0.17128101
134	0xbddcbde7	-0.107784085
135	0x3e164822	0.14675954
136	0x3daa7d4a	0.08324678
137	0xbe807d67	-0.25095674
138	0x3d85cc50	0.0653311
139	0xbe6d51d6	-0.23175749
140	0xbda24a87	-0.07924371
141	0xbe5b269a	-0.21401444
142	0xbe5eedf1	-0.21770455
143	0x3e5671d8	0.20941865
144	0xbe04538f	-0.129225
145	0x3e3c2d2b	0.18376605
146	0xbe80b468	-0.2513764
147	0xbd3b75fe	-0.045766823
148	0x3da1c209	0.078983374
149	0x3e6213a7	0.2207781
150	0xbdcc01a2	-0.09961249
151	0x3dca5ffc	0.09881589
152	0xbbd31929	-0.0064422083
153	0x3e3f16cf	0.18661045
154	0x3b860fd4	0.0040912423
155	0x3e119b80	0.14219475
156	0xbe341531	-0.17586209
157	0xbe05aea2	-0.13054898
158	0x3e7eb6b4	0.24874383
159	0xbe5f4b6e	-0.21806118
160	0xbd7537a6	-0.059867524
161	0xbdfd7b0f	-0.12376987
162	0x3e94483c	0.2896136
163	0xbaa679ce	-0.0012701096
164	0xbe943b8f	-0.2895169
165	0xbe089fa3	-0.13342147
166	0x3dca97e7	0.09892254
167	0x3d828e24	0.063747674
168	0x3e8aa8f5	0.2708203
169	0xbd7f6100	-0.062348366
170	0x3e0bd889	0.1365682
171	0xbe8da345	-0.27663627
172	0x3df3dad5	0.11906973
173	0x3dcc31cd	0.09970436
174	0x3df9e2da	0.122014716
175	0xbdd994b5	-0.10624067
176	0xbc6b4e29	-0.014361897
177	0xbbb20d36	-0.005433704
178	0xbe18e90b	-0.14932649
179	0xbe0496ff	-0.12948225
180	0xbea5d69d	-0.323903
181	0xbd09f787	-0.033683326
182	0x3dd07430	0.10178411
183	0x3d92a67a	0.07160659
184	0x3d18a86c	0.037269995
185	0x3d91b66c	0.07114872
186	0xbe2f7a46	-0.17136487
187	0xbc5ef31d	-0.013607767
188	0xbd9ac0f0	-0.07556331
189	0xbe13ee5b	-0.14446394
190	0x3e3a1ca6	0.18174991
191	0xbe48ea55	-0.1962064
192	0xbd569a35	-0.052393157
193	0xbe985067	-0.29748842
194	0x3c973f31	0.01846275
195	0xbd67874b	-0.05652551
196	0xbccfe73c	-0.025378816
197	0xbe449e8c	-0.19201106
198	0x3e0ef72f	0.1396148
199	0xbe56feb3	-0.20995598
200	0x3e4413e3	0.19148211
201	0xbe84decd	-0.25951234
202	0x3df9281d	0.12165854
203	0xbe442081	-0.19153024
204	0x3b2b6755	0.002615412
205	0xbdfdb788	-0.123885214
206	0x3deb6179	0.11493201
207	0x3dd18080	0.102295876
208	0xbea438b4	-0.3207451
209	0x3c9c0597	0.019045634
210	0xbe510965	-0.2041374
211	0x3e2b238b	0.16712777
212	0x3d3dddf9	0.046354268
213	0xbd17ea1c	-0.0370885
214	0xbde133c0	-0.10996199
215	0x3dcc44f1	0.09974087
216	0xbe1b9c04	-0.15196234
217	0x3d6de829	0.058082733
218	0x3de4d8a1	0.11174131
219	0x3dd81626	0.105510995
220	0x3d574775	0.05255838
221	0xbe95662f	-0.29179522
222	0x3e2a2edb	0.16619436
223	0xbdac80ac	-0.0842298
224	0x3c3f1fac	0.011665266
225	0x3d5bcb35	0.05366059
226	0x3e1d2b80	0.15348625
227	0x3e083843	0.13302712
228	0x3e19c068	0.15014803
229	0x3e31f3ad	0.17378111
230	0xbe56702b	-0.20941226
231	0x3bf1d7cf	0.0073804627
232	0xbe86f6ac	-0.2636007
233	0x3e2025a0	0.15639353
234	0xbe29948f	-0.16560577
235	0xba52bd71	-0.0008039093
236	0x3e2fce25	0.17168482
237	0x3ea29ba0	0.31759357
238	0xbdcebf02	-0.100950256
239	0xbe23da69	-0.16001286
240	0x3d5fe711	0.05466372
241	0x3cba004f	0.022705225
242	0x3d18ffa3	0.03735317
243	0xbc86f33b	-0.016473403
244	0xbe7507c6	-0.23928747
245	0x3cb4df45	0.02207912
246	0x3e60791f	0.21921204
247	0xbe23bb47	-0.1598941
248	0x3e3d075f	0.18459843
249	0x3e1c68a2	0.15274289
250	0x3e777f35	0.2416962
251	0xbcecbbfd	-0.028898234
252	0x3d4a1c08	0.04934314
253	0x3e569f16	0.20959124
254	0x3e1c4e89	0.15264334
255	0x3e999ea9	0.3000386

encoder.node_encoder.module_3.transformer_conv.lin_query.bias f4 [16]
0	0xbd710f94	-0.058852747
1	0x3dc7f680	0.09763813
2	0x3e010b76	0.12602028
3	0xbe4dea1f	-0.20108841
4	0x3db1fce1	0.08690811
5	0xbd532fda	-0.051559307
6	0x3e2df195	0.16986687
7	0xbdd03de8	-0.10168058
8	0xbc42882f	-0.011873289
9	0x3e143187	0.14472018
10	0xbe5b3b2b	-0.2140929
11	0xbe64d2cb	-0.22346036
12	0xbe158e34	-0.14605027
13	0x3e00f91e	0.1259503
14	0x3e3e40a8	0.18579352
15	0xbe017b2a	-0.1264464

encoder.node_encoder.module_3.transformer_conv.lin_value.weight f4 [16, 16]
0	0x3c55e74f	0.013055637
1	0xbe10667b	-0.14101593
2	0xbd6bea0f	-0.057596263
3	0x3e64e780	0.22353935
4	0x3c8d8e2b	0.017279705
5	0xbe430bcb	-0.19047467
6	0x3d963c75	0.0733575
7	0x3d1daf6d	0.038497377
8	0x3e35b533	0.17744903
9	0xbe188c84	-0.14897352
10	0xbe0d15d0	-0.13777852
11	0x3dcbec49	0.09957177
12	0x3d835070	0.064118266
13	0x3bff322e	0.0077879643
14	0xbe3ead35	-0.1862076
15	0x3e3dd320	0.18537569
16	0x3e40adf3	0.18816356
17	0x3dcc59d9	0.099780746
18	0x3cf3f463	0.029779619
19	0x3e95d77e	0.2926597
20	0xbd315ea6	-0.043303154
21	0x3d59c938	0.053170413
22	0x3e6348cb	0.22195737
23	0x3ead3a59	0.33833578
24	0xbda1d05c	-0.079010695
25	0x3e6a1194	0.22858268
26	0x3b9e2e69	0.00482731
27	0xbdb5781e	-0.08860801
28	0x3e2caf65	0.16863783
29	0xbe25f63f	-0.16207217
30	0x3e4949af	0.19657014
31	0x3e4e72a4	0.2016092
32	0xbe37662c	-0.17910069
33	0xbe1d0bb8	-0.15336502
34	0xbe9badb0	-0.3040595
35	0xbd5a0418	-0.05322656
36	0xbe178d1d	-0.14799924
37	0xba5ab3d9	-0.00083428394
38	0x3cd98f00	0.026557446
39	0x3e1ee7d1	0.15518118
40	0x3d037e9f	0.032103177
41	0x3e1fc6de	0.15603206
42	0x3dbddaf9	0.09270281
43	0xbe0033ec	-0.12519807
44	0xbe7cd9ab	-0.24692409
45	0x3d5e8119	0.054322336
46	0x3e8278b3	0.2548271
47	0xbd7f8a0b	-0.062387507
48	0xbd096233	-0.033540916
49	0xbe40898d	-0.18802471
50	0xbe1e4d95	-0.15459283
51	0xbe530f53	-0.20611314
52	0x3e352db1	0.17693211
53	0xbcf25441	-0.029581191
54	0xbe50e9cd	-0.20401688
55	0x3d3ca7cb	0.046058457
56	0x3d581448	0.052753717
57	0xbd65e1e7	-0.05612364
58	0x3d8b5e35	0.06805078
59	0x3dadf7bf	0.084945194
60	0xbe79e1ba	-0.24402514
61	0xbe7fcfdb	-0.24981634
62	0xbd21af1d	-0.03947364
63	0xbe6a347b	-0.22871582
64	0xbe5e5d4d	-0.21715279
65	0x3e5bbb10	0.21458077
66	0x3c7689f1	0.015047536
67	0xbdd8cab2	-0.10585536
68	0xbe174b7b	-0.14774887
69	0xbe83961f	-0.2570047
70	0x3e68052b	0.22658221
71	0x3c155793	0.009115118
72	0xbd9f454f	-0.077768914
73	0xbe4a5777	-0.19759928
74	0x3df36034	0.11883584
75	0xbd9360c8	-0.07196194
76	0xbca0dc9e	-0.019636448
77	0xbdf17eab	-0.11791738
78	0xbde1c368	-0.11023599
79	0x3d77cd1c	0.060498342
80	0x3e50582b	0.20346133
81	0xbe131848	-0.14364731
82	0xbc24ae60	-0.01005134
83	0xbe40d4e0	-0.18831205
84	0xbd75aa2f	-0.059976753
85	0x3e8896b2	0.2667747
86	0xbd400413	-0.046878885
87	0x3e4c6401	0.19960023
88	0xbe1064d4	-0.14100963
89	0xbdceb4e9	-0.100930996
90	0xbe07a2fb	-0.13245766
91	0x3e8dea5f	0.27717873
92	0xbe53e25e	-0.20691821
93	0x3e613e7f	0.21996497
94	0x3da66a4f	0.081257455
95	0x3d1d81f3	0.038454007
96	0x3e1d968e	0.15389463
97	0xbd858865	-0.06520156
98	0x3e395a59	0.18100871
99	0xbe4f7b6d	-0.20261927
100	0xbdb13d85	-0.08654312
101	0x3e299b1e	0.16563079
102	0x3de2f63d	0.110821225
103	0xbbc6e807	-0.0060701403
104	0xbcb3f560	-0.02196759
105	0xbdc69e13	-0.09698119
106	0x3e1de50f	0.1541941
107	0x3c89a553	0.016802466
108	0x3c935033	0.017982578
109	0x3dbacfea	0.09121688
110	0x3e8c15c5	0.2736036
111	0xbdec1b74	-0.11528674
112	0xbdeb1ac8	-0.114797175
113	0x3e1767eb	0.14785735
114	0x3d23dd97	0.040006246
115	0xbdff02e0	-0.1245172
116	0xbe6e6fb0	-0.23284793
117	0x3e05fc04	0.13084418
118	0x3dbb5a6e	0.091481075
119	0x3dfebaa7	0.12437945
120	0x3e05e532	0.13075712
121	0xbe8fcd8b	-0.28086504
122	0x3d1cf7d9	0.038322303
123	0xbe76f450	-0.24116635
124	0x3d36300f	0.044479426
125	0x3dc7e7d6	0.09761016
126	0x3d1b4596	0.03790816
127	0x3e01bab8	0.12668884
128	0xbe3e4e19	-0.1858448
129	0xbe2d28b0	-0.16910052
130	0xbe840ee6	-0.25792617
131	0x3df60942	0.120134845
132	0x3e159ba0	0.14610147
133	0xbe0f96cf	-0.14022373
134	0x3e0da26c	0.1383149
135	0x3e6812ee	0.22663471
136	0xbe8fec2f	-0.2810988
137	0x3e384f72	0.17999056
138	0x3d29b9eb	0.04143707
139	0x3d869607	0.06571584
140	0x3e5a1ee9	0.21300854
141	0x3e830af3	0.2559429
142	0x3e013087	0.12616168
143	0x3e2e01a1	0.16992809
144	0x3df6f4df	0.12058424
145	0x3d1019c9	0.03518084
146	0xbe3305f8	-0.17482746
147	0x3d4aa879	0.049477074
148	0xbe5c5f9f	-0.21520852
149	0x3c529eff	0.01285529
150	0x3d8f0377	0.06983083
151	0x3a2051ab	0.0006115685
152	0xbded131b	-0.1157591
153	0xbe1a5ce3	-0.15074496
154	0x3e51e980	0.2049923
155	0x3dd99e2a	0.106258705
156	0x3e32ca04	0.17459875
157	0xbdba8da1	-0.09109045
158	0xbd418af2	-0.04725165
159	0x3bddac37	0.0067649144
160	0x3e11168c	0.14168757
161	0xbdf06ed7	-0.11739891
162	0x3e23198a	0.15927711
163	0x3e4468c6	0.19180593
164	0xbe8e3b71	-0.27779725
165	0xbcac4b3e	-0.021031972
166	0xbce6aed8	-0.028159544
167	0xbdadd447	-0.08487754
168	0x3e1f4944	0.15555292
169	0xbd6caddd	-0.057782996
170	0x3e3f5351	0.18684126
171	0xbe5126f6	-0.20425019
172	0x3ddefd11	0.10888112
173	0xbe8ea49b	-0.2785996
174	0xbdf8459a	-0.121226504
175	0x3c70f0cc	0.014705848
176	0x3e3f74ef	0.1869695
177	0x3e0a98e8	0.13534892
178	0xbe858556	-0.2607829
179	0x3cfdcf55	0.030982653
180	0xbded1f67	-0.11578255
181	0x3d87c890	0.06630051
182	0xbe807171	-0.2508655
183	0xbd7911d4	-0.060808018
184	0x3db57848	0.088608325
185	0xbe62777d	-0.22115894
186	0xbe886947	-0.2664282
187	0x3d7b31db	0.061326843
188	0xbcaee6bb	-0.021350255
189	0xbb59286f	-0.0033135673
190	0x3e6d30c7	0.23163138
191	0xbe73346a	-0.23750463
192	0xbe320696	-0.17385325
193	0xbe30e6b9	-0.17275514
194	0xbd305799	-0.04305229
195	0xbd953892	-0.072861806
196	0x3e2cff80	0.1689434
197	0xbc14f2da	-0.009091103
198	0x3d97faa0	0.0742085
199	0xbe0c68a3	-0.1371179
200	0x3e3182a0	0.17334986
201	0x3e4f28c0	0.20230389
202	0xbe5acf15	-0.21368058
203	0xbd5fa3ff	-0.05459976
204	0xbe5a0f2b	-0.21294849
205	0x3deef6e1	0.11668182
206	0xbe74445a	-0.23854199
207	0xbdf30522	-0.118662134
208	0x3e84a20e	0.25904888
209	0xbe758cad	-0.23979445
210	0x3e7ca9b5	0.24674113
211	0x3cd3f2fa	0.025872696
212	0x3e0ca1ec	0.13733643
213	0xbe64a917	-0.22330128
214	0x3e5275e2	0.20552781
215	0x3d238a98	0.039927095
216	0x3ddf265d	0.10895989
217	0x3e30e01f	0.17272995
218	0xbe693895	-0.2277549
219	0xbe620205	-0.22071083
220	0x3e9272bc	0.2860316
221	0xbe322618	-0.17397344
222	0xbe3f0b37	-0.18656622
223	0x3d58469e	0.05280172
224	0xbc9b4722	-0.018954817
225	0xbdd991e9	-0.10623533
226	0xbe5ef6e4	-0.21773869
227	0x3e058b55	0.13041432
228	0xbe593c58	-0.21214426
229	0x3d7906be	0.060797445
230	0x3ddefede	0.10888456
231	0x3dd76e64	0.10519102
232	0x3c593cd5	0.013259132
233	0x3dea6884	0.11445716
234	0xbdfaf566	-0.12253837
235	0xbd4038af	-0.046929058
236	0xbe153a3a	-0.14572993
237	0xbde26b3c	-0.110556096
238	0xbd6bc9bf	-0.057565447
239	0x3e42cc50	0.19023252
240	0xbd5a4bca	-0.053294934
241	0x3db46a3c	0.08809325
242	0x3e316234	0.17322618
243	0xbd34e103	-0.0441599
244	0xbe11925e	-0.14215991
245	0xbe3ea225	-0.1861654
246	0xbdbe802e	-0.09301792
247	0x3d55aeb8	0.052168578
248	0xbe3b435f	-0.18287419
249	0xbd87b07f	-0.06625461
250	0x3def0074	0.11670008
251	0x3e39e3fa	0.18153372
252	0x3daa237f	0.083075516
253	0x3c2df2b3	0.010616946
254	0x3df14194	0.11780086
255	0x3e0d5c7f	0.13804816

encoder.node_encoder.module_3.transformer_conv.lin_value.bias f4 [16]
0	0x3da5d62e	0.08097492
1	0xbe103877	-0.1408404
2	0xbe5ba483	-0.21449475
3	0xbdb7cc81	-0.08974553
4	0xbd69ec44	-0.057110086
5	0x3d0e9d52	0.034818
6	0xbb3ca0d6	-0.002878239
7	0xbc009323	-0.00784758
8	0x3e2c003b	0.16796963
9	0xbdae1c9c	-0.085015506
10	0xbe867c32	-0.26266629
11	0xbe1dfc04	-0.15428168
12	0xbdf15270	-0.11783302
13	0x3e257212	0.16156796
14	0xbe3c098a	-0.18363014
15	0xbd016e14	-0.03159912

encoder.node_encoder.module_3.transformer_conv.lin_skip.weight f4 [16, 16]
0	0xbd590690	-0.052984774
1	0xbe1b5fea	-0.15173307
2	0x3de814f4	0.113321215
3	0xbdd546c4	-0.10413888
4	0xbc53e520	-0.012933046
5	0xbe33fd5c	-0.17577118
6	0xbcce8f90	-0.02521494
7	0x3d117ef0	0.035521448
8	0xbc26ad80	-0.010173202
9	0xbdbf4ec0	-0.09341192
10	0x3d981b58	0.074270904
11	0xbd84a870	-0.064774394
12	0xbe0ded16	-0.13859972
13	0xbe3cc862	-0.18435815
14	0xbd58e9d8	-0.052957386
15	0xbe71d672	-0.2361696
16	0x3e547c30	0.20750499
17	0xbdf498bc	-0.11943194
18	0xbdd42ea0	-0.103604555
19	0x3cbd50b0	0.023109764
20	0x3d84ba38	0.06480831
21	0xbcc11c60	-0.0235731
22	0x3e2f9f32	0.17150572
23	0xbe153c30	-0.14573741
24	0x3db77db0	0.0895952
25	0xba13ce00	-0.00056383014
26	0xbe503fa4	-0.20336777
27	0xbdc64b84	-0.09682372
28	0x3d824c24	0.06362179
29	0x3d43a078	0.047760457
30	0x3e3a258c	0.18178385
31	0x3e2b4320	0.16724825
32	0xbe0ba0d4	-0.1363557
33	0xbddaa39c	-0.10675737
34	0xbd592160	-0.053010345
35	0xbe376756	-0.17910513
36	0xbd8a3c1c	-0.06749746
37	0xbe517cf4	-0.20457822
38	0x3dc2bc34	0.09508553
39	0x3e35229c	0.17688984
40	0x3ca22740	0.019794106
41	0xbe3743f4	-0.17897016
42	0xbe41def0	-0.189327
43	0xbdc75238	-0.09732479
44	0x3d94eabc	0.072713345
45	0x3bc7d1c0	0.006098002
46	0x3d3a2f88	0.045455486
47	0x3e714674	0.23562032
48	0x3dedcb58	0.1161105
49	0x3d5c2ee0	0.05375564
50	0xbd4f2d78	-0.05058047
51	0x3df23378	0.11826223
52	0x3dbb4f74	0.09146014
53	0xbe666d1a	-0.22502556
54	0xbe1738b4	-0.14767724
55	0x3c097c40	0.00839144
56	0x3dc24644	0.09486058
57	0x3df916e8	0.12162572
58	0xbe18642e	-0.14881966
59	0xbe7dfb34	-0.24802858
60	0xbc555e00	-0.0130229
61	0xbcea1f30	-0.028579324
62	0x3d949278	0.07254499
63	0xbd8ccda4	-0.0687516
64	0x3e43b7c4	0.1911307
65	0x3c88a6b0	0.016681045
66	0x3e3af176	0.18256173
67	0xbe3241a8	-0.17407858
68	0x3dccd184	0.100008994
69	0x3cf40820	0.02978903
70	0xbe0009b8	-0.12503707
71	0x3dfdd2a8	0.12393695
72	0xbe7be8b2	-0.24600485
73	0x3e4ef7b2	0.20211676
74	0x3ca50b60	0.020147026
75	0x3cc5bd60	0.024138153
76	0x3decc5ac	0.115611404
77	0x3caa0260	0.020753086
78	0x3ddb7838	0.10716289
79	0x3e22deee	0.15905353
80	0xbe47cc20	-0.19511461
81	0x3e295c06	0.1653901
82	0xbd195520	-0.037434697
83	0xbd6e2158	-0.058137268
84	0x3d4e1cc0	0.050320387
85	0x3e483b18	0.19553792
86	0xbe0b2a5e	-0.1359038
87	0xbe2c86c0	-0.16848278
88	0x3e1ee01e	0.15515181
89	0xbdf07850	-0.11741698
90	0x3da4d6a4	0.08048752
91	0xbd16dca8	-0.036831528
92	0x3d8cedf4	0.068813235
93	0x3e435b82	0.19077876
94	0xbe01bd94	-0.12669975
95	0xbdf87478	-0.1213159
96	0x3dfb32a4	0.12265518
97	0x3c604420	0.013688117
98	0xbce16630	-0.027514547
99	0xbe60de0c	-0.21959704
100	0x3e58e5ec	0.21181458
101	0xbc1b1e80	-0.009467721
102	0xbd3c9ba0	-0.046046853
103	0xbdd22bbc	-0.10262248
104	0xbd4a1308	-0.049334556
105	0x3df8d97c	0.12150857
106	0xbbbc4780	-0.005745828
107	0x3e5aeef4	0.21380216
108	0xbc6c7b40	-0.014433682
109	0xbd12e698	-0.035864443
110	0x3e107fe6	0.1411129
111	0xbbd3f900	-0.006468892
112	0xbd4c6218	-0.049898237
113	0x3dab1fc0	0.08355665
114	0x3e49e3b8	0.19715774
115	0x3d7f89e8	0.062387377
116	0x3e3241e8	0.17407954
117	0x3e25e5d6	0.16200957
118	0x3d90cae0	0.07069945
119	0x3db2043c	0.08692214
120	0x3da536dc	0.08067104
121	0x3cd46eb0	0.025931686
122	0x3e59c9dc	0.2126841
123	0x3e6c52f0	0.23078513
124	0x3db64424	0.088997155
125	0xbc4c8c60	-0.01248464
126	0x3e658730	0.22414851
127	0xbe474004	-0.19458014
128	0x3e3c1acc	0.18369597
129	0x3e07a2a6	0.13245639
130	0x3e246308	0.16053402
131	0xbc9d5c00	-0.019208908
132	0xbe3f0046	-0.18652448
133	0x3e369d60	0.17833471
134	0xbddfdff8	-0.109313905
135	0x3d86b6b0	0.065778136
136	0x3e11091a	0.14163628
137	0xbe6f3d12	-0.2336314
138	0x3c87e9d0	0.016590983
139	0xbdb5e03c	-0.0888066
140	0x3e35b286	0.17743883
141	0xbe22fede	-0.15917537
142	0x3e1b6f7a	0.15179244
143	0x3e1fa248	0.15589249
144	0x3e0d3d30	0.13792872
145	0x3e75c35e	0.24000308
146	0x3d1b1600	0.037862778
147	0xbe680898	-0.22659528
148	0x3e36bfda	0.17846623
149	0x3cbb7ce0	0.022886693
150	0x3ba29200	0.004961252
151	0xbe73dce4	-0.23814732
152	0xbd662680	-0.05618906
153	0xbdf88220	-0.121341944
154	0x3e7abaae	0.24485275
155	0x3e364786	0.17800722
156	0x3e3ef916	0.18649706
157	0x3e2f5174	0.17120916
158	0xbe1eb00e	-0.15496847
159	0xbddbe370	-0.1073674
160	0xbdc85f10	-0.09783757
161	0xbdcd4070	-0.10022056
162	0x3e474754	0.19460803
163	0x3dadf5ec	0.084941715
164	0x3e4d258a	0.20033851
165	0xbc3f9b40	-0.011694729
166	0xbe643492	-0.22285679
167	0xbd948b08	-0.072530806
168	0x3e33ea5a	0.17569867
169	0x3e1bdaae	0.15220138
170	0x3d9e8028	0.077392876
171	0xbd962f0c	-0.07333192
172	0xbe6ef168	-0.23334277
173	0xbe098e3e	-0.13433167
174	0x3e057930	0.1303451
175	0xbdce84e8	-0.100839436
176	0x3df4e8cc	0.11958465
177	0x3d8bcc0c	0.06826028
178	0xbdc4a718	-0.09602183
179	0x3e1bec8e	0.15226957
180	0xbda485b4	-0.08033314
181	0xbc081480	-0.008305669
182	0xbdc30708	-0.095228255
183	0xbe72d596	-0.23714289
184	0x3d251ba0	0.04030955
185	0x3d93f3c8	0.07224232
186	0xbe00e428	-0.12587035
187	0x3e1d0ada	0.15336171
188	0xbe65a56e	-0.22426388
189	0xbe76c72c	-0.24099416
190	0xbe1e1e3e	-0.15441224
191	0xbdb0f320	-0.086401224
192	0xbce37270	-0.027764529
193	0xbd45e2c0	-0.04831195
194	0x3de9abc0	0.11409712
195	0xbe60ac0e	-0.21940634
196	0x3d16c810	0.03681189
197	0x3b8dddc0	0.004329413
198	0x3d873c14	0.06603256
199	0x3e7e7c08	0.24852002
200	0x3e1d8e08	0.15386212
201	0xbe0dbf96	-0.13842615
202	0xbe51c7a4	-0.20486313
203	0xbd77e950	-0.06052524
204	0xbe006aa0	-0.12540674
205	0x3db2d820	0.08732629
206	0x3b163100	0.002291739
207	0x3e4de826	0.20108089
208	0x3dc91de4	0.09820154
209	0xbd3c4880	-0.04596758
210	0x3c0cc780	0.008592486
211	0x3d753bd0	0.059871495
212	0xbcfe2170	-0.031021804
213	0x3e4e9344	0.20173365
214	0xbe482a9e	-0.19547507
215	0x3df98d44	0.121851474
216	0xbe232f86	-0.15936098
217	0xbe6046e0	-0.21902037
218	0xbd523948	-0.05132416
219	0x3df98008	0.12182623
220	0x3e34e13e	0.17664048
221	0x3d807b88	0.06273562
222	0xbcb101b0	-0.02160725
223	0xbc659e80	-0.01401484
224	0xbdcf8e24	-0.10134533
225	0xbcb7c840	-0.022434354
226	0xbc8d8120	-0.017273486
227	0x3e59d8b0	0.21274066
228	0x3e15d290	0.14631104
229	0xbe4cdb7a	-0.20005599
230	0x3a878d00	0.0010341704
231	0xbe1d7538	-0.15376747
232	0xbd228cf8	-0.03968522
233	0xbe4b75ec	-0.19869202
234	0x3d8519a0	0.06499028
235	0xbe389892	-0.18026951
236	0x3e7cba84	0.24680525
237	0x3e4154f4	0.18880063
238	0xbe30384a	-0.17208973
239	0xbe7103c8	-0.23536599
240	0x3c1fd100	0.009754419
241	0xbd8eecf8	-0.06978792
242	0x3d964e60	0.073391676
243	0xbe2d4a3e	-0.16922852
244	0x3dd1952c	0.102335304
245	0xbe5d1eae	-0.21593735
246	0xbe071bf0	-0.13194251
247	0xbe069464	-0.13142544
248	0x3df7c09c	0.12097284
249	0xbbd67a00	-0.0065453053
250	0xbe7605f8	-0.24025714
251	0xbe1234ec	-0.14278
252	0xbdecf118	-0.115694225
253	0xbe6d863e	-0.2319574
254	0x3d031eb8	0.032011718
255	0x3db671ec	0.089084476

encoder.node_encoder.module_3.transformer_conv.lin_skip.bias f4 [16]
0	0xbd3be190	-0.04586941
1	0xbdcbbf6c	-0.0994862
2	0xbac6b900	-0.0015161335
3	0xbe4b560c	-0.19857043
4	0xbe1be0f8	-0.15222538
5	0xbbbad440	-0.0057015717
6	0x3e636cb2	0.22209433
7	0xbd9d71bc	-0.07687709
8	0x3dfdc714	0.12391487
9	0xbdc97f70	-0.0983876
10	0xbd884b14	-0.06654945
11	0xbe73b2a2	-0.23798612
12	0x3e541798	0.20712125
13	0x3e794636	0.2434319
14	0xbbac0f00	-0.0052508116
15	0x3e22a798	0.15884244

encoder.node_encoder.module_6.weight f4 [16, 16, 3]
0	0x3df1c94a	0.11805971
1	0x3d92d4d5	0.07169501
2	0x3d983dce	0.07433663
3	0xbe0cb4af	-0.137408
4	0xbe0ae288	-0.13562977
5	0xbde2e332	-0.1107849
6	0x3d38ebc3	0.045146715
7	0xbdffb0a2	-0.12484862
8	0xbde1a5b0	-0.110179305
9	0xbd8f479f	-0.069960825
10	0xbe083a04	-0.13303381
11	0x394bee52	0.0001944837
12	0x3caa95a8	0.020823315
13	0xbdacfcb9	-0.084466405
14	0x3dc18d03	0.09450724
15	0xbd6072d6	-0.054797016
16	0xbd2670cf	-0.040634926
17	0x3de1367c	0.1099672
18	0x3dfdca6d	0.12392125
19	0xbc87a5a2	-0.016558472
20	0xbdd43508	-0.103616774
21	0xbd944b88	-0.07240969
22	0x3c969150	0.018379837
23	0x3dad47cc	0.0846096
24	0x3d932a20	0.07185769
25	0xbd828882	-0.06373693
26	0xbe0bba0d	-0.13645191
27	0xbe015922	-0.12631658
28	0xbd3c1899	-0.045921896
29	0x3aed516a	0.0018105928
30	0xbd84c71e	-0.06483291
31	0xbde9bc2f	-0.11412846
32	0x3c79393f	0.015211402
33	0xbdeaa1e6	-0.11456661
34	0xbde3003e	-0.110840306
35	0xbdf04f3e	-0.11733864
36	0xbd203389	-0.039111648
37	0x3e028c09	0.12748732
38	0x3d671d36	0.056424342
39	0xbc8c3295	-0.017113963
40	0x3cf35a9e	0.029706296
41	0x3d6b6c83	0.05747653
42	0x3a5c72d5	0.0008409445
43	0xbdee6d13	-0.11641898
44	0xbdb61ffc	-0.08892819
45	0xbdc8d1a6	-0.09805612
46	0xbb703189	-0.003665062
47	0xbe074c43	-0.13212685
48	0xbcd6fcda	-0.026243616
49	0xbd58300e	-0.052780204
50	0x3e110c53	0.14164858
51	0x3df04606	0.11732106
52	0x3dabb3c9	0.08383901
53	0x3c049ff3	0.0080947755
54	0xbd3f6aa8	-0.046732575
55	0x3d16cca2	0.036816247
56	0xbdcc3db9	-0.0997271
57	0xbd7c26eb	-0.061560553
58	0xbced8793	-0.02899531
59	0xbd0ae824	-0.033912793
60	0xbe0c034a	-0.1367313
61	0x3d6b05e3	0.05737866
62	0x3df36c8e	0.118859395
63	0xbda30c04	-0.07961276
64	0x3d1f5e90	0.03890854
65	0xbc89212b	-0.016739449
66	0xbbac8083	-0.005264343
67	0x3c09d884	0.008413438
68	0x3e001514	0.1250804
69	0x3c9e6ea4	0.019339867
70	0xbdbb057e	-0.09131907
71	0xbd54aa41	-0.05192018
72	0x3d906909	0.07051284
73	0x3d387d1c	0.04504119
74	0x3b37d904	0.0028052935
75	0xbc9c0d23	-0.019049233
76	0xbd66065a	-0.0561584
77	0xbd51d5d7	-0.051229324
78	0xbd9bed36	-0.07613604
79	0x3cc1c098	0.023651406
80	0x3d260924	0.04053606
81	0x3de25b56	0.11052577
82	0xbd058fbf	-0.03260779
83	0x3c294b85	0.010332947
84	0x3dbf0b9a	0.09328385
85	0x3d8095ae	0.06278549
86	0x3c97ecf3	0.018545603
87	0x3d35aa49	0.04435185
88	0x3bf57fe5	0.007492053
89	0xbdfd90ed	-0.12381158
90	0x3bb65553	0.0055643707
91	0xbd0139af	-0.031549152
92	0x3e0560c3	0.13025193
93	0x3e0568ee	0.13028309
94	0x3cea9467	0.028635217
95	0x3e041b08	0.12900937
96	0xbd983dc7	-0.07433658
97	0x3e00771f	0.12545441
98	0x3dfe8295	0.1242725
99	0xbbb4c5a8	-0.0055167265
100	0xbded3976	-0.115832254
101	0xbd3ec7bc	-0.0465772
102	0xbd1e1ad5	-0.038599808
103	0x3b1c3fb1	0.0023841674
104	0xbe06012b	-0.13086383
105	0x3cdb21a0	0.026749432
106	0xbd75e0bf	-0.060028788
107	0xbd175f8d	-0.03695636
108	0xbd98ad45	-0.074549235
109	0xbcf9a5c9	-0.03047456
110	0xbe094462	-0.13404992
111	0xbd9cb82b	-0.07652315
112	0x3c59dc09	0.013297089
113	0x3dc1b3a6	0.09458093
114	0x3e06507f	0.13116644
115	0xbddf9c5c	-0.10918495
116	0x3d78429c	0.0606104
117	0xbda6a15f	-0.08136248
118	0xbde48c3c	-0.1115956
119	0xbbd04593	-0.00635595
120	0xbda99266	-0.082798764
121	0xbdfe9659	-0.1243102
122	0xbe0a2045	-0.13488872
123	0xbdc5dc92	-0.09661211
124	0x3df2e867	0.118607335
125	0x3da4dc40	0.08049822
126	0xbd6a0706	-0.057135604
127	0xbdc5da7a	-0.09660812
128	0xbde363f4	-0.11103049
129	0xbdae8f63	-0.085234426
130	0xbd7347d2	-0.059394665
131	0x3db18944	0.086687595
132	0x3d4179e8	0.0472354
133	0xbd63d5a8	-0.05562368
134	0x3dcb80ab	0.09936651
135	0xbdb7a37c	-0.08966729
136	0xbdf0d311	-0.11759008
137	0x3d0107ec	0.031501696
138	0xbda2fef6	-0.07958786
139	0x3d282f80	0.041060925
140	0x3dfa721b	0.12228795
141	0xbd8bcadb	-0.06825801
142	0xbdce468a	-0.10072048
143	0x3d5e87bf	0.054328676
144	0xbe057c95	-0.13035806
145	0x3e03dd88	0.12877476
146	0xbd8b99ba	-0.068164304
147	0x3d8ee98f	0.069781415
148	0xbdeb0e30	-0.114773154
149	0xbdc815a2	-0.09769751
150	0x3c823f91	0.015899451
151	0x3d521e23	0.051298272
152	0x3de5359b	0.11191865
153	0x3df73943	0.12071469
154	0xbc080140	-0.008301079
155	0xbc980504	-0.01855708
156	0x3cc3747e	0.023859259
157	0xbd0954fc	-0.033528313
158	0x3ba10050	0.0049133673
159	0xbe0bf9ae	-0.13669464
160	0xbdf2a9b9	-0.11848778
161	0x3dca90dc	0.09890911
162	0xbdacbcdf	-0.08434462
163	0x3de8c888	0.11366373
164	0x3c81c32f	0.015840141
165	0x3d10024e	0.035158448
166	0x3e065568	0.13118517
167	0xbda46965	-0.08027915
168	0xbcbaa73d	-0.022784824
169	0x3cd17ccd	0.025572205
170	0x3d49fb1c	0.049311742
171	0xbe0fd7bb	-0.14047138
172	0x3d522036	0.05130025
173	0xbdae5331	-0.08511961
174	0x3c9b4f5f	0.018958746
175	0x3dc7fd87	0.097651534
176	0xbc6b929e	-0.014378218
177	0xbb959f26	-0.004566091
178	0xbc30b05d	-0.010784236
179	0x3df6ad03	0.12044718
180	0x3da80005	0.08203129
181	0x3cc6d878	0.024273142
182	0xbdb1e60a	-0.086864546
183	0xbda08606	-0.07838063
184	0x3deb76d9	0.11497278
185	0x3dd4a9c4	0.10383943
186	0x3dab2844	0.083572894
187	0xbde67caf	-0.1125425
188	0x3de636b7	0.11240905
189	0xbc620eeb	-0.013797502
190	0x3dd9c9b0	0.10634172
191	0x3e005f81	0.12536432
192	0x3c819b05	0.01582099
193	0xbd760310	-0.060061514
194	0x3e0b079e	0.13577124
195	0xbd9a0b7a	-0.0752172
196	0x3dc126cd	0.09431229
197	0xbe0db9be	-0.13840386
198	0xbd39f12d	-0.04539602
199	0xbe00dc90	-0.12584138
200	0xbd8499c2	-0.064746395
201	0x3d7b09a2	0.061288483
202	0xbdd3cede	-0.10342191
203	0xbdffa392	-0.124823704
204	0x3dd35de8	0.103206456
205	0x3d9dcc93	0.07705035
206	0xbacee0eb	-0.0015783584
207	0xbdd06386	-0.101752326
208	0xbd1ca1d7	-0.03824028
209	0xbd3f6bd5	-0.046733696
210	0x3db68fd1	0.089141496
211	0xbd416032	-0.04721088
212	0xbd2a46d9	-0.04157147
213	0xbdd18a88	-0.10231501
214	0xbd8b39bc	-0.06798121
215	0x3da00dd6	0.07815139
216	0x3dbe73f5	0.09299461
217	0x3cabca24	0.020970412
218	0xbd5dd1d3	-0.054155182
219	0x3e0df64e	0.13863489
220	0x3ce9627a	0.02848934
221	0xbd643424	-0.055713788
222	0xbd4ce91b	-0.050026994
223	0xbca57ad3	-0.020200169
224	0x3d8c2514	0.068430096
225	0x3d583e87	0.052794006
226	0x3dd64cff	0.104639046
227	0xbbd51a8c	-0.006503409
228	0x3df47dcb	0.119380556
229	0xbd702401	-0.058628086
230	0xbd88241c	-0.06647512
231	0xbd5a54c1	-0.053303484
232	0xbe0aab30	-0.13541865
233	0xbdc20bbd	-0.09474895
234	0xbe05bdf4	-0.13060743
235	0xbc0bc175	-0.0085300105
236	0x3ab25a97	0.001360732
237	0xbd19716a	-0.037461676
238	0xbdca02ae	-0.09863792
239	0x3e061948	0.13095582
240	0xbd43e3fa	-0.047824837
241	0x3d8cdee0	0.068784475
242	0x3dcddc76	0.10051815
243	0xbdc2511f	-0.09488129
244	0xbc93d43a	-0.018045533
245	0x3daad95c	0.08342239
246	0x3e0f45dc	0.13991493
247	0xbc952cb0	-0.018209785
248	0x3dd63377	0.10459035
249	0xbde80252	-0.113285676
250	0xbdc010ac	-0.0937818
251	0x3df315c3	0.11869385
252	0xbc5fe69d	-0.013665822
253	0x3e120440	0.14259434
254	0x3c2bf6ab	0.010495822
255	0xbd752dc4	-0.0598581

encoder.node_encoder.module_6.bias f4 [16]
0	0xbca9329f	-0.02065402
1	0xbc070248	-0.00824029
2	0xbda82020	-0.08209252
3	0x3d4a151c	0.049336538
4	0xbe0f3f2c	-0.13988942
5	0x3db575c4	0.08860353
6	0x3e0914a7	0.13386784
7	0x3cbf4b51	0.023351343
8	0xbd0a23ee	-0.03372567
9	0xbe075f26	-0.1321989
10	0x3d8ad0e9	0.06778128
11	0x3df23628	0.11826736
12	0x3dfcb805	0.123397864
13	0x3c52df30	0.012870595
14	0x3d448db3	0.047986697
15	0x3e0d9ffe	0.13830563

encoder.node_encoder.module_8.Wr.weight f4 [16, 16]
0	0x3cb4a740	0.022052407
1	0xbe108b44	-0.14115626
2	0xbe624ca2	-0.22099546
3	0x3df29406	0.118446395
4	0x3cd64ba3	0.026159113
5	0x3e8e1215	0.2774817
6	0xbdf57127	-0.11984473
7	0x3c0076af	0.007840796
8	0xbd8d4f2b	-0.06899866
9	0xbdc0d78d	-0.09416113
10	0x3e08c322	0.13355687
11	0xbe52add2	-0.2057412
12	0x3e5126ab	0.20424907
13	0x3dac059f	0.0839951
14	0xbe1936ce	-0.14962313
15	0x3deed170	0.11661041
16	0xbdc3bcb2	-0.09557475
17	0xbc8445d5	-0.01614658
18	0xbd0da4a4	-0.03458084
19	0xbe4f8f04	-0.202694
20	0xbd40a373	-0.047030877
21	0x3e1e319f	0.15448616
22	0xbd8c8c7c	-0.06862733
23	0xbe14f002	-0.1454468
24	0xbd13a0b1	-0.03604192
25	0x3c8b31e2	0.01699156
26	0xbd89e190	-0.06732476
27	0xbe1dd7e3	-0.15414385
28	0xbdc2b864	-0.09507826
29	0xbdb0ac5b	-0.08626624
30	0x3dfcd4a6	0.12345247
31	0x3e4012e4	0.18757206
32	0xbde6f660	-0.11277461
33	0xbbc7302b	-0.00607874
34	0x3e6f04bd	0.23341651
35	0xbc91fa8b	-0.017819664
36	0xbe220484	-0.15822035
37	0x3e9ca949	0.30597904
38	0x3e174871	0.14773728
39	0xbceab175	-0.028649071
40	0xbe63a7b3	-0.22231941
41	0x3dbe6cf8	0.09298128
42	0xbe8a88db	-0.27057537
43	0x3e65a26f	0.22425245
44	0x3df8aab1	0.12141932
45	0xbd49a03c	-0.049225077
46	0xbe51e097	-0.2049583
47	0xbe295b6f	-0.16538785
48	0x3ddb38c4	0.107041866
49	0x3e420bd9	0.18949832
50	0xbd21e435	-0.039524276
51	0x3e6bb1e3	0.23017077
52	0xbd888428	-0.06665832
53	0xbe19b6ba	-0.15011111
54	0xbded30bd	-0.11581562
55	0x3d4304c3	0.047611963
56	0xbd2906ed	-0.04126637
57	0x3dd9b155	0.106295265
58	0xbdf09368	-0.117468655
59	0xbd71f8c1	-0.05907512
60	0xbe66eb52	-0.22550705
61	0x3e652452	0.22377136
62	0xbcaca183	-0.021073109
63	0xbe5f209d	-0.21789785
64	0x3d391931	0.04519004
65	0x3da97970	0.082751155
66	0xbc747d8b	-0.01492251
67	0xbdcc6fef	-0.09982287
68	0x3e3e5ca0	0.18590021
69	0xbe05edbf	-0.13078974
70	0x3b9e6432	0.0048337216
71	0xbd637474	-0.05553098
72	0x3dc9e609	0.09858329
73	0x3e8d21a2	0.27564722
74	0xbd63fc8a	-0.055660762
75	0x3dff01ef	0.12451541
76	0x3debb7f2	0.11509694
77	0xbd9d7fbf	-0.07690381
78	0xbdd8440b	-0.10559853
79	0xbd3ca241	-0.046053175
80	0x3e6a3ac9	0.22873987
81	0x3b6fe5fe	0.0036605592
82	0xbc004b62	-0.007830473
83	0xbd9a878e	-0.07545386
84	0xbd9241c8	-0.07141453
85	0xbe9871df	-0.29774377
86	0xbe4e123a	-0.2012414
87	0xbd16942d	-0.036762405
88	0x3de5ed23	0.11226871
89	0x3db56838	0.08857769
90	0x3e6901bf	0.22754572
91	0xbe9f1a84	-0.31074917
92	0xbdc18cb7	-0.09450667
93	0xbddcd00e	-0.10781871
94	0xbd65975f	-0.05605256
95	0x3e309d49	0.172475
96	0xbe47291b	-0.19449274
97	0x3e6be422	0.23036245
98	0xbd94793b	-0.072496854
99	0x3e52a504	0.20570761
100	0xbd9d7caf	-0.07689797
101	0x3e16eb8d	0.14738293
102	0x3e80ca9e	0.25154585
103	0xbde3a0ed	-0.111146785
104	0xbbd30719	-0.006440055
105	0x3dc8678d	0.09785376
106	0xbe6a9627	-0.22908841
107	0x3e08eb93	0.13371114
108	0xbe18929c	-0.14899677
109	0x3e882662	0.26591784
110	0xbe3e3dcc	-0.18578261
111	0xbdbb0288	-0.09131342
112	0x3e10e4dd	0.14149804
113	0xbe0796f6	-0.13241181
114	0x3e986fff	0.29772946
115	0x3e6cb6d0	0.23116612
116	0x3e54a6fd	0.20766826
117	0xbe59ab9d	-0.21256872
118	0xbd342533	-0.04398079
119	0xbda38457	-0.07984226
120	0x3d02fd42	0.031979807
121	0xbe8e2d79	-0.27769068
122	0x3e0b34c6	0.1359435
123	0x3d60a6e3	0.054846656
124	0xbd48b885	-0.049004097
125	0xbe82f931	-0.25580743
126	0x3e523789	0.20528997
127	0xbe1b305e	-0.1515517
128	0x3e130aff	0.14359663
129	0x3c3a724a	0.011379788
130	0x3df7582c	0.12077364
131	0x39911844	0.00027674634
132	0xbdd6fc9c	-0.104974
133	0xbcb95be0	-0.022626817
134	0xbe5c13a1	-0.21491863
135	0x3d95016a	0.0727566
136	0xbe2c445b	-0.1682295
137	0x3dd2eca4	0.10299042
138	0xbdc3fa54	-0.09569231
139	0x3e4d35b4	0.20040017
140	0x3e847ed9	0.25878027
141	0xbe4253a2	-0.18977216
142	0x3e70f0c3	0.23529343
143	0xbd175de7	-0.036954787
144	0xbe5d5d47	-0.21617614
145	0x3d829a6b	0.06377109
146	0x3e07af52	0.13250473
147	0x3e74ef8b	0.23919503
148	0xbe71851a	-0.2358593
149	0x3e80db15	0.25167146
150	0x3e50f535	0.20406039
151	0x3e49ec24	0.19718987
152	0x3e1aee81	0.15130045
153	0xbda1efe1	-0.079070814
154	0x3e0d4065	0.13794096
155	0x3e655adb	0.2239794
156	0xbdb3ad64	-0.08773306
157	0xbdc1a6ea	-0.094556645
158	0x3e3062b0	0.17225146
159	0x3e4cecfa	0.20012274
160	0x3e134afe	0.14384076
161	0x3e368b18	0.17826498
162	0xbe158951	-0.14603163
163	0xbd2ba7f7	-0.04190823
164	0xbd8eb9dc	-0.069690436
165	0x3ded1234	0.115757376
166	0x3d596a1b	0.053079706
167	0xbe3b7880	-0.18307686
168	0xbcf75b95	-0.030195037
169	0xbe460d8d	-0.19341107
170	0xbe67dbe8	-0.22642481
171	0x3e6151c6	0.2200385
172	0xbe105708	-0.140957
173	0x3dbdebd4	0.09273496
174	0xbd7eb92b	-0.06218831
175	0xbd0a04dd	-0.033696044
176	0x3a546c32	0.00081032806
177	0x3e5c70f3	0.21527462
178	0xbdc147ec	-0.09437546
179	0x3e32a1cb	0.17444532
180	0x3e1d8607	0.15383159
181	0x3e30ca33	0.17264633
182	0xbe2590c8	-0.16168511
183	0xbe25101b	-0.16119425
184	0xbe12b7b2	-0.14327887
185	0x3c16679c	0.009179976
186	0xbe01693c	-0.126378
187	0x3beaf60d	0.007170445
188	0x3e30b3fe	0.17256162
189	0x3dcd125d	0.10013268
190	0xbe7c276a	-0.2462441
191	0xbddded77	-0.108363084
192	0x3e43e2cf	0.1912949
193	0xbc4b20fd	-0.012398002
194	0x3de19a86	0.11015801
195	0xbdcf8642	-0.101330295
196	0xbda1154c	-0.0786539
197	0x3dcaaf00	0.0989666
198	0xbe4d0788	-0.20022404
199	0x3df6b1e8	0.12045652
200	0x3df02686	0.11726098
201	0xbe52caea	-0.20585218
202	0xbdb32846	-0.08747916
203	0xbc9acf3c	-0.018897645
204	0x3da924a5	0.082589425
205	0xbde480ff	-0.111574166
206	0x3e87ee19	0.26548842
207	0xbe8bd7ce	-0.27313083
208	0xbd90f068	-0.07077104
209	0xbdbb3bb2	-0.09142245
210	0xbd404626	-0.0469419
211	0xbd52e288	-0.05148557
212	0xbd4aad91	-0.049481932
213	0x3e1c6478	0.15272701
214	0xbdeff3ec	-0.11716446
215	0x3dd093bf	0.1018443
216	0xbd16e8e7	-0.036843207
217	0x3d086fa9	0.033309612
218	0xbea10a96	-0.3145339
219	0xbe9c0354	-0.3047129
220	0xbea08c7b	-0.31357178
221	0x3e1e8d3a	0.15483561
222	0xbe521d23	-0.20518927
223	0x3e71cd17	0.23613392
224	0xbd91c97b	-0.071185075
225	0x3c2869fd	0.010279176
226	0xbd04d3b0	-0.032428443
227	0x3e082c47	0.1329814
228	0xbd91d49f	-0.071206324
229	0x3dca994f	0.098925225
230	0x3e06238b	0.13099496
231	0x3e245612	0.16048458
232	0x3e6b8631	0.23000409
233	0x3dce8db4	0.100856215
234	0xbde2b8b3	-0.11070385
235	0xbe0bb7a6	-0.13644275
236	0x3d03a4b6	0.032139502
237	0x3e635f8a	0.22204414
238	0xbda30a4d	-0.07960949
239	0x3e468a77	0.19388758
240	0xbd50d7b4	-0.05098696
241	0x3e6ccac1	0.2312422
242	0xbd98b159	-0.074557014
243	0xbe823ca7	-0.254369
244	0xbdd1c094	-0.102418095
245	0xbe7c335a	-0.24628964
246	0x3db862ea	0.09003241
247	0xbdc5b8db	-0.09654399
248	0xbcd78783	-0.026309734
249	0xbace377b	-0.0015733087
250	0xbe0cf49d	-0.13765188
251	0xbd2ab627	-0.04167762
252	0xbdb928c8	-0.090409815
253	0x3e307423	0.17231803
254	0x3e0bc0cd	0.13647766
255	0xbdbceac3	-0.09224465

encoder.node_encoder.module_8.Wr.bias f4 [16]
0	0x3e017663	0.12642817
1	0xbd326b38	-0.043559283
2	0xbe71e52e	-0.23622581
3	0xbe032c37	-0.12809835
4	0x3e064278	0.13111293
5	0x3e0b640c	0.13612384
6	0x3b2f7cc8	0.0026777256
7	0xbe3e8e1e	-0.18608901
8	0x3de72234	0.112858206
9	0x3cadff33	0.021239853
10	0xbe81f3a4	-0.25381196
11	0xbc40b590	-0.011762038
12	0xbd8b7b48	-0.068106234
13	0xbd3ed2d8	-0.046587795
14	0xbd848966	-0.06471519
15	0xbe04e7b5	-0.12979014
