checkpoint/dagformer3.2.pt (torch, 107557 bytes, 61 tensors)

encoder.node_encoder.module_0.weight f4 [16, 5]
000000 e4 99 bd 3e eb ef c1 3e 4b ee 7a bd 30 db dd 3e
       0.37031472 0.37878355 -0.06126241 0.4333129
000010 9b c3 15 bd 3b e7 01 3e 20 16 30 be fa cb b1 3e
       -0.036563497 0.12685864 -0.1719594 0.34725934
000020 09 5d d5 3e 2d f0 aa be 3b f7 b3 3e 24 37 8f 3d
       0.41672543 -0.33386365 0.3514956 0.06992939
000030 86 db e9 3e 85 05 64 3d e7 0e 79 3e 3a c6 11 be
       0.45675296 0.055669326 0.24322091 -0.14235774
000040 d4 87 b1 3e 71 ed 65 3e 15 48 3c be e2 e1 2d 3e
       0.3467394 0.22453858 -0.18386872 0.16980699
000050 dd f0 56 be 3e 4a dc bd 0a 61 97 be 53 35 80 3e
       -0.2099032 -0.10756348 -0.29566222 0.25040683
000060 59 a2 de be 5f 1c 38 be 2d 10 d8 bd 24 17 f6 be
       -0.43483236 -0.17979573 -0.1054996 -0.4806453
000070 40 33 d5 bc 90 23 0e bf 56 50 bc 3e c0 d6 c1 be
       -0.026025414 -0.55523014 0.3678004 -0.37859154
000080 00 ce e6 3e c8 80 62 3d 90 85 21 be 66 2a 86 3e
       0.4507904 0.055298597 -0.15773606 0.26204222
000090 f8 ed 9a 3d 97 b9 45 3e b5 fd 0b bd 83 d5 56 be
       0.0756492 0.19309078 -0.0341775 -0.20979886
0000a0 0c c9 b4 3d 7b a7 11 be f8 3c a4 3e 34 68 d9 3e
       0.08827409 -0.14224045 0.32077765 0.42462313
0000b0 b1 11 94 3e 8b d2 2d be b8 57 89 3e 5a a7 15 be
       0.28919747 -0.16974847 0.26824737 -0.14614621
0000c0 50 8d eb 3d b1 a8 c7 be 0f 12 dd be 2a 96 21 be
       0.115015626 -0.3899589 -0.4317784 -0.1577994
0000d0 08 e0 4c be 60 45 c4 3e d8 c5 f6 3d 73 33 44 3e
       -0.20007336 0.3833418 0.120494545 0.19160251
0000e0 5a 32 b2 3d 52 1b 7d be a8 d1 82 3e ed 23 c6 be
       0.0870101 -0.24717453 0.2555058 -0.38699284
0000f0 3c 95 1f 3d 6e e4 94 be e8 26 8e 3e 77 97 1a be
       0.03896068 -0.29080528 0.27764058 -0.15096842
000100 62 31 28 3e 06 72 54 bd 9d 6b cd 3e e7 0b d4 be
       0.16425088 -0.051866554 0.40121165 -0.4141533
000110 91 7d 86 be 95 85 9d be 18 7e e1 3e 80 2d 21 3e
       -0.26267675 -0.30765978 0.44041514 0.15740013
000120 eb 2b 61 3e e3 fc d1 be a5 84 0d bf 59 f3 cc be
       0.2198941 -0.4101325 -0.55280524 -0.4002941
000130 48 97 9e be da 51 a1 3e 47 49 2f 3e fc 43 ca 3e
       -0.30974793 0.3150776 0.17117797 0.39504993

encoder.node_encoder.module_0.bias f4 [16]
000000 02 1e 54 be c1 51 82 be 42 8b 57 3e fc a3 62 be
       -0.20714572 -0.25452998 0.21049216 -0.22132868
000010 84 9d 70 3e 4e 24 0b be 60 2f 80 3e 97 03 a1 be
       0.23497587 -0.13588068 0.25036144 -0.3144805
000020 bd ed 4d be bd 37 da 3d 9c 9e 09 3e aa bc 0e be
       -0.20110221 0.106551625 0.13439411 -0.13939157
000030 e9 da a4 3e 8c 5a 9b 3e ee 2d 90 be 4c 13 81 be
       0.32198265 0.3034252 -0.28160042 -0.25210035

encoder.node_encoder.module_1.frequency f4 [8]
000000 00 00 80 3f a1 5a 89 3e 42 64 93 3d ab 29 9e 3c
       1.0 0.26826957 0.07196857 0.019306978
000010 95 b8 a9 3b bb 1f b6 3a ea 6e c3 39 17 b7 d1 38
       0.0051794746 0.0013894954 0.00037275936 1e-04

encoder.node_encoder.module_3.gamma f4 [16]
000000 bb da 89 3f 4c 62 7f 3f 99 ff 82 3f 7f c1 82 3f
       1.0769876 0.99759364 1.0234252 1.02153
000010 01 a8 81 3f 28 b5 88 3f 6f 0c 84 3f e0 43 72 3f
       1.0129396 1.0680285 1.0316294 0.9463482
000020 fe df 80 3f 2d 41 80 3f 64 38 86 3f a0 53 85 3f
       1.0068357 1.001989 1.0485959 1.0416145
000030 b3 37 7d 3f f9 87 8e 3f 5e ee 80 3f 18 8b 7c 3f
       0.98913115 1.1135246 1.0072744 0.9864974

encoder.node_encoder.module_3.beta f4 [16]
000000 ec b5 d6 3c e6 05 2c bc 60 8a 3e bd 42 d5 2b bc
       0.026209794 -0.010499453 -0.046518683 -0.010487856
000010 7d 2d 60 3c 97 b4 2e bc 68 46 11 3c bd 4b aa bd
       0.01368272 -0.010663173 0.008866884 -0.08315227
000020 9d 1b 0f bd 23 4a 66 3d 6e a8 57 bc 43 90 28 bd
       -0.034938443 0.056223046 -0.013162715 -0.041153204
000030 4e 7f dd bc 68 53 9b 3d c0 ac 13 3d 16 03 ec 3a
       -0.027038243 0.07584268 0.03605342 0.0018006291

encoder.node_encoder.module_3.transformer_conv.lin_key.weight f4 [16, 16]
000000 10 6a ce 3c 0b 27 0c be c9 43 4b bd 4a 1c 34 bd
       0.025197059 -0.13686769 -0.04962519 -0.04397229
000010 5c fa 0c 3d 05 0c 36 3e 21 6f a8 bd 76 c9 5d 3e
       0.03441845 0.17778023 -0.08224321 0.21658882
000020 8d 39 3d 3e 91 09 1b be c2 b0 79 be 29 f6 53 be
       0.18478985 -0.15140368 -0.24383834 -0.20699371
000030 d1 73 05 be 36 d7 81 bd a2 af 4c 3c b5 4d b0 bd
       -0.13032462 -0.06339876 0.012493046 -0.086085714
000040 b1 89 d5 bd ee 5d f2 bc 00 f8 73 bd d7 22 5b 3e
       -0.10426653 -0.029585805 -0.059562683 0.21400009
000050 3e 68 97 bd 61 7f 3b be 02 02 ef 3d f7 c2 a1 bc
       -0.073929295 -0.1831031 0.11670305 -0.019746287
000060 66 bb 44 3e b4 97 08 3e ee 9f 8c 3e 06 60 27 be
       0.19212112 0.1333912 0.27465767 -0.16345224
000070 de c7 0d 3e 97 b2 3c 3e 09 7e 15 be 62 70 7b 3e
       0.13845775 0.18427502 -0.1459886 0.2455459
000080 26 62 1f 3e fe 7a 05 bc b2 92 93 3d 02 db af bd
       0.15564784 -0.008146999 0.07205714 -0.08586694
000090 2c 20 51 be f1 12 c1 3d 75 71 bf 3d c3 c2 06 be
       -0.20422429 0.09427441 0.09347812 -0.13160233
0000a0 18 55 af 3d 86 d2 32 be 37 75 1a 3e d0 80 82 3e
       0.08561152 -0.17463121 0.15083776 0.254889
0000b0 f8 2c 65 3d b5 35 e0 bd 5d da 2a 3e 00 51 3f 3b
       0.05595109 -0.10947744 0.16684861 0.0029192567
0000c0 2d ab 26 3d 7f bb b0 3c b0 70 f2 3d 21 f4 aa bd
       0.04069059 0.02157378 0.118379 -0.08347345
0000d0 49 12 84 bd 20 3a bb 3d 46 ab d1 3c cc af 66 3e
       -0.064488 0.09141946 0.025594365 0.22527999
0000e0 94 af f2 bd 8f 8d 11 3d af 29 a5 bc c2 eb 99 bd
       -0.11849895 0.03553539 -0.020161478 -0.0751567
0000f0 39 ca 38 3e 56 d9 9e 3d 17 a8 3c be 16 22 86 bd
       0.18045892 0.07756297 -0.18423496 -0.0654947
000100 43 4b 40 be 36 20 ae bc dc ce 2b be 34 6c 73 be
       -0.1877871 -0.021255594 -0.1677813 -0.23771745
000110 d4 de 1a 3b 0c b6 ac 3d 72 92 ec bb 6c 80 ac 3e
       0.002363135 0.0843316 -0.007219606 0.33691728
000120 cc 5d 06 bd a1 71 77 3e f9 c7 85 bd fa a9 2b be
       -0.032804295 0.2416444 -0.065322824 -0.1676406
000130 e0 4c 92 3c 87 2c ab 3e 8e 5d 17 bd 92 f6 90 be
       0.017858922 0.3343241 -0.036954455 -0.28313118
000140 a9 88 61 3e 03 f1 8b 3e 59 db d0 bd 23 e0 0a 3e
       0.22024788 0.27332315 -0.10198087 0.13562064
000150 11 14 09 bc 27 11 73 be 27 3c 17 3d 32 b2 b6 3d
       -0.008366601 -0.23737012 0.0369226 0.08920707
000160 21 f0 d8 bd a9 24 20 3d 30 17 4f be cb dc 48 3e
       -0.10592676 0.03909746 -0.20223689 0.19615476
000170 ed 76 41 3e cf e1 08 3e 7e 94 24 3d af e8 a4 3d
       0.18893023 0.13367389 0.040180676 0.080521934
000180 44 03 2d be 4c 36 0e be b4 a0 61 bd f8 fc e3 bd
       -0.16895777 -0.138879 -0.0550849 -0.11132234
000190 c8 58 5d be 75 9c 1e 3e 7c 10 14 3e 91 4c 75 be
       -0.21615899 0.15489371 0.14459413 -0.23954989
0001a0 e2 eb e8 3d ca 73 0d 3e 90 24 63 3e 2d c2 e7 3d
       0.11373116 0.13813701 0.22181916 0.11316333
0001b0 5e dc 86 3e 7d c0 9f bd ed a1 34 3e 8a 26 54 3e
       0.26340002 -0.07800386 0.17639895 0.20717826
0001c0 85 10 47 be 09 c3 65 be 07 82 d8 3d 62 42 05 3e
       -0.19439895 -0.22437681 0.10571676 0.13013604
0001d0 c2 f0 20 be db 7b f5 bc 57 20 13 bd 56 5d 95 3b
       -0.15716842 -0.029966285 -0.035919514 0.0045582457
0001e0 73 8d 8e bd 62 2e f7 3d ca ad 82 3e ef e2 51 be
       -0.06960573 0.12069394 0.25523216 -0.20496725
0001f0 ed d3 05 3d 1e a1 99 bd 6c 91 d4 3b 6e 22 9a 3e
       0.03267281 -0.07501434 0.006487062 0.30104393
000200 64 4d f7 3d 2e d2 a2 bc 52 ce a6 3e 77 73 db bd
       0.12075308 -0.019875612 0.32579285 -0.107153825
000210 28 cf bf bd ef b2 35 bd c6 3d 60 be 0a dc 11 bd
       -0.09365684 -0.044360097 -0.21898565 -0.035610236
000220 8e 25 1a be a9 6a 08 bd 0b eb 0a 3e 2c ca 6e 3c
       -0.15053388 -0.033304844 0.13566224 0.014574569
000230 9c f0 45 be c2 35 a9 be 62 a5 d2 3c f7 68 96 3e
       -0.19330066 -0.33048826 0.025713626 0.29376957
000240 8f 63 81 be 21 8e 2c 3e 18 a3 3e be 09 00 76 bc
       -0.2527127 0.16851093 -0.18616903 -0.015014657
000250 2c 99 8e 3e ee 3c 69 3e b8 e0 11 be 46 09 45 3e
       0.27851236 0.22777149 -0.1424588 0.19241819
000260 66 b1 a0 3d 0b a5 65 bc 67 d9 5e 3e 3c 00 5c bd
       0.07846336 -0.0140164 0.2176262 -0.05371116
000270 37 a0 d6 bd 60 2d c6 bd 50 57 89 3d 1e 6d 06 3d
       -0.10479777 -0.09676623 0.06706107 0.032818906
000280 ec e8 b2 3d c1 8d 70 be ef 5d 99 bd e2 01 f4 3d
       0.087358326 -0.23491575 -0.074886195 0.119144216
000290 09 46 95 be 2a 0c ed bd 3e 89 9d bd 04 67 35 be
       -0.29154995 -0.11574586 -0.076921925 -0.17715079
0002a0 88 f9 22 3e 3e cd a2 3c 5f fd 81 3e ec eb bd bd
       0.15915501 0.019873258 0.2538862 -0.09273514
0002b0 50 0d b1 bd ff e7 cb 3d 55 ad 2e bd 0c 6d a9 3b
       -0.08645117 0.09956359 -0.04264577 0.00517047
0002c0 cc aa 22 be 6c 8b ec 3d c2 1a 5b be db 08 0f 3d
       -0.15885466 0.1155003 -0.21396926 0.034920555
0002d0 a4 d3 17 3e 1e 95 5a be de 8e 14 be 2e dc 32 be
       0.14826828 -0.21345946 -0.14507625 -0.17466804
0002e0 b2 09 51 3e 63 4a 42 3e 10 dc 3d 3d 9b 12 85 3e
       0.20413855 0.18973689 0.046352446 0.25990757
0002f0 b3 34 e2 bd 6a eb 82 be fd 08 9e 3d 36 35 be 3d
       -0.11045208 -0.25570232 0.07716558 0.09287493
000300 cd 9e 9a 3e 5a 08 8c bd fd 6b 73 3e ce 5b 45 3e
       0.3019928 -0.068375304 0.23771663 0.19273302
000310 33 c4 ed 3d 9f 81 a2 be cb eb 12 3e 00 87 90 be
       0.11609688 -0.31739518 0.1434776 -0.28227997
000320 89 bc 88 3e 34 b2 c9 bc 12 69 1a be 22 19 b3 3b
       0.2670634 -0.024621107 -0.15079144 0.0054656425
000330 a4 50 51 3c ee d7 96 be 47 f7 24 be 2b 29 c3 3d
       0.012775574 -0.29461616 -0.16109954 0.095293365
000340 31 91 53 3e 13 50 1f bc a1 44 39 3e 31 9d 0e ba
       0.20660855 -0.009723681 0.18092586 -0.00054402935
000350 9b 99 10 3d 97 f5 57 3d f7 17 14 be 27 a8 50 be
       0.03530274 0.052724447 -0.14462267 -0.20376645
000360 71 3f 00 be 6d f4 83 be 32 0f c3 bd 5c 99 21 3d
       -0.12524201 -0.2577242 -0.09524383 0.039452896
000370 b9 5c 49 be 5d a9 ed bd 58 0a 61 bd b1 15 c4 bc
       -0.19664277 -0.11604569 -0.054941505 -0.023936125
000380 23 e8 4c be 51 a8 3a 3d 71 e9 c0 bd 86 de 39 3d
       -0.20010428 0.045570675 -0.094195254 0.04537823
000390 b7 25 83 3d 58 7e 6e bd 46 e5 09 bd 5b d8 81 3d
       0.06403678 -0.05822596 -0.033665918 0.06340095
0003a0 13 7f 39 be 94 9f 3d 3d ac 54 cd bd a1 51 18 3e
       -0.18114881 0.046294764 -0.100259155 0.14874889
0003b0 4c 82 05 3c 2f 9d 86 3e a4 b9 88 3d 76 08 83 be
       0.008148741 0.26291797 0.06676033 -0.25592393
0003c0 16 6b e4 3d 6a e9 5a be ac a1 94 bd 0a 55 79 bd
       0.111532375 -0.21378103 -0.07257399 -0.060872115
0003d0 73 bf de bd 93 57 b2 bd e9 63 62 3e bb 52 19 3e
       -0.1087636 -0.0870811 0.22108425 0.14972965
0003e0 09 38 76 3d 1f 7a 89 3e f9 f3 89 be cb d7 d6 3c
       0.060112033 0.26850984 -0.2694395 0.026225945
0003f0 90 cb 33 3e 09 dd 43 3e 3f e3 34 be 6f 1c 95 3d
       0.17558122 0.19127287 -0.17664813 0.07280814

encoder.node_encoder.module_3.transformer_conv.lin_key.bias f4 [16]
000000 16 dc 11 be 2a 61 20 bc 16 bd 55 bd 72 a4 55 be
       -0.14244112 -0.009788791 -0.05218228 -0.20863512
000010 85 1b 74 be 85 58 28 be 7a d6 e7 3d 47 d5 e9 3d
       -0.23838623 -0.16440018 0.11320205 0.114176326
000020 ee d3 5e be 2f b2 bf bd 3b 58 80 3b 99 38 5d be
       -0.21760532 -0.09360158 0.003916768 -0.21603622
000030 2a 00 10 3e b7 eb 67 3e 00 c9 35 3d b7 42 3e be
       0.14062563 0.22648512 0.04438114 -0.18580137

encoder.node_encoder.module_3.transformer_conv.lin_query.weight f4 [16, 16]
000000 77 89 1e 3e 0a ad 7f 3d 39 39 6d 3e bd 50 99 bd
       0.15482126 0.062420882 0.2316636 -0.07486103
000010 dc 37 84 be 53 9a 92 3d 3d e5 fe bc 80 16 a3 bd
       -0.25823867 0.07158341 -0.031115169 -0.07963276
000020 8e cc b7 bd 4f 30 b8 bd 81 26 56 3e 53 f1 c9 bc
       -0.089745626 -0.08993589 0.20913126 -0.024651205
000030 be 89 32 3e f8 4a 87 3e 97 c5 28 3d 2b 26 4f 3d
       0.17435357 0.26424384 0.04120406 0.05057351
000040 f7 ab 52 bd 1d c6 b8 3d 8a 67 4b be 9e ad 0f 3e
       -0.05143353 0.09022162 -0.19863716 0.14031073
000050 56 bd 02 be f6 75 80 3d ec 23 d0 bc 0c f1 ea bd
       -0.12767538 0.06272499 -0.025407754 -0.11471757
000060 57 06 b2 3c 29 a1 d8 3d 9f 16 2d be 1d 48 55 be
       0.021731539 0.10577614 -0.1690316 -0.2082829
000070 68 ad 3b bd bd 01 f7 bd c3 ff 79 3d 55 57 43 3e
       -0.04581967 -0.120608784 0.06103493 0.19076283
000080 ad 34 ca bd 31 c1 42 3e 52 e6 c5 bd 06 49 9f bd
       -0.09873328 0.19019009 -0.09663071 -0.077776
000090 7b bc 53 be d4 82 4d be 41 b2 4c be cb 5e 3f be
       -0.20677368 -0.20069438 -0.19989873 -0.18688504
0000a0 97 84 5e be eb 9f b0 bc fd 04 d5 3d b2 0b 0d 3e
       -0.21730267 -0.02156063 0.10401342 0.13773993
0000b0 09 f6 3c 3e 3d c6 e4 bd a8 7b 2b 3c 8c aa 25 be
       0.1845323 -0.111706235 0.010466494 -0.1617834
0000c0 35 a4 53 3c 00 07 72 be 4e 8a b5 3d 23 18 a8 3c
       0.012917568 -0.23635483 0.0886427 0.020519322
0000d0 6e f3 a4 3d bb ff ef 3d b7 a1 ca bd ae 84 61 3e
       0.08054243 0.117186986 -0.09894126 0.2202327
0000e0 6b 7f df 3d 56 b2 d8 3d 28 77 42 3c bc 9d ec 3d
       0.10912975 0.1058089 0.011869229 0.11553523
0000f0 e9 77 20 3e 36 35 38 3d 4f 81 26 3e e8 bf 51 bd
       0.15670742 0.04497262 0.16260265 -0.051208407
000100 ff 13 8f 3e a7 e5 01 3e a5 ac 12 3e be 1e 55 3e
       0.27944943 0.12685262 0.14323671 0.20812508
000110 cf 29 25 3e 0e 50 6f bd c3 65 a9 bc 3c d5 8a 3d
       0.1612923 -0.058425955 -0.020678407 0.067789525
000120 ef 56 6c 3c 43 88 f9 3c 74 b1 63 3e 1e 5d 80 3e
       0.014425023 0.030460482 0.22235662 0.25071043
000130 c6 47 18 be db 07 bf 3d 89 cc 13 3d 99 e7 2c be
       -0.1487113 0.0932767 0.03608373 -0.16885222
000140 71 92 20 bc b5 40 7d bc 75 dd 11 be 8c c4 f2 bd
       -0.009800539 -0.015457322 -0.14244635 -0.118538946
000150 aa ae 21 bd 29 21 8d 3e e2 90 0a 3e 14 03 85 3e
       -0.039473213 0.27564362 0.13531831 0.2597891
000160 c8 be 3d 3d 22 56 4f 3d 95 e1 d2 3d a9 4c 71 3d
       0.04632452 0.050619252 0.102969326 0.058911
000170 4f 06 43 be e1 2b 20 be de 86 e3 bc 1c 0d 6d 3a
       -0.19045375 -0.15641738 -0.02777427 0.0009042786
000180 0f 08 1b 3e 5e b8 4e 3c 78 fb 70 3e 99 b5 e3 3d
       0.15139793 0.012617199 0.23533428 0.111186214
000190 26 2c 28 be 70 80 82 be 7b a2 6e be a3 ce 2f be
       -0.16423091 -0.25488615 -0.23304169 -0.1716867
0001a0 a0 bf ea 3d 87 96 1b 3e 92 6e 68 3e ca 84 be bd
       0.11462331 0.1519414 0.22698429 -0.09302671
0001b0 cc 14 86 bc 65 f7 59 bd 0a ba 0a bd 29 57 c1 3d
       -0.016367339 -0.05321445 -0.033868827 0.094404526
0001c0 d4 93 50 bd 90 ee 87 bd 37 b1 4b 3d 97 a1 cf 3d
       -0.05092223 -0.06637299 0.049729552 0.10138243
0001d0 d6 9e 06 be c4 c2 44 be 97 ba 47 3d a0 ee 8f bd
       -0.13146529 -0.19214922 0.04876193 -0.07027936
0001e0 a4 57 79 bd d4 fe c4 3d f6 ec b3 3c 86 3f 80 bd
       -0.060874596 0.09618917 0.021963578 -0.06262116
0001f0 77 28 cf bd f2 85 1d bd 30 ae 7e be d9 96 b0 3d
       -0.1011514 -0.03845782 -0.24871135 0.08622522
000200 58 c9 f9 bd 5d d4 be 3d 49 53 4d 3c 2a 94 ef 3c
       -0.121966064 0.09317849 0.012532064 0.029245455
000210 aa d5 31 bb 41 b5 2e 3e 17 27 d9 bd 65 f1 14 3e
       -0.002713541 0.1706133 -0.10603159 0.1454521
000220 1d cc ae 3d 08 e6 7e be 12 82 88 3d 75 18 6c be
       0.08535025 -0.24892437 0.06665434 -0.23056205
000230 65 98 9e bd c2 2a 59 be 8d 24 5c be 71 fd 57 3e
       -0.07743911 -0.21207717 -0.21498318 0.21092774
000240 43 a6 01 be e2 fa 3e 3e 9f 04 81 be c1 29 3a bd
       -0.1266108 0.18650392 -0.25198838 -0.045449976
000250 b7 66 a3 3d 63 06 63 3e 32 8e ce bd 0a 60 cc 3d
       0.07978576 0.22170405 -0.10085715 0.099792555
000260 f8 ea 01 bc 64 bb 3d 3e 29 e0 51 3b 1b 26 11 3e
       -0.007929556 0.18528515 0.003202448 0.14174692
000270 0c 85 35 be 7f fb 06 be a3 cc 7c 3e 59 93 60 be
       -0.17726535 -0.13181876 0.24687438 -0.21931209
000280 75 68 7b bd 28 22 01 be 03 e4 94 3e c6 4e a9 ba
       -0.061378915 -0.12610686 0.2908021 -0.0012917153
000290 cd e9 94 be 5f 2b 0a be ac 1b cd 3d c7 73 80 3d
       -0.29084626 -0.13493107 0.100150436 0.06272083
0002a0 ce 7d 8b 3e 79 bb 79 bd 51 de 0c 3e 49 64 8d be
       0.2724442 -0.060969803 0.13756682 -0.27615574
0002b0 92 e3 f6 3d 67 ab ce 3d 57 03 fd 3d 4e a8 d6 bd
       0.12055124 0.10091286 0.12354153 -0.1048132
0002c0 fe 8d 53 bc 0c 30 b0 bb cc 15 18 be a7 91 03 be
       -0.012912272 -0.0053768214 -0.14852065 -0.1284853
0002d0 93 c2 a6 be ea 09 0e bd a2 04 d0 3d 54 99 93 3d
       -0.32570323 -0.034677424 0.10157134 0.072069794
0002e0 cf 44 18 3d 21 91 90 3d d5 ee 2f be 81 83 6b bc
       0.037174996 0.07058931 -0.17180951 -0.014374615
0002f0 31 44 9b bd 21 b3 14 be d5 9b 39 3e 95 08 49 be
       -0.07581366 -0.14521457 0.18125851 -0.1963218
000300 e4 8f 5d bd 06 6e 99 be 37 be 9d 3c 88 00 67 bd
       -0.054092303 -0.29966754 0.01925574 -0.05639699
000310 11 e9 d9 bc f4 b6 45 be 59 0b 10 3e 90 a0 57 be
       -0.026600393 -0.19308072 0.14066829 -0.21057343
000320 c6 54 45 3e c4 5f 84 be b8 61 fa 3d bd ff 43 be
       0.1927062 -0.25854313 0.122256696 -0.19140525
000330 f3 79 76 3b 22 02 fc bd 83 67 ee 3d 39 a8 d3 3d
       0.0037609308 -0.12305094 0.11640837 0.1033482
000340 00 3f a6 be 53 01 85 3c 24 79 51 be 41 d6 29 3e
       -0.3246994 0.016235983 -0.20456368 0.16585638
000350 24 e8 42 3d 2e 52 16 bd 28 f7 dd bd e7 b6 ca 3d
       0.047584668 -0.036699466 -0.10838157 0.09898167
000360 0c 31 1a be af 22 74 3d 46 7d e6 3d 8d cc d9 3d
       -0.15057772 0.05960339 0.11254363 0.10634718
000370 97 b9 5c 3d 6c 9d 94 be 95 42 2d 3e 56 9b aa bd
       0.05388793 -0.29026353 0.1691993 -0.08330409
000380 62 1d 5b 3c 2d bc 64 3d 4c 62 1c 3e 36 10 08 3e
       0.013373705 0.05584352 0.15271872 0.13287434
000390 4c 06 1b 3e 5f 06 33 3e c1 7d 57 be 00 80 02 3c
       0.15139121 0.17482899 -0.21044065 0.007965088
0003a0 b9 92 87 be 99 33 1f 3e 09 27 2a be 1a 2d 68 ba
       -0.26479128 0.15547027 -0.16616453 -0.00088568183
0003b0 1c aa 2e 3e 67 33 a2 3e 42 b7 d1 bd 73 e5 24 be
       0.17057079 0.31679842 -0.10240032 -0.16103153
0003c0 08 40 5f 3d 41 b9 af 3c 38 c4 1a 3d 70 c1 6f bc
       0.054504424 0.02145064 0.037784785 -0.014633521
0003d0 d8 eb 77 be 9f 2e ad 3c 56 f2 5f 3e c8 11 23 be
       -0.24211061 0.021140395 0.21869788 -0.15924752
0003e0 20 6c 3c 3e 2d ff 1a 3e 69 57 76 3e 3c 12 ff bc
       0.18400621 0.15136404 0.24056782 -0.031136625
0003f0 01 74 48 3d a7 63 55 3e 5e de 1b 3e 15 7c 99 3e
       0.048938755 0.20838796 0.15221545 0.2997748

encoder.node_encoder.module_3.transformer_conv.lin_query.bias f4 [16]
000000 18 8e 72 bd 76 99 cb 3d f6 07 00 3e 88 3a 4e be
       -0.059217542 0.0994138 0.12503037 -0.20139515
000010 af fb ae 3d 06 da 5d bd a2 ab 2f 3e 84 c9 ca bd
       0.085440986 -0.054163 0.17155316 -0.09901717
000020 ab c8 27 bc a1 f9 12 3e 6c e7 59 be 7e 2b 65 be
       -0.010240714 0.14353038 -0.21279687 -0.22379872
000030 16 9d 14 be 31 1b 02 3e e9 58 3d 3e bf 48 02 be
       -0.14513049 0.12705685 0.18490948 -0.12723063

encoder.node_encoder.module_3.transformer_conv.lin_value.weight f4 [16, 16]
000000 db 35 5b 3c aa 9b 11 be 3a 1f 68 bd 2d 62 65 3e
       0.013379539 -0.14219537 -0.056670405 0.22400732
000010 a3 86 74 3c f8 97 45 be 2b 8c 98 3d 3a 2e 1c 3d
       0.014924678 -0.19296253 0.0744861 0.038130023
000020 91 0d 39 3e 12 fc 17 be 00 c8 0c be 50 2f ca 3d
       0.18071581 -0.14842251 -0.13748169 0.098723054
000030 3c 60 85 3d 0b 2a e9 3b 6b 7f 3e be e5 27 3f 3e
       0.06512496 0.0071156076 -0.18603294 0.18667562
000040 ec 02 41 3e 4a a7 c2 3d bb b5 e0 3c a2 81 96 3e
       0.18848771 0.09504564 0.027430406 0.29395777
000050 d1 67 3f bd ec da 54 3d f0 d8 62 3e dd ec ad 3e
       -0.046729866 0.051966593 0.22153068 0.33969775
000060 7c e9 9e bd 55 2a 6a 3e 56 5d 12 3b ee b9 bd bd
       -0.07759377 0.22867711 0.0022333465 -0.09263979
000070 de cb 2b 3e 40 cd 27 be a6 51 49 3e b8 86 4d 3e
       0.16776988 -0.1638689 0.19660053 0.20070922
000080 0c 6d 38 be 3a cf 1b be bc d6 9b be 76 f8 5d bd
       -0.18010348 -0.1521577 -0.30437267 -0.05419203
000090 c6 46 15 be 52 c5 c2 39 65 3e cf 3c 76 a2 1d 3e
       -0.14577779 0.0003714958 0.025298307 0.15394005
0000a0 cf 6b f0 3c 77 3b 1f 3e 7c 11 bf 3d b5 5c fe bd
       0.029348282 0.15550028 0.09329507 -0.12420026
0000b0 9f 2c 7d be 89 91 61 3d 4f 12 82 3e 7c b1 80 bd
       -0.24724053 0.055070434 0.25404593 -0.062838525
0000c0 db e0 07 bd d4 c7 44 be 43 c7 1f be 14 a4 51 be
       -0.033173423 -0.19216853 -0.15603356 -0.20472747
0000d0 6d 6a 31 3e c2 bd f7 bc b7 4d 52 be 9e 01 3e 3d
       0.17325754 -0.03024185 -0.20537458 0.04638826
0000e0 c9 7f 57 3d fa cc 67 bd 4e 86 88 3d f1 c5 a7 3d
       0.0526121 -0.056591965 0.066662416 0.08192051
0000f0 56 da 7a be 48 c4 80 be 8c 43 27 bd f8 dd 6a be
       -0.24497351 -0.2514975 -0.040835902 -0.22936237
000100 47 61 5e be 80 03 5c 3e 2d 2f 83 3c 1d 6d da bd
       -0.21716796 0.2148571 0.016013706 -0.10665343
000110 50 ab 17 be 08 3b 84 be 5d e0 6a 3e 57 4e 11 3c
       -0.14811444 -0.25826287 0.2293715 0.008868775
000120 86 f8 99 bd 89 3a 49 be c2 5c f5 3d e0 bc 92 bd
       -0.07518105 -0.19651236 0.11980583 -0.07164931
000130 4e d6 90 bc 4d bc f1 bd ee fa de bd 2d ed 7f 3d
       -0.017680313 -0.11803494 -0.10887705 0.062482048
000140 0b f8 4f 3e 25 11 12 be 4c f5 31 bc 51 c1 40 be
       0.20309465 -0.14264353 -0.010861706 -0.18823744
000150 f5 48 6f bd 03 86 89 3e c6 05 47 bd ab a1 4c 3e
       -0.058419187 0.26860055 -0.04858949 0.19983546
000160 97 1f 13 be c4 c0 d0 bd 2b 18 08 be 50 31 8e 3e
       -0.1436752 -0.10193017 -0.1329047 0.27771997
000170 1c 66 55 be 0f b6 61 3e 4f 84 a4 3d 06 31 17 3d
       -0.20839733 0.22042106 0.08033048 0.036911987
000180 ad db 1e 3e ba 77 83 bd 7f a7 39 3e 7d 6c 4e be
       0.15513487 -0.064193204 0.18130301 -0.20158572
000190 b8 d7 af bd 13 2e 2a 3e a2 e8 e1 3d 09 55 94 bb
       -0.08586067 0.16619138 0.11030699 -0.0045267385
0001a0 f2 34 c4 bc bc 68 c4 bd b5 67 1d 3e 7c 73 90 3c
       -0.023951028 -0.09590289 0.15371592 0.017633192
0001b0 7d fd 8d 3c 4d 2b bd 3d d6 ec 8c 3e 17 25 ee bd
       0.017332787 0.092367746 0.2752444 -0.11628168
0001c0 78 b4 ef bd e1 f2 15 3e d3 7e 18 3d 2c 3f 01 be
       -0.117043436 0.14643432 0.037230324 -0.12621754
0001d0 c6 b1 6c be a7 b1 08 3e 91 33 bd 3d 35 b1 00 3e
       -0.2311469 0.13349019 0.09238351 0.12567599
0001e0 fe c1 03 3e 0c 2a 90 be 0c 62 16 3d 99 2b 78 be
       0.12866971 -0.2815708 0.0367146 -0.24235381
0001f0 16 69 32 3d 19 a3 c5 3d 28 36 1f 3d e7 36 00 3e
       0.04355725 0.09650249 0.038870007 0.12520944
000200 a4 4e 3d be 1b 7b 2a be fd ec 83 be 43 f7 f0 3d
       -0.1848703 -0.16648524 -0.25766745 0.117659114
000210 ff 13 19 3e ae 7a 0e be 24 ba 0e 3e f9 10 67 3e
       0.14949034 -0.13913986 0.13938195 0.22565068
000220 64 dc 90 be dd 05 39 3e 63 3a 2f 3d ab 83 8a 3d
       -0.28293145 0.18068643 0.04278029 0.06763395
000230 8a d5 5a 3e e3 74 83 3e c4 34 01 3e d8 a2 2e 3e
       0.21370521 0.25675115 0.12617785 0.17054307
000240 45 1e f8 3d c0 a9 08 3d 0c f0 32 be ed 92 44 3d
       0.121151485 0.03336501 -0.17474383 0.04799168
000250 7a 75 5e be ab c9 34 3c d5 1f 92 3d ee 11 9b ba
       -0.21724501 0.0110344095 0.07134978 -0.0011830905
000260 b8 19 e9 bd 69 70 1b be 27 9f 52 3e 25 97 d6 3d
       -0.113818586 -0.151796 0.20568524 0.10478047
000270 5a 32 34 3e 91 1c be bd a1 a1 48 bd 89 f6 0a 3c
       0.17597333 -0.09282792 -0.048982266 0.00848163
000280 10 67 11 3e 6e 86 f2 bd 3b 36 23 3e c6 21 45 3e
       0.14199471 -0.11842047 0.15938656 0.19251165
000290 35 ff 8e be 02 04 b6 bc e2 b2 e0 bc 23 3f ac bd
       -0.27929083 -0.022218708 -0.027429048 -0.0841048
0002a0 c3 51 21 3e 54 20 69 bd 0f ed 3e 3e 6d 23 52 be
       0.15753846 -0.056915596 0.18645118 -0.20521326
0002b0 a4 b1 df 3d f2 fc 8e be 73 cf f5 bd 9b 40 77 3c
       0.10922554 -0.27927357 -0.120024584 0.015091087
0002c0 36 a0 3e 3e b3 9c 0b 3e 1a 66 85 be c6 8f f3 3c
       0.18615803 0.13633995 -0.2605446 0.029731642
0002d0 bc ce eb bd 15 af 87 3d 10 0e 80 be 7a e8 7c bd
       -0.11514041 0.06625191 -0.2501073 -0.061745144
0002e0 24 a4 b2 3d af 26 62 be 1e ea 87 be 50 fb 7d 3d
       0.087227136 -0.22085069 -0.26545805 0.06200725
0002f0 62 84 a8 bc 5b 15 49 bb 18 dc 6c 3e 85 6c 72 be
       -0.020570938 -0.0030682895 0.23130834 -0.2367421
000300 34 2d 34 be d5 de 2f be 7b 33 32 bd 5d 1c 95 bd
       -0.17595369 -0.17174847 -0.043506127 -0.072808005
000310 07 19 2f 3e 8b 2d f9 bb f6 71 98 3d 3c ed 0b be
       0.17099391 -0.007604306 0.07443611 -0.13664716
000320 9a bf 31 3e 1b ae 50 3e df 89 5a be b6 ec 5a bd
       0.17358246 0.20378916 -0.21341656 -0.0534484
000330 2b dd 59 be 55 1a f2 3d f6 97 72 be 08 50 f3 bd
       -0.21275775 0.11821429 -0.23690781 -0.11880499
000340 ef f2 84 3e 14 8d 78 be 89 e5 7c 3e 53 be d8 3c
       0.25966594 -0.24272567 0.24696936 0.026457941
000350 84 2e 09 3e 62 80 67 be 46 8d 53 3e 4b d7 23 3d
       0.1339665 -0.22607568 0.2065936 0.04000024
000360 bd 0e e5 3d 07 17 31 3e af d1 69 be 5b eb 63 be
       0.11184452 0.1729394 -0.22833894 -0.2225775
000370 c1 ef 92 3e b4 3a 33 be 69 19 3f be ec 88 5d 3d
       0.28698543 -0.17502862 -0.18662037 0.054085657
000380 ba 82 95 bc 77 ab e3 bd 86 c9 60 be 85 d6 06 3e
       -0.018250812 -0.11116689 -0.21951875 0.1316777
000390 fa 78 5d be 9f cb 74 3d d9 0d de 3d 92 52 da 3d
       -0.2162818 0.0597645 0.10842485 0.1066028
0003a0 21 96 60 3c 86 af ea 3d 5b e2 00 be 00 dd 50 bd
       0.0137076685 0.1145926 -0.12586348 -0.050992012
0003b0 52 7f 16 be 1a 36 e5 bd 4a a5 6b bd 27 b8 41 3e
       -0.14697006 -0.1119196 -0.05753068 0.18917905
0003c0 a8 2d 59 bd 57 98 b7 3d 88 58 33 3e 15 cd 30 bd
       -0.053022057 0.089646034 0.1751424 -0.04316433
0003d0 26 ec 11 be 68 ff 3f be 96 7d c1 bd f6 ca 51 3d
       -0.1425024 -0.18749774 -0.09447782 0.05121895
0003e0 b3 e2 3a be 0b 8a 8a bd 84 8a f0 3d 9c 92 3a 3e
       -0.18250541 -0.06764611 0.1174517 0.1821999
0003f0 28 30 a9 3d df ca 39 3c 99 aa ed 3d c0 a1 0d 3e
       0.08261138 0.011339872 0.116048045 0.13831234

encoder.node_encoder.module_3.transformer_conv.lin_value.bias f4 [16]
000000 67 ca a6 3d 90 86 12 be d2 6f 5b be 7c d9 ba bd
       0.08144074 -0.14309144 -0.21429375 -0.09123513
000010 51 06 65 bd 59 5a 0b 3d 6d 67 42 bb 25 e3 19 bc
       -0.055914227 0.03402171 -0.0029663697 -0.009392534
000020 41 f5 2c 3e 7f db ad bd 85 86 86 be 76 3e 1d be
       0.16890432 -0.08489131 -0.26274505 -0.15355858
000030 46 2c f0 bd ca 42 25 3e 51 0c 3f be ad 19 00 bd
       -0.117271945 0.1613876 -0.18657042 -0.031274486

encoder.node_encoder.module_3.transformer_conv.lin_skip.weight f4 [16, 16]
000000 90 06 59 bd ea 5f 1b be f4 14 e8 3d c4 46 d5 bd
       -0.052984774 -0.15173307 0.113321215 -0.10413888
000010 20 e5 53 bc 5c fd 33 be 90 8f ce bc f0 7e 11 3d
       -0.012933046 -0.17577118 -0.02521494 0.035521448
000020 80 ad 26 bc c0 4e bf bd 58 1b 98 3d 70 a8 84 bd
       -0.010173202 -0.09341192 0.074270904 -0.064774394
000030 16 ed 0d be 62 c8 3c be d8 e9 58 bd 72 d6 71 be
       -0.13859972 -0.18435815 -0.052957386 -0.2361696
000040 30 7c 54 3e bc 98 f4 bd a0 2e d4 bd b0 50 bd 3c
       0.20750499 -0.11943194 -0.103604555 0.023109764
000050 38 ba 84 3d 60 1c c1 bc 32 9f 2f 3e 30 3c 15 be
       0.06480831 -0.0235731 0.17150572 -0.14573741
000060 b0 7d b7 3d 00 ce 13 ba a4 3f 50 be 84 4b c6 bd
       0.0895952 -0.00056383014 -0.20336777 -0.09682372
000070 24 4c 82 3d 78 a0 43 3d 8c 25 3a 3e 20 43 2b 3e
       0.06362179 0.047760457 0.18178385 0.16724825
000080 d4 a0 0b be 9c a3 da bd 60 21 59 bd 56 67 37 be
       -0.1363557 -0.10675737 -0.053010345 -0.17910513
000090 1c 3c 8a bd f4 7c 51 be 34 bc c2 3d 9c 22 35 3e
       -0.06749746 -0.20457822 0.09508553 0.17688984
0000a0 40 27 a2 3c f4 43 37 be f0 de 41 be 38 52 c7 bd
       0.019794106 -0.17897016 -0.189327 -0.09732479
0000b0 bc ea 94 3d c0 d1 c7 3b 88 2f 3a 3d 74 46 71 3e
       0.072713345 0.006098002 0.045455486 0.23562032
0000c0 58 cb ed 3d e0 2e 5c 3d 78 2d 4f bd 78 33 f2 3d
       0.1161105 0.05375564 -0.05058047 0.11826223
0000d0 74 4f bb 3d 1a 6d 66 be b4 38 17 be 40 7c 09 3c
       0.09146014 -0.22502556 -0.14767724 0.00839144
0000e0 44 46 c2 3d e8 16 f9 3d 2e 64 18 be 34 fb 7d be
       0.09486058 0.12162572 -0.14881966 -0.24802858
0000f0 00 5e 55 bc 30 1f ea bc 78 92 94 3d a4 cd 8c bd
       -0.0130229 -0.028579324 0.07254499 -0.0687516
000100 c4 b7 43 3e b0 a6 88 3c 76 f1 3a 3e a8 41 32 be
       0.1911307 0.016681045 0.18256173 -0.17407858
000110 84 d1 cc 3d 20 08 f4 3c b8 09 00 be a8 d2 fd 3d
       0.100008994 0.02978903 -0.12503707 0.12393695
000120 b2 e8 7b be b2 f7 4e 3e 60 0b a5 3c 60 bd c5 3c
       -0.24600485 0.20211676 0.020147026 0.024138153
000130 ac c5 ec 3d 60 02 aa 3c 38 78 db 3d ee de 22 3e
       0.115611404 0.020753086 0.10716289 0.15905353
000140 20 cc 47 be 06 5c 29 3e 20 55 19 bd 58 21 6e bd
       -0.19511461 0.1653901 -0.037434697 -0.058137268
000150 c0 1c 4e 3d 18 3b 48 3e 5e 2a 0b be c0 86 2c be
       0.050320387 0.19553792 -0.1359038 -0.16848278
000160 1e e0 1e 3e 50 78 f0 bd a4 d6 a4 3d a8 dc 16 bd
       0.15515181 -0.11741698 0.08048752 -0.036831528
000170 f4 ed 8c 3d 82 5b 43 3e 94 bd 01 be 78 74 f8 bd
       0.068813235 0.19077876 -0.12669975 -0.1213159
000180 a4 32 fb 3d 20 44 60 3c 30 66 e1 bc 0c de 60 be
       0.12265518 0.013688117 -0.027514547 -0.21959704
000190 ec e5 58 3e 80 1e 1b bc a0 9b 3c bd bc 2b d2 bd
       0.21181458 -0.009467721 -0.046046853 -0.10262248
0001a0 08 13 4a bd 7c d9 f8 3d 80 47 bc bb f4 ee 5a 3e
       -0.049334556 0.12150857 -0.005745828 0.21380216
0001b0 40 7b 6c bc 98 e6 12 bd e6 7f 10 3e 00 f9 d3 bb
       -0.014433682 -0.035864443 0.1411129 -0.006468892
0001c0 18 62 4c bd c0 1f ab 3d b8 e3 49 3e e8 89 7f 3d
       -0.049898237 0.08355665 0.19715774 0.062387377
0001d0 e8 41 32 3e d6 e5 25 3e e0 ca 90 3d 3c 04 b2 3d
       0.17407954 0.16200957 0.07069945 0.08692214
0001e0 dc 36 a5 3d b0 6e d4 3c dc c9 59 3e f0 52 6c 3e
       0.08067104 0.025931686 0.2126841 0.23078513
0001f0 24 44 b6 3d 60 8c 4c bc 30 87 65 3e 04 40 47 be
       0.088997155 -0.01248464 0.22414851 -0.19458014
000200 cc 1a 3c 3e a6 a2 07 3e 08 63 24 3e 00 5c 9d bc
       0.18369597 0.13245639 0.16053402 -0.019208908
000210 46 00 3f be 60 9d 36 3e f8 df df bd b0 b6 86 3d
       -0.18652448 0.17833471 -0.109313905 0.065778136
000220 1a 09 11 3e 12 3d 6f be d0 e9 87 3c 3c e0 b5 bd
       0.14163628 -0.2336314 0.016590983 -0.0888066
000230 86 b2 35 3e de fe 22 be 7a 6f 1b 3e 48 a2 1f 3e
       0.17743883 -0.15917537 0.15179244 0.15589249
000240 30 3d 0d 3e 5e c3 75 3e 00 16 1b 3d 98 08 68 be
       0.13792872 0.24000308 0.037862778 -0.22659528
000250 da bf 36 3e e0 7c bb 3c 00 92 a2 3b e4 dc 73 be
       0.17846623 0.022886693 0.004961252 -0.23814732
000260 80 26 66 bd 20 82 f8 bd ae ba 7a 3e 86 47 36 3e
       -0.05618906 -0.121341944 0.24485275 0.17800722
000270 16 f9 3e 3e 74 51 2f 3e 0e b0 1e be 70 e3 db bd
       0.18649706 0.17120916 -0.15496847 -0.1073674
000280 10 5f c8 bd 70 40 cd bd 54 47 47 3e ec f5 ad 3d
       -0.09783757 -0.10022056 0.19460803 0.084941715
000290 8a 25 4d 3e 40 9b 3f bc 92 34 64 be 08 8b 94 bd
       0.20033851 -0.011694729 -0.22285679 -0.072530806
0002a0 5a ea 33 3e ae da 1b 3e 28 80 9e 3d 0c 2f 96 bd
       0.17569867 0.15220138 0.077392876 -0.07333192
0002b0 68 f1 6e be 3e 8e 09 be 30 79 05 3e e8 84 ce bd
       -0.23334277 -0.13433167 0.1303451 -0.100839436
0002c0 cc e8 f4 3d 0c cc 8b 3d 18 a7 c4 bd 8e ec 1b 3e
       0.11958465 0.06826028 -0.09602183 0.15226957
0002d0 b4 85 a4 bd 80 14 08 bc 08 07 c3 bd 96 d5 72 be
       -0.08033314 -0.008305669 -0.095228255 -0.23714289
0002e0 a0 1b 25 3d c8 f3 93 3d 28 e4 00 be da 0a 1d 3e
       0.04030955 0.07224232 -0.12587035 0.15336171
0002f0 6e a5 65 be 2c c7 76 be 3e 1e 1e be 20 f3 b0 bd
       -0.22426388 -0.24099416 -0.15441224 -0.086401224
000300 70 72 e3 bc c0 e2 45 bd c0 ab e9 3d 0e ac 60 be
       -0.027764529 -0.04831195 0.11409712 -0.21940634
000310 10 c8 16 3d c0 dd 8d 3b 14 3c 87 3d 08 7c 7e 3e
       0.03681189 0.004329413 0.06603256 0.24852002
000320 08 8e 1d 3e 96 bf 0d be a4 c7 51 be 50 e9 77 bd
       0.15386212 -0.13842615 -0.20486313 -0.06052524
000330 a0 6a 00 be 20 d8 b2 3d 00 31 16 3b 26 e8 4d 3e
       -0.12540674 0.08732629 0.002291739 0.20108089
000340 e4 1d c9 3d 80 48 3c bd 80 c7 0c 3c d0 3b 75 3d
       0.09820154 -0.04596758 0.008592486 0.059871495
000350 70 21 fe bc 44 93 4e 3e 9e 2a 48 be 44 8d f9 3d
       -0.031021804 0.20173365 -0.19547507 0.121851474
000360 86 2f 23 be e0 46 60 be 48 39 52 bd 08 80 f9 3d
       -0.15936098 -0.21902037 -0.05132416 0.12182623
000370 3e e1 34 3e 88 7b 80 3d b0 01 b1 bc 80 9e 65 bc
       0.17664048 0.06273562 -0.02160725 -0.01401484
000380 24 8e cf bd 40 c8 b7 bc 20 81 8d bc b0 d8 59 3e
       -0.10134533 -0.022434354 -0.017273486 0.21274066
000390 90 d2 15 3e 7a db 4c be 00 8d 87 3a 38 75 1d be
       0.14631104 -0.20005599 0.0010341704 -0.15376747
0003a0 f8 8c 22 bd ec 75 4b be a0 19 85 3d 92 98 38 be
       -0.03968522 -0.19869202 0.06499028 -0.18026951
0003b0 84 ba 7c 3e f4 54 41 3e 4a 38 30 be c8 03 71 be
       0.24680525 0.18880063 -0.17208973 -0.23536599
0003c0 00 d1 1f 3c f8 ec 8e bd 60 4e 96 3d 3e 4a 2d be
       0.009754419 -0.06978792 0.073391676 -0.16922852
0003d0 2c 95 d1 3d ae 1e 5d be f0 1b 07 be 64 94 06 be
       0.102335304 -0.21593735 -0.13194251 -0.13142544
0003e0 9c c0 f7 3d 00 7a d6 bb f8 05 76 be ec 34 12 be
       0.12097284 -0.0065453053 -0.24025714 -0.14278
0003f0 18 f1 ec bd 3e 86 6d be b8 1e 03 3d ec 71 b6 3d
       -0.115694225 -0.2319574 0.032011718 0.089084476

encoder.node_encoder.module_3.transformer_conv.lin_skip.bias f4 [16]
000000 90 e1 3b bd 6c bf cb bd 00 b9 c6 ba 0c 56 4b be
       -0.04586941 -0.0994862 -0.0015161335 -0.19857043
000010 f8 e0 1b be 40 d4 ba bb b2 6c 63 3e bc 71 9d bd
       -0.15222538 -0.0057015717 0.22209433 -0.07687709
000020 14 c7 fd 3d 70 7f c9 bd 14 4b 88 bd a2 b2 73 be
       0.12391487 -0.0983876 -0.06654945 -0.23798612
000030 98 17 54 3e 36 46 79 3e 00 0f ac bb 98 a7 22 3e
       0.20712125 0.2434319 -0.0052508116 0.15884244

encoder.node_encoder.module_6.weight f4 [16, 16, 3]
000000 4a c9 f1 3d d5 d4 92 3d ce 3d 98 3d af b4 0c be
       0.11805971 0.07169501 0.07433663 -0.137408
000010 88 e2 0a be 32 e3 e2 bd c3 eb 38 3d a2 b0 ff bd
       -0.13562977 -0.1107849 0.045146715 -0.12484862
000020 b0 a5 e1 bd 9f 47 8f bd 04 3a 08 be 52 ee 4b 39
       -0.110179305 -0.069960825 -0.13303381 0.0001944837
000030 a8 95 aa 3c b9 fc ac bd 03 8d c1 3d d6 72 60 bd
       0.020823315 -0.084466405 0.09450724 -0.054797016
000040 cf 70 26 bd 7c 36 e1 3d 6d ca fd 3d a2 a5 87 bc
       -0.040634926 0.1099672 0.12392125 -0.016558472
000050 08 35 d4 bd 88 4b 94 bd 50 91 96 3c cc 47 ad 3d
       -0.103616774 -0.07240969 0.018379837 0.0846096
000060 20 2a 93 3d 82 88 82 bd 0d ba 0b be 22 59 01 be
       0.07185769 -0.06373693 -0.13645191 -0.12631658
000070 99 18 3c bd 6a 51 ed 3a 1e c7 84 bd 2f bc e9 bd
       -0.045921896 0.0018105928 -0.06483291 -0.11412846
000080 3f 39 79 3c e6 a1 ea bd 3e 00 e3 bd 3e 4f f0 bd
       0.015211402 -0.11456661 -0.110840306 -0.11733864
000090 89 33 20 bd 09 8c 02 3e 36 1d 67 3d 95 32 8c bc
       -0.039111648 0.12748732 0.056424342 -0.017113963
0000a0 9e 5a f3 3c 83 6c 6b 3d d5 72 5c 3a 13 6d ee bd
       0.029706296 0.05747653 0.0008409445 -0.11641898
0000b0 fc 1f b6 bd a6 d1 c8 bd 89 31 70 bb 43 4c 07 be
       -0.08892819 -0.09805612 -0.003665062 -0.13212685
0000c0 da fc d6 bc 0e 30 58 bd 53 0c 11 3e 06 46 f0 3d
       -0.026243616 -0.052780204 0.14164858 0.11732106
0000d0 c9 b3 ab 3d f3 9f 04 3c a8 6a 3f bd a2 cc 16 3d
       0.08383901 0.0080947755 -0.046732575 0.036816247
0000e0 b9 3d cc bd eb 26 7c bd 93 87 ed bc 24 e8 0a bd
       -0.0997271 -0.061560553 -0.02899531 -0.033912793
0000f0 4a 03 0c be e3 05 6b 3d 8e 6c f3 3d 04 0c a3 bd
       -0.1367313 0.05737866 0.118859395 -0.07961276
000100 90 5e 1f 3d 2b 21 89 bc 83 80 ac bb 84 d8 09 3c
       0.03890854 -0.016739449 -0.005264343 0.008413438
000110 14 15 00 3e a4 6e 9e 3c 7e 05 bb bd 41 aa 54 bd
       0.1250804 0.019339867 -0.09131907 -0.05192018
000120 09 69 90 3d 1c 7d 38 3d 04 d9 37 3b 23 0d 9c bc
       0.07051284 0.04504119 0.0028052935 -0.019049233
000130 5a 06 66 bd d7 d5 51 bd 36 ed 9b bd 98 c0 c1 3c
       -0.0561584 -0.051229324 -0.07613604 0.023651406
000140 24 09 26 3d 56 5b e2 3d bf 8f 05 bd 85 4b 29 3c
       0.04053606 0.11052577 -0.03260779 0.010332947
000150 9a 0b bf 3d ae 95 80 3d f3 ec 97 3c 49 aa 35 3d
       0.09328385 0.06278549 0.018545603 0.04435185
000160 e5 7f f5 3b ed 90 fd bd 53 55 b6 3b af 39 01 bd
       0.007492053 -0.12381158 0.0055643707 -0.031549152
000170 c3 60 05 3e ee 68 05 3e 67 94 ea 3c 08 1b 04 3e
       0.13025193 0.13028309 0.028635217 0.12900937
000180 c7 3d 98 bd 1f 77 00 3e 95 82 fe 3d a8 c5 b4 bb
       -0.07433658 0.12545441 0.1242725 -0.0055167265
000190 76 39 ed bd bc c7 3e bd d5 1a 1e bd b1 3f 1c 3b
       -0.115832254 -0.0465772 -0.038599808 0.0023841674
0001a0 2b 01 06 be a0 21 db 3c bf e0 75 bd 8d 5f 17 bd
       -0.13086383 0.026749432 -0.060028788 -0.03695636
0001b0 45 ad 98 bd c9 a5 f9 bc 62 44 09 be 2b b8 9c bd
       -0.074549235 -0.03047456 -0.13404992 -0.07652315
0001c0 09 dc 59 3c a6 b3 c1 3d 7f 50 06 3e 5c 9c df bd
       0.013297089 0.09458093 0.13116644 -0.10918495
0001d0 9c 42 78 3d 5f a1 a6 bd 3c 8c e4 bd 93 45 d0 bb
       0.0606104 -0.08136248 -0.1115956 -0.00635595
0001e0 66 92 a9 bd 59 96 fe bd 45 20 0a be 92 dc c5 bd
       -0.082798764 -0.1243102 -0.13488872 -0.09661211
0001f0 67 e8 f2 3d 40 dc a4 3d 06 07 6a bd 7a da c5 bd
       0.118607335 0.08049822 -0.057135604 -0.09660812
000200 f4 63 e3 bd 63 8f ae bd d2 47 73 bd 44 89 b1 3d
       -0.11103049 -0.085234426 -0.059394665 0.086687595
000210 e8 79 41 3d a8 d5 63 bd ab 80 cb 3d 7c a3 b7 bd
       0.0472354 -0.05562368 0.09936651 -0.08966729
000220 11 d3 f0 bd ec 07 01 3d f6 fe a2 bd 80 2f 28 3d
       -0.11759008 0.031501696 -0.07958786 0.041060925
000230 1b 72 fa 3d db ca 8b bd 8a 46 ce bd bf 87 5e 3d
       0.12228795 -0.06825801 -0.10072048 0.054328676
000240 95 7c 05 be 88 dd 03 3e ba 99 8b bd 8f e9 8e 3d
       -0.13035806 0.12877476 -0.068164304 0.069781415
000250 30 0e eb bd a2 15 c8 bd 91 3f 82 3c 23 1e 52 3d
       -0.114773154 -0.09769751 0.015899451 0.051298272
000260 9b 35 e5 3d 43 39 f7 3d 40 01 08 bc 04 05 98 bc
       0.11191865 0.12071469 -0.008301079 -0.01855708
000270 7e 74 c3 3c fc 54 09 bd 50 00 a1 3b ae f9 0b be
       0.023859259 -0.033528313 0.0049133673 -0.13669464
000280 b9 a9 f2 bd dc 90 ca 3d df bc ac bd 88 c8 e8 3d
       -0.11848778 0.09890911 -0.08434462 0.11366373
000290 2f c3 81 3c 4e 02 10 3d 68 55 06 3e 65 69 a4 bd
       0.015840141 0.035158448 0.13118517 -0.08027915
0002a0 3d a7 ba bc cd 7c d1 3c 1c fb 49 3d bb d7 0f be
       -0.022784824 0.025572205 0.049311742 -0.14047138
0002b0 36 20 52 3d 31 53 ae bd 5f 4f 9b 3c 87 fd c7 3d
       0.05130025 -0.08511961 0.018958746 0.097651534
0002c0 9e 92 6b bc 26 9f 95 bb 5d b0 30 bc 03 ad f6 3d
       -0.014378218 -0.004566091 -0.010784236 0.12044718
0002d0 05 00 a8 3d 78 d8 c6 3c 0a e6 b1 bd 06 86 a0 bd
       0.08203129 0.024273142 -0.086864546 -0.07838063
0002e0 d9 76 eb 3d c4 a9 d4 3d 44 28 ab 3d af 7c e6 bd
       0.11497278 0.10383943 0.083572894 -0.1125425
0002f0 b7 36 e6 3d eb 0e 62 bc b0 c9 d9 3d 81 5f 00 3e
       0.11240905 -0.013797502 0.10634172 0.12536432
000300 05 9b 81 3c 10 03 76 bd 9e 07 0b 3e 7a 0b 9a bd
       0.01582099 -0.060061514 0.13577124 -0.0752172
000310 cd 26 c1 3d be b9 0d be 2d f1 39 bd 90 dc 00 be
       0.09431229 -0.13840386 -0.04539602 -0.12584138
000320 c2 99 84 bd a2 09 7b 3d de ce d3 bd 92 a3 ff bd
       -0.064746395 0.061288483 -0.10342191 -0.124823704
000330 e8 5d d3 3d 93 cc 9d 3d eb e0 ce ba 86 63 d0 bd
       0.103206456 0.07705035 -0.0015783584 -0.101752326
000340 d7 a1 1c bd d5 6b 3f bd d1 8f b6 3d 32 60 41 bd
       -0.03824028 -0.046733696 0.089141496 -0.04721088
000350 d9 46 2a bd 88 8a d1 bd bc 39 8b bd d6 0d a0 3d
       -0.04157147 -0.10231501 -0.06798121 0.07815139
000360 f5 73 be 3d 24 ca ab 3c d3 d1 5d bd 4e f6 0d 3e
       0.09299461 0.020970412 -0.054155182 0.13863489
000370 7a 62 e9 3c 24 34 64 bd 1b e9 4c bd d3 7a a5 bc
       0.02848934 -0.055713788 -0.050026994 -0.020200169
000380 14 25 8c 3d 87 3e 58 3d ff 4c d6 3d 8c 1a d5 bb
       0.068430096 0.052794006 0.104639046 -0.006503409
000390 cb 7d f4 3d 01 24 70 bd 1c 24 88 bd c1 54 5a bd
       0.119380556 -0.058628086 -0.06647512 -0.053303484
0003a0 30 ab 0a be bd 0b c2 bd f4 bd 05 be 75 c1 0b bc
       -0.13541865 -0.09474895 -0.13060743 -0.0085300105
0003b0 97 5a b2 3a 6a 71 19 bd ae 02 ca bd 48 19 06 3e
       0.001360732 -0.037461676 -0.09863792 0.13095582
0003c0 fa e3 43 bd e0 de 8c 3d 76 dc cd 3d 1f 51 c2 bd
       -0.047824837 0.068784475 0.10051815 -0.09488129
0003d0 3a d4 93 bc 5c d9 aa 3d dc 45 0f 3e b0 2c 95 bc
       -0.018045533 0.08342239 0.13991493 -0.018209785
0003e0 77 33 d6 3d 52 02 e8 bd ac 10 c0 bd c3 15 f3 3d
       0.10459035 -0.113285676 -0.0937818 0.11869385
0003f0 9d e6 5f bc 40 04 12 3e ab f6 2b 3c c4 2d 75 bd
       -0.013665822 0.14259434 0.010495822 -0.0598581

encoder.node_encoder.module_6.bias f4 [16]
000000 9f 32 a9 bc 48 02 07 bc 20 20 a8 bd 1c 15 4a 3d
       -0.02065402 -0.00824029 -0.08209252 0.049336538
000010 2c 3f 0f be c4 75 b5 3d a7 14 09 3e 51 4b bf 3c
       -0.13988942 0.08860353 0.13386784 0.023351343
000020 ee 23 0a bd 26 5f 07 be e9 d0 8a 3d 28 36 f2 3d
       -0.03372567 -0.1321989 0.06778128 0.11826736
000030 05 b8 fc 3d 30 df 52 3c b3 8d 44 3d fe 9f 0d 3e
       0.123397864 0.012870595 0.047986697 0.13830563

encoder.node_encoder.module_8.Wr.weight f4 [16, 16]
000000 09 7b a9 3c b5 9e 11 be e4 4b 61 be a3 55 f4 3d
       0.02068855 -0.14220698 -0.22001606 0.119303964
000010 ff 10 c4 3c 73 30 8f 3e e6 83 f7 bd 43 d0 b4 3b
       0.023933886 0.2796665 -0.120857045 0.005517991
000020 76 41 8e bd 22 35 c3 bd 40 52 09 3e f8 8f 51 be
       -0.069460794 -0.09531619 0.13410282 -0.20465076
000030 20 12 52 3e 98 73 a9 3d 1d 5a 18 be e1 93 ed 3d
       0.20514727 0.08274001 -0.14878125 0.11600471
000040 7f d8 bf bd 0f 6a 49 bc c1 ed 1b bd a7 a2 53 be
       -0.09367465 -0.012293353 -0.038068537 -0.20667516
000050 8b e2 38 bd af 65 1b 3e 50 17 84 bd cf bd 14 be
       -0.045137923 0.15175508 -0.06449759 -0.14525531
000060 0b 5b 02 bd 46 c6 a3 3c 16 17 91 bd 9c 84 21 be
       -0.031825107 0.019992005 -0.070844814 -0.15773243
000070 c2 93 ca bd 4e ba aa bd 6a 52 f4 3d 6b f9 43 3e
       -0.09891464 -0.08336316 0.11929782 0.19138114
000080 2d d6 ed bd 25 9c fd bb 9b 23 6f 3e c5 a4 8c bc
       -0.116131164 -0.007739561 0.23353426 -0.017168412
000090 5a 7f 22 be 44 d8 9d 3e 76 fd 16 3e e8 1d ef bc
       -0.15868893 0.3082906 0.14745125 -0.029189065
0000a0 b0 c3 63 be 3a d9 bd 3d de 42 8b be 68 29 66 3e
       -0.22242618 0.09269948 -0.27199453 0.22476733
0000b0 ea 85 f9 3d 66 e3 53 bd 70 53 52 be 9f 85 29 be
       0.12183745 -0.051730536 -0.20539641 -0.16554879
0000c0 9f db db 3d 54 99 41 3e d5 20 1b bd e2 b5 6c 3e
       0.10735249 0.18906146 -0.037873108 0.23116258
0000d0 af 8a 8d bd 82 8c 18 be c5 18 ef bd 02 5d 3e 3d
       -0.069112174 -0.1489735 -0.11674646 0.046475418
0000e0 2e 62 2a bd cc c1 d6 3d ca 65 ee bd c9 c9 6d bd
       -0.041597538 0.104861826 -0.116405085 -0.058053765
0000f0 f6 88 65 be 1b 06 65 3e d5 1a a0 bc 44 81 60 be
       -0.22415528 0.2236561 -0.019544045 -0.21924311
000100 8e 19 40 3d b8 49 ac 3d 4a fa 89 bc 8f ba cf bd
       0.04689937 0.08412498 -0.01684298 -0.10143005
000110 d9 e3 40 3e fe 9d 08 be 1f 65 c2 3b ce 6e 60 bd
       0.18836917 -0.13341519 0.0059324647 -0.05479317
000120 87 06 cc 3d 2c 2a 8e 3e 68 cf 66 bd cb 7c fb 3d
       0.099621825 0.2776655 -0.05635014 0.12279662
000130 0a 1c e8 3d f1 6a 9a bd 8f 98 db bd 2f c7 35 bd
       0.11333473 -0.07539929 -0.107224576 -0.04437941
000140 70 fa 6c 3e 56 0c d3 3b 35 41 1a bc 4b e5 9e bd
       0.2314241 0.0064406795 -0.009414961 -0.07758578
000150 8e cf 90 bd e2 c1 99 be c3 58 4c be 35 33 16 bd
       -0.07070838 -0.30030733 -0.19955735 -0.03666993
000160 28 6a e9 3d d1 4e b8 3d 4f 6a 68 3e 04 13 a0 be
       0.11397201 0.08999408 0.22696804 -0.31264508
000170 de 7f c5 bd b9 db d6 bd 64 22 6b bd 47 55 32 3e
       -0.09643529 -0.104911275 -0.057405844 0.17415343
000180 a5 bd 47 be fc 21 6c 3e a1 18 95 bd de 11 52 3e
       -0.19505937 0.23059839 -0.07280088 0.20514628
000190 de b2 9f bd ef ac 17 3e 73 9e 81 3e 9e ca e8 bd
       -0.07797788 0.14812063 0.253162 -0.11366771
0001a0 2f 79 94 bb 86 de c9 3d 8c 2d 6c be 4c 52 08 3e
       -0.004531048 0.09856896 -0.2306425 0.13312644
0001b0 b8 24 19 be 4c 74 88 3e 45 01 3f be c6 aa b9 bd
       -0.14955413 0.26651227 -0.18652828 -0.090657756
0001c0 a6 77 0e 3e 44 f4 05 be 6d bf 99 3e 44 c3 6d 3e
       0.1391283 -0.13081461 0.3002886 0.23219019
0001d0 8b ee 51 3e 3e 4c 57 be 45 01 2f bd d5 3f a7 bd
       0.20501153 -0.21025178 -0.04272582 -0.08166472
0001e0 af 78 08 3d ac bb 8f be 07 ee 08 3e d8 93 68 3d
       0.033318218 -0.2807287 0.1337205 0.05678162
0001f0 06 15 43 bd 3d 3c 84 be 8a 9c 52 3e d4 ff 1c be
       -0.04762747 -0.25827208 0.20567527 -0.15331966
000200 48 e2 12 3e fa e5 2c 3c cf e7 fd 3d e8 46 19 3b
       0.14344132 0.010552878 0.123977296 0.002338821
000210 f1 7a da bd fa 70 a6 bc 89 b3 5d be c5 0d 94 3d
       -0.106679805 -0.020317543 -0.21650518 0.07229189
000220 12 d3 2d be d5 4a cc 3d d3 95 c0 bd ad 41 50 3e
       -0.16975048 0.099752106 -0.09403577 0.20337553
000230 92 c8 85 3e 0b 1c 43 be 56 f8 73 3e 48 d4 20 bd
       0.26129586 -0.19053666 0.23825201 -0.039264947
000240 79 97 5f be b7 cb 80 3d c1 46 06 3e ac 59 74 3e
       -0.21835126 0.062888555 0.13112928 0.23862332
000250 8e be 70 be db e8 80 3e 7b 83 51 3e 26 e0 49 3e
       -0.23510191 0.25177655 0.20460312 0.19714412
000260 38 bd 1b 3e fd ae 9f bd 83 8f 0a 3e 39 44 64 3e
       0.152089 -0.07797048 0.13531308 0.2229165
000270 e7 a8 b5 bd 06 6e c5 bd 3c 71 2e 3e 95 0f 4e 3e
       -0.08870106 -0.09640126 0.17035383 0.20123132
000280 43 7f 0f 3e f3 cf 35 3e fc df 15 be 33 ca 2c bd
       0.1401339 0.17755108 -0.14636225 -0.04218502
000290 68 b4 90 bd 3d d8 f0 3d d0 6b 5e 3d 24 b7 3c be
       -0.0706566 0.11759994 0.054302037 -0.18429238
0002a0 24 78 f1 bc 66 54 47 be 50 96 6b be bd f4 61 3e
       -0.029476233 -0.19465789 -0.23006558 0.22066016
0002b0 ac eb 10 be 1c fe b4 3d ca 95 84 bd a4 0a 06 bd
       -0.14152402 0.0883753 -0.064738825 -0.03272499
0002c0 94 23 19 bb 07 2c 5b 3e 2e cb c2 bd 61 70 32 3e
       -0.0023367153 0.21403514 -0.0951141 0.17425682
0002d0 76 eb 1d 3e 6f a3 31 3e 20 ca 24 be 77 61 25 be
       0.15421852 0.17347501 -0.1609273 -0.16150461
0002e0 61 fe 11 be c4 ee 21 3c 7d 42 04 be de d7 da 3b
       -0.14257194 0.009883586 -0.12915988 0.0066785654
0002f0 0b 1d 30 3e b1 cd c8 3d 39 8c 7d be d3 82 dc bd
       0.17198579 0.098048575 -0.24760522 -0.1076714
000300 88 ae 45 3e 1b fe 3b bc e2 ff e7 3d 2b b1 cc bd
       0.1930486 -0.011474158 0.11328103 -0.099947296
000310 2a 94 a2 bd 64 e0 c9 3d 43 be 4e be e5 39 f6 3d
       -0.07938416 0.09857252 -0.20189767 0.12022761
000320 1b d2 ee 3d 51 20 54 be d8 a7 ae bd ff 52 90 bc
       0.11661168 -0.20715453 -0.085281074 -0.0176177
000330 ad 2a ae 3d e6 10 df bd 36 d7 89 3e aa 1e 8d be
       0.085042335 -0.10891895 0.26922005 -0.27562457
000340 ec e5 95 bd bf 7e bc bd e0 36 47 bd 20 97 56 bd
       -0.07319245 -0.092038624 -0.048636317 -0.052390218
000350 2d 76 45 bd 99 1a 1c 3e 97 e2 ed bd 40 d0 d1 3d
       -0.048208404 0.15244521 -0.11615484 0.10244799
000360 16 2a 12 bd a9 66 0e 3d 08 57 a2 be f0 cd 9c be
       -0.035684668 0.034765873 -0.31707025 -0.30625868
000370 77 3e a1 be 7e a3 1c 3e de 6d 54 be 06 50 73 3e
       -0.3149297 0.15296742 -0.20745036 0.23760995
000380 5c 51 91 bd c8 a4 38 3c dc 80 0a bd 7a bf 06 3e
       -0.07095596 0.011269756 -0.033814296 0.1315898
000390 9a 1d 93 bd 2a 9e c9 3d 1a ca 07 3e e2 74 22 3e
       -0.071833804 0.098446205 0.1326069 0.158649
0003a0 ee c1 6d 3e 9e 0a d3 3d ab 91 e5 bd b9 9d 0d be
       0.2321851 0.103047594 -0.112094246 -0.13829698
0003b0 d4 a6 fb 3c 19 ea 64 3e 12 1e a6 bd b8 ec 47 3e
       0.030719198 0.22354926 -0.08111204 0.19523895
0003c0 05 8e 3f bd 72 f5 6d 3e 7b 73 97 bd 60 26 82 be
       -0.0467663 0.23238161 -0.07395073 -0.25419903
0003d0 07 7f d1 bd 76 d1 7d be a4 05 b6 3d c2 f5 c3 bd
       -0.10229307 -0.24786934 0.088877946 -0.09568359
0003e0 a6 52 de bc 1b fb f3 ba 2a 6e 09 be 17 99 29 bd
       -0.02713902 -0.0018614264 -0.1342093 -0.041405763
0003f0 3c fe b7 bd ee 55 33 3e 08 50 0d 3e f9 7b be bd
       -0.08984038 0.17513248 0.13800061 -0.0930099

encoder.node_encoder.module_8.Wr.bias f4 [16]
000000 39 a5 00 3e 45 5a 24 bd 64 c6 72 be 1e fb 03 be
       0.12563027 -0.04012515 -0.23708493 -0.12888762
000010 32 9c 07 3e b4 ce 0d 3e cb 7e 4f 3b 26 95 3f be
       0.13243178 0.13848382 0.0031661268 -0.1870924
000020 bb 03 e6 3d ec 5c b1 3c 2e bc 81 be 8a ea 42 bc
       0.1123118 0.021650754 -0.25338882 -0.011896739
000030 dd cc 88 bd b2 bb 45 bd 7f 25 82 bd 7a 78 04 be
       -0.066796996 -0.048274703 -0.06354808 -0.12936583
