checkpoint/dagformerv3.pt (torch, 107557 bytes, 61 tensors)

encoder.node_encoder.module_0.weight f4 [16, 5]
0.37145182 0.37769437 -0.06101234 0.43363956 -0.03681576 0.12670137 -0.1726628 0.34601405
0.41599417 -0.33391124 0.35288456 0.06899776 0.45523402 0.05580724 0.24352583 -0.14104955
0.34587193 0.22335163 -0.18285862 0.17119567 -0.21112756 -0.10672688 -0.29403043 0.25054422
-0.43528903 -0.18139757 -0.1047752 -0.47910646 -0.025982242 -0.5552245 0.36777556 -0.37872186
0.4495566 0.05521776 -0.15860282 0.26032656 0.07611874 0.19454569 -0.033653107 -0.2104473
0.08944155 -0.14279181 0.31953385 0.4248431 0.2889953 -0.17127354 0.26872274 -0.14487682
0.11539003 -0.39122683 -0.43276343 -0.15756664 -0.20037454 0.38241604 0.119847454 0.19009982
0.08766217 -0.24564186 0.25481433 -0.38820702 0.039219093 -0.29115403 0.27629837 -0.15069069
0.1638362 -0.053353135 0.40142852 -0.4130479 -0.26264152 -0.30810007 0.43905511 0.15781939
0.2214191 -0.40974075 -0.5530431 -0.39907634 -0.3106867 0.31379315 0.17149444 0.39607903
00000000: ef2e be3e 2861 c13e 13e8 79bd 0106 de3e
00000010: 1fcc 16bd 01be 013e 84ce 30be c128 b13e
00000020: 30fd d43e 6af6 aabe 49ad b43e b34e 8d3d
00000030: 6f14 e93e 2296 643d d65e 793e 4b6f 10be
00000040: 2016 b13e 4ab6 643e 4a3f 3bbe eb4d 2f3e
00000050: d331 58be 9f93 dabd 288b 96be 5547 803e
00000060: 34de debe 49c0 39be 6194 d6bd 714d f5be
00000070: b6d8 d4bc 3123 0ebf 144d bc3e d5e7 c1be
00000080: 482c e63e 052c 623d c768 22be 8649 853e
00000090: 24e4 9b3d fc36 473e d7d7 09bd 7f7f 57be
000000a0: 222d b73d 0438 12be f199 a33e 0985 d93e
000000b0: 31f7 933e 5562 2fbe 0796 893e 975a 14be
000000c0: 9c51 ec3d e24e c8be 2b93 ddbe 2659 21be
000000d0: fc2e 4dbe 09cc c33e 9572 f53d 87a9 423e
000000e0: 3988 b33d 8a89 7bbe 0677 823e 12c3 c6be
000000f0: 33a4 203d 2412 95be fb76 8d3e a94e 1abe
00000100: adc4 273e d188 5abd 0a88 cd3e 047b d3be
00000110: f378 86be 4bbf 9dbe d5cb e03e 689b 213e
00000120: b0bb 623e 8ac9 d1be 3c94 0dbf bc53 ccbe
00000130: 5412 9fbe 7fa9 a03e 3d9c 2f3e dfca ca3e

encoder.node_encoder.module_0.bias f4 [16]
-0.20640227 -0.25564456 0.21078792 -0.22069444 0.23484097 -0.13625255 0.25019512 -0.31438383
-0.2007921 0.106230244 0.13380143 -0.14004034 0.32190537 0.30288795 -0.28195825 -0.25175104
00000000: 1e5b 53be d8e3 82be cad8 573e b9fd 61be
00000010: 277a 703e ca85 0bbe 9319 803e ebf6 a0be
00000020: 729c 4dbe 3e8f d93d 3e03 093e bc66 0fbe
00000030: c8d0 a43e 2114 9b3e d55c 90be 83e5 80be

encoder.node_encoder.module_1.frequency f4 [8]
1.0 0.26826957 0.07196857 0.019306978 0.0051794746 0.0013894954 0.00037275936 1e-04
00000000: 0000 803f a15a 893e 4264 933d ab29 9e3c
00000010: 95b8 a93b bb1f b63a ea6e c339 17b7 d138

encoder.node_encoder.module_3.gamma f4 [16]
1.0753891 0.99698955 1.0239242 1.0203402 1.0128154 1.0677435 1.0321391 0.9459865
1.0067325 1.0010744 1.0470105 1.0421177 0.9887164 1.112076 1.005052 0.98587257
00000000: 5aa6 893f b53a 7f3f f30f 833f 829a 823f
00000010: efa3 813f d2ab 883f 221d 843f 2c2c 723f
00000020: 9cdc 803f 3523 803f 7104 863f 1d64 853f
00000030: 851c 7d3f 8258 8e3f 8ba5 803f 2562 7c3f

encoder.node_encoder.module_3.beta f4 [16]
0.026210414 -0.010263472 -0.046700403 -0.009714188 0.013398028 -0.010953269 0.01022191 -0.083340794
-0.034303404 0.055717744 -0.012690085 -0.041477837 -0.027485047 0.07586365 0.036257572 0.0014586076
00000000: 39b7 d63c 1f28 28bc ec48 3fbd 4228 1fbc
00000010: 6783 5b3c 5775 33bc cc79 273c 94ae aabd
00000020: ba81 0cbd 4a38 643d 13ea 4fbc aae4 29bd
00000030: 5228 e1bc 675e 9b3d d282 143d c02e bf3a

encoder.node_encoder.module_3.transformer_conv.lin_key.weight f4 [16, 16]
0.026089706 -0.13644324 -0.050574385 -0.044889938 0.03519958 0.17849746 -0.08147541 0.21729188
0.18448968 -0.15014286 -0.24412815 -0.20619535 -0.13113816 -0.06279837 0.013109744 -0.08674652
-0.105630204 -0.029892337 -0.058512185 0.21508765 -0.0747688 -0.18381172 0.115899585 -0.02042859
0.19210306 0.13190942 0.27472538 -0.16432503 0.13937397 0.1837628 -0.14652674 0.24615808
0.15639882 -0.007937072 0.0716402 -0.08629699 -0.20387997 0.09457736 0.09381179 -0.13130717
0.08536231 -0.1740198 0.15076675 0.2552435 0.055582844 -0.109236665 0.16709802 0.0026469333
0.04120043 0.022156052 0.11705835 -0.08475517 -0.063371934 0.09244819 0.026689356 0.22628903
-0.11858969 0.03702755 -0.02067291 -0.07401953 0.1792973 0.07843941 -0.18333788 -0.06644905
-0.18691355 -0.021142524 -0.16798928 -0.23825762 0.0026138043 0.08439158 -0.007037635 0.3369483
-0.03264154 0.24228087 -0.06494667 -0.16734944 0.017475374 0.3342071 -0.037052054 -0.28309596
0.21973215 0.27295336 -0.101167835 0.13639894 -0.0090396805 -0.2379876 0.036261674 0.08860171
-0.10563222 0.038066477 -0.20194373 0.19546753 0.18963052 0.1331525 0.039646223 0.08109196
-0.16816998 -0.13855736 -0.056058172 -0.11221907 -0.21540827 0.15558071 0.14533348 -0.23887683
0.1134417 0.13942553 0.22152925 0.113933794 0.2626177 -0.077431805 0.17698659 0.20654763
-0.19476573 -0.22490263 0.10684028 0.13124584 -0.15815364 -0.030837836 -0.03687675 0.003711533
-0.06955151 0.11945449 0.2555344 -0.20597428 0.033702504 -0.07569624 0.005779892 0.30182126
0.12006161 -0.020424236 0.32677346 -0.10605098 -0.09456986 -0.04513901 -0.2198586 -0.03636335
-0.1504654 -0.034556117 0.1358761 0.013635296 -0.19231433 -0.33108047 0.025096837 0.29445517
-0.25334117 0.16829297 -0.18533534 -0.014366279 0.27793527 0.2272033 -0.14304394 0.191855
0.07883917 -0.015080155 0.21794374 -0.054298174 -0.10422364 -0.097276255 0.06654218 0.033360492
0.08772988 -0.2344929 -0.07612087 0.11820764 -0.29063857 -0.11481719 -0.075989075 -0.17622523
0.1587474 0.021198273 0.2532527 -0.09182024 -0.08733299 0.1004337 -0.041765206 0.004266232
-0.15986975 0.115081295 -0.21280093 0.03594641 0.14736898 -0.21432103 -0.14597377 -0.17551808
0.20446016 0.18825608 0.046763845 0.25899267 -0.10953696 -0.25645563 0.07639592 0.093686834
0.30237743 -0.06811708 0.23641005 0.1919508 0.11691603 -0.3164843 0.14434856 -0.28136137
0.26661938 -0.023302894 -0.15149917 0.006279537 0.012031153 -0.29370734 -0.16018611 0.09437487
0.20561789 -0.009651376 0.18119413 -0.00010432603 0.03513824 0.05268663 -0.14474352 -0.2037859
-0.12524675 -0.25846475 -0.09551341 0.039251935 -0.19637686 -0.11596853 -0.054876875 -0.023959873
-0.20057333 0.04542712 -0.09272396 0.04610501 0.063195966 -0.059233166 -0.034593392 0.062377416
-0.18058252 0.04489504 -0.099439435 0.14792354 0.008858888 0.26188233 0.0657213 -0.25488806
0.11236216 -0.21327156 -0.07384929 -0.061966866 -0.10776525 -0.08610364 0.22208887 0.15069768
0.0597345 0.2700461 -0.26998514 0.027235538 0.17458178 0.19215247 -0.17575337 0.07187483
00000000: 14ba d53c c7b7 0bbe 1627 4fbd 83de 37bd
00000010: 6f2d 103d 0ac8 363e 94dc a6bd c381 5e3e
00000020: ddea 3c3e 0dbf 19be bbfc 79be e024 53be
00000030: 1549 06be 6f9c 80bd 40ca 563c 29a8 b1bd
00000040: a654 d8bd c6e0 f4bc 79aa 6fbd f03f 5c3e
00000050: 6220 99bd 2439 3cbe c35c ed3d dc59 a7bc
00000060: aab6 443e 4313 073e cea8 8c3e d244 28be
00000070: 0db8 0e3e 512c 3c3e 1b0b 16be dd10 7c3e
00000080: 0327 203e 7e0a 02bc 19b8 923d 7abc b0bd
00000090: e9c5 50be c6b1 c13d 6520 c03d 6375 06be
000000a0: 6fd2 ae3d 3f32 32be 9962 1a3e 47af 823e
000000b0: d6aa 633d 79b7 dfbd be1b 2b3e 2c78 2d3b
000000c0: c8c1 283d 9c80 b53c 4abc ef3d 1e94 adbd
000000d0: 25c9 81bd 7a55 bd3d a3a3 da3c 50b8 673e
000000e0: 27df f2bd 33aa 173d 3c5a a9bc 8d97 97bd
000000f0: b699 373e d7a4 a03d edbc 3bbe 7116 88bd
00000100: 4466 3fbe 1633 adbc 6205 2cbe cef9 73be
00000110: 5c4c 2b3b 7ed5 ac3d f69b e6bb 7d84 ac3e
00000120: 23b3 05bd 7a18 783e c202 85bd a75d 2bbe
00000130: 8428 8f3c 311d ab3e e5c3 17bd f4f1 90be
00000140: 7701 613e 8bc0 8b3e 1531 cfbd 2aac 0b3e
00000150: 2b1b 14bc 05b3 73be 1f87 143d d074 b53d
00000160: b555 d8bd 98eb 1b3d 56ca 4ebe a428 483e
00000170: 812e 423e 2159 083e 1464 223d 8b13 a63d
00000180: c034 2cbe fbe1 0dbe 419d 65bd 1dd3 e5bd
00000190: fc93 5cbe 8d50 1f3e 4dd2 143e 219c 74be
000001a0: 1f54 e83d 91c5 0e3e 90d8 623e 1f56 e93d
000001b0: d475 863e 9194 9ebd f93b 353e 3981 533e
000001c0: ab70 47be e04c 66be 14cf da3d 4f65 063e
000001d0: 07f3 21be a19f fcbc 130c 17bd 313d 733b
000001e0: 0671 8ebd 8ea4 f43d 68d5 823e ecea 52be
000001f0: a30b 0a3d a106 9bbd 4065 bd3b 5188 9a3e
00000200: dde2 f53d ba50 a7bc da4e a73e 4231 d9bd
00000210: d8ad c1bd afe3 38bd 9d22 61be bcf1 14bd
00000220: 9a13 1abe b78a 0dbd 1b23 0b3e 9466 5f3c
00000230: 0cee 44be 6183 a9be e297 cd3c d4c2 963e
00000240: efb5 81be fe54 2c3e 8cc8 3dbe 8b60 6bbc
00000250: 884d 8e3e fba7 683e 1c7a 12be a375 443e
00000260: 6e76 a13d c112 77bc a52c 5f3e c367 5ebd
00000270: 3473 d5bd c638 c7bd 4447 883d 03a5 083d
00000280: b9ab b33d e81e 70be 42e5 9bbd d916 f23d
00000290: 94ce 94be 4625 ebbd 29a0 9bbd 6374 34be
000002a0: ae8e 223e 00a8 ad3c 57aa 813e 400c bcbd
000002b0: a3db b2bd 2fb0 cd3d fe11 2bbd bfcb 8b3b
000002c0: e5b4 23be beaf eb3d 7de8 59be 8b3c 133d
000002d0: e5e7 163e f976 5bbe 267a 15be 03bb 33be
000002e0: 015e 513e 34c6 403e 728b 3f3d b09a 843e
000002f0: ea54 e0bd 274e 83be 7775 9c3d e2de bf3d
00000300: 37d1 9a3e f880 8bbd 7a15 723e c08e 443e
00000310: ac71 ef3d 3b0a a2be 1cd0 133e 990e 90be
00000320: 5682 883e b6e5 bebc 9922 1bbe 93c4 cd3b
00000330: 501e 453c cf60 96be d407 24be 9d47 c13d
00000340: 7f8d 523e ce20 1ebc f48a 393e 9cc9 dab8
00000350: 1ded 0f3d f0cd 573d a537 14be 40ad 50be
00000360: af40 00be 7e55 84be 899c c3bd a3c6 203d
00000370: 0417 49be e980 edbd 93c6 60bd 7f47 c4bc
00000380: 1863 4dbe ca11 3a3d 0fe6 bdbd 9bd8 3c3d
00000390: e36c 813d 7a9e 72bd cdb1 0dbd 767f 7f3d
000003a0: a0ea 38be dde3 373d e7a6 cbbd 4579 173e
000003b0: df24 113c 7115 863e e498 863d b080 82be
000003c0: 221e e63d dc63 5abe 4c3e 97bd f8d0 7dbd
000003d0: 07b4 dcbd 1b57 b0bd 446b 633e 7e50 1a3e
000003e0: 2aac 743d 7b43 8a3e 7e3b 8abe 101d df3c
000003f0: 91c5 323e 9ec3 443e b1f8 33be 1c33 933d

encoder.node_encoder.module_3.transformer_conv.lin_key.bias f4 [16]
-0.14243998 -0.009789762 -0.05218225 -0.20863548 -0.23838651 -0.16440144 0.113206215 0.11417562
-0.21760668 -0.09360261 0.003917654 -0.21603855 0.14062569 0.22648382 0.04438095 -0.18579735
00000000: c9db 11be 3d65 20bc 0ebd 55bd 8aa4 55be
00000010: 981b 74be da58 28be a9d8 e73d e8d4 e93d
00000020: 49d4 5ebe bab2 bfbd aa5f 803b 3639 5dbe
00000030: 2e00 103e 60eb 673e cdc8 353d a941 3ebe

encoder.node_encoder.module_3.transformer_conv.lin_query.weight f4 [16, 16]
0.15437265 0.06188179 0.2315021 -0.07513202 -0.2579742 0.07171911 -0.03110884 -0.07975696
-0.08947724 -0.08971659 0.2092413 -0.0243774 0.17442542 0.26453897 0.041373257 0.050561775
-0.050675433 0.09020201 -0.19931123 0.14114404 -0.12821425 0.06331867 -0.026504178 -0.11394467
0.020732958 0.1048736 -0.16993076 -0.20910655 -0.04677314 -0.12129797 0.060280886 0.18979384
-0.098261416 0.19010772 -0.09643226 -0.078159004 -0.20646667 -0.20083289 -0.19990164 -0.18730673
-0.21701422 -0.021198986 0.10442042 0.13832223 0.1847435 -0.11126961 0.010304227 -0.16158739
0.012955035 -0.2359541 0.08914548 0.020307813 0.08051203 0.11671863 -0.09845723 0.21986932
0.109478496 0.10605398 0.012271462 0.11573063 0.15713024 0.045043193 0.1626056 -0.050684877
0.27851072 0.12672561 0.14367752 0.20741567 0.16178618 -0.058802675 -0.01968532 0.06722769
0.015292651 0.031221805 0.22304994 0.25135744 -0.1479167 0.09384106 0.036912136 -0.16807827
-0.010040867 -0.015212945 -0.14118156 -0.11988643 -0.038581997 0.27445766 0.1367371 0.2583407
0.047852106 0.051993288 0.10448617 0.060321674 -0.18900834 -0.1552847 -0.027136307 0.0024188415
0.15145347 0.012306988 0.23434308 0.11201815 -0.16462263 -0.2540034 -0.2341067 -0.17069134
0.11362098 0.15100841 0.22590418 -0.093949415 -0.01742992 -0.053948864 -0.034283474 0.09326504
-0.05011532 -0.06625864 0.048884064 0.10254655 -0.13249391 -0.19136922 0.04754638 -0.06922764
-0.062246073 0.09489282 0.020786516 -0.06385642 -0.102314726 -0.039552875 -0.24973267 0.08508523
-0.12093171 0.0934656 0.012141302 0.03001358 -0.0033183899 0.17094162 -0.10700872 0.14601204
0.08441262 -0.24975894 0.06595869 -0.23127857 -0.07823146 -0.21273448 -0.21593598 0.21019056
-0.12739567 0.18635084 -0.25183198 -0.04575559 0.080081224 0.22162397 -0.1002626 0.099643074
-0.0075205485 0.18577072 0.0034853716 0.14207707 -0.17684156 -0.13142957 0.24773157 -0.21896596
-0.06067908 -0.12612502 0.29037464 -0.00079407915 -0.29115626 -0.1345862 0.09930974 0.063149616
0.27179724 -0.06160462 0.13700145 -0.276666 0.11987936 0.10044749 0.12281343 -0.10547297
-0.012797903 -0.005650229 -0.14894046 -0.12832294 -0.32558903 -0.03423384 0.10118087 0.07239118
0.036838718 0.07045814 -0.1721321 -0.014458929 -0.07615431 -0.14517646 0.18138506 -0.19677295
-0.053327795 -0.29965112 0.018928183 -0.05599859 -0.026818145 -0.19281049 0.1398967 -0.21024694
0.19214784 -0.25904548 0.121808864 -0.19176444 0.0031818924 -0.123383045 0.11575196 0.10277781
-0.32368296 0.016674073 -0.20457955 0.16628127 0.04713336 -0.03673827 -0.1090026 0.09911676
-0.1510995 0.059106085 0.11228353 0.10600293 0.053477027 -0.29066345 0.16821134 -0.08360405
0.012608287 0.055824343 0.15304503 0.13248262 0.15159814 0.17455782 -0.20967275 0.007640921
-0.26423496 0.15596561 -0.16572061 -0.0005348954 0.17114657 0.31712228 -0.10175525 -0.16046287
0.054726876 0.021365387 0.03806972 -0.015256334 -0.24173608 0.020897573 0.21892126 -0.15989532
0.18458052 0.15179314 0.24120353 -0.030435951 0.04933243 0.20877357 0.15192361 0.3002163
00000000: dd13 1e3e c377 7d3d e30e 6d3e d1de 99bd
00000010: 3215 84be 78e1 923d f7d7 febc 9e57 a3bd
00000020: d83f b7bd 55bd b7bd 5a43 563e 1db3 c7bc
00000030: 949c 323e a771 873e 0177 293d dd19 4f3d
00000040: 0b91 4fbd d5bb b83d 3e18 4cbe 1088 103e
00000050: 994a 03be 38ad 813d 4a1f d9bc d35b e9bd
00000060: 2ad8 a93c f8c7 d63d 5402 2ebe 0720 56be
00000070: 3195 3fbd 126b f8bd 17e9 763d 5159 423e
00000080: 483d c9bd 99ab 423e 477e c5bd d411 a0bd
00000090: 006c 53be 23a7 4dbe 04b3 4cbe 56cd 3fbe
000000a0: fa38 5ebe 7fa9 adbc 60da d53d 58a4 0d3e
000000b0: 662d 3d3e 52e1 e3bd 0fd3 283c 2a77 25be
000000c0: 5b41 543c f49d 71be e891 b63d 925c a63c
000000d0: 7ee3 a43d 2d0a ef3d f2a3 c9bd 6c25 613e
000000e0: 4336 e03d d432 d93d 3e0e 493c 2e04 ed3d
000000f0: c0e6 203e 367f 383d 1582 263e f29a 4fbd
00000100: f598 8e3e 5cc4 013e 3320 133e c664 543e
00000110: 47ab 253e 13db 70bd 1c43 a1bc acae 893d
00000120: 078e 7a3c dfc4 ff3c 3467 643e ecb1 803e
00000130: 7a77 17be be2f c03d 2e31 173d b61c 2cbe
00000140: 7382 24bc b73f 79bc e691 10be 0487 f5bd
00000150: 2808 1ebd b785 8c3e cf04 0c3e 3b45 843e
00000160: 9200 443d eaf6 543d d8fc d53d dc13 773d
00000170: 678b 41be f402 1fbe f64c debc 6d85 1e3b
00000180: 9e16 1b3e 40a3 493c a2f7 6f3e c669 e53d
00000190: d692 28be bc0c 82be abb9 6fbe b6c9 2ebe
000001a0: 1eb2 e83d f3a1 1a3e 6d53 673e 8d68 c0bd
000001b0: 31c9 8ebc 7cf9 5cbd d46c 0cbd be01 bf3d
000001c0: b945 4dbd 9cb2 87bd a83a 483d ed03 d23d
000001d0: 7cac 07be 4bf6 43be febf 423d 39c7 8dbd
000001e0: bdf5 7ebd 2b57 c23d 7c48 aa3c 28c7 82bd
000001f0: 628a d1bd 3202 22bd ecb9 7fbe 2a41 ae3d
00000200: 0bab f7bd e46a bf3d 50ec 463c 0adf f53c
00000210: 5879 59bb 520b 2f3e 6327 dbbd 2e84 153e
00000220: 86e0 ac3d cfc0 7fbe 5a15 873d 4ad4 6cbe
00000230: d137 a0bd 11d7 59be 521e 5dbe 323c 573e
00000240: 0374 02be c1d2 3e3e 1ff0 80be 376a 3bbd
00000250: a001 a43d 65f1 623e 7a56 cdbd ab11 cc3d
00000260: ef6e f6bb ae3a 3e3e d56a 643b a77c 113e
00000270: f415 35be 7995 06be 58ad 7d3e 9d38 60be
00000280: a18a 78bd eb26 01be fcab 943e c029 50ba
00000290: 6f12 95be f7d0 09be e862 cb3d 9654 813d
000002a0: 0229 8b3e 2055 7cbd 1c4a 0c3e 2aa7 8dbe
000002b0: 4f83 f53d 6ab7 cd3d 9c85 fb3d 3602 d8bd
000002c0: 4cae 51bc 8e25 b9bb d983 18be 1767 03be
000002d0: 9bb3 a6be c838 0cbd ea37 cf3d d441 943d
000002e0: 32e4 163d 5b4c 903d 6643 30be 25e5 6cbc
000002f0: caf6 9bbd 23a9 14be 01bd 393e d97e 49be
00000300: 3f6e 5abd df6b 99be 470f 9b3c c75e 65bd
00000310: bab1 dbbc 1d70 45be 1541 0f3e f94a 57be
00000320: 67c2 443e 9ca1 84be ed76 f93d e65d 44be
00000330: 4c87 503b 40b0 fcbd 5d0f ed3d 2c7d d23d
00000340: c6b9 a5be 1198 883c 4d7d 51be a345 2a3e
00000350: e90e 413d de7a 16bd c13c dfbd bafd ca3d
00000360: d4b9 1abe 3919 723d e8f4 e53d 1018 d93d
00000370: ba0a 5b3d d7d1 94be 983f 2c3e 9a38 abbd
00000380: fd92 4e3c 11a8 643d d6b7 1c3e 86a9 073e
00000390: 8b3c 1b3e 49bf 323e 74b4 56be b160 fa3b
000003a0: ce49 87be 73b5 1f3e aab2 29be 3938 0cba
000003b0: 0c41 2f3e da5d a23e 0e65 d0bd 6150 24be
000003c0: 4a29 603d 7706 af3c ffee 1b3d b4f5 79bc
000003d0: aa89 77be 6331 ab3c e52c 603e 99bb 23be
000003e0: ad02 3d3e a96f 1b3e 0ffe 763e d154 f9bc
000003f0: cd10 4a3d bdc8 553e dd91 1b3e f3b5 993e

encoder.node_encoder.module_3.transformer_conv.lin_query.bias f4 [16]
-0.059095647 0.09852167 0.12536186 -0.2010344 0.08615791 -0.05272865 0.17052513 -0.10018555
-0.01097493 0.14390177 -0.21339831 -0.22406988 -0.14561902 0.12670471 0.1853937 -0.12675133
00000000: 470e 72bd bbc5 c93d dc5e 003e f6db 4dbe
00000010: 8f73 b03d fff9 57bd 249e 2e3e 152e cdbd
00000020: 31d0 33bc fc5a 133e 1685 5abe 9372 65be
00000030: 271d 15be e1be 013e d9d7 3d3e 1acb 01be

encoder.node_encoder.module_3.transformer_conv.lin_value.weight f4 [16, 16]
0.013193106 -0.14106037 -0.05653535 0.22294693 0.016595514 -0.19221899 0.075024135 0.037609927
0.1800505 -0.14822571 -0.13686273 0.09977806 0.06555921 0.0077487323 -0.18562376 0.18693273
0.18785615 0.09718211 0.028091412 0.2926922 -0.044801008 0.052969437 0.2224088 0.33851936
-0.078022026 0.22842833 0.00380215 -0.0908558 0.16878751 -0.16338244 0.19647309 0.20175946
-0.1798705 -0.15308157 -0.30434826 -0.05297326 -0.14739342 -0.00022623841 0.02483651 0.15471293
0.029896643 0.15544161 0.09262549 -0.12503242 -0.24766736 0.054672994 0.254021 -0.06313233
-0.03343517 -0.19016376 -0.15506251 -0.20594545 0.17517227 -0.030200526 -0.2041972 0.045627277
0.052863248 -0.056025837 0.0678941 0.083802484 -0.24388252 -0.25038305 -0.04009498 -0.22851662
-0.21712576 0.21567093 0.015749494 -0.10738003 -0.14661795 -0.25741968 0.22932641 0.008424373
-0.076115966 -0.19652598 0.12019935 -0.07096428 -0.017686134 -0.11771355 -0.108977765 0.06238136
0.20322175 -0.14380237 -0.010994126 -0.18728937 -0.059942868 0.2679901 -0.048998456 0.20066726
-0.14307597 -0.102056764 -0.13376175 0.2765276 -0.20888844 0.21981962 0.08030569 0.036499865
0.155414 -0.06411806 0.18211338 -0.2022804 -0.086027674 0.16523491 0.111121476 -0.0053885034
-0.022827884 -0.09549027 0.15448125 0.018119775 0.018259523 0.09267302 0.27525806 -0.115389444
-0.116583675 0.14740263 0.037525907 -0.12618713 -0.23057063 0.13344897 0.092064925 0.125119
0.12831356 -0.28130117 0.037394233 -0.24159603 0.04372606 0.097025335 0.03861321 0.12555404
-0.18439707 -0.16712898 -0.2574406 0.11828517 0.14849202 -0.13968669 0.13934448 0.22612846
-0.28233737 0.18093878 0.042456746 0.06743309 0.2136459 0.25679702 0.1266673 0.17033711
0.120446764 0.033718456 -0.1754657 0.048544023 -0.21644884 0.012239345 0.07047273 -0.00058595306
-0.11474285 -0.15189631 0.20515949 0.10476434 0.17508711 -0.09259598 -0.04878171 0.0076818564
0.14198193 -0.117338926 0.15997799 0.1913482 -0.27797058 -0.022047361 -0.026668396 -0.08500973
0.15745385 -0.056641847 0.1873849 -0.2039303 0.1100114 -0.2784617 -0.11972827 0.015724078
0.18730058 0.13578752 -0.26057497 0.03025022 -0.115596265 0.066112675 -0.25070244 -0.061467208
0.087489635 -0.22108509 -0.2658438 0.06168679 -0.021025678 -0.0033109735 0.23105493 -0.23710063
-0.17537284 -0.17150605 -0.043161444 -0.07339794 0.17095174 -0.0078065735 0.07505139 -0.1367108
0.17346546 0.203683 -0.21327873 -0.053236827 -0.21246034 0.11804124 -0.23685245 -0.11864765
0.2592979 -0.24105552 0.24709973 0.025361877 0.13597806 -0.22496465 0.20716454 0.039133616
0.111196294 0.17296161 -0.22721484 -0.22137286 0.28760865 -0.17456509 -0.18653065 0.054601897
-0.018577244 -0.10924639 -0.21897088 0.1305909 -0.21427447 0.060316186 0.10909799 0.105350085
0.0136507945 0.11446952 -0.12386241 -0.049273368 -0.1457342 -0.11149892 -0.057763085 0.19025773
-0.052782495 0.08851958 0.17485307 -0.042677913 -0.14323956 -0.18775983 -0.094587654 0.051773097
-0.18212686 -0.067231245 0.116822176 0.18138976 0.08242086 0.011009791 0.116399266 0.1380176
00000000: e627 583c 2172 10be 9c91 67bd 334c 643e
00000010: 51f3 873c 0ed5 44be 41a6 993d de0c 1a3d
00000020: 295f 383e 7bc8 17be be25 0cbe 7158 cc3d
00000030: e843 863d 14e9 fd3b 2814 3ebe 4b6b 3f3e
00000040: 5d5d 403e 6a07 c73d f61f e63c c1db 953e
00000050: 4381 37bd 7bf6 583d 22bf 633e 6952 ad3e
00000060: 03ca 9fbd 1ee9 693e 7e2d 793b 9b12 babd
00000070: a2d6 2c3e ba4d 27be 3e30 493e 089a 4e3e
00000080: f92f 38be 6ac1 1cbe 89d3 9bbe 7dfa 58bd
00000090: 4dee 16be 693a 6db9 f075 cb3c 116d 1e3e
000000a0: cee9 f43c 162c 1f3e 6fb2 bd3d 8008 00be
000000b0: 839c 7dbe caf0 5f3d 0a0f 823e 864b 81bd
000000c0: 51f3 08bd 4aba 42be b5c8 1ebe 5de3 52be
000000d0: 5c60 333e 1867 f7bc 1219 51be abe3 3a3d
000000e0: 2287 583d 597b 65bd 100c 8b3d a3a0 ab3d
000000f0: 57bc 79be 3532 80be a23a 24bd 4300 6abe
00000100: 3756 5ebe d7d8 5c3e 1505 813c 10ea dbbd
00000110: 0423 16be 83cc 83be 8bd4 6a3e 6206 0a3c
00000120: b0e2 9bbd 1b3e 49be 142b f63d b855 91bd
00000130: 83e2 90bc cd13 f1bd bc2f dfbd 9983 7f3d
00000140: 5d19 503e ee40 13be b520 34bc c9c8 3fbe
00000150: a786 75bd 0036 893e 9bb2 48bd b87b 4d3e
00000160: 8282 12be 2303 d1bd d7f8 08be 0795 8d3e
00000170: dae6 55be 6518 613e 4f77 a43d e280 153d
00000180: d924 1f3e 5450 83bd ee7b 3a3e 9822 4fbe
00000190: 472f b0bd 5733 293e a893 e33d 0b92 b0bb
000001a0: 8b01 bbbc 6790 c3bd 5530 1e3e ec6f 943c
000001b0: ff94 953c 5acb bd3d a0ee 8c3e 4d51 ecbd
000001c0: 6cc3 eebd b7f0 163e c4b4 193d 3337 01be
000001d0: b51a 6cbe d9a6 083e 898c bc3d 321f 003e
000001e0: a164 033e b506 90be b22a 193d f364 77be
000001f0: 191a 333d 38b5 c63d e328 1e3d 3d91 003e
00000200: 96d2 3cbe dc23 2bbe 41cf 83be 7f3f f23d
00000210: 4b0e 183e 070a 0fbe 52b0 0e3e 388e 673e
00000220: 868e 90be 0448 393e 20e7 2d3d 5c1a 8a3d
00000230: fec5 5a3e e67a 833e 13b5 013e da6c 2e3e
00000240: cbac f63d 5d1c 0a3d 48ad 33be 19d6 463d
00000250: c4a4 5dbe 8987 483c 0254 903d a59a 19ba
00000260: 4dfe eabd b58a 1bbe 5415 523e b08e d63d
00000270: 094a 333e f6a2 bdbd 55cf 47bd 15b8 fb3b
00000280: b663 113e 644f f0bd 45d1 233e c8f0 433e
00000290: 2952 8ebe ab9c b4bc ae77 dabc 9519 aebd
000002a0: 953b 213e 4801 68bd d4e1 3f3e 1bd3 50be
000002b0: a84d e13d 8892 8ebe 1834 f5bd c8cf 803c
000002c0: b9cb 3f3e e20b 0b3e 156a 85be 4fcf f73c
000002d0: bcbd ecbd 1566 873d 125c 80be 0ac5 7bbd
000002e0: c42d b33d 2164 62be ae1c 88be 4aab 7c3d
000002f0: 0b3e acbc ebfc 58bb aa99 6c3e 82ca 72be
00000300: f094 33be 489f 2fbe 0eca 30bd a951 96bd
00000310: f90d 2f3e 49ce ffbb 8bb4 993d eafd 0bbe
00000320: eea0 313e 4792 503e bd65 5abe dc0e 5abd
00000330: 348f 59be 9bbf f13d 7389 72be 8afd f2bd
00000340: b2c2 843e 42d7 76be b607 7d3e b6c3 cf3c
00000350: d53d 0b3e 225d 66be f122 543e 924a 203d
00000360: e2ba e33d d91c 313e 02ab 68be 91af 62be
00000370: 7141 933e 31c1 32be e401 3fbe 3da6 5f3d
00000380: 4e2f 98bc 92bc dfbd e739 60be 9fb9 053e
00000390: c46a 5bbe 1b0e 773d c46e df3d c9c1 d73d
000003a0: 95a7 5f3c ff6e ea3d 93ab fdbd dfd2 49bd
000003b0: 593b 15be 8c59 e4bd fc98 6cbd ecd2 423e
000003c0: 7532 58bd c149 b53d af0c 333e 09cf 2ebd
000003d0: 64ad 12be 1d44 40be 2cb7 c1bd 0710 543d
000003e0: 777f 3abe 89b0 89bd 7740 ef3d 3dbe 393e
000003f0: 45cc a83d 6962 343c bd62 ee3d 7c54 0d3e

encoder.node_encoder.module_3.transformer_conv.lin_value.bias f4 [16]
0.08198804 -0.14180571 -0.21475847 -0.08992308 -0.055746097 0.03337172 -0.0021715132 -0.0089518195
0.16883583 -0.08544315 -0.26185364 -0.15393724 -0.11707564 0.16215464 -0.18494654 -0.031666793
00000000: 58e9 a73d 8435 11be a5e9 5bbe 9729 b8bd
00000010: 0556 64bd c9b0 083d f24f 0ebb a7aa 12bc
00000020: 4de3 2c3e d1fc aebd ae11 86be b9a1 1dbe
00000030: 5ac5 efbd de0b 263e a062 3dbe 0ab5 01bd

encoder.node_encoder.module_3.transformer_conv.lin_skip.weight f4 [16, 16]
-0.052984774 -0.15173307 0.113321215 -0.10413888 -0.012933046 -0.17577118 -0.02521494 0.035521448
-0.010173202 -0.09341192 0.074270904 -0.064774394 -0.13859972 -0.18435815 -0.052957386 -0.2361696
0.20750499 -0.11943194 -0.103604555 0.023109764 0.06480831 -0.0235731 0.17150572 -0.14573741
0.0895952 -0.00056383014 -0.20336777 -0.09682372 0.06362179 0.047760457 0.18178385 0.16724825
-0.1363557 -0.10675737 -0.053010345 -0.17910513 -0.06749746 -0.20457822 0.09508553 0.17688984
0.019794106 -0.17897016 -0.189327 -0.09732479 0.072713345 0.006098002 0.045455486 0.23562032
0.1161105 0.05375564 -0.05058047 0.11826223 0.09146014 -0.22502556 -0.14767724 0.00839144
0.09486058 0.12162572 -0.14881966 -0.24802858 -0.0130229 -0.028579324 0.07254499 -0.0687516
0.1911307 0.016681045 0.18256173 -0.17407858 0.100008994 0.02978903 -0.12503707 0.12393695
-0.24600485 0.20211676 0.020147026 0.024138153 0.115611404 0.020753086 0.10716289 0.15905353
-0.19511461 0.1653901 -0.037434697 -0.058137268 0.050320387 0.19553792 -0.1359038 -0.16848278
0.15515181 -0.11741698 0.08048752 -0.036831528 0.068813235 0.19077876 -0.12669975 -0.1213159
0.12265518 0.013688117 -0.027514547 -0.21959704 0.21181458 -0.009467721 -0.046046853 -0.10262248
-0.049334556 0.12150857 -0.005745828 0.21380216 -0.014433682 -0.035864443 0.1411129 -0.006468892
-0.049898237 0.08355665 0.19715774 0.062387377 0.17407954 0.16200957 0.07069945 0.08692214
0.08067104 0.025931686 0.2126841 0.23078513 0.088997155 -0.01248464 0.22414851 -0.19458014
0.18369597 0.13245639 0.16053402 -0.019208908 -0.18652448 0.17833471 -0.109313905 0.065778136
0.14163628 -0.2336314 0.016590983 -0.0888066 0.17743883 -0.15917537 0.15179244 0.15589249
0.13792872 0.24000308 0.037862778 -0.22659528 0.17846623 0.022886693 0.004961252 -0.23814732
-0.05618906 -0.121341944 0.24485275 0.17800722 0.18649706 0.17120916 -0.15496847 -0.1073674
-0.09783757 -0.10022056 0.19460803 0.084941715 0.20033851 -0.011694729 -0.22285679 -0.072530806
0.17569867 0.15220138 0.077392876 -0.07333192 -0.23334277 -0.13433167 0.1303451 -0.100839436
0.11958465 0.06826028 -0.09602183 0.15226957 -0.08033314 -0.008305669 -0.095228255 -0.23714289
0.04030955 0.07224232 -0.12587035 0.15336171 -0.22426388 -0.24099416 -0.15441224 -0.086401224
-0.027764529 -0.04831195 0.11409712 -0.21940634 0.03681189 0.004329413 0.06603256 0.24852002
0.15386212 -0.13842615 -0.20486313 -0.06052524 -0.12540674 0.08732629 0.002291739 0.20108089
0.09820154 -0.04596758 0.008592486 0.059871495 -0.031021804 0.20173365 -0.19547507 0.121851474
-0.15936098 -0.21902037 -0.05132416 0.12182623 0.17664048 0.06273562 -0.02160725 -0.01401484
-0.10134533 -0.022434354 -0.017273486 0.21274066 0.14631104 -0.20005599 0.0010341704 -0.15376747
-0.03968522 -0.19869202 0.06499028 -0.18026951 0.24680525 0.18880063 -0.17208973 -0.23536599
0.009754419 -0.06978792 0.073391676 -0.16922852 0.102335304 -0.21593735 -0.13194251 -0.13142544
0.12097284 -0.0065453053 -0.24025714 -0.14278 -0.115694225 -0.2319574 0.032011718 0.089084476
00000000: 9006 59bd ea5f 1bbe f414 e83d c446 d5bd
00000010: 20e5 53bc 5cfd 33be 908f cebc f07e 113d
00000020: 80ad 26bc c04e bfbd 581b 983d 70a8 84bd
00000030: 16ed 0dbe 62c8 3cbe d8e9 58bd 72d6 71be
00000040: 307c 543e bc98 f4bd a02e d4bd b050 bd3c
00000050: 38ba 843d 601c c1bc 329f 2f3e 303c 15be
00000060: b07d b73d 00ce 13ba a43f 50be 844b c6bd
00000070: 244c 823d 78a0 433d 8c25 3a3e 2043 2b3e
00000080: d4a0 0bbe 9ca3 dabd 6021 59bd 5667 37be
00000090: 1c3c 8abd f47c 51be 34bc c23d 9c22 353e
000000a0: 4027 a23c f443 37be f0de 41be 3852 c7bd
000000b0: bcea 943d c0d1 c73b 882f 3a3d 7446 713e
000000c0: 58cb ed3d e02e 5c3d 782d 4fbd 7833 f23d
000000d0: 744f bb3d 1a6d 66be b438 17be 407c 093c
000000e0: 4446 c23d e816 f93d 2e64 18be 34fb 7dbe
000000f0: 005e 55bc 301f eabc 7892 943d a4cd 8cbd
00000100: c4b7 433e b0a6 883c 76f1 3a3e a841 32be
00000110: 84d1 cc3d 2008 f43c b809 00be a8d2 fd3d
00000120: b2e8 7bbe b2f7 4e3e 600b a53c 60bd c53c
00000130: acc5 ec3d 6002 aa3c 3878 db3d eede 223e
00000140: 20cc 47be 065c 293e 2055 19bd 5821 6ebd
00000150: c01c 4e3d 183b 483e 5e2a 0bbe c086 2cbe
00000160: 1ee0 1e3e 5078 f0bd a4d6 a43d a8dc 16bd
00000170: f4ed 8c3d 825b 433e 94bd 01be 7874 f8bd
00000180: a432 fb3d 2044 603c 3066 e1bc 0cde 60be
00000190: ece5 583e 801e 1bbc a09b 3cbd bc2b d2bd
000001a0: 0813 4abd 7cd9 f83d 8047 bcbb f4ee 5a3e
000001b0: 407b 6cbc 98e6 12bd e67f 103e 00f9 d3bb
000001c0: 1862 4cbd c01f ab3d b8e3 493e e889 7f3d
000001d0: e841 323e d6e5 253e e0ca 903d 3c04 b23d
000001e0: dc36 a53d b06e d43c dcc9 593e f052 6c3e
000001f0: 2444 b63d 608c 4cbc 3087 653e 0440 47be
00000200: cc1a 3c3e a6a2 073e 0863 243e 005c 9dbc
00000210: 4600 3fbe 609d 363e f8df dfbd b0b6 863d
00000220: 1a09 113e 123d 6fbe d0e9 873c 3ce0 b5bd
00000230: 86b2 353e defe 22be 7a6f 1b3e 48a2 1f3e
00000240: 303d 0d3e 5ec3 753e 0016 1b3d 9808 68be
00000250: dabf 363e e07c bb3c 0092 a23b e4dc 73be
00000260: 8026 66bd 2082 f8bd aeba 7a3e 8647 363e
00000270: 16f9 3e3e 7451 2f3e 0eb0 1ebe 70e3 dbbd
00000280: 105f c8bd 7040 cdbd 5447 473e ecf5 ad3d
00000290: 8a25 4d3e 409b 3fbc 9234 64be 088b 94bd
000002a0: 5aea 333e aeda 1b3e 2880 9e3d 0c2f 96bd
000002b0: 68f1 6ebe 3e8e 09be 3079 053e e884 cebd
000002c0: cce8 f43d 0ccc 8b3d 18a7 c4bd 8eec 1b3e
000002d0: b485 a4bd 8014 08bc 0807 c3bd 96d5 72be
000002e0: a01b 253d c8f3 933d 28e4 00be da0a 1d3e
000002f0: 6ea5 65be 2cc7 76be 3e1e 1ebe 20f3 b0bd
00000300: 7072 e3bc c0e2 45bd c0ab e93d 0eac 60be
00000310: 10c8 163d c0dd 8d3b 143c 873d 087c 7e3e
00000320: 088e 1d3e 96bf 0dbe a4c7 51be 50e9 77bd
00000330: a06a 00be 20d8 b23d 0031 163b 26e8 4d3e
00000340: e41d c93d 8048 3cbd 80c7 0c3c d03b 753d
00000350: 7021 febc 4493 4e3e 9e2a 48be 448d f93d
00000360: 862f 23be e046 60be 4839 52bd 0880 f93d
00000370: 3ee1 343e 887b 803d b001 b1bc 809e 65bc
00000380: 248e cfbd 40c8 b7bc 2081 8dbc b0d8 593e
00000390: 90d2 153e 7adb 4cbe 008d 873a 3875 1dbe
000003a0: f88c 22bd ec75 4bbe a019 853d 9298 38be
000003b0: 84ba 7c3e f454 413e 4a38 30be c803 71be
000003c0: 00d1 1f3c f8ec 8ebd 604e 963d 3e4a 2dbe
000003d0: 2c95 d13d ae1e 5dbe f01b 07be 6494 06be
000003e0: 9cc0 f73d 007a d6bb f805 76be ec34 12be
000003f0: 18f1 ecbd 3e86 6dbe b81e 033d ec71 b63d

encoder.node_encoder.module_3.transformer_conv.lin_skip.bias f4 [16]
-0.04586941 -0.0994862 -0.0015161335 -0.19857043 -0.15222538 -0.0057015717 0.22209433 -0.07687709
0.12391487 -0.0983876 -0.06654945 -0.23798612 0.20712125 0.2434319 -0.0052508116 0.15884244
00000000: 90e1 3bbd 6cbf cbbd 00b9 c6ba 0c56 4bbe
00000010: f8e0 1bbe 40d4 babb b26c 633e bc71 9dbd
00000020: 14c7 fd3d 707f c9bd 144b 88bd a2b2 73be
00000030: 9817 543e 3646 793e 000f acbb 98a7 223e

encoder.node_encoder.module_6.weight f4 [16, 16, 3]
0.11805971 0.07169501 0.07433663 -0.137408 -0.13562977 -0.1107849 0.045146715 -0.12484862
-0.110179305 -0.069960825 -0.13303381 0.0001944837 0.020823315 -0.084466405 0.09450724 -0.054797016
-0.040634926 0.1099672 0.12392125 -0.016558472 -0.103616774 -0.07240969 0.018379837 0.0846096
0.07185769 -0.06373693 -0.13645191 -0.12631658 -0.045921896 0.0018105928 -0.06483291 -0.11412846
0.015211402 -0.11456661 -0.110840306 -0.11733864 -0.039111648 0.12748732 0.056424342 -0.017113963
0.029706296 0.05747653 0.0008409445 -0.11641898 -0.08892819 -0.09805612 -0.003665062 -0.13212685
-0.026243616 -0.052780204 0.14164858 0.11732106 0.08383901 0.0080947755 -0.046732575 0.036816247
-0.0997271 -0.061560553 -0.02899531 -0.033912793 -0.1367313 0.05737866 0.118859395 -0.07961276
0.03890854 -0.016739449 -0.005264343 0.008413438 0.1250804 0.019339867 -0.09131907 -0.05192018
0.07051284 0.04504119 0.0028052935 -0.019049233 -0.0561584 -0.051229324 -0.07613604 0.023651406
0.04053606 0.11052577 -0.03260779 0.010332947 0.09328385 0.06278549 0.018545603 0.04435185
0.007492053 -0.12381158 0.0055643707 -0.031549152 0.13025193 0.13028309 0.028635217 0.12900937
-0.07433658 0.12545441 0.1242725 -0.0055167265 -0.115832254 -0.0465772 -0.038599808 0.0023841674
-0.13086383 0.026749432 -0.060028788 -0.03695636 -0.074549235 -0.03047456 -0.13404992 -0.07652315
0.013297089 0.09458093 0.13116644 -0.10918495 0.0606104 -0.08136248 -0.1115956 -0.00635595
-0.082798764 -0.1243102 -0.13488872 -0.09661211 0.118607335 0.08049822 -0.057135604 -0.09660812
-0.11103049 -0.085234426 -0.059394665 0.086687595 0.0472354 -0.05562368 0.09936651 -0.08966729
-0.11759008 0.031501696 -0.07958786 0.041060925 0.12228795 -0.06825801 -0.10072048 0.054328676
-0.13035806 0.12877476 -0.068164304 0.069781415 -0.114773154 -0.09769751 0.015899451 0.051298272
0.11191865 0.12071469 -0.008301079 -0.01855708 0.023859259 -0.033528313 0.0049133673 -0.13669464
-0.11848778 0.09890911 -0.08434462 0.11366373 0.015840141 0.035158448 0.13118517 -0.08027915
-0.022784824 0.025572205 0.049311742 -0.14047138 0.05130025 -0.08511961 0.018958746 0.097651534
-0.014378218 -0.004566091 -0.010784236 0.12044718 0.08203129 0.024273142 -0.086864546 -0.07838063
0.11497278 0.10383943 0.083572894 -0.1125425 0.11240905 -0.013797502 0.10634172 0.12536432
0.01582099 -0.060061514 0.13577124 -0.0752172 0.09431229 -0.13840386 -0.04539602 -0.12584138
-0.064746395 0.061288483 -0.10342191 -0.124823704 0.103206456 0.07705035 -0.0015783584 -0.101752326
-0.03824028 -0.046733696 0.089141496 -0.04721088 -0.04157147 -0.10231501 -0.06798121 0.07815139
0.09299461 0.020970412 -0.054155182 0.13863489 0.02848934 -0.055713788 -0.050026994 -0.020200169
0.068430096 0.052794006 0.104639046 -0.006503409 0.119380556 -0.058628086 -0.06647512 -0.053303484
-0.13541865 -0.09474895 -0.13060743 -0.0085300105 0.001360732 -0.037461676 -0.09863792 0.13095582
-0.047824837 0.068784475 0.10051815 -0.09488129 -0.018045533 0.08342239 0.13991493 -0.018209785
0.10459035 -0.113285676 -0.0937818 0.11869385 -0.013665822 0.14259434 0.010495822 -0.0598581
00000000: 4ac9 f13d d5d4 923d ce3d 983d afb4 0cbe
00000010: 88e2 0abe 32e3 e2bd c3eb 383d a2b0 ffbd
00000020: b0a5 e1bd 9f47 8fbd 043a 08be 52ee 4b39
00000030: a895 aa3c b9fc acbd 038d c13d d672 60bd
00000040: cf70 26bd 7c36 e13d 6dca fd3d a2a5 87bc
00000050: 0835 d4bd 884b 94bd 5091 963c cc47 ad3d
00000060: 202a 933d 8288 82bd 0dba 0bbe 2259 01be
00000070: 9918 3cbd 6a51 ed3a 1ec7 84bd 2fbc e9bd
00000080: 3f39 793c e6a1 eabd 3e00 e3bd 3e4f f0bd
00000090: 8933 20bd 098c 023e 361d 673d 9532 8cbc
000000a0: 9e5a f33c 836c 6b3d d572 5c3a 136d eebd
000000b0: fc1f b6bd a6d1 c8bd 8931 70bb 434c 07be
000000c0: dafc d6bc 0e30 58bd 530c 113e 0646 f03d
000000d0: c9b3 ab3d f39f 043c a86a 3fbd a2cc 163d
000000e0: b93d ccbd eb26 7cbd 9387 edbc 24e8 0abd
000000f0: 4a03 0cbe e305 6b3d 8e6c f33d 040c a3bd
00000100: 905e 1f3d 2b21 89bc 8380 acbb 84d8 093c
00000110: 1415 003e a46e 9e3c 7e05 bbbd 41aa 54bd
00000120: 0969 903d 1c7d 383d 04d9 373b 230d 9cbc
00000130: 5a06 66bd d7d5 51bd 36ed 9bbd 98c0 c13c
00000140: 2409 263d 565b e23d bf8f 05bd 854b 293c
00000150: 9a0b bf3d ae95 803d f3ec 973c 49aa 353d
00000160: e57f f53b ed90 fdbd 5355 b63b af39 01bd
00000170: c360 053e ee68 053e 6794 ea3c 081b 043e
00000180: c73d 98bd 1f77 003e 9582 fe3d a8c5 b4bb
00000190: 7639 edbd bcc7 3ebd d51a 1ebd b13f 1c3b
000001a0: 2b01 06be a021 db3c bfe0 75bd 8d5f 17bd
000001b0: 45ad 98bd c9a5 f9bc 6244 09be 2bb8 9cbd
000001c0: 09dc 593c a6b3 c13d 7f50 063e 5c9c dfbd
000001d0: 9c42 783d 5fa1 a6bd 3c8c e4bd 9345 d0bb
000001e0: 6692 a9bd 5996 febd 4520 0abe 92dc c5bd
000001f0: 67e8 f23d 40dc a43d 0607 6abd 7ada c5bd
00000200: f463 e3bd 638f aebd d247 73bd 4489 b13d
00000210: e879 413d a8d5 63bd ab80 cb3d 7ca3 b7bd
00000220: 11d3 f0bd ec07 013d f6fe a2bd 802f 283d
00000230: 1b72 fa3d dbca 8bbd 8a46 cebd bf87 5e3d
00000240: 957c 05be 88dd 033e ba99 8bbd 8fe9 8e3d
00000250: 300e ebbd a215 c8bd 913f 823c 231e 523d
00000260: 9b35 e53d 4339 f73d 4001 08bc 0405 98bc
00000270: 7e74 c33c fc54 09bd 5000 a13b aef9 0bbe
00000280: b9a9 f2bd dc90 ca3d dfbc acbd 88c8 e83d
00000290: 2fc3 813c 4e02 103d 6855 063e 6569 a4bd
000002a0: 3da7 babc cd7c d13c 1cfb 493d bbd7 0fbe
000002b0: 3620 523d 3153 aebd 5f4f 9b3c 87fd c73d
000002c0: 9e92 6bbc 269f 95bb 5db0 30bc 03ad f63d
000002d0: 0500 a83d 78d8 c63c 0ae6 b1bd 0686 a0bd
000002e0: d976 eb3d c4a9 d43d 4428 ab3d af7c e6bd
000002f0: b736 e63d eb0e 62bc b0c9 d93d 815f 003e
00000300: 059b 813c 1003 76bd 9e07 0b3e 7a0b 9abd
00000310: cd26 c13d beb9 0dbe 2df1 39bd 90dc 00be
00000320: c299 84bd a209 7b3d dece d3bd 92a3 ffbd
00000330: e85d d33d 93cc 9d3d ebe0 ceba 8663 d0bd
00000340: d7a1 1cbd d56b 3fbd d18f b63d 3260 41bd
00000350: d946 2abd 888a d1bd bc39 8bbd d60d a03d
00000360: f573 be3d 24ca ab3c d3d1 5dbd 4ef6 0d3e
00000370: 7a62 e93c 2434 64bd 1be9 4cbd d37a a5bc
00000380: 1425 8c3d 873e 583d ff4c d63d 8c1a d5bb
00000390: cb7d f43d 0124 70bd 1c24 88bd c154 5abd
000003a0: 30ab 0abe bd0b c2bd f4bd 05be 75c1 0bbc
000003b0: 975a b23a 6a71 19bd ae02 cabd 4819 063e
000003c0: fae3 43bd e0de 8c3d 76dc cd3d 1f51 c2bd
000003d0: 3ad4 93bc 5cd9 aa3d dc45 0f3e b02c 95bc
000003e0: 7733 d63d 5202 e8bd ac10 c0bd c315 f33d
000003f0: 9de6 5fbc 4004 123e abf6 2b3c c42d 75bd

encoder.node_encoder.module_6.bias f4 [16]
-0.02065402 -0.00824029 -0.08209252 0.049336538 -0.13988942 0.08860353 0.13386784 0.023351343
-0.03372567 -0.1321989 0.06778128 0.11826736 0.123397864 0.012870595 0.047986697 0.13830563
00000000: 9f32 a9bc 4802 07bc 2020 a8bd 1c15 4a3d
00000010: 2c3f 0fbe c475 b53d a714 093e 514b bf3c
00000020: ee23 0abd 265f 07be e9d0 8a3d 2836 f23d
00000030: 05b8 fc3d 30df 523c b38d 443d fe9f 0d3e

encoder.node_encoder.module_8.Wr.weight f4 [16, 16]
0.02089112 -0.1415427 -0.22030021 0.11881545 0.0240734 0.2794436 -0.120188415 0.005785766
-0.06905668 -0.09531998 0.13352595 -0.20493595 0.20472592 0.08322195 -0.14921711 0.1164097
-0.0939856 -0.013253826 -0.037319988 -0.20574853 -0.045033395 0.15207425 -0.06565141 -0.14466442
-0.032876648 0.019420264 -0.069808125 -0.15698439 -0.09804213 -0.08403116 0.12027637 0.19050527
-0.11488357 -0.007402194 0.23418105 -0.016983975 -0.15875103 0.30791155 0.14699337 -0.029019933
-0.22285655 0.09145845 -0.2710012 0.2254734 0.12222011 -0.05130542 -0.2046619 -0.16584107
0.107038066 0.18963875 -0.038921904 0.23020187 -0.06766618 -0.14985615 -0.11580708 0.047305886
-0.04079008 0.1057459 -0.11762172 -0.05896629 -0.22519657 0.2238713 -0.02072619 -0.21813595
0.04755913 0.08418441 -0.017079629 -0.10165188 0.18774626 -0.13341027 0.0062436466 -0.055382762
0.09986773 0.2779215 -0.056416113 0.12254624 0.11316313 -0.07486832 -0.107467964 -0.044236116
0.23073764 0.006063675 -0.009833559 -0.07760676 -0.07048989 -0.3001541 -0.19917853 -0.036636446
0.1141438 0.090801835 0.22636239 -0.31304693 -0.096634455 -0.10507129 -0.057864938 0.17425112
-0.19538647 0.22979246 -0.07237372 0.20565346 -0.07780717 0.14812988 0.2522155 -0.11292427
-0.005161664 0.098076716 -0.23054077 0.13350768 -0.14903381 0.26558563 -0.1860613 -0.091149054
0.13916063 -0.13131928 0.30016336 0.23231338 0.20534518 -0.21031249 -0.042890448 -0.08131375
0.033123698 -0.28051186 0.13382685 0.05679127 -0.04766457 -0.25836632 0.20565297 -0.15321833
0.14235003 0.0102608055 0.12343422 0.002153522 -0.106170304 -0.020561207 -0.2163412 0.07257789
-0.16939747 0.10048814 -0.09479255 0.20279263 0.2609249 -0.19133854 0.23762907 -0.038943753
-0.21746626 0.06330251 0.13168608 0.23873667 -0.23563507 0.2519013 0.20441416 0.19695295
0.1518461 -0.07869069 0.13621534 0.22343317 -0.08836866 -0.09576559 0.17100023 0.20091881
0.14123698 0.17751585 -0.14518192 -0.041019816 -0.070699 0.117439464 0.05314309 -0.18404008
-0.030589575 -0.19510871 -0.22834142 0.22153313 -0.14020543 0.08937435 -0.06268676 -0.03411596
-0.0014313018 0.21419334 -0.09451759 0.17460483 0.15366414 0.17352022 -0.16159618 -0.16176517
-0.14304489 0.009222402 -0.12807724 0.0071857795 0.17251602 0.09832117 -0.24683134 -0.10818202
0.19212013 -0.011907617 0.11170141 -0.10071233 -0.07884409 0.09859714 -0.2008079 0.12063665
0.117219165 -0.20608647 -0.086522214 -0.018574053 0.0837428 -0.11005859 0.26734778 -0.27453926
-0.07266911 -0.09179249 -0.04785796 -0.052086446 -0.048938006 0.15285003 -0.11662686 0.10201595
-0.036028035 0.033716716 -0.31645903 -0.30548593 -0.31438327 0.15317273 -0.20665775 0.23713923
-0.071831435 0.010185519 -0.033087023 0.13250373 -0.07163063 0.09910258 0.13164565 0.15938476
0.2311119 0.1021903 -0.11171285 -0.13734578 0.03153978 0.22209837 -0.08039018 0.19443472
-0.04741808 0.23257543 -0.075109005 -0.25522944 -0.10164265 -0.24830475 0.09020699 -0.09552825
-0.025963146 -0.00082171237 -0.13595836 -0.042527024 -0.0909554 0.17518616 0.1364995 -0.09186975
00000000: db23 ab3c 92f0 10be 6196 61be 8455 f33d
00000010: 9435 c53c 3b13 8f3e 5825 f6bd 8696 bd3b
00000020: 976d 8dbd 1f37 c3bd 07bb 083e bbda 51be
00000030: aca3 513e 4570 aa3d 5fcc 18be 3568 ee3d
00000040: 867b c0bd 9326 59bc d8dc 18bd beaf 52be
00000050: f074 38bd 5ab9 1b3e 3f74 86bd e922 14be
00000060: aaa9 06bd 3f17 9f3c 90f7 8ebd 84c0 20be
00000070: 50ca c8bd 8718 acbd 7553 f63d d013 433e
00000080: 1448 ebbd 1b8e f2bb 28cd 6f3e fa21 8bbc
00000090: a18f 22be 95a6 9d3e 6e85 163e 36bb edbc
000000a0: 8234 64be 914e bb3d abc0 8abe 80e2 663e
000000b0: 894e fa3d a225 52bd e492 51be 3ed2 29be
000000c0: c636 db3d a930 423e 936c 1fbd 0aba 6b3e
000000d0: 9194 8abd e473 19be 432c edbd d1c3 413d
000000e0: 8013 27bd 4e91 d83d a8e3 f0bd a386 71bd
000000f0: ee99 66be 853e 653e f9c9 a9bc 085f 5fbe
00000100: 5dcd 423d e068 ac3d 94ea 8bbc dc2e d0bd
00000110: 8e40 403e b49c 08be 8197 cc3b 09d9 62bd
00000120: 7487 cc3d ba4b 8e3e 9514 67bd 86f9 fa3d
00000130: 12c2 e73d 9054 99bd 2a18 dcbd ee30 35bd
00000140: 7d46 6c3e cbb1 c63b f01c 21bc 4bf0 9ebd
00000150: 015d 90bd ccad 99be 75f5 4bbe 1910 16bd
00000160: 3ac4 e93d 50f6 b93d 8bcb 673e b047 a0be
00000170: 49e8 c5bd 9e2f d7bd c903 6dbd e36e 323e
00000180: 6413 48be b74e 6b3e ac38 94bd d296 523e
00000190: 5e59 9fbd 5caf 173e 6422 813e d744 e7bd
000001a0: 2d23 a9bb 72dc c83d e112 6cbe 3db6 083e
000001b0: 529c 18be d7fa 873e da86 3ebe 5bac babd
000001c0: 2080 0e3e 9078 06be 03af 993e 8fe3 6d3e
000001d0: 0246 523e 285c 57be e5ad 2fbd d387 a6bd
000001e0: b7ac 073d 409f 8fbe e809 093e f69d 683d
000001f0: ed3b 43bd 9748 84be b196 523e 44e5 1cbe
00000200: 35c4 113e f01c 283c 15cb fc3d 1b22 0d3b
00000210: d16f d9bd fa6f a8bc 8c88 5dbe b7a3 943d
00000220: 8876 2dbe bacc cd3d 9922 c2bd dfa8 4f3e
00000230: f397 853e 40ee 43be 0955 733e 7c83 1fbd
00000240: 7aaf 5ebe bfa4 813d b7d8 063e 6377 743e
00000250: 524a 71be 35f9 803e f251 513e 09ae 493e
00000260: 8b7d 1b3e 9628 a1bd 097c 0b3e aacb 643e
00000270: a1fa b4bd c020 c4bd af1a 2f3e a9bd 4d3e
00000280: 6da0 103e b7c6 353e 92aa 14be 6504 28bd
00000290: a3ca 90bd 1a84 f03d 92ac 593d 0175 3cbe
000002a0: fd96 fabc 94ca 47be 55d2 69be 95d9 623e
000002b0: 0392 0fbe e609 b73d eb61 80bd 2dbd 0bbd
000002c0: 859a bbba 8055 5b3e 7092 c1bd 9ccb 323e
000002d0: 225a 1d3e 49af 313e 7879 25be c5a5 25be
000002e0: 5c7a 12be 8f19 173c ae26 03be b076 eb3b
000002f0: 0aa8 303e 9c5c c93d 5bc1 7cbe 898e ddbd
00000300: 24bb 443e 2a18 43bc b5c3 e43d 4442 cebd
00000310: 0379 a1bd 4ced c93d 96a0 4dbe 5910 f73d
00000320: 9a10 f03d 5508 53be 8f32 b1bd 9d28 98bc
00000330: 5881 ab3d 6666 e1bd cfe1 883e 6990 8cbe
00000340: 8bd3 94bd b3fd bbbd b506 44bd 9958 55bd
00000350: 3873 48bd b884 1c3e 10da eebd bded d03d
00000360: 2292 13bd 8a1a 0a3d eb06 a2be a768 9cbe
00000370: d8f6 a0be 50d9 1c3e 179e 53be a0d4 723e
00000380: 5c1c 93bd 2ae1 263c 4286 07bd 0faf 073e
00000390: 14b3 92bd 4bf6 ca3d 1ece 063e c235 233e
000003a0: 99a8 6c3e 2649 d13d b5c9 e4bd 5fa4 0cbe
000003b0: db2f 013d c16d 633e 9ba3 a4bd e519 473e
000003c0: 7639 42bd 4128 6e3e c0d2 99bd 6fad 82be
000003d0: 062a d0bd 9a43 7ebe 71be b83d 51a4 c3bd
000003e0: aab0 d4bc 2f68 57ba ab38 0bbe d130 2ebd
000003f0: d346 babd 0064 333e 86c6 0b3e 3526 bcbd

encoder.node_encoder.module_8.Wr.bias f4 [16]
0.12599726 -0.040978547 -0.2372969 -0.12820843 0.13287495 0.13850693 0.0027119247 -0.1874794
0.11187655 0.021586891 -0.25463742 -0.012039626 -0.06712363 -0.04775143 -0.064357184 -0.12870027
00000000: 6d05 013e 1fd9 27bd f5fd 72be 1249 03be
00000010: 5f10 083e c3d4 0d3e 8cba 313b 9afa 3fbe
00000020: 881f e53d fed6 b03c d65f 82be da41 45bc
00000030: 1d78 89bd 0197 43bd b3cd 83bd 01ca 03be

encoder.node_encoder.module_8.Ur.weight f4 [16, 16]
0.31935647 -0.2438761 0.22264752 -0.15219153 -0.06024752 -0.09870778 -0.19355324 0.101351224
0.115639694 -0.14595357 -0.13158095 0.13840151 -0.06478544 0.09665181 0.13338692 -0.12925193
-0.1396146 0.10023665 -0.13017985 -0.14133444 -0.10770891 -0.08184393 0.21910538 0.08962614
0.064386114 0.038859006 -0.21350217 0.18134476 -0.08237745 -0.05034089 0.23146264 -0.17346948
0.12917936 -0.16874252 0.04955672 0.1024842 -0.15578347 0.20848653 -0.041578706 -0.077153586
0.121694334 0.10215183 0.006507574 -0.08297733 -0.25653479 -0.121638134 0.0961779 -0.030563287
-0.08930853 0.31119886 0.14282852 -0.13688114 0.15553425 -0.1001167 0.11764389 0.22141449
-0.2239172 -0.13813436 -0.014073646 0.041263513 -0.21523212 -0.22596198 -0.08143693 -0.03428783
-0.048617594 -0.03752127 0.10592426 0.06312233 -0.020265535 -0.06615359 0.07353445 0.11976112
-0.06984423 -0.13690335 0.1602849 -0.20497267 0.2322149 0.120192006 0.017896991 -0.054948956
-0.07074299 -0.24291387 -0.13550779 0.21248889 -0.2940874 -0.29065734 -0.008668427 -0.05085281
0.14864756 -0.14176694 0.056058176 -0.08928805 0.31339246 0.17225826 0.07733868 0.09727619
0.23580799 -0.17908031 0.10725246 -0.15271248 0.23236334 -0.20471449 0.08812105 -0.19509451
0.13514875 0.079090066 0.22716564 -0.1578147 0.16026759 -0.13713078 -0.11912617 0.09628727
-0.022702461 -0.13889568 -0.25354567 -0.06675123 0.10741913 0.26267973 0.19773193 0.07043742
-0.20106156 -0.20812407 0.16497135 -0.12177502 -0.103718124 -0.20205452 -0.13536175 -0.0026993167
-0.04192283 0.056469567 -0.060598392 0.007936211 0.027665768 0.05603658 0.09286694 0.22921212
0.17365439 -0.12372696 -0.23856793 0.03291817 -0.059523042 0.23429424 0.31263548 0.010660069
-0.13172852 -0.0053644357 0.10258343 0.070693366 -0.11310082 0.08634693 -0.26742876 -0.10785929
0.12617542 -0.107706785 0.14361215 -0.18619183 0.18882124 0.13842134 0.17357239 0.019324115
0.0339302 -0.11404827 -0.13945052 -0.17918646 0.20817053 -0.08466953 -0.00061621726 -0.23254187
0.061413128 -0.09628552 -0.20162715 0.027852938 -0.24243383 -0.033838764 -0.21077543 0.1502867
-0.18557692 0.028492413 0.09069293 -0.23663275 0.19987276 0.2383064 -0.14311798 0.017729335
0.058445252 0.2650269 0.20018733 -0.15730122 -0.19532529 -0.13642035 -0.06848879 -0.06766898
-0.061020117 0.14820126 -0.20775016 -0.1540069 -0.16476355 -0.11103809 0.19920029 0.07518611
-0.07087078 0.0075753825 -0.22186299 -0.03601384 0.102275066 0.25526765 0.24392682 -0.030174097
-0.06919764 -0.111817665 0.23638707 -0.30601564 0.117010936 -0.0010429285 0.27881464 0.12578042
-0.061132696 -0.15002002 0.07802585 -0.10031317 0.012328814 0.10853167 0.14177245 -0.060423333
-0.14669125 -0.2671114 -0.15147841 0.04607898 -0.2024244 -0.079914115 -0.09544464 -0.23664147
0.25213397 0.19983666 0.25228328 0.28022262 -0.106713496 -0.095299296 -0.19655123 0.25077075
0.1335454 0.18215606 -0.080180764 -0.110407844 0.19336802 -0.27393317 -0.13994893 0.055677332
-0.14801683 -0.069987655 0.16345096 0.19181982 0.040439203 -0.24495679 0.11139777 0.31927183
00000000: b182 a33e a8ba 79be b6fd 633e 19d8 1bbe
00000010: 1bc6 76bd 4e27 cabd d232 46be 3b91 cf3d
00000020: 81d4 ec3d da74 15be 28bd 06be 20b9 0d3e
00000030: 3bae 84bd 62f1 c53d 9596 083e 9e5a 04be
00000040: 21f7 0ebe df48 cd3d de4d 05be fab9 10be
00000050: 7d96 dcbd ca9d a7bd 295d 603e e98d b73d
00000060: dedc 833d 9f2a 1f3d 50a0 5abe 71b2 393e
00000070: 82b5 a8bd 4032 4ebd 8b04 6d3e fca1 31be
00000080: 9847 043e d7ca 2cbe fdfb 4a3d 3ce3 d13d
00000090: b485 1fbe 7e7d 553e 6f4e 2abd b302 9ebd
000000a0: e13a f93d fb34 d13d 7d3d d53b 05f0 a9bd
000000b0: 8758 83be 6a1d f9bd ebf8 c43d dc5f fabc
000000c0: 64e7 b6bd 7555 9f3e a441 123e 922a 0cbe
000000d0: 5f44 1f3e fc09 cdbd 48ef f03d 7bba 623e
000000e0: 8d4a 65be 1873 0dbe 2695 66bc ee03 293d
000000f0: cf65 5cbe 9462 67be 68c8 a6bd 6571 0cbd
00000100: 3e23 47bd e7af 19bd d2ee d83d 4846 813d
00000110: e803 a6bc 897b 87bd 3b99 963d 5145 f53d
00000120: 7e0a 8fbd 6430 0cbe ba21 243e 5be4 51be
00000130: bec9 6d3e 3a27 f63d b69c 923c 2812 61bd
00000140: b3e1 90bd 6abe 78be 8ec2 0abe b096 593e
00000150: a092 96be 0ad1 94be 0506 0ebc 094b 50bd
00000160: 1137 183e 5a2b 11be 429d 653d a7dc b6bd
00000170: fa74 a03e 7864 303e be63 9e3d bd38 c73d
00000180: a677 713e d460 37be 2ea7 db3d a960 1cbe
00000190: a8f0 6d3e ada0 51be cf78 b43d dbc6 47be
000001a0: 6f64 0a3e f9f9 a13d 1c9e 683e 2d9a 21be
000001b0: 301d 243e 036c 0cbe 6cf8 f3bd 4332 c53d
000001c0: 83fa b9bc ab3a 0ebe bdd0 81be deb4 88bd
000001d0: 90fe db3d f57d 863e 3d7a 4a3e 7e41 903d
000001e0: 15e3 4dbe 7a1e 55be 40ee 283e 2f65 f9bd
000001f0: 2b6a d4bd 61e7 4ebe 459c 0abe 05e7 30bb
00000200: 46b7 2bbd a24c 673d 0536 78bd e206 023c
00000210: 52a3 e23c 9d86 653d 0631 be3d 95b6 6a3e
00000220: 75d2 313e 8f64 fdbd 274b 74be 34d5 063d
00000230: 6fce 73bd d4ea 6f3e c211 a03e 92a7 2e3c
00000240: d7e3 06be 26c8 afbb 4317 d23d afc7 903d
00000250: 67a1 e7bd a9d6 b03d 6cec 88be 55e5 dcbd
00000260: 2134 013e 6095 dcbd 100f 133e 12a9 3ebe
00000270: 5b5a 413e 53be 0d3e f6bc 313e 9b4d 9e3c
00000280: 65fa 0a3d 2492 e9bd 1ecc 0ebe a87c 37be
00000290: a82a 553e 3867 adbd a489 21ba 751f 6ebe
000002a0: 558c 7b3d 5831 c5bd 5977 4ebe d82b e43c
000002b0: 9340 78be 849a 0abd 84d5 57be c2e4 193e
000002c0: e007 3ebe ec68 e93c 37bd b93d db4f 72be
000002d0: 72ab 4c3e 9806 743e 858d 12be 1c3d 913c
000002e0: 4a64 6f3d 9bb1 873e e8fd 4c3e 9213 21be
000002f0: 5a03 48be c7b1 0bbe da43 8cbd 0996 8abd
00000300: 3bf0 79bd 12c2 173e 75bc 54be fcb3 1dbe
00000310: c7b7 28be f067 e3bd 29fb 4b3e 2dfb 993d
00000320: b324 91bd ea3a f83b 0d30 63be 4083 13bd
00000330: 9775 d13d 71b2 823e f4c7 793e ab2f f7bc
00000340: 7eb7 8dbd a900 e5bd 740f 723e 15ae 9cbe
00000350: 6ea3 ef3d e0b2 88ba cbc0 8e3e 95cc 003e
00000360: 4766 7abd d99e 19be 04cc 9f3d fe70 cdbd
00000370: cbfe 493c da45 de3d cc2c 113e 757e 77bd
00000380: 3b36 16be d3c2 88be 281d 1bbe 50bd 3c3d
00000390: 5848 4fbe 03aa a3bd 7b78 c3bd 2452 72be
000003a0: b417 813e fba1 4c3e 462b 813e 5779 8f3e
000003b0: 9b8c dabd 472c c3bd ba44 49be 0665 803e
000003c0: 20c0 083e 1e87 3a3e d035 a4bd 821d e2bd
000003d0: 4402 463e f840 8cbe c64e 0fbe ea0d 643d
000003e0: b991 17be b055 8fbd b05f 273e 6a6c 443e
000003f0: 94a3 253d f4d5 7abe 8424 e43d 9977 a33e

encoder.node_encoder.module_8.Ur.bias f4 [16]
-0.19628377 -0.046726666 -0.27525216 -0.14248456 0.153372 0.20325014 0.114164874 -0.2984879
-0.07480401 0.09104247 -0.03480997 -0.045145947 -0.12843348 0.2959704 -0.1257977 -0.122813985
00000000: 9dfe 48be 7664 3fbd daed 8cbe 79e7 11be
00000010: 8d0d 1d3e ce20 503e 46cf e93d 68d3 98be
00000020: d832 99bd 7974 ba3d e694 0ebd f5ea 38bd
00000030: 1184 03be 6f89 973e 1dd1 00be e685 fbbd
