checkpoint/dagformerv3.3.pt (torch, 107557 bytes, 61 tensors)

encoder.node_encoder.module_0.weight f4 [16, 5]
00000000: 35a4 bd3e 2730 c23e 39fa 79bd ae08 de3e
00000010: 88b9 12bd 16ff 013e a81c 30be 3ef7 b13e
00000020: 7c45 d53e 610b abbe cf00 b43e f8b2 8f3d
00000030: a509 ea3e 29b7 633d 3041 793e 02c1 11be
00000040: 1dac b13e af24 663e e253 3cbe d96d 2e3e
00000050: bff7 56be 61a2 dcbd 0a87 97be af5c 803e
00000060: 0084 debe 662d 38be 22a6 d8bd 1341 f6be
00000070: ccb6 d2bc 2813 0ebf b350 bc3e f5e2 c1be
00000080: 6fda e63e a62a 603d c6f9 21be 4d17 863e
00000090: 4cce 993d 555d 453e 6ef8 0bbd 726f 57be
000000a0: d4f2 b43d ba84 11be a95d a43e 413d d93e
000000b0: a8fa 933e aacf 2dbe 9a39 893e a2f4 15be
000000c0: 11d2 eb3d 41b4 c7be 38ef dcbe 1b95 21be
000000d0: a9ca 4cbe 9905 c43e 13ad f53d b31e 443e
000000e0: a09d b13d 5c5f 7dbe 27f3 823e b626 c6be
000000f0: d095 1f3d 3ae5 94be 3d40 8e3e 9300 1bbe
00000100: a09c 273e aff3 54bd ab54 cd3e f72c d4be
00000110: 215b 86be 0a6b 9dbe e87b e13e 92cf 203e
00000120: b6dd 603e 1be6 d1be 687e 0dbf 09e6 ccbe
00000130: e67f 9ebe 3e72 a13e b316 2f3e e886 ca3e
0.37039343 0.37927362 -0.061029647 0.43365997 -0.035821468 0.12694964 -0.17198431 0.34758943
0.41654575 -0.3340712 0.35156867 0.070165575 0.45710483 0.055594597 0.24341273 -0.14233783
0.34701625 0.22474931 -0.18391374 0.17034091 -0.20992945 -0.10773159 -0.29595214 0.25070712
-0.43460083 -0.17986068 -0.10578562 -0.48096523 -0.02572193 -0.5549798 0.3678032 -0.37868467
0.45088527 0.054728173 -0.15817937 0.26189652 0.07510051 0.19273885 -0.034172468 -0.21038607
0.08835378 -0.14210787 0.32102707 0.42429546 0.28902173 -0.16973749 0.2680176 -0.14644101
0.11514676 -0.3900471 -0.4315126 -0.15779535 -0.19999184 0.3828552 0.11995902 0.19152336
0.08672643 -0.24743408 0.25576136 -0.3870141 0.03896123 -0.29081136 0.27783385 -0.15136938
0.16368341 -0.051990207 0.4010366 -0.41440555 -0.262414 -0.30745727 0.44039845 0.15704182
0.21959576 -0.4099587 -0.55271006 -0.40019253 -0.30956954 0.31532472 0.17098503 0.3955605

encoder.node_encoder.module_0.bias f4 [16]
00000000: 4e03 54be a54f 82be b55d 573e d4db 62be
00000010: 18d4 703e 17e0 0abe 51dc 7f3e 7ae6 a0be
00000020: 031d 4ebe 6092 da3d 2ea6 093e 1b5b 0ebe
00000030: c2b7 a43e 8676 9b3e a208 90be ed28 81be
-0.20704386 -0.2545139 0.2103184 -0.2215417 0.23518407 -0.13562046 0.24986388 -0.3142584
-0.20128255 0.1067245 0.13442299 -0.13901941 0.32171446 0.30363864 -0.28131586 -0.25226536

encoder.node_encoder.module_1.frequency f4 [8]
00000000: 0000 803f a15a 893e 4264 933d ab29 9e3c
00000010: 95b8 a93b bb1f b63a ea6e c339 17b7 d138
1.0 0.26826957 0.07196857 0.019306978 0.0051794746 0.0013894954 0.00037275936 1e-04

encoder.node_encoder.module_3.gamma f4 [16]
00000000: c5e3 893f 9556 7f3f f5f6 823f bbc0 823f
00000010: adac 813f b0b6 883f e817 843f f553 723f
00000020: e4f3 803f 454f 803f 5249 863f 7841 853f
00000030: 1661 7d3f dc89 8e3f 1cf0 803f 8d8b 7c3f
1.0772635 0.9974149 1.0231615 1.0215067 1.0130821 1.0680752 1.0319796 0.9465936
1.007443 1.0024191 1.0491126 1.0410604 0.98976266 1.1135821 1.0073276 0.9865044

encoder.node_encoder.module_3.beta f4 [16]
00000000: d28f d43c 2725 2fbc ff55 3dbd 6149 27bc
00000010: 602d 5b3c 9431 2cbc 9652 143c c6e3 a9bd
00000020: 1fb4 0dbd 07f1 643d 31a6 5abc f824 25bd
00000030: c92e e0bc 2edf 9a3d bee5 153d bbea e73a
0.025947485 -0.01069001 -0.04622459 -0.010210366 0.013377517 -0.010509867 0.009052893 -0.082953975
-0.034595605 0.055893924 -0.013345287 -0.04031846 -0.027366059 0.075620994 0.036596052 0.0017693856

encoder.node_encoder.module_3.transformer_conv.lin_key.weight f4 [16, 16]
00000000: d55e ce3c 3be4 0bbe fab7 4cbd 7c22 35bd
00000010: f23a 0e3d aa66 363e aac5 a7bd 6e25 5e3e
00000020: f7fc 3c3e e6b4 1abe 6906 7abe 18a8 53be
00000030: 6cbb 05be 4119 81bd cc9d 523c 4309 b1bd
00000040: a374 d5bd 3460 f4bc 64ae 72bd eb60 5b3e
00000050: dcfc 97bd d2d0 3bbe aa66 ee3d 6553 a4bc
00000060: dd00 453e b248 083e 75c1 8c3e aba8 27be
00000070: 410b 0e3e 1461 3c3e 05d0 15be c9c2 7b3e
00000080: ea72 1f3e f28f 02bc 3ae8 923d c146 b0bd
00000090: d9de 50be aaad c13d 2dfe bf3d 6b73 06be
000000a0: d3d8 ae3d 3b83 32be d21a 1a3e 98a0 823e
000000b0: 4148 643d f087 dfbd 5a30 2b3e fca6 2a3b
000000c0: b692 273d cdbe b13c 87f5 f13d df8b abbd
000000d0: e4a0 83bd 5892 bb3d af50 d33c 94d9 663e
000000e0: 06bb f2bd bae6 123d 2b08 a5bc c674 99bd
000000f0: 078a 383e bd10 9f3d 3c8a 3cbe 276a 86bd
00000100: 0f88 40be ae62 a9bc 9c76 2cbe c416 74be
00000110: d976 493b 631a ae3d a674 d5bb 4cd8 ac3e
00000120: e58b 07bd ebfd 773e 32ac 86bd 76f0 2abe
00000130: 2191 8c3c 347b ab3e 14dc 14bd cf4a 91be
00000140: 4691 613e a1c0 8b3e 5ce3 cfbd 8140 0b3e
00000150: ef31 10bc dc8b 73be b663 153d 0abb b53d
00000160: 3581 d8bd e87d 1e3d eeac 4ebe 136d 483e
00000170: f9df 413e 8066 083e 70a5 223d f8e0 a53d
00000180: b525 2dbe afcf 0dbe 614f 63bd 2195 e4bd
00000190: 47ef 5cbe 3f13 1f3e d67f 143e 57d4 74be
000001a0: b75a e83d b5c0 0d3e 01b6 623e c88d e83d
000001b0: 14ae 863e b6cb 9ebd 7f1c 353e a6ac 533e
000001c0: 8764 47be e079 65be 245b d83d ed3a 053e
000001d0: 90bf 20be f086 f3bc 7947 12bd d366 9d3b
000001e0: f6b1 8ebd b3d5 f63d 8b86 823e 1db7 51be
000001f0: c145 053d 3514 99bd a44d dd3b be00 9a3e
00000200: dd0e f73d 81f6 a4bc 3a07 a73e d790 dabd
00000210: ca9d c0bd 6e32 37bd 72a3 60be 6d54 13bd
00000220: 0b08 1abe d56b 0abd fe16 0b3e 5b3c 683c
00000230: 9d86 45be 295e a9be c20c d03c 8295 963e
00000240: 6751 81be d33f 2c3e 7753 3ebe dec0 73bc
00000250: 0774 8e3e a6dd 683e 8033 12be 38a7 443e
00000260: d72d a13d 2bec 67bc d945 5f3e 1515 5dbd
00000270: 1a2e d6bd 6b04 c7bd 0682 883d ad08 083d
00000280: 06f0 b23d 384d 70be 6fef 99bd c99c f33d
00000290: 7f23 95be 9c6f ecbd 20f7 9cbd ab17 35be
000002a0: 76d5 223e d372 a43c edd9 813e 9666 bdbd
000002b0: 9286 b1bd ca89 cc3d 2169 2dbd 5359 9f3b
000002c0: 0baa 22be 1824 ec3d b4d6 5abe 52aa 0f3d
000002d0: 319b 173e 7fd9 5abe 3bcc 14be 2622 33be
000002e0: 4c4b 513e 8e0e 423e f4fa 3e3d 82f7 843e
000002f0: 9ad5 e1bd 1a11 83be 3e73 9d3d bac6 be3d
00000300: 379f 9a3e 5404 8cbd 9c7e 733e 0a89 453e
00000310: 699c ed3d 2282 a2be 79de 123e e685 90be
00000320: a4ae 883e da08 cbbc 2e90 1abe 1522 b03b
00000330: 9248 533c 08cf 96be 7ae7 24be d216 c33d
00000340: abef 533e 0f07 28bc 6fb9 393e e693 66b9
00000350: d272 0e3d ef99 553d d7a7 14be f73f 51be
00000360: 6fd3 ffbd 850e 84be 54f8 c1bd 8c8a 1f3d
00000370: a7e5 48be 5ed7 eebd ba68 63bd 1554 bfbc
00000380: 84cc 4cbe fd8f 3b3d b8ea c1bd d769 373d
00000390: 0029 843d 3dfc 6cbd ab05 08bd 7b8c 823d
000003a0: 325a 39be f9d2 3f3d 5f46 cdbd ced8 183e
000003b0: d00f f93b d4b7 863e a62e 893d ae2d 83be
000003c0: ee87 e43d 43c0 5abe 341b 95bd 90f0 79bd
000003d0: e85c debd 9ae4 b1bd bd98 623e 438d 193e
000003e0: ac72 753d 5397 893e e30e 8abe 4256 d83c
000003f0: a4a0 333e 0e1a 443e 55a6 34be 5fa4 943d
0.025191704 -0.13661282 -0.04998014 -0.04422234 0.034724183 0.178126 -0.08191998 0.21693966
0.18455873 -0.1510807 -0.24416508 -0.20669591 -0.13059777 -0.06303645 0.0128550045 -0.08644345
-0.10422637 -0.02983103 -0.059248343 0.2142369 -0.07421276 -0.18341377 0.11640675 -0.020059297
0.1923861 0.13308981 0.27491346 -0.16372935 0.1387148 0.18396407 -0.14630134 0.24586023
0.1557118 -0.00796889 0.071732 -0.08607245 -0.2039751 0.09456952 0.09374652 -0.13129966
0.0853745 -0.17432873 0.15049294 0.25513148 0.05573297 -0.109146 0.16717663 0.0026039472
0.0409114 0.021697426 0.11814409 -0.08376288 -0.06427172 0.09158772 0.025795309 0.22543937
-0.11852078 0.03586457 -0.020145496 -0.07492976 0.18021403 0.077668644 -0.18412107 -0.06563216
-0.18801902 -0.020676937 -0.16842121 -0.2383681 0.0030741005 0.085011266 -0.0065141497 0.3375877
-0.0330924 0.24217956 -0.065758124 -0.16693291 0.017159047 0.33492434 -0.036342695 -0.28377387
0.22028074 0.27295402 -0.10150787 0.13598825 -0.008800968 -0.23783821 0.036472045 0.088735655
-0.10571519 0.038694292 -0.20183155 0.19572859 0.18933095 0.1332035 0.039708555 0.0809955
-0.16908915 -0.13848756 -0.055495623 -0.111612566 -0.21575652 0.15534686 0.1450189 -0.23909126
0.113454275 0.13843043 0.22139741 0.113551676 0.26304686 -0.077536985 0.17686652 0.20671329
-0.19471942 -0.22409773 0.10564259 0.1301076 -0.15698075 -0.02972743 -0.035712693 0.0048035174
-0.06967537 0.12052479 0.25493273 -0.20480008 0.032537226 -0.07474557 0.0067536402 0.3007869
0.12063382 -0.020137073 0.326227 -0.10672157 -0.09405096 -0.044725828 -0.2193735 -0.035969187
-0.1504213 -0.033794243 0.1358299 0.014174546 -0.19289632 -0.3307965 0.025396708 0.2941094
-0.25257418 0.16821222 -0.18586527 -0.014877526 0.27822897 0.22740802 -0.14277458 0.19204414
0.078700714 -0.014155428 0.21803989 -0.053975184 -0.10458012 -0.097176395 0.06665425 0.0332114
0.08737187 -0.23466957 -0.075163715 0.11895139 -0.29128644 -0.11544725 -0.07664323 -0.1768481
0.15901741 0.020074284 0.25361577 -0.09248082 -0.086682454 0.09987219 -0.042336587 0.004862943
-0.15885179 0.11530322 -0.21370965 0.03507454 0.14805295 -0.2137203 -0.14531033 -0.17493495
0.2043888 0.18950865 0.046626046 0.25970083 -0.110270694 -0.25598985 0.07687996 0.09315248
0.30199596 -0.06836763 0.23778766 0.19290558 0.116020985 -0.31739908 0.14342679 -0.28227156
0.2669574 -0.024784494 -0.15094063 0.0053751566 0.01289572 -0.29454827 -0.16103926 0.09525837
0.20696895 -0.010255589 0.18137144 -0.00021989606 0.03477747 0.052148756 -0.14517151 -0.20434557
-0.124915 -0.25792328 -0.09471193 0.038950488 -0.19618855 -0.11662172 -0.055519797 -0.023355523
-0.19999892 0.045791615 -0.09468597 0.04477867 0.06453133 -0.05785774 -0.03320853 0.06374451
-0.18100813 0.04683206 -0.10023188 0.14926454 0.007600762 0.26312125 0.066983506 -0.25620788
0.11158739 -0.21362405 -0.07280579 -0.061020434 -0.10857564 -0.086861804 0.22128578 0.14995293
0.059923813 0.26873264 -0.26964483 0.026408318 0.17541748 0.19150564 -0.17641576 0.07257914

encoder.node_encoder.module_3.transformer_conv.lin_key.bias f4 [16]
00000000: 44dc 11be 0162 20bc 2cbd 55bd 5ea4 55be
00000010: 671b 74be 2558 28be 78d4 e73d 61d4 e93d
00000020: 03d4 5ebe 6cb0 bfbd 0c45 803b 9438 5dbe
00000030: 8bff 0f3e 18ec 673e 57ca 353d 4243 3ebe
-0.14244181 -0.009788991 -0.05218236 -0.20863482 -0.23838578 -0.16439874 0.11319822 0.11417461
-0.21760564 -0.09359822 0.003914481 -0.21603614 0.14062326 0.22648656 0.04438242 -0.18580344

encoder.node_encoder.module_3.transformer_conv.lin_query.weight f4 [16, 16]
00000000: 9ea6 1e3e b9d6 7e3d 0c4a 6d3e 48b6 98bd
00000010: 796c 84be 3161 923d a317 00bd f8e1 a2bd
00000020: 0017 b8bd a267 b8bd c301 563e cb6c cbbc
00000030: 3276 323e f448 873e 450e 293d 58c6 4e3d
00000040: be25 54bd cfc2 b83d cdef 4bbe e171 0f3e
00000050: 8c6c 02be 8088 813d 158d cfbc b771 eabd
00000060: f404 b03c 95fd d73d bc5c 2dbe bb90 55be
00000070: 9f78 3cbd ffc2 f7bd 39dc 793d 6f18 433e
00000080: a4c8 cabd 3f9b 423e e323 c6bd 6238 9fbd
00000090: e9be 53be 3461 4dbe 38a6 4cbe 593f 3fbe
000000a0: c29b 5ebe eece b0bc bcc9 d43d 78f6 0c3e
000000b0: 45f3 3c3e 1cb5 e4bd 5f8a 303c 96bf 25be
000000c0: dad5 523c 62df 71be c7d2 b53d ea24 a63c
000000d0: eb5d a53d 74c5 ef3d 2249 cabd a748 613e
000000e0: d8ea df3d d7ff d83d 3c4e 463c 2f0c ed3d
000000f0: dba5 203e e4a0 383d 3869 263e 33e2 50bd
00000100: 694e 8f3e 5cf2 013e e125 133e d368 553e
00000110: b2cf 243e 5139 71bd b578 aabc cd75 8a3d
00000120: 9047 6f3c 80a0 fb3c e1e7 633e 9d7a 803e
00000130: 5025 18be 7aa7 bf3d f8bd 133d f3b8 2cbe
00000140: 743f 20bc 8c5a 7dbc 1155 11be 51af f2bd
00000150: 6437 22bd 82de 8c3e e2af 0a3e 85da 843e
00000160: c305 3f3d 7aea 503d f790 d33d 05bc 723d
00000170: ddb3 42be ffae 1fbe 485e e1bc 3fb8 a03a
00000180: b2fc 1a3e 7480 4f3c d37c 703e 43ab e33d
00000190: b907 28be d740 82be e3b8 6ebe 1178 2fbe
000001a0: ac13 ea3d 3340 1b3e 8516 683e 0f26 bfbd
000001b0: 986d 88bc 718c 5bbd 02fe 0abd 70ad c03d
000001c0: 710f 52bd c0cb 87bd 0782 493d c2dc ce3d
000001d0: 6319 06be a232 44be 7b37 483d 9aa0 8fbd
000001e0: d61b 7abd 2355 c43d 175a b23c 23bf 80bd
000001f0: 327c cfbd e932 1fbd 8be9 7ebe 103c b03d
00000200: 15cd fabd 2cd8 be3d 58b7 453c 5342 ec3c
00000210: 0260 10bb 7f34 2f3e dabe d8bd 4c13 153e
00000220: f586 ae3d 0520 7fbe b132 883d ec44 6cbe
00000230: 4fc8 9ebd b374 59be 2725 5cbe ddda 573e
00000240: 2123 01be 54f8 3e3e 36d2 80be 417c 38bd
00000250: af88 a23d 929d 623e ff0f cfbd 613e cc3d
00000260: d447 00bc 62eb 3d3e d41b 583b 9d48 113e
00000270: 997f 35be edc1 06be d8bf 7c3e e582 60be
00000280: cb16 7dbd 8524 01be 20a7 943e 1932 ccba
00000290: 8bc1 94be e9b0 09be 4b63 cd3d 99d9 803d
000002a0: 7562 8b3e e5cd 7abd 86a4 0c3e 9a82 8dbe
000002b0: 219f f63d 430f ce3d 1e1d fd3d f109 d7bd
000002c0: ecdf 52bc 98d9 b2bb 783e 18be 5f59 03be
000002d0: 5ecf a6be b260 0dbd ceb3 cf3d 571e 943d
000002e0: 5877 173d 8560 903d 3d29 30be f6e7 6dbc
000002f0: b1a0 9bbd efc1 14be 11c7 393e 3443 49be
00000300: 603d 5fbd 8673 99be 8a43 9a3c c4e0 67bd
00000310: 0ec6 d7bc 5f47 45be ac2a 103e 686c 57be
00000320: ba22 453e 947d 84be 8ff0 f93d 8f37 44be
00000330: 3073 6e3b 7e88 fcbd 259c ee3d 1f48 d33d
00000340: e080 a6be e478 843c d7c7 51be fe67 293e
00000350: 4db1 443d 3310 15bd 076f ddbd 59af ca3d
00000360: d82b 1abe b7b8 733d f274 e63d 53ac d93d
00000370: 05e0 5c3d 1fb1 94be a64b 2d3e 6396 aabd
00000380: 9fd0 613c e9e4 643d 41d2 1c3e 8b47 083e
00000390: 10c1 1a3e d895 323e be9c 57be fb4e fe3b
000003a0: 7079 87be 9d6e 1f3e bced 29be b7d4 30ba
000003b0: d9ca 2e3e be54 a23e c5ef d1bd 50b4 24be
000003c0: fdcd 5d3d 1f1d b03c e1c9 193d 332c 73bc
000003d0: 46b2 77be 2e78 af3c c429 603e abf9 22be
000003e0: 694c 3c3e b8ee 1a3e fb41 763e 0c6b ffbc
000003f0: 1094 483d 3459 553e d42b 1c3e 4e75 993e
0.15493247 0.062216494 0.23172778 -0.074566424 -0.25864008 0.07147444 -0.03127254 -0.07953256
-0.08988762 -0.090041414 0.2089911 -0.02483215 0.174279 0.26422846 0.041273374 0.050482124
-0.051793806 0.09021532 -0.19915695 0.14008285 -0.1273672 0.063248634 -0.025335828 -0.11447471
0.021486737 0.10546414 -0.16929907 -0.20855992 -0.04601347 -0.120977394 0.061001036 0.1905229
-0.099015504 0.19004534 -0.096748136 -0.07774426 -0.20678295 -0.20056611 -0.19985282 -0.18676509
-0.21739104 -0.021583047 0.1039004 0.13765895 0.18452175 -0.11167356 0.010775178 -0.16186365
0.012868369 -0.2362037 0.08878093 0.020281274 0.08074554 0.11707583 -0.0987723 0.22000371
0.10933465 0.105956726 0.0121036135 0.115745895 0.15688269 0.045075312 0.16251075 -0.05099697
0.2798951 0.12690109 0.14369918 0.20840769 0.16094854 -0.05889255 -0.02080951 0.0676075
0.014604464 0.03071618 0.22256424 0.25093547 -0.14857984 0.093581155 0.03606984 -0.16867428
-0.009780753 -0.015463483 -0.14192607 -0.11849845 -0.039603606 0.2751351 0.13543656 0.25947967
0.046636354 0.051004864 0.10330384 0.05926134 -0.19013925 -0.155941 -0.027510777 0.0012261941
0.15135458 0.012664903 0.23485117 0.1111665 -0.16409196 -0.25440094 -0.23312716 -0.17135645
0.11429533 0.15161209 0.2266484 -0.09333431 -0.01665382 -0.053600732 -0.033933647 0.094080806
-0.051284257 -0.06630659 0.04919627 0.101007 -0.13095622 -0.1915994 0.048881035 -0.07013054
-0.061061703 0.09586551 0.021771474 -0.062864564 -0.1013111 -0.03886691 -0.24893777 0.08605206
-0.122461475 0.09318575 0.012067638 0.02884022 -0.0022029881 0.1710987 -0.10583277 0.14558142
0.08521835 -0.24914558 0.066502936 -0.23073167 -0.077530496 -0.21235923 -0.21498547 0.21079583
-0.12611057 0.18649417 -0.25160378 -0.045040373 0.079362266 0.22130421 -0.10110473 0.09972835
-0.007829625 0.18546823 0.0032975571 0.14187856 -0.17724456 -0.13159914 0.24682558 -0.21924932
-0.061789315 -0.12611587 0.29033756 -0.0015578895 -0.29053912 -0.13446392 0.10028704 0.062915035
0.27223554 -0.061231513 0.13734636 -0.27638704 0.1204207 0.10061505 0.12359069 -0.10499943
-0.01287077 -0.005458068 -0.1486758 -0.12827061 -0.32580084 -0.034516044 0.10141717 0.07232349
0.03697905 0.0704966 -0.17203231 -0.014520636 -0.07599009 -0.14527105 0.18142344 -0.19654542
-0.05450189 -0.2997095 0.018831033 -0.056610838 -0.026339557 -0.19265507 0.14078778 -0.21037447
0.19251528 -0.25877059 0.12204086 -0.19161819 0.0036384575 -0.12330721 0.11650876 0.103164904
-0.325202 0.016170926 -0.20486389 0.16543576 0.04802065 -0.036392402 -0.108121924 0.09896726
-0.15055788 0.05950233 0.11252774 0.10628571 0.05392458 -0.29041383 0.16923389 -0.08329465
0.013782649 0.05588237 0.1531458 0.13308541 0.1511271 0.17439973 -0.21055886 0.00776088
-0.26459837 0.1556954 -0.16594595 -0.0006745564 0.17069568 0.31705278 -0.102508105 -0.16084409
0.054151524 0.021498261 0.037546042 -0.014842081 -0.241891 0.02141961 0.21890932 -0.15915553
0.18388523 0.15130126 0.24048607 -0.031178974 0.04896933 0.2083481 0.15251094 0.2997231

encoder.node_encoder.module_3.transformer_conv.lin_query.bias f4 [16]
00000000: 90e2 72bd 7e06 cb3d 4efa ff3d a50a 4ebe
00000010: fd6d af3d 4b51 5cbd d151 2f3e 144c cbbd
00000020: 98b2 2abc 0c17 133e 6021 5abe db57 65be
00000030: b8d2 14be 5110 023e ed8e 3d3e 9652 02be
-0.059298098 0.09913348 0.12498914 -0.20121248 0.085659005 -0.053788465 0.17121054 -0.0992662
-0.010418557 0.1436426 -0.21301794 -0.22396795 -0.14533508 0.12701537 0.18511553 -0.12726817

encoder.node_encoder.module_3.transformer_conv.lin_value.weight f4 [16, 16]
00000000: 2ff6 563c e6e4 11be ef90 68bd bee2 653e
00000010: 8870 693c 27b0 45be 6bc0 973d ce09 1e3d
00000020: f3f1 383e b983 18be 1044 0dbe be18 c93d
00000030: 147a 843d 317b da3b 3ed8 3ebe 81c3 3e3e
00000040: 55bd 403e b99e c23d 8059 df3c 2e91 963e
00000050: 2c29 40bd c568 553d 81c9 623e 291d ae3e
00000060: 6004 9fbd 98c5 693e 95ab ed3a fa90 bebd
00000070: e273 2b3e da30 28be ef3c 493e 2b34 4d3e
00000080: f23f 38be 50a3 1bbe 2cd4 9bbe 9ddd 5fbd
00000090: eea4 14be bf6e fd39 34eb d13c c52a 1d3e
000000a0: a70e f13c 189c 1f3e 33f2 bf3d d686 fdbd
000000b0: 7fc5 7cbe a8de 623d 1e2e 823e eafa 7fbd
000000c0: b965 08bd 93bb 44be 23ad 1fbe e895 51be
000000d0: 8853 313e 4ca7 f8bc b457 52be d6ce 3d3d
000000e0: ee09 583d c43a 68bd 8093 883d cebf a73d
000000f0: fdd7 7abe b0c4 80be 2e9b 27bd d9d4 6abe
00000100: 819a 5ebe 4bd1 5b3e 2071 823c 7091 d9bd
00000110: 2e3c 18be 553d 84be 628b 6a3e 1a13 1b3c
00000120: e144 9abd 7aaa 49be 8e31 f43d 9ac1 93bd
00000130: ebdf 94bc c083 f2bd bb55 dfbd 4bfe 7d3d
00000140: c320 503e 97fd 11be d5f6 31bc 6405 41be
00000150: 25c4 6dbd ed90 893e e858 46bd 5f3f 4c3e
00000160: 2b21 13be cd06 d0bd 7dbb 07be 3f60 8e3e
00000170: 2418 55be 8f08 623e 8ac7 a43d f848 183d
00000180: 1822 1f3e 7051 83bd 4cf9 393e e77d 4ebe
00000190: 13b6 afbd 77eb 293e 6d46 e23d 726b 99bb
000001a0: 735a c2bc 80a3 c3bd 4fa8 1d3e e317 933c
000001b0: 8c55 903c 11fb bd3d 9915 8d3e 16b9 edbd
000001c0: e14f f0bd fb6f 163e 12b9 173d e0b0 01be
000001d0: 5f34 6cbe 7e08 093e 83f8 bd3d 50c7 003e
000001e0: c989 033e 863f 90be 0a79 163d 030d 78be
000001f0: ef6e 323d e52d c53d d849 1f3d 5934 003e
00000200: 461a 3dbe a418 2abe aac0 83be 25fa ef3d
00000210: f3a3 193e b899 0ebe a633 0f3e b2a9 663e
00000220: 57d3 90be 998c 393e 2544 313d 24bd 8b3d
00000230: 1b5a 5b3e f9ba 833e b2a8 013e 0a0d 2f3e
00000240: 6e4b f73d c76d 093d 1c14 33be dd18 433d
00000250: 6373 5ebe 1433 353c fea3 923d def7 baba
00000260: 062e e9bd b000 1cbe 59ab 523e b5d7 d53d
00000270: f030 343e 814f bfbd ece1 4abd f0c2 0e3c
00000280: 6939 113e 17e3 f2bd 6831 233e 488d 453e
00000290: 2a44 8fbe 2a3c b7bc 9102 e3bc 8c6a abbd
000002a0: 084c 213e bdcd 6abd b588 3e3e ff8a 52be
000002b0: cfff de3d 9828 8fbe f523 f6bd 7f28 723c
000002c0: cc0b 3f3e 2c08 0c3e 4015 85be d55b f23c
000002d0: 72bb ebbd 4acd 863d efc7 7fbe 17c2 7ebd
000002e0: c068 b33d 679d 61be f299 87be b644 803d
000002f0: a1ba a3bc d24e 20bb ee0b 6d3e a2ea 71be
00000300: ae44 34be 0e5e 30be 850a 34bd b76a 93bd
00000310: cdc7 2e3e 1a28 ebbb ffec 963d d629 0bbe
00000320: 8b47 313e 3da7 503e f049 5bbe 383d 5cbd
00000330: 7893 5abe 165d f23d b438 72be acdf f4bd
00000340: 6cd1 843e 44a8 78be 55eb 7c3e a86b da3c
00000350: 71a2 083e dec9 67be f068 533e b9bc 243d
00000360: a44d e53d aa9c 303e ad37 6abe 356d 64be
00000370: 73c3 923e 9eab 33be 5073 3fbe e4dd 5c3d
00000380: 2e72 96bc 7365 e3bd 938e 60be bcd4 063e
00000390: 79b4 5dbe 2c86 733d ec4e de3d b936 da3d
000003a0: a88a 643c 7c34 ea3d a7db 00be 169d 51bd
000003b0: 696c 16be f8a8 e5bd 6a5f 6cbd cbe6 413e
000003c0: 923b 58bd 861f b73d 8862 333e 3064 30bd
000003d0: ba13 12be 1335 40be 2fd3 c1bd b1b3 503d
000003e0: d9bc 3abe 7c58 8abd c8c9 f03d 667a 3a3e
000003f0: cc47 a93d ecf3 3a3c 7832 ed3d 79c7 0d3e
0.013120218 -0.14247474 -0.056778844 0.22449777 0.014248021 -0.19305478 0.07409748 0.03858357
0.18061046 -0.14893998 -0.13795495 0.09819172 0.06468597 0.0066675176 -0.18637177 0.18629266
0.18822224 0.0950293 0.027264357 0.29407638 -0.046914265 0.05210187 0.2214718 0.34006622
-0.07764506 0.22829282 0.00181328 -0.09304996 0.16743425 -0.16424885 0.1965215 0.20039432
-0.17993143 -0.15199018 -0.30435312 -0.054654706 -0.1451604 0.00048338433 0.025624849 0.15348347
0.029425932 0.15586889 0.09372368 -0.123792335 -0.24684714 0.055388123 0.2542581 -0.06249515
-0.033300135 -0.19212179 -0.1559339 -0.20467341 0.17317021 -0.03035321 -0.20541269 0.046339832
0.052743845 -0.05669667 0.066687584 0.08190881 -0.24496455 -0.2515006 -0.040919475 -0.22932757
-0.21738626 0.21466558 0.015923083 -0.10623443 -0.14866707 -0.25828043 0.22904733 0.009465003
-0.07532669 -0.19693938 0.11923514 -0.07214661 -0.018173179 -0.118415356 -0.10905024 0.06201009
0.20324998 -0.14256893 -0.010862072 -0.18849713 -0.058048386 0.26868382 -0.04842463 0.19946049
-0.14368121 -0.10157547 -0.13255115 0.27807805 -0.2080999 0.22073577 0.080458716 0.037178963
0.1554035 -0.06412017 0.18161505 -0.20165215 -0.0857965 0.16593729 0.11048589 -0.004681998
-0.02372477 -0.095526695 0.15396236 0.017955726 0.017618917 0.09276403 0.2755554 -0.11607568
-0.11733986 0.14691155 0.03704173 -0.12665129 -0.23066853 0.13382146 0.092759155 0.12576032
0.1284553 -0.28173465 0.036736526 -0.24223714 0.043562826 0.09627894 0.038888782 0.12519969
-0.18467054 -0.16610962 -0.2573293 0.11717633 0.15003948 -0.13925827 0.13984546 0.22525671
-0.2828624 0.1812004 0.04327788 0.06823185 0.21421091 0.25728586 0.12662008 0.17094818
0.12074934 0.033551957 -0.1748814 0.047631133 -0.21723704 0.011059541 0.07160185 -0.0014264544
-0.113857314 -0.15234637 0.20573176 0.104415335 0.17596793 -0.09341336 -0.049531862 0.008713469
0.14182056 -0.1185972 0.15936816 0.19292176 -0.27981693 -0.022367556 -0.027711185 -0.083699316
0.1575166 -0.057325114 0.18606837 -0.20560835 0.10888635 -0.27960658 -0.12018577 0.014780163
0.18656844 0.13674992 -0.25992775 0.029584805 -0.11510362 0.065821245 -0.24978612 -0.062196817
0.08760214 -0.220327 -0.26484638 0.062631056 -0.019986453 -0.0024461043 0.23149082 -0.23624662
-0.17604324 -0.17223379 -0.043955345 -0.071980886 0.17068405 -0.0071764113 0.07369422 -0.13590178
0.17312448 0.20376296 -0.21414924 -0.05376932 -0.21345317 0.11834161 -0.23654443 -0.119567245
0.25941026 -0.24282938 0.24699147 0.026662663 0.13343216 -0.226356 0.20645499 0.040219042
0.111964494 0.17247263 -0.22872801 -0.22307284 0.2866474 -0.17545936 -0.18696332 0.05392255
-0.018364992 -0.11103334 -0.21929388 0.13167089 -0.21650876 0.05945413 0.10854897 0.10654969
0.013949074 0.11435792 -0.1258379 -0.0511752 -0.14689793 -0.11213869 -0.05770818 0.18935697
-0.052791186 0.089415595 0.17518055 -0.043064296 -0.14265338 -0.18770246 -0.09464108 0.050952617
-0.18236102 -0.06755158 0.11757237 0.18210754 0.08265647 0.011410695 0.11581892 0.13845624

encoder.node_encoder.module_3.transformer_conv.lin_value.bias f4 [16]
00000000: 5fdc a53d a801 13be f20f 5bbe a4cf babd
00000010: 5001 67bd 82ac 0c3d 43b5 2cbb 8323 1bbc
00000020: d17f 2d3e e859 aebd 1bb4 86be ec8b 1cbe
00000030: 9158 f1bd 87d1 243e ce1a 3fbe 16a2 ffbc
0.08098673 -0.143561 -0.21392801 -0.091216356 -0.056397736 0.034344204 -0.0026353158 -0.009468916
0.1694329 -0.08513242 -0.26309285 -0.15287751 -0.11784471 0.16095553 -0.18662569 -0.031205218

encoder.node_encoder.module_3.transformer_conv.lin_skip.weight f4 [16, 16]
00000000: 9006 59bd ea5f 1bbe f414 e83d c446 d5bd
00000010: 20e5 53bc 5cfd 33be 908f cebc f07e 113d
00000020: 80ad 26bc c04e bfbd 581b 983d 70a8 84bd
00000030: 16ed 0dbe 62c8 3cbe d8e9 58bd 72d6 71be
00000040: 307c 543e bc98 f4bd a02e d4bd b050 bd3c
00000050: 38ba 843d 601c c1bc 329f 2f3e 303c 15be
00000060: b07d b73d 00ce 13ba a43f 50be 844b c6bd
00000070: 244c 823d 78a0 433d 8c25 3a3e 2043 2b3e
00000080: d4a0 0bbe 9ca3 dabd 6021 59bd 5667 37be
00000090: 1c3c 8abd f47c 51be 34bc c23d 9c22 353e
000000a0: 4027 a23c f443 37be f0de 41be 3852 c7bd
000000b0: bcea 943d c0d1 c73b 882f 3a3d 7446 713e
000000c0: 58cb ed3d e02e 5c3d 782d 4fbd 7833 f23d
000000d0: 744f bb3d 1a6d 66be b438 17be 407c 093c
000000e0: 4446 c23d e816 f93d 2e64 18be 34fb 7dbe
000000f0: 005e 55bc 301f eabc 7892 943d a4cd 8cbd
00000100: c4b7 433e b0a6 883c 76f1 3a3e a841 32be
00000110: 84d1 cc3d 2008 f43c b809 00be a8d2 fd3d
00000120: b2e8 7bbe b2f7 4e3e 600b a53c 60bd c53c
00000130: acc5 ec3d 6002 aa3c 3878 db3d eede 223e
00000140: 20cc 47be 065c 293e 2055 19bd 5821 6ebd
00000150: c01c 4e3d 183b 483e 5e2a 0bbe c086 2cbe
00000160: 1ee0 1e3e 5078 f0bd a4d6 a43d a8dc 16bd
00000170: f4ed 8c3d 825b 433e 94bd 01be 7874 f8bd
00000180: a432 fb3d 2044 603c 3066 e1bc 0cde 60be
00000190: ece5 583e 801e 1bbc a09b 3cbd bc2b d2bd
000001a0: 0813 4abd 7cd9 f83d 8047 bcbb f4ee 5a3e
000001b0: 407b 6cbc 98e6 12bd e67f 103e 00f9 d3bb
000001c0: 1862 4cbd c01f ab3d b8e3 493e e889 7f3d
000001d0: e841 323e d6e5 253e e0ca 903d 3c04 b23d
000001e0: dc36 a53d b06e d43c dcc9 593e f052 6c3e
000001f0: 2444 b63d 608c 4cbc 3087 653e 0440 47be
00000200: cc1a 3c3e a6a2 073e 0863 243e 005c 9dbc
00000210: 4600 3fbe 609d 363e f8df dfbd b0b6 863d
00000220: 1a09 113e 123d 6fbe d0e9 873c 3ce0 b5bd
00000230: 86b2 353e defe 22be 7a6f 1b3e 48a2 1f3e
00000240: 303d 0d3e 5ec3 753e 0016 1b3d 9808 68be
00000250: dabf 363e e07c bb3c 0092 a23b e4dc 73be
00000260: 8026 66bd 2082 f8bd aeba 7a3e 8647 363e
00000270: 16f9 3e3e 7451 2f3e 0eb0 1ebe 70e3 dbbd
00000280: 105f c8bd 7040 cdbd 5447 473e ecf5 ad3d
00000290: 8a25 4d3e 409b 3fbc 9234 64be 088b 94bd
000002a0: 5aea 333e aeda 1b3e 2880 9e3d 0c2f 96bd
000002b0: 68f1 6ebe 3e8e 09be 3079 053e e884 cebd
000002c0: cce8 f43d 0ccc 8b3d 18a7 c4bd 8eec 1b3e
000002d0: b485 a4bd 8014 08bc 0807 c3bd 96d5 72be
000002e0: a01b 253d c8f3 933d 28e4 00be da0a 1d3e
000002f0: 6ea5 65be 2cc7 76be 3e1e 1ebe 20f3 b0bd
00000300: 7072 e3bc c0e2 45bd c0ab e93d 0eac 60be
00000310: 10c8 163d c0dd 8d3b 143c 873d 087c 7e3e
00000320: 088e 1d3e 96bf 0dbe a4c7 51be 50e9 77bd
00000330: a06a 00be 20d8 b23d 0031 163b 26e8 4d3e
00000340: e41d c93d 8048 3cbd 80c7 0c3c d03b 753d
00000350: 7021 febc 4493 4e3e 9e2a 48be 448d f93d
00000360: 862f 23be e046 60be 4839 52bd 0880 f93d
00000370: 3ee1 343e 887b 803d b001 b1bc 809e 65bc
00000380: 248e cfbd 40c8 b7bc 2081 8dbc b0d8 593e
00000390: 90d2 153e 7adb 4cbe 008d 873a 3875 1dbe
000003a0: f88c 22bd ec75 4bbe a019 853d 9298 38be
000003b0: 84ba 7c3e f454 413e 4a38 30be c803 71be
000003c0: 00d1 1f3c f8ec 8ebd 604e 963d 3e4a 2dbe
000003d0: 2c95 d13d ae1e 5dbe f01b 07be 6494 06be
000003e0: 9cc0 f73d 007a d6bb f805 76be ec34 12be
000003f0: 18f1 ecbd 3e86 6dbe b81e 033d ec71 b63d
-0.052984774 -0.15173307 0.113321215 -0.10413888 -0.012933046 -0.17577118 -0.02521494 0.035521448
-0.010173202 -0.09341192 0.074270904 -0.064774394 -0.13859972 -0.18435815 -0.052957386 -0.2361696
0.20750499 -0.11943194 -0.103604555 0.023109764 0.06480831 -0.0235731 0.17150572 -0.14573741
0.0895952 -0.00056383014 -0.20336777 -0.09682372 0.06362179 0.047760457 0.18178385 0.16724825
-0.1363557 -0.10675737 -0.053010345 -0.17910513 -0.06749746 -0.20457822 0.09508553 0.17688984
0.019794106 -0.17897016 -0.189327 -0.09732479 0.072713345 0.006098002 0.045455486 0.23562032
0.1161105 0.05375564 -0.05058047 0.11826223 0.09146014 -0.22502556 -0.14767724 0.00839144
0.09486058 0.12162572 -0.14881966 -0.24802858 -0.0130229 -0.028579324 0.07254499 -0.0687516
0.1911307 0.016681045 0.18256173 -0.17407858 0.100008994 0.02978903 -0.12503707 0.12393695
-0.24600485 0.20211676 0.020147026 0.024138153 0.115611404 0.020753086 0.10716289 0.15905353
-0.19511461 0.1653901 -0.037434697 -0.058137268 0.050320387 0.19553792 -0.1359038 -0.16848278
0.15515181 -0.11741698 0.08048752 -0.036831528 0.068813235 0.19077876 -0.12669975 -0.1213159
0.12265518 0.013688117 -0.027514547 -0.21959704 0.21181458 -0.009467721 -0.046046853 -0.10262248
-0.049334556 0.12150857 -0.005745828 0.21380216 -0.014433682 -0.035864443 0.1411129 -0.006468892
-0.049898237 0.08355665 0.19715774 0.062387377 0.17407954 0.16200957 0.07069945 0.08692214
0.08067104 0.025931686 0.2126841 0.23078513 0.088997155 -0.01248464 0.22414851 -0.19458014
0.18369597 0.13245639 0.16053402 -0.019208908 -0.18652448 0.17833471 -0.109313905 0.065778136
0.14163628 -0.2336314 0.016590983 -0.0888066 0.17743883 -0.15917537 0.15179244 0.15589249
0.13792872 0.24000308 0.037862778 -0.22659528 0.17846623 0.022886693 0.004961252 -0.23814732
-0.05618906 -0.121341944 0.24485275 0.17800722 0.18649706 0.17120916 -0.15496847 -0.1073674
-0.09783757 -0.10022056 0.19460803 0.084941715 0.20033851 -0.011694729 -0.22285679 -0.072530806
0.17569867 0.15220138 0.077392876 -0.07333192 -0.23334277 -0.13433167 0.1303451 -0.100839436
0.11958465 0.06826028 -0.09602183 0.15226957 -0.08033314 -0.008305669 -0.095228255 -0.23714289
0.04030955 0.07224232 -0.12587035 0.15336171 -0.22426388 -0.24099416 -0.15441224 -0.086401224
-0.027764529 -0.04831195 0.11409712 -0.21940634 0.03681189 0.004329413 0.06603256 0.24852002
0.15386212 -0.13842615 -0.20486313 -0.06052524 -0.12540674 0.08732629 0.002291739 0.20108089
0.09820154 -0.04596758 0.008592486 0.059871495 -0.031021804 0.20173365 -0.19547507 0.121851474
-0.15936098 -0.21902037 -0.05132416 0.12182623 0.17664048 0.06273562 -0.02160725 -0.01401484
-0.10134533 -0.022434354 -0.017273486 0.21274066 0.14631104 -0.20005599 0.0010341704 -0.15376747
-0.03968522 -0.19869202 0.06499028 -0.18026951 0.24680525 0.18880063 -0.17208973 -0.23536599
0.009754419 -0.06978792 0.073391676 -0.16922852 0.102335304 -0.21593735 -0.13194251 -0.13142544
0.12097284 -0.0065453053 -0.24025714 -0.14278 -0.115694225 -0.2319574 0.032011718 0.089084476

encoder.node_encoder.module_3.transformer_conv.lin_skip.bias f4 [16]
00000000: 90e1 3bbd 6cbf cbbd 00b9 c6ba 0c56 4bbe
00000010: f8e0 1bbe 40d4 babb b26c 633e bc71 9dbd
00000020: 14c7 fd3d 707f c9bd 144b 88bd a2b2 73be
00000030: 9817 543e 3646 793e 000f acbb 98a7 223e
-0.04586941 -0.0994862 -0.0015161335 -0.19857043 -0.15222538 -0.0057015717 0.22209433 -0.07687709
0.12391487 -0.0983876 -0.06654945 -0.23798612 0.20712125 0.2434319 -0.0052508116 0.15884244

encoder.node_encoder.module_6.weight f4 [16, 16, 3]
00000000: 4ac9 f13d d5d4 923d ce3d 983d afb4 0cbe
00000010: 88e2 0abe 32e3 e2bd c3eb 383d a2b0 ffbd
00000020: b0a5 e1bd 9f47 8fbd 043a 08be 52ee 4b39
00000030: a895 aa3c b9fc acbd 038d c13d d672 60bd
00000040: cf70 26bd 7c36 e13d 6dca fd3d a2a5 87bc
00000050: 0835 d4bd 884b 94bd 5091 963c cc47 ad3d
00000060: 202a 933d 8288 82bd 0dba 0bbe 2259 01be
00000070: 9918 3cbd 6a51 ed3a 1ec7 84bd 2fbc e9bd
00000080: 3f39 793c e6a1 eabd 3e00 e3bd 3e4f f0bd
00000090: 8933 20bd 098c 023e 361d 673d 9532 8cbc
000000a0: 9e5a f33c 836c 6b3d d572 5c3a 136d eebd
000000b0: fc1f b6bd a6d1 c8bd 8931 70bb 434c 07be
000000c0: dafc d6bc 0e30 58bd 530c 113e 0646 f03d
000000d0: c9b3 ab3d f39f 043c a86a 3fbd a2cc 163d
000000e0: b93d ccbd eb26 7cbd 9387 edbc 24e8 0abd
000000f0: 4a03 0cbe e305 6b3d 8e6c f33d 040c a3bd
00000100: 905e 1f3d 2b21 89bc 8380 acbb 84d8 093c
00000110: 1415 003e a46e 9e3c 7e05 bbbd 41aa 54bd
00000120: 0969 903d 1c7d 383d 04d9 373b 230d 9cbc
00000130: 5a06 66bd d7d5 51bd 36ed 9bbd 98c0 c13c
00000140: 2409 263d 565b e23d bf8f 05bd 854b 293c
00000150: 9a0b bf3d ae95 803d f3ec 973c 49aa 353d
00000160: e57f f53b ed90 fdbd 5355 b63b af39 01bd
00000170: c360 053e ee68 053e 6794 ea3c 081b 043e
00000180: c73d 98bd 1f77 003e 9582 fe3d a8c5 b4bb
00000190: 7639 edbd bcc7 3ebd d51a 1ebd b13f 1c3b
000001a0: 2b01 06be a021 db3c bfe0 75bd 8d5f 17bd
000001b0: 45ad 98bd c9a5 f9bc 6244 09be 2bb8 9cbd
000001c0: 09dc 593c a6b3 c13d 7f50 063e 5c9c dfbd
000001d0: 9c42 783d 5fa1 a6bd 3c8c e4bd 9345 d0bb
000001e0: 6692 a9bd 5996 febd 4520 0abe 92dc c5bd
000001f0: 67e8 f23d 40dc a43d 0607 6abd 7ada c5bd
00000200: f463 e3bd 638f aebd d247 73bd 4489 b13d
00000210: e879 413d a8d5 63bd ab80 cb3d 7ca3 b7bd
00000220: 11d3 f0bd ec07 013d f6fe a2bd 802f 283d
00000230: 1b72 fa3d dbca 8bbd 8a46 cebd bf87 5e3d
00000240: 957c 05be 88dd 033e ba99 8bbd 8fe9 8e3d
00000250: 300e ebbd a215 c8bd 913f 823c 231e 523d
00000260: 9b35 e53d 4339 f73d 4001 08bc 0405 98bc
00000270: 7e74 c33c fc54 09bd 5000 a13b aef9 0bbe
00000280: b9a9 f2bd dc90 ca3d dfbc acbd 88c8 e83d
00000290: 2fc3 813c 4e02 103d 6855 063e 6569 a4bd
000002a0: 3da7 babc cd7c d13c 1cfb 493d bbd7 0fbe
000002b0: 3620 523d 3153 aebd 5f4f 9b3c 87fd c73d
000002c0: 9e92 6bbc 269f 95bb 5db0 30bc 03ad f63d
000002d0: 0500 a83d 78d8 c63c 0ae6 b1bd 0686 a0bd
000002e0: d976 eb3d c4a9 d43d 4428 ab3d af7c e6bd
000002f0: b736 e63d eb0e 62bc b0c9 d93d 815f 003e
00000300: 059b 813c 1003 76bd 9e07 0b3e 7a0b 9abd
00000310: cd26 c13d beb9 0dbe 2df1 39bd 90dc 00be
00000320: c299 84bd a209 7b3d dece d3bd 92a3 ffbd
00000330: e85d d33d 93cc 9d3d ebe0 ceba 8663 d0bd
00000340: d7a1 1cbd d56b 3fbd d18f b63d 3260 41bd
00000350: d946 2abd 888a d1bd bc39 8bbd d60d a03d
00000360: f573 be3d 24ca ab3c d3d1 5dbd 4ef6 0d3e
00000370: 7a62 e93c 2434 64bd 1be9 4cbd d37a a5bc
00000380: 1425 8c3d 873e 583d ff4c d63d 8c1a d5bb
00000390: cb7d f43d 0124 70bd 1c24 88bd c154 5abd
000003a0: 30ab 0abe bd0b c2bd f4bd 05be 75c1 0bbc
000003b0: 975a b23a 6a71 19bd ae02 cabd 4819 063e
000003c0: fae3 43bd e0de 8c3d 76dc cd3d 1f51 c2bd
000003d0: 3ad4 93bc 5cd9 aa3d dc45 0f3e b02c 95bc
000003e0: 7733 d63d 5202 e8bd ac10 c0bd c315 f33d
000003f0: 9de6 5fbc 4004 123e abf6 2b3c c42d 75bd
0.11805971 0.07169501 0.07433663 -0.137408 -0.13562977 -0.1107849 0.045146715 -0.12484862
-0.110179305 -0.069960825 -0.13303381 0.0001944837 0.020823315 -0.084466405 0.09450724 -0.054797016
-0.040634926 0.1099672 0.12392125 -0.016558472 -0.103616774 -0.07240969 0.018379837 0.0846096
0.07185769 -0.06373693 -0.13645191 -0.12631658 -0.045921896 0.0018105928 -0.06483291 -0.11412846
0.015211402 -0.11456661 -0.110840306 -0.11733864 -0.039111648 0.12748732 0.056424342 -0.017113963
0.029706296 0.05747653 0.0008409445 -0.11641898 -0.08892819 -0.09805612 -0.003665062 -0.13212685
-0.026243616 -0.052780204 0.14164858 0.11732106 0.08383901 0.0080947755 -0.046732575 0.036816247
-0.0997271 -0.061560553 -0.02899531 -0.033912793 -0.1367313 0.05737866 0.118859395 -0.07961276
0.03890854 -0.016739449 -0.005264343 0.008413438 0.1250804 0.019339867 -0.09131907 -0.05192018
0.07051284 0.04504119 0.0028052935 -0.019049233 -0.0561584 -0.051229324 -0.07613604 0.023651406
0.04053606 0.11052577 -0.03260779 0.010332947 0.09328385 0.06278549 0.018545603 0.04435185
0.007492053 -0.12381158 0.0055643707 -0.031549152 0.13025193 0.13028309 0.028635217 0.12900937
-0.07433658 0.12545441 0.1242725 -0.0055167265 -0.115832254 -0.0465772 -0.038599808 0.0023841674
-0.13086383 0.026749432 -0.060028788 -0.03695636 -0.074549235 -0.03047456 -0.13404992 -0.07652315
0.013297089 0.09458093 0.13116644 -0.10918495 0.0606104 -0.08136248 -0.1115956 -0.00635595
-0.082798764 -0.1243102 -0.13488872 -0.09661211 0.118607335 0.08049822 -0.057135604 -0.09660812
-0.11103049 -0.085234426 -0.059394665 0.086687595 0.0472354 -0.05562368 0.09936651 -0.08966729
-0.11759008 0.031501696 -0.07958786 0.041060925 0.12228795 -0.06825801 -0.10072048 0.054328676
-0.13035806 0.12877476 -0.068164304 0.069781415 -0.114773154 -0.09769751 0.015899451 0.051298272
0.11191865 0.12071469 -0.008301079 -0.01855708 0.023859259 -0.033528313 0.0049133673 -0.13669464
-0.11848778 0.09890911 -0.08434462 0.11366373 0.015840141 0.035158448 0.13118517 -0.08027915
-0.022784824 0.025572205 0.049311742 -0.14047138 0.05130025 -0.08511961 0.018958746 0.097651534
-0.014378218 -0.004566091 -0.010784236 0.12044718 0.08203129 0.024273142 -0.086864546 -0.07838063
0.11497278 0.10383943 0.083572894 -0.1125425 0.11240905 -0.013797502 0.10634172 0.12536432
0.01582099 -0.060061514 0.13577124 -0.0752172 0.09431229 -0.13840386 -0.04539602 -0.12584138
-0.064746395 0.061288483 -0.10342191 -0.124823704 0.103206456 0.07705035 -0.0015783584 -0.101752326
-0.03824028 -0.046733696 0.089141496 -0.04721088 -0.04157147 -0.10231501 -0.06798121 0.07815139
0.09299461 0.020970412 -0.054155182 0.13863489 0.02848934 -0.055713788 -0.050026994 -0.020200169
0.068430096 0.052794006 0.104639046 -0.006503409 0.119380556 -0.058628086 -0.06647512 -0.053303484
-0.13541865 -0.09474895 -0.13060743 -0.0085300105 0.001360732 -0.037461676 -0.09863792 0.13095582
-0.047824837 0.068784475 0.10051815 -0.09488129 -0.018045533 0.08342239 0.13991493 -0.018209785
0.10459035 -0.113285676 -0.0937818 0.11869385 -0.013665822 0.14259434 0.010495822 -0.0598581

encoder.node_encoder.module_6.bias f4 [16]
00000000: 9f32 a9bc 4802 07bc 2020 a8bd 1c15 4a3d
00000010: 2c3f 0fbe c475 b53d a714 093e 514b bf3c
00000020: ee23 0abd 265f 07be e9d0 8a3d 2836 f23d
00000030: 05b8 fc3d 30df 523c b38d 443d fe9f 0d3e
-0.02065402 -0.00824029 -0.08209252 0.049336538 -0.13988942 0.08860353 0.13386784 0.023351343
-0.03372567 -0.1321989 0.06778128 0.11826736 0.123397864 0.012870595 0.047986697 0.13830563

encoder.node_encoder.module_8.Wr.weight f4 [16, 16]
00000000: a0e9 aa3c cd94 11be c785 61be 62cd f33d
00000010: e1d5 c23c 6c28 8f3e f522 f7bd 9123 ab3b
00000020: 6f9e 8dbd 1cfe c2bd 5e02 093e 85cc 51be
00000030: 25d6 513e c18e a93d bfa4 18be 0531 ee3d
00000040: 1cb8 bfbd cea3 4abc f259 1bbd 207d 53be
00000050: 0bc3 38bd 4367 1b3e 0b71 84bd 5f89 14be
00000060: e025 03bd c4b1 a23c f489 90bd 1162 21be
00000070: 1c42 cabd 07be aabd 09b4 f43d 5ad0 433e
00000080: df7a eebd eff7 febb 7c1a 6f3e 843a 8dbc
00000090: 32af 22be d1f2 9d3e 8c1d 173e c145 f0bc
000000a0: 7584 63be bb0c be3d 0c6a 8bbe 92fe 653e
000000b0: 6669 f93d 8430 54bd 7377 52be d374 29be
000000c0: 9858 dc3d 5456 413e 5104 1abd 93f4 6c3e
000000d0: 31a5 8dbd 3874 18be 99af efbd 320d 3f3d
000000e0: 0273 2bbd 9d1f d63d 09b2 edbd a6b2 6cbd
000000f0: 9f42 65be 7cdd 643e 81bc 9dbc feb9 60be
00000100: 7187 403d 6a04 ad3d 4712 8ebc d08e d0bd
00000110: 227f 413e 6434 09be 5f29 cf3b 19fd 5fbd
00000120: 28ca cc3d 2d7d 8e3e f750 68bd fe70 fa3d
00000130: 7a28 e73d 4aa8 99bd 8581 dcbd 3d16 34bd
00000140: 7152 6d3e 28e6 db3b dddb 1dbc c45c 9fbd
00000150: 7bca 90bd cfd2 99be 5a21 4cbe 3c8f 16bd
00000160: cba1 e93d 4d85 b83d 015b 683e 6924 a0be
00000170: bdf7 c5bd ee44 d6bd 12ea 6bbd bf8e 323e
00000180: 4f8f 47be 2d63 6c3e 2f04 96bd c498 513e
00000190: be06 9fbd ed56 173e 3fdb 813e 9c97 e8bd
000001a0: bb26 82bb d1ce ca3d 40a1 6cbe 3bd6 073e
000001b0: 109f 19be 2b9a 883e 1c89 3fbe 50ac b8bd
000001c0: 8e82 0e3e 2076 06be 5013 9a3e 1691 6e3e
000001d0: 3dce 513e 1e2a 57be f75a 31bd db05 a7bd
000001e0: c293 053d ab12 90be 3638 093e 1f7a 6b3d
000001f0: 9fa9 3fbd 6a58 84be 587e 533e ecc5 1dbe
00000200: 20d0 123e 9b36 2c3c e60f fe3d 7211 1d3b
00000210: 1a4f dabd 7a8a a6bc 48bf 5dbe d142 943d
00000220: 98e9 2dbe 461e cc3d 5697 c0bd cb5a 503e
00000230: 83d0 853e d738 43be e20a 743e 7518 21bd
00000240: 2c83 5fbe 09e9 803d f8fd 053e 321c 743e
00000250: dbbc 70be 87d8 803e 7bb8 513e f8c1 493e
00000260: 6112 1c3e 96ff 9ebd 3e52 0a3e e0e9 633e
00000270: 002b b6bd cf1d c5bd 7223 2e3e e950 4e3e
00000280: ee2d 0f3e cbff 353e 43b1 15be f824 2dbd
00000290: f187 91bd 5d94 f13d 78bb 5f3d 4a12 3dbe
000002a0: e912 efbc 8b90 47be adf1 6bbe 3518 623e
000002b0: 6ce6 10be feca b43d 80ca 84bd 2e23 06bd
000002c0: 0376 20bb f94a 5b3e 37a8 c3bd 8218 323e
000002d0: a446 1e3e 284d 313e df6f 24be 033e 25be
000002e0: 108d 11be 9ba9 2a3c 6fba 04be b524 cb3b
000002f0: 1cb7 2f3e f92a c93d 91ff 7dbe bfcb dbbd
00000300: eefa 453e c9fa 3fbc a633 e83d cb1c ccbd
00000310: 50dd a1bd e34f c93d 633d 4fbe 21d8 f63d
00000320: 56ed ed3d b725 54be 62d4 adbd b03a 8fbc
00000330: d5aa ae3d 2508 dfbd b807 8a3e e932 8dbe
00000340: 58e8 95bd fbb1 bcbd 8fab 47bd 86ab 56bd
00000350: fa9c 44bd cbe3 1b3e c3ef edbd 3a26 d23d
00000360: 19bf 11bd 8ba2 0f3d 9c51 a2be dfe9 9cbe
00000370: e346 a1be 31a9 1c3e 4a81 54be db5c 733e
00000380: 24e4 90bd 28ff 3d3c 28c6 0cbd c838 063e
00000390: 325d 92bd 63b7 c83d 0048 083e 7e72 223e
000003a0: 564a 6e3e 5c3e d43d b38d e6bd 6331 0ebe
000003b0: 053f f73c c042 653e c544 a7bd d678 483e
000003c0: 9280 3ebd 9dd1 6d3e 6d1e 97bd 1c0d 82be
000003d0: aa3e d1bd 22e3 7dbe 886c b53d 2d7d c3bd
000003e0: e905 e1bc db9a 05bb 2008 09be b8c3 28bd
000003f0: a59b b7bd cf43 333e 5791 0d3e f6d3 bebd
0.020863354 -0.14216919 -0.22023688 0.11904408 0.023783626 0.27960527 -0.120672144 0.0052227457
-0.069149844 -0.09521124 0.1337981 -0.20488174 0.20491846 0.08279181 -0.14906596 0.116304435
-0.09361288 -0.012368156 -0.037927575 -0.206532 -0.045107882 0.1517611 -0.06466874 -0.14505528
-0.032018542 0.019860156 -0.070575625 -0.15760066 -0.098758906 -0.08337026 0.119484015 0.19122449
-0.116445296 -0.007781021 0.23349947 -0.017239816 -0.15887144 0.30849317 0.14757365 -0.029330136
-0.22218497 0.09279772 -0.27229345 0.22460392 0.12178306 -0.05180408 -0.20553379 -0.16548471
0.107590854 0.18880588 -0.037601773 0.23140173 -0.069162734 -0.14888084 -0.117034145 0.046643443
-0.041857727 0.104552485 -0.11606223 -0.05778756 -0.22388695 0.22350115 -0.019254925 -0.2194595
0.047004167 0.084481075 -0.0173427 -0.10183489 0.18896154 -0.13398892 0.0063220705 -0.054684732
0.09999496 0.27829877 -0.05671784 0.12228583 0.11287017 -0.07502802 -0.107668914 -0.04396652
0.2317598 0.0067107864 -0.009634939 -0.077813655 -0.0706987 -0.30043647 -0.19934598 -0.036757693
0.11407813 0.090098 0.22690965 -0.3127778 -0.09666393 -0.10462366 -0.057596274 0.17437266
-0.19488262 0.23084708 -0.07325017 0.20468432 -0.07764958 0.14779253 0.25362584 -0.11357042
-0.003971902 0.09902728 -0.23108387 0.13265316 -0.15002084 0.2668012 -0.18704647 -0.09017241
0.1391699 -0.13130999 0.3009286 0.23297533 0.2048883 -0.2101216 -0.04329964 -0.08155414
0.032611616 -0.28139243 0.13400349 0.05748951 -0.046792623 -0.25848705 0.20653665 -0.15407532
0.14337206 0.010511066 0.12405376 0.0023966697 -0.10659619 -0.020329703 -0.21655 0.07239307
-0.1698364 0.09966712 -0.09403865 0.20347135 0.26135644 -0.19064651 0.23832276 -0.039329965
-0.21827382 0.06294448 0.13085163 0.2383888 -0.23509543 0.25165197 0.2048053 0.197029
0.15241386 -0.07763593 0.13507935 0.22257185 -0.0889492 -0.09624826 0.17005709 0.20148052
0.13982365 0.17773359 -0.14618401 -0.042271584 -0.07106007 0.11795876 0.054622144 -0.18464008
-0.029183822 -0.19488733 -0.2304141 0.22079547 -0.14150399 0.0882778 -0.06483936 -0.032748394
-0.0024484403 0.21415319 -0.09553569 0.17392161 0.15456635 0.17314589 -0.160583 -0.16136937
-0.14213967 0.010416414 -0.12961744 0.006199444 0.17159694 0.098226495 -0.24804522 -0.10732221
0.19334003 -0.011717507 0.11337976 -0.09966429 -0.0790354 0.0982969 -0.20238261 0.12052942
0.11617534 -0.20717512 -0.084877744 -0.017484039 0.085286774 -0.10890225 0.26959014 -0.27577904
-0.07319707 -0.092136346 -0.048747595 -0.05240967 -0.048001267 0.15223615 -0.116179965 0.102611974
-0.035582636 0.035067122 -0.31702888 -0.3064718 -0.31499395 0.15298916 -0.20752445 0.2376589
-0.07074764 0.0115964785 -0.034368664 0.13107598 -0.07146682 0.09800603 0.13308716 0.15863988
0.23270544 0.103634566 -0.11257496 -0.13886027 0.030181417 0.22388744 -0.081674136 0.19577345
-0.046509333 0.23224492 -0.0737885 -0.25400627 -0.1021703 -0.24793676 0.08858591 -0.0954536
-0.027468638 -0.002038649 -0.13382006 -0.041202277 -0.08965234 0.17506336 0.13824974 -0.09317772

encoder.node_encoder.module_8.Wr.bias f4 [16]
00000000: 78f1 003e 5315 25bd e2bc 72be 0d32 04be
00000010: 2efc 073e 2d18 0e3e c7b6 6b3b e12e 40be
00000020: 9736 e63d fc1b b33c 9cb3 81be 5891 3ebc
00000030: 0008 89bd 6708 47bd a925 81bd 9d91 04be
0.12592113 -0.04030354 -0.23704866 -0.12909718 0.13279793 0.1387641 0.0035967098 -0.18767883
0.11240881 0.02186393 -0.25332344 -0.011631332 -0.06690979 -0.048591997 -0.06306011 -0.12946172

encoder.node_encoder.module_8.Ur.weight f4 [16, 16]
00000000: 036f a33e 66d7 7abe f3b4 633e 5969 1bbe
00000010: dfc1 77bd 3948 cabd e02e 47be 0a18 ce3d
00000020: 39cf ec3d c18b 15be a096 06be ed75 0d3e
00000030: 8bff 84bd 3cfb c53d ea5c 073e a63e 04be
00000040: f2e0 0dbe 7dab ce3d a044 04be b834 11be
00000050: e07c dcbd 563c a9bd ccf8 603e f534 b63d
00000060: ac34 853d 8a85 203d e8d4 59be 4d4a 3a3e
00000070: 805c a7bd b532 4dbd 07c8 6c3e f5d6 30be
00000080: c7e2 033e 8be7 2dbe d543 4b3d 1d9c d03d
00000090: 4306 20be 3efe 543e aa9f 2cbd 085d a1bd
000000a0: babf fa3d 0f29 d03d 84c8 f23b 5eb2 aabd
000000b0: 4817 83be 3c07 fabd 0bbb c13d 7c74 f2bc
000000c0: c4d6 b5bd 5770 9f3e e657 113e c140 0bbe
000000d0: 0f44 1f3e 8f42 cbbd 12e9 ee3d 0890 633e
000000e0: 9563 66be e412 0ebe ee3e 73bc c61a 263d
000000f0: af65 5dbe 201e 68be 04d9 a7bd 9eee 0fbd
00000100: 64b2 4abd aca5 16bd 0008 d83d ee19 803d
00000110: bdb2 9ebc c515 86bd 6352 983d a47b f63d
00000120: 8090 8fbd e0e1 0bbe 93dd 233e 6285 51be
00000130: c8bd 6d3e 5f99 f63d 2b82 9d3c 7a63 62bd
00000140: c27c 8fbd d1bd 77be 9970 0abe fc68 5a3e
00000150: 0058 96be a0c4 94be a241 08bc b2d3 4bbd
00000160: eafc 173e 3f06 10be 65cc 643d 582f b5bd
00000170: 2575 a03e 366e 313e d315 a33d 5f87 c63d
00000180: 06ff 713e eb09 37be 2471 dd3d ca25 1dbe
00000190: d06e 6e3e 1f1a 52be 46f0 b53d 054b 48be
000001a0: 90d5 0a3e 3507 a43d 4e4c 693e 9671 20be
000001b0: 2ce6 243e 6c06 0bbe 6c30 f1bd 0b2f c63d
000001c0: 0961 b0bc 4b8d 0dbe d5df 81be aead 88bd
000001d0: bcaa dc3d a89b 863e 42ab 4a3e 22e9 903d
000001e0: 923c 4ebe acc5 54be 6ac1 283e a1a2 f8bd
000001f0: 151d d5bd 96b1 4ebe b55f 0abe d2a2 40bb
00000200: 8177 29bd fb08 693d 1a13 76bd bc02 033c
00000210: c373 e43c d6df 643d 7b59 bf3d d727 6b3e
00000220: 330b 323e 76e3 fbbd ad18 74be 26a7 093d
00000230: 3712 72bd 8eb7 703e 42c1 a03e 0d03 2f3c
00000240: a32e 07be 8f4b c9bb f27d d23d 70d1 8f3d
00000250: 2f74 e8bd 8cb2 af3d 0405 89be 3e1a e0bd
00000260: 2c10 023e 23a2 ddbd 1bf9 133e 48fe 3ebe
00000270: d9e6 413e f214 0d3e 8c4d 303e 33a9 a63c
00000280: a409 0c3d ab4c eabd b3da 0dbe c78d 37be
00000290: 6616 553e 0790 afbd eef0 6aba 2e76 6fbe
000002a0: 08b5 803d c0e9 c3bd bf0d 4dbe 167d e93c
000002b0: 5772 77be c449 08bd bfc6 58be 76f1 1a3e
000002c0: e00e 3fbe a4b5 e33c 8659 b93d 9864 73be
000002d0: 6acf 4c3e 5c06 743e 15ee 11be cca2 883c
000002e0: 5c88 713d 2c86 873e e285 4d3e bff8 20be
000002f0: 9e59 47be 81e8 0bbe 8199 8dbd 4456 89bd
00000300: f38b 78bd 6984 183e d57a 54be 6848 1dbe
00000310: d558 28be c3de e2bd 5e56 4c3e f1c7 9b3d
00000320: 9f8b 92bd 6fb9 0a3c cc86 63be 76db 10bd
00000330: 0076 d13d 4f25 833e 473b 7b3e ace9 f9bc
00000340: c0f4 8ebd 28d1 e5bd 5cce 713e ca02 9dbe
00000350: 3285 ee3d d00c a7ba f1b7 8e3e 3711 003e
00000360: d2f6 79bd bafe 1abe ff5c 9f3d 6fb0 cfbd
00000370: 93e3 433c 346f db3d 1ec8 0f3e 4f21 76bd
00000380: 850a 15be 2749 88be d798 19be 1360 383d
00000390: e94d 4fbe 4065 a6bd e7a8 c0bd 1aef 73be
000003a0: 68ad 813e 5c77 4d3e 7af7 813e 1cfd 8f3e
000003b0: 629b d7bd 25d5 c1bd 20f9 48be fa45 813e
000003c0: 6ff0 083e 789a 3a3e 5cbd a4bd 570c e0bd
000003d0: b495 453e ac2e 8cbe 76dd 0fbe 36c3 673d
000003e0: 7653 18be 2322 90bd 966e 263e 659b 433e
000003f0: 70be 223d 344b 7bbe 589b e43d 2c1f a33e
0.31920633 -0.2449623 0.22236995 -0.15176906 -0.060487624 -0.09877057 -0.19451475 0.10063179
0.11562962 -0.14604093 -0.13143396 0.13814516 -0.064940535 0.0966706 0.13219038 -0.12914523
-0.13855341 0.100913025 -0.12916803 -0.14180267 -0.107660055 -0.08263461 0.21969908 0.088968195
0.06504187 0.039189853 -0.21272624 0.18192406 -0.0817194 -0.050097186 0.2312318 -0.172695
0.12879477 -0.16982858 0.049625237 0.10186026 -0.15627389 0.2080011 -0.042144455 -0.078790724
0.122436 0.10164081 0.007409157 -0.08334802 -0.256037 -0.12208411 0.09459504 -0.02959656
-0.08878854 0.31140396 0.14193687 -0.1359892 0.15553306 -0.099248044 0.116655484 0.22222912
-0.22498925 -0.13874394 -0.014846547 0.040552877 -0.2162082 -0.22667742 -0.08195689 -0.035139672
-0.049486533 -0.03677909 0.10548401 0.06254946 -0.019372338 -0.06547121 0.07437589 0.12035301
-0.07009983 -0.13660383 0.16002493 -0.20461038 0.23216927 0.12040972 0.019227108 -0.05527065
-0.070062175 -0.24193503 -0.13519515 0.21329111 -0.29364014 -0.29056263 -0.008316429 -0.049762435
0.14842573 -0.14064883 0.05585899 -0.08846921 0.31339374 0.17327198 0.07963147 0.09693789
0.2363244 -0.17874877 0.108125955 -0.15346447 0.23284459 -0.20517777 0.08883719 -0.19559868
0.1355803 0.08009187 0.22783014 -0.1566833 0.16103429 -0.13576669 -0.11776814 0.096769415
-0.021530645 -0.1382343 -0.25366083 -0.06673752 0.107747525 0.2629063 0.19791892 0.070757166
-0.20140293 -0.20778531 0.16480032 -0.12140394 -0.104059376 -0.20184931 -0.13513072 -0.0029393923
-0.041373733 0.05689333 -0.06007681 0.007996257 0.02788723 0.05587753 0.09343239 0.22964416
0.17387085 -0.12299244 -0.23837538 0.03360667 -0.059099402 0.2350752 0.31397444 0.01068188
-0.13201384 -0.0061430405 0.102779284 0.07022369 -0.11350285 0.08578977 -0.2676164 -0.10942505
0.12701482 -0.10821941 0.14450495 -0.18651688 0.18935718 0.13777521 0.17217082 0.020344352
0.03418888 -0.114404045 -0.13852958 -0.17925178 0.20809326 -0.08572393 -0.0008962293 -0.23384926
0.06284529 -0.09566069 -0.20024775 0.028502028 -0.24164711 -0.033273473 -0.21169566 0.15131173
-0.18658018 0.027796574 0.09050278 -0.23768842 0.20000997 0.23830551 -0.14250977 0.01667919
0.058967933 0.26469553 0.20070603 -0.15719889 -0.1946778 -0.13662912 -0.06914044 -0.06705907
-0.06068034 0.1489426 -0.20749982 -0.15359652 -0.16440137 -0.11077645 0.19954821 0.07606495
-0.07155537 0.008467062 -0.2221939 -0.035365544 0.10227585 0.25614402 0.24534331 -0.030506931
-0.06980276 -0.11221534 0.23613876 -0.3066619 0.11646499 -0.0012744907 0.2787471 0.12506567
-0.0610264 -0.15136233 0.077814095 -0.10141074 0.011956113 0.1071457 0.14041182 -0.06009036
-0.14554794 -0.2661831 -0.1499971 0.0450135 -0.20244564 -0.08124781 -0.094072156 -0.23821679
0.2532761 0.20065063 0.25384122 0.28122795 -0.10527684 -0.09464482 -0.19626284 0.252487
0.13372968 0.18222988 -0.0804393 -0.10939854 0.19295388 -0.27379358 -0.14049324 0.056582652
-0.14875588 -0.07037761 0.16253123 0.19102247 0.039732397 -0.24540406 0.11162442 0.3185972

encoder.node_encoder.module_8.Ur.bias f4 [16]
00000000: 9212 49be aaa0 3cbd 5fcd 8cbe 74d0 12be
00000010: 5cf9 1c3e 3864 503e 1f9f eb3d 85ed 98be
00000020: c91b 98bd ab05 bb3d 3533 09bd d43e 37bd
00000030: 114c 03be 4e1b 973e 34fa febd 0515 fdbd
-0.1963599 -0.04605166 -0.27500436 -0.14337331 0.15329498 0.2035073 0.11504959 -0.29868713
-0.074271746 0.091319405 -0.0334961 -0.044737652 -0.12821986 0.2951302 -0.12450066 -0.12357525
