checkpoint/dagformer.pt (torch, 108444 bytes, 63 tensors)

encoder.node_encoder.module_0.weight f4 [16, 5]
0	0x3ec1d170	0.378551
1	0x3ec79a49	0.38984898
2	0xbe3b1242	-0.18268684
3	0x3ee9a6bd	0.45635024
4	0xbdeecb56	-0.11659877
5	0x3e1db600	0.15401459
6	0xbe74239e	-0.23841712
7	0x3eb5cea4	0.35509217
8	0x3ee31823	0.44354352
9	0xbe99d135	-0.30042425
10	0x3eaf901c	0.34289634
11	0x3d8b3d45	0.067987956
12	0x3ee9cf64	0.4566604
13	0x3c98821c	0.018616728
14	0x3e4848c0	0.19559002
15	0xbdbdf8a1	-0.09275938
16	0x3e9cf509	0.30655697
17	0x3e12ad0b	0.14323823
18	0xbea3b3d0	-0.31973124
19	0x3db41214	0.08792511
20	0xbe20f254	-0.15717441
21	0xbd9a545a	-0.0753562
22	0xbe992f79	-0.2991903
23	0x3ea8d08d	0.32971612
24	0xbebad84c	-0.36493146
25	0xbe0e96fd	-0.13924785
26	0xbe01ba24	-0.12668663
27	0xbee4363b	-0.44572625
28	0x3c7a0805	0.015260701
29	0xbeeb00c7	-0.4589903
30	0x3ec02f3d	0.3753604
31	0xbebec282	-0.37257773
32	0x3efdcb02	0.49568945
33	0x3da29d89	0.07940204
34	0xbdabe967	-0.08394127
35	0x3e4eb210	0.20185113
36	0x3da81bb0	0.08208406
37	0x3ef74965	0.48298183
38	0x3ccb511b	0.024818948
39	0xbdbe2048	-0.09283501
40	0x3db056d0	0.08610308
41	0xbdd8897d	-0.10573099
42	0x3ea1a230	0.31569052
43	0x3ee6e1a6	0.4509403
44	0x3e9f1293	0.31068859
45	0xbe6976e9	-0.22799267
46	0x3e94a065	0.2902862
47	0x3c9f90dc	0.019478254
48	0x3dc901d9	0.098148055
49	0xbeb0d335	-0.34536138
50	0xbee9cfb9	-0.45666292
51	0xbe0f9caa	-0.14024606
52	0xbe60649e	-0.21913382
53	0x3ec5e798	0.38653255
54	0x3de844a5	0.11341218
55	0x3e630a3c	0.22171873
56	0x3dde78ef	0.1086291
57	0xbe361702	-0.17782214
58	0x3ebcf611	0.36906484
59	0xbeac0687	-0.3359873
60	0xbadebbb6	-0.0016993198
61	0xbe8f1c18	-0.2795112
62	0x3e94455c	0.28959167
63	0xbe392598	-0.18080747
64	0x3e0939b6	0.13400921
65	0xbd0f9dbe	-0.035062544
66	0x3eb7e9b9	0.35920504
67	0xbee18474	-0.44046366
68	0xbe594263	-0.21216731
69	0xbe84bc1f	-0.25924775
70	0x3f023e48	0.50876284
71	0x3e0351b9	0.12824143
72	0x3e532b5c	0.20622009
73	0xbeb84e16	-0.35997075
74	0xbeeb7c95	-0.45993486
75	0xbecc3ba6	-0.39889258
76	0xbe8db880	-0.27679825
77	0x3eab1096	0.33411092
78	0x3db3f3f0	0.08786762
79	0x3eb568d4	0.3543154

encoder.node_encoder.module_0.bias f4 [16]
0	0xbe485cae	-0.19566604
1	0xbe78049f	-0.24220513
2	0x3e819c97	0.2531478
3	0xbe401ac9	-0.18760218
4	0x3e7197ec	0.2359311
5	0xbdf75f5c	-0.12078735
6	0x3e97007e	0.29492563
7	0xbec7629e	-0.38942426
8	0xbe410f58	-0.1885351
9	0x3d8df66c	0.06931767
10	0x3dbb8707	0.09156614
11	0xbdbdd90b	-0.09269913
12	0x3ea257b9	0.31707552
13	0x3ebb3a9b	0.3656815
14	0xbe8672d7	-0.2625949
15	0xbe6772db	-0.22602408

encoder.node_encoder.module_1.frequency f4 [8]
0	0x3f800000	1.0
1	0x3e895aa1	0.26826957
2	0x3d936442	0.07196857
3	0x3c9e29ab	0.019306978
4	0x3ba9b895	0.0051794746
5	0x3ab61fbb	0.0013894954
6	0x39c36eea	0.00037275936
7	0x38d1b717	1e-04

encoder.node_encoder.module_3.weight f4 [16]
0	0x3f8250b5	1.018088
1	0x3f868328	1.0508776
2	0x3f8a48a5	1.0803419
3	0x3f8439dc	1.0330157
4	0x3f8edd63	1.1161312
5	0x3f8e170a	1.1100781
6	0x3f84baaa	1.0369465
7	0x3f88b6db	1.0680803
8	0x3f84be00	1.0370483
9	0x3f847f03	1.0351261
10	0x3f7e4f00	0.99339294
11	0x3f8e80e7	1.1133088
12	0x3f86d39a	1.0533326
13	0x3f85774b	1.042703
14	0x3f85fe47	1.0468224
15	0x3f882ac1	1.0638047

encoder.node_encoder.module_3.bias f4 [16]
0	0xb8714fe6	-5.753329e-05
1	0xbd3fc1ee	-0.046815805
2	0xbd80116e	-0.062533244
3	0xbd06cf1e	-0.032912366
4	0x3d86acff	0.06575965
5	0xbb72c2a1	-0.0037042277
6	0xbd3a023a	-0.04541228
7	0xbb32a355	-0.0027257998
8	0xbc892560	-0.016741455
9	0xbd00bf86	-0.03143265
10	0xbd3d3db0	-0.046201408
11	0x3d600976	0.054696523
12	0xbd249345	-0.04017951
13	0x3ba8855c	0.005142851
14	0x3d39bf81	0.045348648
15	0xbd5a1480	-0.053242207

encoder.node_encoder.module_3.running_mean f4 [16]
0	0xbbf9e47a	-0.0076261135
1	0x3ec93cf0	0.39304304
2	0x3f459be3	0.7719099
3	0xbece038b	-0.40237078
4	0xbb87a67f	-0.004139721
5	0xbf378f61	-0.71703154
6	0x3f251dd6	0.6449865
7	0xbeaea6b9	-0.34111574
8	0x3f67c7e8	0.9053941
9	0x3eb93f2a	0.36181003
10	0x3fb5b60e	1.4196184
11	0x3f36df06	0.71434057
12	0x3fc84c39	1.5648261
13	0x3f1a8ebd	0.6037405
14	0x3cee3e45	0.029082427
15	0x3fb6018d	1.4219223

encoder.node_encoder.module_3.running_var f4 [16]
0	0x3f136b66	0.5758575
1	0x3f43fea8	0.7656045
2	0x3e872a43	0.2639943
3	0x3dcad062	0.09903027
4	0x3f39acbb	0.7252919
5	0x3fb89bc8	1.4422541
6	0x3df22ae6	0.118245885
7	0x3db998b9	0.09062333
8	0x3fed3d27	1.8534287
9	0x3f581fee	0.8442372
10	0x3e8d7339	0.2762697
11	0x3f1c5596	0.61068094
12	0x3e1eb5aa	0.15498987
13	0x3f39cbc0	0.7257652
14	0x3ff44b35	1.9085451
15	0x3f85d91d	1.0456883

encoder.node_encoder.module_4.lin_key.weight f4 [16, 16]
0	0xbcd85311	-0.026406797
1	0x3c46d9fe	0.012136934
2	0xbe02a712	-0.12759045
3	0xbd3f8604	-0.046758667
4	0x3e184764	0.14870983
5	0x3e95e2be	0.29274553
6	0x3c2ea8f8	0.0106604025
7	0x3ea40814	0.32037413
8	0x3d8498ff	0.06474494
9	0xbde92d00	-0.11385536
10	0xbea95334	-0.3307129
11	0xbdce5d2f	-0.10076367
12	0xbe722cd6	-0.23649916
13	0x3d3015e4	0.042989627
14	0x3df5b159	0.11996717
15	0xbe490979	-0.1963252
16	0xbdc45dfe	-0.0958824
17	0xbe299395	-0.16560204
18	0xbd6cdb51	-0.057826344
19	0x3e8a5ba5	0.27023044
20	0xbe2120f7	-0.15735231
21	0xbe733f14	-0.23754531
22	0x3d2918d2	0.041283436
23	0xbd962fe1	-0.07333351
24	0x3e9c8f42	0.30578047
25	0x3e0757db	0.13217108
26	0x3e8c2267	0.27369997
27	0xbe7ddc7f	-0.24791144
28	0x3e688ac7	0.2270919
29	0x3e211317	0.15729938
30	0xbe3401dc	-0.17578834
31	0x3e923df4	0.2856289
32	0x3e3caa7c	0.1842441
33	0x3d3c5c2f	0.04598635
34	0x3d9943b3	0.07483616
35	0xbdeab827	-0.114609055
36	0xbe31366c	-0.17305917
37	0x3de363ee	0.111030445
38	0x3df4d269	0.11954195
39	0xbdee360c	-0.116314024
40	0x3d6ba13f	0.057526823
41	0xbe367a71	-0.17820145
42	0x3e334bd6	0.17509398
43	0x3e923dd3	0.28562793
44	0x3cc52bd7	0.024068756
45	0xbde22865	-0.11042861
46	0x3e2c3186	0.16815767
47	0xbba4f642	-0.005034239
48	0x3d2a479c	0.0415722
49	0x3c6bb92f	0.014387413
50	0x3e98ac28	0.29818845
51	0xbd75bf3d	-0.059996832
52	0xbe174c82	-0.14775279
53	0xbcd9cad9	-0.026585983
54	0xbd7aa478	-0.061192006
55	0x3de07bc5	0.10961107
56	0xbd2d7a01	-0.04235268
57	0xbde583cf	-0.11206781
58	0x3dfea02f	0.12432896
59	0xbe20b09b	-0.1569237
60	0x3e855197	0.2603881
61	0xbd84e668	-0.06489259
62	0xbea5398e	-0.32270473
63	0x3d8858e0	0.066575766
64	0xbe2cf23f	-0.16889285
65	0x3cf63bd7	0.03005783
66	0xbde7f795	-0.113265194
67	0xbe678d10	-0.22612405
68	0x3b8752af	0.0041297297
69	0x3d3ff955	0.04686864
70	0xbcdb30d0	-0.026756674
71	0x3e95e1aa	0.2927373
72	0xbc01dbda	-0.007925952
73	0x3e4ccd51	0.20000197
74	0xbcb89394	-0.022531308
75	0xbe2e5bd7	-0.17027222
76	0x3cb38b26	0.021916937
77	0x3e95a02e	0.2922377
78	0xbda4b41b	-0.08042165
79	0xbe77904f	-0.24176143
80	0x3e6b26ec	0.22964066
81	0x3e8fee34	0.28111422
82	0xbe1f011f	-0.15527771
83	0x3d86359c	0.06553194
84	0x3d2f5f8b	0.042815726
85	0xbe4a4177	-0.19751535
86	0x3dcb1fbe	0.09918164
87	0x3e0d69d5	0.13809903
88	0xbe046a24	-0.12931114
89	0x3dd2d4aa	0.10294469
90	0xbe60453f	-0.21901415
91	0x3e828e62	0.25499254
92	0x3e02bc33	0.12767105
93	0x3e27d077	0.16388117
94	0x3d90204e	0.07037412
95	0x3d341a92	0.043970652
96	0xbe3948a7	-0.18094121
97	0xbdd443ab	-0.10364469
98	0xbd4313fe	-0.047626488
99	0xbdab65eb	-0.08369049
100	0xbe52d293	-0.2058814
101	0x3e284685	0.16433151
102	0x3e1379ee	0.14401981
103	0xbe72de78	-0.23717678
104	0x3df64eea	0.120267704
105	0x3dec4c6b	0.11538013
106	0x3e5db522	0.21651128
107	0x3df1a442	0.11798908
108	0x3e84d7b8	0.2594583
109	0xbd928c4c	-0.07155666
110	0x3e3c3b1d	0.18381925
111	0x3e4d05a0	0.20021677
112	0xbe83e14f	-0.25757834
113	0xbe71d5a8	-0.2361666
114	0x3d0111fb	0.031511288
115	0x3e5537db	0.20822088
116	0xbe17850c	-0.14796847
117	0x3cd4f0f2	0.025993798
118	0xbd018dfe	-0.031629555
119	0x3d5e9731	0.054343406
120	0xbdeca920	-0.115556955
121	0x3e0d8890	0.13821626
122	0x3e0b69c2	0.13614562
123	0xbe519e16	-0.20470461
124	0x3d16f4d7	0.03685459
125	0x3c8db378	0.017297491
126	0x3dc20823	0.09474208
127	0x3e66ba48	0.22531998
128	0x3d8ad403	0.06778719
129	0xbd470bcd	-0.04859524
130	0x3e4a7b13	0.19773512
131	0xbd8bfee1	-0.06835724
132	0xbd74c1d8	-0.059755176
133	0x3d1e54c2	0.03865505
134	0xbe3a50e2	-0.18194917
135	0x3d34e66d	0.044165064
136	0xbe5a62d4	-0.21326762
137	0x3d569000	0.052383423
138	0xbc19bdb2	-0.009383606
139	0x3d377ee6	0.044798754
140	0xbe617a4c	-0.22019309
141	0xbe55f948	-0.20895875
142	0x3e1196ff	0.14217757
143	0x3e424ae5	0.18973882
144	0xbe58aa8a	-0.21158805
145	0x3ddd6cfb	0.10811802
146	0xbe234872	-0.15945604
147	0xbd239e93	-0.03994615
148	0x3e759b0f	0.23984931
149	0x3e38cc7d	0.18046756
150	0xbe2e39f5	-0.17014296
151	0x3e1b6a6f	0.1517732
152	0x3e1805e2	0.14845994
153	0xbc7460bb	-0.0149156405
154	0x3e8cdd4f	0.27512595
155	0xbdb26839	-0.08711285
156	0xbd940556	-0.0722758
157	0xbe18a655	-0.149072
158	0x3c77ab42	0.015116515
159	0x3da77970	0.08177459
160	0x3cdeba98	0.027188584
161	0xbe3a95c9	-0.18221201
162	0xbd74b1db	-0.05973993
163	0x3e197ad1	0.14988257
164	0xbe90acb8	-0.28256774
165	0xbdbbd60f	-0.09171688
166	0xbd911926	-0.07084875
167	0xbe216181	-0.15759851
168	0x3db974e5	0.09055499
169	0xbd01492a	-0.031563915
170	0x3e507838	0.2035836
171	0xbdb3c4d0	-0.087777734
172	0xbdbb2027	-0.09136992
173	0x3e0a4cc0	0.1350584
174	0xbbfea5db	-0.0077712364
175	0xbcc09eac	-0.02351316
176	0xbe2cc48f	-0.16871856
177	0x3db0b690	0.08628571
178	0xbe3e5777	-0.18588053
179	0x3c82ec38	0.015981779
180	0x3df9ca2d	0.12196765
181	0xbe726530	-0.23671412
182	0xbe242838	-0.16030967
183	0xbe430dfc	-0.19048303
184	0x3e4ab211	0.1979449
185	0x3e2dc408	0.16969311
186	0x3d52abda	0.05143342
187	0x3e732a35	0.2374657
188	0xbdb6e1cd	-0.08929787
189	0xbe8b4597	-0.2720153
190	0x3d7461fc	0.059663758
191	0x3de4f442	0.11179401
192	0x3e87c7bc	0.26519573
193	0xbd503a0c	-0.050836608
194	0x3e71e97a	0.2362422
195	0x3e5ab865	0.21359403
196	0x3df01131	0.11722029
197	0xbe9b1d14	-0.30295622
198	0x3e10f4a3	0.14155822
199	0xbe8ac70a	-0.2710498
200	0x3e62cafc	0.22147745
201	0xbd186557	-0.03720602
202	0xbe431ba3	-0.19053511
203	0x3b9a58be	0.004710286
204	0x3c6cf532	0.014462756
205	0xbe89f727	-0.26946375
206	0xbe0beb88	-0.13664067
207	0x3d9da32d	0.07697139
208	0x3e808e50	0.25108576
209	0xbe3c0821	-0.18362476
210	0x3e5ef06b	0.217714
211	0x3d1e02c0	0.03857684
212	0xbda0231f	-0.07819199
213	0xbd3979ff	-0.04528236
214	0xbe7a7900	-0.2446022
215	0xbe984e8c	-0.29747427
216	0x3d6b59d6	0.05745872
217	0xbe88a87c	-0.26691043
218	0xbcde4332	-0.02713165
219	0xbd8f8645	-0.07008032
220	0xbda9e67f	-0.08295917
221	0xbe4b7322	-0.19868138
222	0xbe0e2afb	-0.13883583
223	0x3d8737a2	0.06602408
224	0xbe04ddba	-0.12975207
225	0xbd98a5b9	-0.07453484
226	0xbd7553cf	-0.05989438
227	0x3de2eca7	0.11080294
228	0xbcf05685	-0.02933813
229	0xbe16262e	-0.14663002
230	0xbe0223b5	-0.12708934
231	0xbcf6dd40	-0.030134797
232	0xbd0beb97	-0.034160223
233	0x3ce28460	0.027651012
234	0xbcd19037	-0.025581462
235	0x3d563e21	0.052305344
236	0x3ddcf5dc	0.107890815
237	0x3e3cb7e5	0.18429525
238	0xbc4f9ba2	-0.012671383
239	0xbe313f9e	-0.17309424
240	0x3dd06bf4	0.101768404
241	0xbd966b6d	-0.073447086
242	0xbd2fe402	-0.042942055
243	0xbe15486d	-0.1457841
244	0xbce3c52b	-0.027803978
245	0xbd3b3ed4	-0.045714214
246	0x3e99861d	0.29985133
247	0x3e49bb46	0.19700345
248	0xbd0f2ca5	-0.034954686
249	0x3e7b88d9	0.24563922
250	0xbe71276e	-0.23550197
251	0x3de6252e	0.1123756
252	0x3dad3896	0.084580585
253	0x3e45158d	0.19246502
254	0xbe2f1c8c	-0.17100734
255	0x3d566382	0.05234099

encoder.node_encoder.module_4.lin_key.bias f4 [16]
0	0xbe11bdc6	-0.14232549
1	0xbc22c509	-0.009934672
2	0xbd55ca29	-0.052194748
3	0xbe55bb30	-0.20872188
4	0xbe73cbf2	-0.23808268
5	0xbe284f9e	-0.16436622
6	0x3de8b49a	0.11362572
7	0x3dea63a4	0.11444786
8	0xbe5ea8d2	-0.21744087
9	0xbdc05d01	-0.09392739
10	0x3b824f89	0.0039767665
11	0xbe5d5ccb	-0.21617429
12	0x3e10135b	0.14069884
13	0x3e67a9a6	0.2262331
14	0x3d34ee28	0.044172436
15	0xbe3e3765	-0.18575819

encoder.node_encoder.module_4.lin_query.weight f4 [16, 16]
0	0x3e5e53bb	0.21711628
1	0x3dfbcae3	0.12294557
2	0x3e8318d9	0.25604895
3	0xbd79722a	-0.06089989
4	0xbe6fbffc	-0.2341308
5	0x3d91c4f0	0.07117641
6	0xbda6e5b7	-0.081492834
7	0xbd8b3540	-0.06797266
8	0xbe2c1694	-0.16805488
9	0xbe09bb8f	-0.13450454
10	0x3e7f1cf1	0.24913384
11	0xbcbffc70	-0.023435801
12	0x3db0fd87	0.086421065
13	0x3e750616	0.23928103
14	0xbcaa30ca	-0.020775218
15	0x3d5d1317	0.053973284
16	0xbda70fd5	-0.081573166
17	0x3cef2dfb	0.02919673
18	0xbe924bc4	-0.2857343
19	0x3e2bcd70	0.16777587
20	0xbdaacb9e	-0.08339618
21	0x3de565c0	0.11201048
22	0xbd98ba1a	-0.07457371
23	0xbe1a01ad	-0.15039702
24	0x3d910b7c	0.070822686
25	0x3e2f02cb	0.17090909
26	0xbe6a455b	-0.2287802
27	0xbe507049	-0.20355333
28	0xbd4efd49	-0.05053452
29	0xbd5a5338	-0.05330202
30	0x3dfaf031	0.12252844
31	0x3e1739c7	0.14768134
32	0xbda3f057	-0.080048256
33	0x3e662a53	0.22477083
34	0xbde9c075	-0.114136614
35	0xbe080a10	-0.13285089
36	0xbdd4a076	-0.10382168
37	0xbe2aa32d	-0.16663809
38	0xbe2e2ea6	-0.17009982
39	0xbe44e21c	-0.19226879
40	0xbe4bac58	-0.19889963
41	0x3db4215d	0.08795426
42	0x3e0a6c29	0.13517822
43	0x3e7a03b8	0.24415481
44	0x3e5c930c	0.21540469
45	0xbbbf73be	-0.005842655
46	0x3d8fa3f1	0.07013691
47	0xbe2223c9	-0.15833963
48	0xbd715610	-0.058919966
49	0xbea1705a	-0.3153103
50	0x3d71972a	0.058982052
51	0x3c84bdea	0.01620384
52	0x3d8eea51	0.06978286
53	0x3df442cd	0.11926804
54	0xbd7c6e1d	-0.06162845
55	0x3e3f6590	0.18691087
56	0x3e55d5c6	0.2088233
57	0x3e2cc05c	0.16870254
58	0xbc9ab1a7	-0.01888354
59	0x3df9564f	0.12174665
60	0x3e81e153	0.2536722
61	0x3dd975bf	0.106181614
62	0x3e7124e2	0.23549226
63	0xbd3aeaf0	-0.04563421
64	0x3e8a02cc	0.2695526
65	0x3dfda493	0.12384906
66	0x3e59e203	0.21277623
67	0x3e74930f	0.23884223
68	0x3d4e9466	0.050434493
69	0xbdfbd31a	-0.12296124
70	0xbd43c84c	-0.04779844
71	0x3d67110f	0.056412753
72	0xbc9f6d8a	-0.019461412
73	0xbdf0635b	-0.117377006
74	0x3e8ed831	0.27899316
75	0x3e18a5a5	0.14906938
76	0xbe3a4413	-0.18190031
77	0xbd73dd14	-0.05953701
78	0xbdbf649f	-0.09345364
79	0xbdedab87	-0.11604982
80	0x3db56418	0.08856982
81	0x3d3d0019	0.04614267
82	0xbd859eff	-0.06524467
83	0xbe0bd882	-0.1365681
84	0xbd83434e	-0.06409322
85	0x3e6803c7	0.22657691
86	0x3e1f9fde	0.15588328
87	0x3e913f12	0.2836843
88	0xbcdd4780	-0.027011633
89	0x3b6902e2	0.0035554697
90	0x3e25b51c	0.16182369
91	0x3d87b2b6	0.06625883
92	0xbe3820be	-0.1798124
93	0xbe4a8b67	-0.1977974
94	0xbdc1ed21	-0.09469057
95	0x3d1bef29	0.038069878
96	0x3d056abd	0.032572497
97	0xbd070179	-0.03296039
98	0x3e0e4902	0.13895038
99	0x3deac772	0.114638224
100	0xbdf100eb	-0.11767753
101	0xbe3b8f82	-0.18316463
102	0xbe7ecf18	-0.24883687
103	0xbe433429	-0.19062866
104	0x3e32993f	0.17441271
105	0x3e39e76a	0.18154684
106	0x3e24eaf7	0.16105257
107	0xbde54029	-0.11193878
108	0xbcdd432a	-0.027009565
109	0xbd03390f	-0.032036837
110	0x3cf14588	0.0294521
111	0x3d5bf03f	0.053695913
112	0xbd498113	-0.04919536
113	0xbdcf5066	-0.10122757
114	0x3bfbad79	0.0076805917
115	0x3e139037	0.14410482
116	0xbe0175e1	-0.12642623
117	0xbe24ddea	-0.16100278
118	0x3b864fbd	0.004098861
119	0xbdc40264	-0.095707685
120	0xbca9eca1	-0.020742716
121	0x3dec66ae	0.11543022
122	0xbcfaf5a1	-0.030634703
123	0xbdb55a64	-0.08855131
124	0xbdde8368	-0.108649075
125	0xbc714d8f	-0.014727964
126	0xbe530e67	-0.20610963
127	0x3d5248f7	0.051339116
128	0xbde318de	-0.110887274
129	0x3dc13c39	0.09435315
130	0xbcb16a97	-0.021657271
131	0x3c7f95fe	0.015599726
132	0x3d7f800a	0.062377967
133	0x3e533a3b	0.20627682
134	0xbdcf3172	-0.10116853
135	0x3e04e1d4	0.12976772
136	0x3dfee2e6	0.12445621
137	0xbe23ca98	-0.15995252
138	0x3d423331	0.0474121
139	0xbe309722	-0.17245153
140	0xbcd871df	-0.026421485
141	0xbdeba7ce	-0.115066156
142	0xbe0ac881	-0.13553049
143	0x3e42c1e5	0.19019277
144	0xbdd2fccd	-0.10302124
145	0x3e5b66d4	0.21425945
146	0xbe4dc60e	-0.20095083
147	0xbd6364aa	-0.055515923
148	0x3d6b1fff	0.05740356
149	0x3e4380d9	0.1909212
150	0xbd9bc219	-0.076053806
151	0x3df60564	0.12012747
152	0xbd18fe57	-0.037351932
153	0x3e1fbe31	0.15599896
154	0x3d436227	0.047701027
155	0x3e1e0bb1	0.15434147
156	0xbe57f8e4	-0.21091038
157	0xbe2c1852	-0.16806152
158	0x3e5931be	0.21210381
159	0xbe46311f	-0.19354676
160	0xbdf53500	-0.119729996
161	0xbe2ad24c	-0.16681784
162	0x3e434d8f	0.19072555
163	0x3ca92803	0.020648962
164	0xbe712327	-0.23548566
165	0xbd8f88b3	-0.07008495
166	0x3d66219d	0.0561844
167	0x3d41d911	0.04732615
168	0x3e9cc480	0.30618668
169	0xbc65e69d	-0.014032033
170	0x3d696bac	0.05698745
171	0xbe920630	-0.28520346
172	0x3dd7ae8b	0.10531338
173	0x3e1aa1b0	0.15100741
174	0x3e4198a0	0.18905878
175	0xbe26219f	-0.16223763
176	0x3d10ff5e	0.035399787
177	0x3d8bbf4a	0.06823595
178	0xbe306a12	-0.17227963
179	0xbe1ed945	-0.15512569
180	0xbe660829	-0.2246405
181	0x3c4d2529	0.012521067
182	0x3dbee3ce	0.09320794
183	0x3da212ef	0.079137675
184	0xbc0a0b21	-0.008425505
185	0x3e053de2	0.13011888
186	0xbe149a73	-0.14512043
187	0x3d8509bf	0.064959995
188	0xbe12f944	-0.143529
189	0xbdb864b6	-0.09003584
190	0x3e537900	0.20651627
191	0xbe5ed81e	-0.2176213
192	0xbdad1010	-0.08450329
193	0xbea49f98	-0.3215301
194	0xbd8c372c	-0.06846461
195	0xbd94d5a4	-0.07267311
196	0x3d74649f	0.059666272
197	0xbe08d498	-0.13362348
198	0x3e0768e3	0.13223605
199	0xbe68a7bf	-0.2272024
200	0x3e6ce8d5	0.23135693
201	0xbe178882	-0.14798167
202	0x3d92a55f	0.07160448
203	0xbe0b9f34	-0.1363495
204	0x3cb1ab71	0.021688195
205	0xbc5a2081	-0.013313414
206	0x3e4dda99	0.2010292
207	0x3d7337eb	0.0593795
208	0xbeb818d1	-0.35956433
209	0xbd9caa77	-0.07649701
210	0xbe71e0be	-0.23620889
211	0x3e52fce4	0.20604283
212	0x3cb099a7	0.021557642
213	0xbd4f1ccf	-0.050564583
214	0xbe08497f	-0.13309287
215	0x3d69d2be	0.057085745
216	0xbd8807fa	-0.066421464
217	0x3e189f67	0.14904557
218	0x3d959fc0	0.073058605
219	0x3df5bb01	0.11998559
220	0x3de20408	0.11035925
221	0xbe475abe	-0.19468209
222	0x3e6428ac	0.2228114
223	0xbdc718d6	-0.09721534
224	0xbcb00b7e	-0.021489855
225	0xb977513c	-0.00023586018
226	0x3e49741a	0.19673195
227	0x3e2de2de	0.16981074
228	0x3d1443fd	0.03619765
229	0x3ded1014	0.11575332
230	0xbe63b2a4	-0.22236115
231	0xbcd07e80	-0.025450945
232	0xbe812dcd	-0.25230256
233	0x3d5b0b78	0.053477734
234	0xbe1892ba	-0.14899722
235	0xbdc2428a	-0.094853476
236	0x3e381f1e	0.1798062
237	0x3e61ad5c	0.22038788
238	0xbe3575a5	-0.17720659
239	0xbdfc1b8d	-0.123099424
240	0x3e048bd7	0.1294397
241	0x3e12a434	0.14320451
242	0x3c9d3f55	0.019195238
243	0xbd818057	-0.06323307
244	0xbe334517	-0.17506824
245	0x3d8a8118	0.06762904
246	0x3e65ab18	0.22428548
247	0xbdd06b5c	-0.10176727
248	0x3d914219	0.07092685
249	0x3dc85a16	0.097828075
250	0x3e79a7ee	0.24380466
251	0xbcf46895	-0.029835025
252	0xbc23c246	-0.009995049
253	0x3e1ce57d	0.15321918
254	0x3df34483	0.11878302
255	0x3e8e1afa	0.27754956

encoder.node_encoder.module_4.lin_query.bias f4 [16]
0	0xbd44aaf1	-0.048014585
1	0x3e1639ec	0.14670533
2	0x3e4c2bc1	0.19938566
3	0xbe454ccb	-0.19267575
4	0x3c9a2747	0.018817557
5	0xbd7ce878	-0.061745137
6	0x3e46bc9e	0.19407889
7	0xbdee9d97	-0.116511516
8	0x3c378308	0.011200674
9	0x3de024e9	0.1094454
10	0xbe223f56	-0.15844473
11	0xbe26737d	-0.16254993
12	0xbd8e8bad	-0.06960235
13	0x3e473d57	0.19456993
14	0x3df305cc	0.1186634
15	0xbdcd84a2	-0.10035063

encoder.node_encoder.module_4.lin_value.weight f4 [16, 16]
0	0xbb539538	-0.0032284986
1	0xbe117a27	-0.14206754
2	0xbd51ff20	-0.051268697
3	0x3e616780	0.22012138
4	0x3d5fd503	0.054646503
5	0xbe067192	-0.13129261
6	0x3db02723	0.08601215
7	0x3dd2d594	0.10294643
8	0x3dceec26	0.101036355
9	0xbdce4263	-0.10071256
10	0xbe18af37	-0.14910589
11	0x3dc38d85	0.09548477
12	0x3dcbb5d9	0.09946794
13	0x3d3e21a8	0.046418816
14	0xbddee03d	-0.10882614
15	0x3e3dd6bf	0.1853895
16	0x3e29ea02	0.16593173
17	0x3dc92785	0.09821991
18	0x3dc886d2	0.0979134
19	0x3e8ab948	0.27094483
20	0xbda98100	-0.08276558
21	0xbb635ddd	-0.0034693398
22	0x3e8302c8	0.2558806
23	0x3ea05722	0.31316477
24	0xbdbbaf76	-0.09164326
25	0x3e85fac8	0.26167893
26	0x3d438d85	0.047742385
27	0xbdbc4150	-0.09192145
28	0x3e82a4e3	0.25516424
29	0xbe1740d7	-0.14770828
30	0x3e4c0254	0.19922763
31	0x3e8e076a	0.2774003
32	0xbe53e274	-0.20691854
33	0xbdec3272	-0.11533059
34	0xbe93b82f	-0.28851458
35	0xbd7d8aed	-0.061900068
36	0xbe2f4c01	-0.17118837
37	0xbcba0be9	-0.022710757
38	0x3db04901	0.086076744
39	0x3e14427b	0.14478485
40	0x3de352ed	0.11099801
41	0x3ddbd399	0.107337184
42	0x3db92276	0.09039776
43	0xbe0666a6	-0.13125095
44	0xbe4b70a6	-0.1986719
45	0x3ce538a8	0.027981117
46	0x3e8448f5	0.25836912
47	0xbc8d6a0e	-0.017262485
48	0x3be82cc5	0.007085415
49	0xbe04701e	-0.12933394
50	0xbe417769	-0.18893208
51	0xbe4c448a	-0.1994802
52	0x3e8e998f	0.2785153
53	0x3d114338	0.035464495
54	0xbe9470e2	-0.28992373
55	0xbd8b6f40	-0.06808329
56	0xbd9b99fc	-0.075977296
57	0xbd568136	-0.05236932
58	0x3d9b1ef9	0.07574267
59	0x3e545bf6	0.20738205
60	0xbea9f226	-0.33192557
61	0xbd9cabde	-0.076499686
62	0x3ba37a2d	0.0049889297
63	0xbeaebb2c	-0.34127176
64	0xbe7c84ea	-0.24660078
65	0x3e398418	0.18116796
66	0x3ce37d62	0.027769748
67	0xbde21a74	-0.11040202
68	0xbe2f0037	-0.17089926
69	0xbe888c60	-0.26669598
70	0x3e6f53d6	0.23371825
71	0x3c566364	0.01308522
72	0xbdd07b92	-0.10179819
73	0xbe2abb17	-0.16672932
74	0x3e0640b2	0.13110617
75	0xbdeca7c0	-0.11555433
76	0x3d11b9f8	0.035577744
77	0xbdf7f90b	-0.12108048
78	0xbdf4b499	-0.11948509
79	0x3de992a5	0.11404923
80	0x3e63b895	0.22238381
81	0xbe1b73d1	-0.15180899
82	0xbd0b5124	-0.03401293
83	0xbe3e476d	-0.18581934
84	0xbdc04196	-0.093875095
85	0x3e79e2a4	0.24402863
86	0xbda8416c	-0.08215603
87	0x3ddd39f4	0.10802069
88	0xbdad6fc5	-0.08468584
89	0xbe2b1272	-0.16706255
90	0xbdf66aa2	-0.12032057
91	0x3e6e78ac	0.2328822
92	0xbe85316c	-0.26014268
93	0x3e447233	0.19184189
94	0x3cd0f4aa	0.02550729
95	0x3d0b4196	0.033998094
96	0x3e278105	0.16357811
97	0xbbffbc80	-0.0078044534
98	0x3db7852a	0.08960946
99	0xbe69370b	-0.22774903
100	0x3ccdba89	0.025113361
101	0x3e901e85	0.28148285
102	0x3d82dba6	0.06389551
103	0xbd91196f	-0.07084929
104	0xbdc50a7e	-0.09621142
105	0xbe1d617d	-0.1536922
106	0x3e25d697	0.16195141
107	0x3dbde314	0.09271827
108	0xbd679652	-0.05653984
109	0x3dd112cf	0.102086656
110	0x3e53c807	0.20681773
111	0xbe45129d	-0.19245382
112	0xbdee6175	-0.11639682
113	0x3e100bc8	0.14066994
114	0x3e302c61	0.17204429
115	0xbdd124a0	-0.10212064
116	0xbe9b88a1	-0.30377677
117	0x3bd3f7f8	0.006468769
118	0x3e2ad351	0.16682173
119	0x3e1cd5f1	0.15315987
120	0x3e517b2d	0.20457144
121	0xbe2842d9	-0.1643175
122	0x3dba17a6	0.09086542
123	0xbe61255b	-0.21986906
124	0x3e490acd	0.19633026
125	0x3e16478d	0.14675732
126	0x3dc8877e	0.09791468
127	0x3e805488	0.25064492
128	0xbe1e11b0	-0.15436435
129	0xbe4bc162	-0.19897988
130	0xbeaa869f	-0.33305833
131	0x3e21f71c	0.15816921
132	0x3e5614be	0.2090635
133	0xbd54d1ed	-0.051958013
134	0x3daee86e	0.08540426
135	0x3e4f1398	0.20222318
136	0xbe97a632	-0.29618984
137	0x3e587430	0.21138072
138	0x3c864f70	0.0163953
139	0x3dd70991	0.104998715
140	0x3e2d7633	0.1693962
141	0x3e968190	0.29395723
142	0x3e188f5a	0.14898434
143	0x3df317e2	0.1186979
144	0x3d98cb60	0.07460666
145	0xbb6ff6fc	-0.003661572
146	0xbe312a8a	-0.17301384
147	0x3d673d78	0.056455106
148	0xbe8bd88a	-0.27313644
149	0x3afb7d68	0.0019187154
150	0x3d865591	0.06559289
151	0x3ce95436	0.028482538
152	0xbe142963	-0.14468913
153	0xbe26e1a2	-0.1629701
154	0x3e31c6ea	0.17361036
155	0x3d4496dc	0.047995433
156	0x3e342b4c	0.17594641
157	0xbddf4f7a	-0.10903831
158	0xbd53bda9	-0.051694546
159	0xbc935ddd	-0.017989093
160	0x3e1e3be1	0.1545253
161	0xbe375be8	-0.17906153
162	0x3e3692e0	0.17829466
163	0x3e1641b0	0.14673495
164	0xbea0d5aa	-0.31413013
165	0xbd90adb6	-0.07064383
166	0xbc801476	-0.015634757
167	0xbe45ba8a	-0.1930944
168	0x3e5754a2	0.21028379
169	0xbda47fa1	-0.08032156
170	0x3e91c79c	0.28472602
171	0xbe8a3b52	-0.26998383
172	0x3e510333	0.20411377
173	0xbe9b5f34	-0.30346072
174	0xbe5b53c4	-0.21418673
175	0x3df65d40	0.12029505
176	0x3e65d2b0	0.22443652
177	0x3e194cef	0.14970754
178	0xbe784751	-0.24245955
179	0x3d351936	0.044213496
180	0xbd99cd2d	-0.07509837
181	0x3d8a18a2	0.067429796
182	0xbe89343d	-0.26797667
183	0xbdf5cf62	-0.12002446
184	0x3de151d3	0.11001935
185	0xbe6a4db8	-0.2288121
186	0xbe77830d	-0.24171086
187	0x3e072c1b	0.13200419
188	0xbd1fde74	-0.039030507
189	0x3cb69ce4	0.022291608
190	0x3e68bf6f	0.22729276
191	0xbe6b1330	-0.22956538
192	0xbe3b0a69	-0.1826569
193	0xbe603bfc	-0.21897882
194	0xbcaeab28	-0.021321848
195	0xbd8ceba5	-0.06880883
196	0x3dd5617f	0.104189865
197	0xbd6e35ef	-0.058156904
198	0x3de9e56c	0.11420712
199	0xbdc3d095	-0.09561268
200	0x3e7f52fc	0.24934
201	0x3e4a0a18	0.19730413
202	0xbe46082f	-0.1933906
203	0xbdfc2ddd	-0.12313435
204	0xbe21f1f2	-0.15814951
205	0x3d5ec637	0.05438825
206	0xbe851f80	-0.26000595
207	0xbd7a32c9	-0.06108359
208	0x3e60f267	0.21967469
209	0xbe9d2eab	-0.30699667
210	0x3e7daee4	0.24773747
211	0x3d0c9666	0.03432312
212	0x3d8f0917	0.069841556
213	0xbe72fda3	-0.23729567
214	0x3e3c9bb7	0.18418775
215	0x3d4f9c2f	0.050686058
216	0x3d990575	0.07471744
217	0x3e21839f	0.15772866
218	0xbe757d3a	-0.23973551
219	0xbe9aa7d0	-0.30206156
220	0x3e98505e	0.29748815
221	0xbe4bd4cc	-0.19905394
222	0xbe52d4c4	-0.20588976
223	0x3d5c67a2	0.05380977
224	0xbd43d7a9	-0.04781309
225	0xbdf24789	-0.118300505
226	0xbe1e9090	-0.15484834
227	0x3e28c25f	0.16480397
228	0xbe8cb566	-0.27482146
229	0xbc5a262b	-0.013314764
230	0x3db3fb23	0.08788135
231	0x3dbc730a	0.092016295
232	0x3cb7deac	0.022445045
233	0x3dc092d6	0.09403007
234	0xbe09a7ec	-0.13442963
235	0xbda73fd4	-0.08166471
236	0xbe030f7b	-0.12798874
237	0xbe08fca1	-0.1337762
238	0xbdc43f46	-0.09582381
239	0x3e6d096c	0.23148125
240	0xbd52673a	-0.051367976
241	0x3d5ae6a1	0.0534426
242	0x3e6b0f23	0.22954993
243	0xbd054f25	-0.03254618
244	0xbe4c63c6	-0.19959936
245	0xbe761988	-0.24033177
246	0xbd83bb91	-0.0643226
247	0x3d908ca4	0.07058075
248	0xbe2453ef	-0.16047643
249	0xbd910c34	-0.07082406
250	0x3e0e2c3c	0.13884062
251	0x3e0fe1c8	0.14050972
252	0x3e00f30d	0.12592717
253	0xbbdd2391	-0.0067486246
254	0x3df27951	0.118395455
255	0x3e385d21	0.18004276

encoder.node_encoder.module_4.lin_value.bias f4 [16]
0	0x3daafa60	0.083485365
1	0xbdce6355	-0.1007754
2	0xbe1b73bd	-0.1518087
3	0x3d3ad470	0.045612752
4	0xbd98e631	-0.074657805
5	0x3d2bea95	0.04197176
6	0xbc93bab9	-0.018033372
7	0x3d2b4188	0.041810542
8	0x3e3638d5	0.17795117
9	0xbddb3817	-0.10704058
10	0xbea68b4e	-0.32528156
11	0xbd9948fa	-0.07484622
12	0xbe61d49d	-0.22053762
13	0x3e07e149	0.13269533
14	0xbe25d839	-0.16195764
15	0xbc946442	-0.018114213

encoder.node_encoder.module_4.lin_skip.weight f4 [16, 16]
0	0xbd590690	-0.052984774
1	0xbe1b5fea	-0.15173307
2	0x3de814f4	0.113321215
3	0xbdd546c4	-0.10413888
4	0xbc53e520	-0.012933046
5	0xbe33fd5c	-0.17577118
6	0xbcce8f90	-0.02521494
7	0x3d117ef0	0.035521448
8	0xbc26ad80	-0.010173202
9	0xbdbf4ec0	-0.09341192
10	0x3d981b58	0.074270904
11	0xbd84a870	-0.064774394
12	0xbe0ded16	-0.13859972
13	0xbe3cc862	-0.18435815
14	0xbd58e9d8	-0.052957386
15	0xbe71d672	-0.2361696
16	0x3e547c30	0.20750499
17	0xbdf498bc	-0.11943194
18	0xbdd42ea0	-0.103604555
19	0x3cbd50b0	0.023109764
20	0x3d84ba38	0.06480831
21	0xbcc11c60	-0.0235731
22	0x3e2f9f32	0.17150572
23	0xbe153c30	-0.14573741
24	0x3db77db0	0.0895952
25	0xba13ce00	-0.00056383014
26	0xbe503fa4	-0.20336777
27	0xbdc64b84	-0.09682372
28	0x3d824c24	0.06362179
29	0x3d43a078	0.047760457
30	0x3e3a258c	0.18178385
31	0x3e2b4320	0.16724825
32	0xbe0ba0d4	-0.1363557
33	0xbddaa39c	-0.10675737
34	0xbd592160	-0.053010345
35	0xbe376756	-0.17910513
36	0xbd8a3c1c	-0.06749746
37	0xbe517cf4	-0.20457822
38	0x3dc2bc34	0.09508553
39	0x3e35229c	0.17688984
40	0x3ca22740	0.019794106
41	0xbe3743f4	-0.17897016
42	0xbe41def0	-0.189327
43	0xbdc75238	-0.09732479
44	0x3d94eabc	0.072713345
45	0x3bc7d1c0	0.006098002
46	0x3d3a2f88	0.045455486
47	0x3e714674	0.23562032
48	0x3dedcb58	0.1161105
49	0x3d5c2ee0	0.05375564
50	0xbd4f2d78	-0.05058047
51	0x3df23378	0.11826223
52	0x3dbb4f74	0.09146014
53	0xbe666d1a	-0.22502556
54	0xbe1738b4	-0.14767724
55	0x3c097c40	0.00839144
56	0x3dc24644	0.09486058
57	0x3df916e8	0.12162572
58	0xbe18642e	-0.14881966
59	0xbe7dfb34	-0.24802858
60	0xbc555e00	-0.0130229
61	0xbcea1f30	-0.028579324
62	0x3d949278	0.07254499
63	0xbd8ccda4	-0.0687516
64	0x3e43b7c4	0.1911307
65	0x3c88a6b0	0.016681045
66	0x3e3af176	0.18256173
67	0xbe3241a8	-0.17407858
68	0x3dccd184	0.100008994
69	0x3cf40820	0.02978903
70	0xbe0009b8	-0.12503707
71	0x3dfdd2a8	0.12393695
72	0xbe7be8b2	-0.24600485
73	0x3e4ef7b2	0.20211676
74	0x3ca50b60	0.020147026
75	0x3cc5bd60	0.024138153
76	0x3decc5ac	0.115611404
77	0x3caa0260	0.020753086
78	0x3ddb7838	0.10716289
79	0x3e22deee	0.15905353
80	0xbe47cc20	-0.19511461
81	0x3e295c06	0.1653901
82	0xbd195520	-0.037434697
83	0xbd6e2158	-0.058137268
84	0x3d4e1cc0	0.050320387
85	0x3e483b18	0.19553792
86	0xbe0b2a5e	-0.1359038
87	0xbe2c86c0	-0.16848278
88	0x3e1ee01e	0.15515181
89	0xbdf07850	-0.11741698
90	0x3da4d6a4	0.08048752
91	0xbd16dca8	-0.036831528
92	0x3d8cedf4	0.068813235
93	0x3e435b82	0.19077876
94	0xbe01bd94	-0.12669975
95	0xbdf87478	-0.1213159
96	0x3dfb32a4	0.12265518
97	0x3c604420	0.013688117
98	0xbce16630	-0.027514547
99	0xbe60de0c	-0.21959704
100	0x3e58e5ec	0.21181458
101	0xbc1b1e80	-0.009467721
102	0xbd3c9ba0	-0.046046853
103	0xbdd22bbc	-0.10262248
104	0xbd4a1308	-0.049334556
105	0x3df8d97c	0.12150857
106	0xbbbc4780	-0.005745828
107	0x3e5aeef4	0.21380216
108	0xbc6c7b40	-0.014433682
109	0xbd12e698	-0.035864443
110	0x3e107fe6	0.1411129
111	0xbbd3f900	-0.006468892
112	0xbd4c6218	-0.049898237
113	0x3dab1fc0	0.08355665
114	0x3e49e3b8	0.19715774
115	0x3d7f89e8	0.062387377
116	0x3e3241e8	0.17407954
117	0x3e25e5d6	0.16200957
118	0x3d90cae0	0.07069945
119	0x3db2043c	0.08692214
120	0x3da536dc	0.08067104
121	0x3cd46eb0	0.025931686
122	0x3e59c9dc	0.2126841
123	0x3e6c52f0	0.23078513
124	0x3db64424	0.088997155
125	0xbc4c8c60	-0.01248464
126	0x3e658730	0.22414851
127	0xbe474004	-0.19458014
128	0x3e3c1acc	0.18369597
129	0x3e07a2a6	0.13245639
130	0x3e246308	0.16053402
131	0xbc9d5c00	-0.019208908
132	0xbe3f0046	-0.18652448
133	0x3e369d60	0.17833471
134	0xbddfdff8	-0.109313905
135	0x3d86b6b0	0.065778136
136	0x3e11091a	0.14163628
137	0xbe6f3d12	-0.2336314
138	0x3c87e9d0	0.016590983
139	0xbdb5e03c	-0.0888066
140	0x3e35b286	0.17743883
141	0xbe22fede	-0.15917537
142	0x3e1b6f7a	0.15179244
143	0x3e1fa248	0.15589249
144	0x3e0d3d30	0.13792872
145	0x3e75c35e	0.24000308
146	0x3d1b1600	0.037862778
147	0xbe680898	-0.22659528
148	0x3e36bfda	0.17846623
149	0x3cbb7ce0	0.022886693
150	0x3ba29200	0.004961252
151	0xbe73dce4	-0.23814732
152	0xbd662680	-0.05618906
153	0xbdf88220	-0.121341944
154	0x3e7abaae	0.24485275
155	0x3e364786	0.17800722
156	0x3e3ef916	0.18649706
157	0x3e2f5174	0.17120916
158	0xbe1eb00e	-0.15496847
159	0xbddbe370	-0.1073674
160	0xbdc85f10	-0.09783757
161	0xbdcd4070	-0.10022056
162	0x3e474754	0.19460803
163	0x3dadf5ec	0.084941715
164	0x3e4d258a	0.20033851
165	0xbc3f9b40	-0.011694729
166	0xbe643492	-0.22285679
167	0xbd948b08	-0.072530806
168	0x3e33ea5a	0.17569867
169	0x3e1bdaae	0.15220138
170	0x3d9e8028	0.077392876
171	0xbd962f0c	-0.07333192
172	0xbe6ef168	-0.23334277
173	0xbe098e3e	-0.13433167
174	0x3e057930	0.1303451
175	0xbdce84e8	-0.100839436
176	0x3df4e8cc	0.11958465
177	0x3d8bcc0c	0.06826028
178	0xbdc4a718	-0.09602183
179	0x3e1bec8e	0.15226957
180	0xbda485b4	-0.08033314
181	0xbc081480	-0.008305669
182	0xbdc30708	-0.095228255
183	0xbe72d596	-0.23714289
184	0x3d251ba0	0.04030955
185	0x3d93f3c8	0.07224232
186	0xbe00e428	-0.12587035
187	0x3e1d0ada	0.15336171
188	0xbe65a56e	-0.22426388
189	0xbe76c72c	-0.24099416
190	0xbe1e1e3e	-0.15441224
191	0xbdb0f320	-0.086401224
192	0xbce37270	-0.027764529
193	0xbd45e2c0	-0.04831195
194	0x3de9abc0	0.11409712
195	0xbe60ac0e	-0.21940634
196	0x3d16c810	0.03681189
197	0x3b8dddc0	0.004329413
198	0x3d873c14	0.06603256
199	0x3e7e7c08	0.24852002
200	0x3e1d8e08	0.15386212
201	0xbe0dbf96	-0.13842615
202	0xbe51c7a4	-0.20486313
203	0xbd77e950	-0.06052524
204	0xbe006aa0	-0.12540674
205	0x3db2d820	0.08732629
206	0x3b163100	0.002291739
207	0x3e4de826	0.20108089
208	0x3dc91de4	0.09820154
209	0xbd3c4880	-0.04596758
210	0x3c0cc780	0.008592486
211	0x3d753bd0	0.059871495
212	0xbcfe2170	-0.031021804
213	0x3e4e9344	0.20173365
214	0xbe482a9e	-0.19547507
215	0x3df98d44	0.121851474
216	0xbe232f86	-0.15936098
217	0xbe6046e0	-0.21902037
218	0xbd523948	-0.05132416
219	0x3df98008	0.12182623
220	0x3e34e13e	0.17664048
221	0x3d807b88	0.06273562
222	0xbcb101b0	-0.02160725
223	0xbc659e80	-0.01401484
224	0xbdcf8e24	-0.10134533
225	0xbcb7c840	-0.022434354
226	0xbc8d8120	-0.017273486
227	0x3e59d8b0	0.21274066
228	0x3e15d290	0.14631104
229	0xbe4cdb7a	-0.20005599
230	0x3a878d00	0.0010341704
231	0xbe1d7538	-0.15376747
232	0xbd228cf8	-0.03968522
233	0xbe4b75ec	-0.19869202
234	0x3d8519a0	0.06499028
235	0xbe389892	-0.18026951
236	0x3e7cba84	0.24680525
237	0x3e4154f4	0.18880063
238	0xbe30384a	-0.17208973
239	0xbe7103c8	-0.23536599
240	0x3c1fd100	0.009754419
241	0xbd8eecf8	-0.06978792
242	0x3d964e60	0.073391676
243	0xbe2d4a3e	-0.16922852
244	0x3dd1952c	0.102335304
245	0xbe5d1eae	-0.21593735
246	0xbe071bf0	-0.13194251
247	0xbe069464	-0.13142544
248	0x3df7c09c	0.12097284
249	0xbbd67a00	-0.0065453053
250	0xbe7605f8	-0.24025714
251	0xbe1234ec	-0.14278
252	0xbdecf118	-0.115694225
253	0xbe6d863e	-0.2319574
254	0x3d031eb8	0.032011718
255	0x3db671ec	0.089084476

encoder.node_encoder.module_4.lin_skip.bias f4 [16]
0	0xbd3be190	-0.04586941
1	0xbdcbbf6c	-0.0994862
2	0xbac6b900	-0.0015161335
3	0xbe4b560c	-0.19857043
4	0xbe1be0f8	-0.15222538
5	0xbbbad440	-0.0057015717
6	0x3e636cb2	0.22209433
7	0xbd9d71bc	-0.07687709
8	0x3dfdc714	0.12391487
9	0xbdc97f70	-0.0983876
10	0xbd884b14	-0.06654945
11	0xbe73b2a2	-0.23798612
12	0x3e541798	0.20712125
13	0x3e794636	0.2434319
14	0xbbac0f00	-0.0052508116
15	0x3e22a798	0.15884244

encoder.node_encoder.module_7.weight f4 [16, 16, 3]
0	0x3df1c94a	0.11805971
1	0x3d92d4d5	0.07169501
2	0x3d983dce	0.07433663
3	0xbe0cb4af	-0.137408
4	0xbe0ae288	-0.13562977
5	0xbde2e332	-0.1107849
6	0x3d38ebc3	0.045146715
7	0xbdffb0a2	-0.12484862
8	0xbde1a5b0	-0.110179305
9	0xbd8f479f	-0.069960825
10	0xbe083a04	-0.13303381
11	0x394bee52	0.0001944837
12	0x3caa95a8	0.020823315
13	0xbdacfcb9	-0.084466405
14	0x3dc18d03	0.09450724
15	0xbd6072d6	-0.054797016
16	0xbd2670cf	-0.040634926
17	0x3de1367c	0.1099672
18	0x3dfdca6d	0.12392125
19	0xbc87a5a2	-0.016558472
20	0xbdd43508	-0.103616774
21	0xbd944b88	-0.07240969
22	0x3c969150	0.018379837
23	0x3dad47cc	0.0846096
24	0x3d932a20	0.07185769
25	0xbd828882	-0.06373693
26	0xbe0bba0d	-0.13645191
27	0xbe015922	-0.12631658
28	0xbd3c1899	-0.045921896
29	0x3aed516a	0.0018105928
30	0xbd84c71e	-0.06483291
31	0xbde9bc2f	-0.11412846
32	0x3c79393f	0.015211402
33	0xbdeaa1e6	-0.11456661
34	0xbde3003e	-0.110840306
35	0xbdf04f3e	-0.11733864
36	0xbd203389	-0.039111648
37	0x3e028c09	0.12748732
38	0x3d671d36	0.056424342
39	0xbc8c3295	-0.017113963
40	0x3cf35a9e	0.029706296
41	0x3d6b6c83	0.05747653
42	0x3a5c72d5	0.0008409445
43	0xbdee6d13	-0.11641898
44	0xbdb61ffc	-0.08892819
45	0xbdc8d1a6	-0.09805612
46	0xbb703189	-0.003665062
47	0xbe074c43	-0.13212685
48	0xbcd6fcda	-0.026243616
49	0xbd58300e	-0.052780204
50	0x3e110c53	0.14164858
51	0x3df04606	0.11732106
52	0x3dabb3c9	0.08383901
53	0x3c049ff3	0.0080947755
54	0xbd3f6aa8	-0.046732575
55	0x3d16cca2	0.036816247
56	0xbdcc3db9	-0.0997271
57	0xbd7c26eb	-0.061560553
58	0xbced8793	-0.02899531
59	0xbd0ae824	-0.033912793
60	0xbe0c034a	-0.1367313
61	0x3d6b05e3	0.05737866
62	0x3df36c8e	0.118859395
63	0xbda30c04	-0.07961276
64	0x3d1f5e90	0.03890854
65	0xbc89212b	-0.016739449
66	0xbbac8083	-0.005264343
67	0x3c09d884	0.008413438
68	0x3e001514	0.1250804
69	0x3c9e6ea4	0.019339867
70	0xbdbb057e	-0.09131907
71	0xbd54aa41	-0.05192018
72	0x3d906909	0.07051284
73	0x3d387d1c	0.04504119
74	0x3b37d904	0.0028052935
75	0xbc9c0d23	-0.019049233
76	0xbd66065a	-0.0561584
77	0xbd51d5d7	-0.051229324
78	0xbd9bed36	-0.07613604
79	0x3cc1c098	0.023651406
80	0x3d260924	0.04053606
81	0x3de25b56	0.11052577
82	0xbd058fbf	-0.03260779
83	0x3c294b85	0.010332947
84	0x3dbf0b9a	0.09328385
85	0x3d8095ae	0.06278549
86	0x3c97ecf3	0.018545603
87	0x3d35aa49	0.04435185
88	0x3bf57fe5	0.007492053
89	0xbdfd90ed	-0.12381158
90	0x3bb65553	0.0055643707
91	0xbd0139af	-0.031549152
92	0x3e0560c3	0.13025193
93	0x3e0568ee	0.13028309
94	0x3cea9467	0.028635217
95	0x3e041b08	0.12900937
96	0xbd983dc7	-0.07433658
97	0x3e00771f	0.12545441
98	0x3dfe8295	0.1242725
99	0xbbb4c5a8	-0.0055167265
100	0xbded3976	-0.115832254
101	0xbd3ec7bc	-0.0465772
102	0xbd1e1ad5	-0.038599808
103	0x3b1c3fb1	0.0023841674
104	0xbe06012b	-0.13086383
105	0x3cdb21a0	0.026749432
106	0xbd75e0bf	-0.060028788
107	0xbd175f8d	-0.03695636
108	0xbd98ad45	-0.074549235
109	0xbcf9a5c9	-0.03047456
110	0xbe094462	-0.13404992
111	0xbd9cb82b	-0.07652315
112	0x3c59dc09	0.013297089
113	0x3dc1b3a6	0.09458093
114	0x3e06507f	0.13116644
115	0xbddf9c5c	-0.10918495
116	0x3d78429c	0.0606104
117	0xbda6a15f	-0.08136248
118	0xbde48c3c	-0.1115956
119	0xbbd04593	-0.00635595
120	0xbda99266	-0.082798764
121	0xbdfe9659	-0.1243102
122	0xbe0a2045	-0.13488872
123	0xbdc5dc92	-0.09661211
124	0x3df2e867	0.118607335
125	0x3da4dc40	0.08049822
126	0xbd6a0706	-0.057135604
127	0xbdc5da7a	-0.09660812
128	0xbde363f4	-0.11103049
129	0xbdae8f63	-0.085234426
130	0xbd7347d2	-0.059394665
131	0x3db18944	0.086687595
132	0x3d4179e8	0.0472354
133	0xbd63d5a8	-0.05562368
134	0x3dcb80ab	0.09936651
135	0xbdb7a37c	-0.08966729
136	0xbdf0d311	-0.11759008
137	0x3d0107ec	0.031501696
138	0xbda2fef6	-0.07958786
139	0x3d282f80	0.041060925
140	0x3dfa721b	0.12228795
141	0xbd8bcadb	-0.06825801
142	0xbdce468a	-0.10072048
143	0x3d5e87bf	0.054328676
144	0xbe057c95	-0.13035806
145	0x3e03dd88	0.12877476
146	0xbd8b99ba	-0.068164304
147	0x3d8ee98f	0.069781415
148	0xbdeb0e30	-0.114773154
149	0xbdc815a2	-0.09769751
150	0x3c823f91	0.015899451
151	0x3d521e23	0.051298272
152	0x3de5359b	0.11191865
153	0x3df73943	0.12071469
154	0xbc080140	-0.008301079
155	0xbc980504	-0.01855708
156	0x3cc3747e	0.023859259
157	0xbd0954fc	-0.033528313
158	0x3ba10050	0.0049133673
159	0xbe0bf9ae	-0.13669464
160	0xbdf2a9b9	-0.11848778
161	0x3dca90dc	0.09890911
162	0xbdacbcdf	-0.08434462
163	0x3de8c888	0.11366373
164	0x3c81c32f	0.015840141
165	0x3d10024e	0.035158448
166	0x3e065568	0.13118517
167	0xbda46965	-0.08027915
168	0xbcbaa73d	-0.022784824
169	0x3cd17ccd	0.025572205
170	0x3d49fb1c	0.049311742
171	0xbe0fd7bb	-0.14047138
172	0x3d522036	0.05130025
173	0xbdae5331	-0.08511961
174	0x3c9b4f5f	0.018958746
175	0x3dc7fd87	0.097651534
176	0xbc6b929e	-0.014378218
177	0xbb959f26	-0.004566091
178	0xbc30b05d	-0.010784236
179	0x3df6ad03	0.12044718
180	0x3da80005	0.08203129
181	0x3cc6d878	0.024273142
182	0xbdb1e60a	-0.086864546
183	0xbda08606	-0.07838063
184	0x3deb76d9	0.11497278
185	0x3dd4a9c4	0.10383943
186	0x3dab2844	0.083572894
187	0xbde67caf	-0.1125425
188	0x3de636b7	0.11240905
189	0xbc620eeb	-0.013797502
190	0x3dd9c9b0	0.10634172
191	0x3e005f81	0.12536432
192	0x3c819b05	0.01582099
193	0xbd760310	-0.060061514
194	0x3e0b079e	0.13577124
195	0xbd9a0b7a	-0.0752172
196	0x3dc126cd	0.09431229
197	0xbe0db9be	-0.13840386
198	0xbd39f12d	-0.04539602
199	0xbe00dc90	-0.12584138
200	0xbd8499c2	-0.064746395
201	0x3d7b09a2	0.061288483
202	0xbdd3cede	-0.10342191
203	0xbdffa392	-0.124823704
204	0x3dd35de8	0.103206456
205	0x3d9dcc93	0.07705035
206	0xbacee0eb	-0.0015783584
207	0xbdd06386	-0.101752326
208	0xbd1ca1d7	-0.03824028
209	0xbd3f6bd5	-0.046733696
210	0x3db68fd1	0.089141496
211	0xbd416032	-0.04721088
212	0xbd2a46d9	-0.04157147
213	0xbdd18a88	-0.10231501
214	0xbd8b39bc	-0.06798121
215	0x3da00dd6	0.07815139
216	0x3dbe73f5	0.09299461
217	0x3cabca24	0.020970412
218	0xbd5dd1d3	-0.054155182
219	0x3e0df64e	0.13863489
220	0x3ce9627a	0.02848934
221	0xbd643424	-0.055713788
222	0xbd4ce91b	-0.050026994
223	0xbca57ad3	-0.020200169
224	0x3d8c2514	0.068430096
225	0x3d583e87	0.052794006
226	0x3dd64cff	0.104639046
227	0xbbd51a8c	-0.006503409
228	0x3df47dcb	0.119380556
229	0xbd702401	-0.058628086
230	0xbd88241c	-0.06647512
231	0xbd5a54c1	-0.053303484
232	0xbe0aab30	-0.13541865
233	0xbdc20bbd	-0.09474895
234	0xbe05bdf4	-0.13060743
235	0xbc0bc175	-0.0085300105
236	0x3ab25a97	0.001360732
237	0xbd19716a	-0.037461676
238	0xbdca02ae	-0.09863792
239	0x3e061948	0.13095582
240	0xbd43e3fa	-0.047824837
241	0x3d8cdee0	0.068784475
242	0x3dcddc76	0.10051815
243	0xbdc2511f	-0.09488129
244	0xbc93d43a	-0.018045533
245	0x3daad95c	0.08342239
246	0x3e0f45dc	0.13991493
247	0xbc952cb0	-0.018209785
248	0x3dd63377	0.10459035
249	0xbde80252	-0.113285676
250	0xbdc010ac	-0.0937818
251	0x3df315c3	0.11869385
252	0xbc5fe69d	-0.013665822
253	0x3e120440	0.14259434
254	0x3c2bf6ab	0.010495822
255	0xbd752dc4	-0.0598581

encoder.node_encoder.module_7.bias f4 [16]
0	0xbca9329f	-0.02065402
1	0xbc070248	-0.00824029
2	0xbda82020	-0.08209252
3	0x3d4a151c	0.049336538
4	0xbe0f3f2c	-0.13988942
5	0x3db575c4	0.08860353
6	0x3e0914a7	0.13386784
7	0x3cbf4b51	0.023351343
8	0xbd0a23ee	-0.03372567
9	0xbe075f26	-0.1321989
10	0x3d8ad0e9	0.06778128
11	0x3df23628	0.11826736
12	0x3dfcb805	0.123397864
13	0x3c52df30	0.012870595
14	0x3d448db3	0.047986697
15	0x3e0d9ffe	0.13830563

encoder.node_encoder.module_9.Wr.weight f4 [16, 16]
0	0x3da0decc	0.07854995
1	0xbead7f82	-0.33886343
2	0xbe2efc1d	-0.17088361
3	0x3e896ef0	0.2684245
4	0xbcaa20b5	-0.020767549
5	0x3e9bdf36	0.30443734
6	0xbe459336	-0.19294438
7	0xbcfd6596	-0.030932229
8	0xbc328359	-0.0108955735
9	0xbe164c25	-0.14677484
10	0x3db6e034	0.08929482
11	0xbdab4f86	-0.08364777
12	0x3e7b9115	0.24567063
13	0xbd065fa4	-0.032806054
14	0xbe45936f	-0.19294523
15	0xbbdfe350	-0.0068325177
16	0xbdfb75a2	-0.12278296
17	0x3d84ffc1	0.06494094
18	0xbd191108	-0.037369758
19	0xbe8057fd	-0.2506713
20	0x39e43676	0.00043528125
21	0x3e009e82	0.12560466
22	0x3d141945	0.03615691
23	0xbdddb153	-0.108248375
24	0x3d33de45	0.043913145
25	0x3da43a09	0.08018882
26	0xbde32f58	-0.110930145
27	0xbe5c4aea	-0.21512952
28	0xbdfdc133	-0.123903655
29	0xbd4ff51c	-0.050770864
30	0x3da632a9	0.081151314
31	0x3e4364d0	0.19081426
32	0x3c88f664	0.01671905
33	0x3d830dc5	0.06399111
34	0x3e19a99a	0.15006104
35	0xbdfefcd0	-0.12450564
36	0xbd70f3b6	-0.05882617
37	0x3dfd6737	0.12373202
38	0x3e17aa9d	0.14811178
39	0x3da162aa	0.07880147
40	0xbe6c439e	-0.23072669
41	0x3e34087b	0.1758136
42	0xbe29c966	-0.16580734
43	0x3deb32b3	0.114842795
44	0x3d8644ac	0.06556067
45	0x3dc1a7ef	0.09455859
46	0xbe473d9d	-0.19457097
47	0xbd86d0c9	-0.06582791
48	0x3e2c3131	0.1681564
49	0x3e645879	0.22299375
50	0xbbea10c9	-0.007143114
51	0x3e0cf7b4	0.13766366
52	0xbc94fc86	-0.018186819
53	0xbe5c62b6	-0.2152203
54	0xbe300fa5	-0.17193468
55	0x3d8ea54d	0.06965122
56	0x3b3f0f56	0.0029153428
57	0x3e19fb7e	0.15037343
58	0xbe09b760	-0.13448858
59	0xbe08769d	-0.13326497
60	0xbe3e353f	-0.18575
61	0x3e83b6e8	0.25725484
62	0xbbd16277	-0.0063899118
63	0xbe3aa4e4	-0.18226963
64	0xbdb82243	-0.0899091
65	0x3be7e69c	0.0070770513
66	0x3d944e7d	0.07241533
67	0x3b917cda	0.0044399323
68	0x3e1fcc69	0.1560532
69	0xbd4b9f88	-0.049712688
70	0x3bcb451f	0.0062033082
71	0xbd9ce8cb	-0.07661589
72	0x3db57a82	0.08861257
73	0x3e5c24b1	0.21498372
74	0xbd764a50	-0.060129464
75	0x3e4e62f7	0.2015494
76	0x3e267016	0.16253695
77	0xbe1e93e2	-0.154861
78	0xbd7be5d6	-0.061498486
79	0xbe385462	-0.1800094
80	0x3df45d17	0.11931818
81	0x3bcd6ed1	0.006269314
82	0x3d8207f2	0.06349172
83	0xbd207295	-0.039171774
84	0xbe04e738	-0.12978828
85	0xbe42e0d2	-0.19031075
86	0xbe8699e4	-0.26289284
87	0xbdca2bb8	-0.0987162
88	0x3d4fa47e	0.05069398
89	0x3cdee6c0	0.02720964
90	0x3e481157	0.19537865
91	0xbe8b6cec	-0.27231538
92	0xbce4d632	-0.027934168
93	0xbe40a8d2	-0.188144
94	0x3cb4b499	0.022058772
95	0x3e0ec321	0.13941623
96	0xbe1c28d0	-0.15249944
97	0x3e58d2be	0.21174142
98	0xbcaac456	-0.020845573
99	0x3e5222a6	0.2052103
100	0xbd9d081b	-0.076675616
101	0x3e0f5bc5	0.13999851
102	0x3e18e276	0.14930138
103	0xbdf5b8ed	-0.119981624
104	0x3b949664	0.0045345295
105	0x3d7aa3fe	0.06119155
106	0xbe6d1dc5	-0.23155887
107	0x3e329f8a	0.17443672
108	0xbe01ab6b	-0.12663047
109	0x3e60bfdf	0.21948193
110	0xbe0cbb94	-0.1374343
111	0xbdd72e24	-0.105068475
112	0x3ddf0c28	0.108909905
113	0xbe260986	-0.1621457
114	0x3e406686	0.1878911
115	0x3e34cf9e	0.17657325
116	0x3e7fdc70	0.24986434
117	0xbe822c9f	-0.25424668
118	0x3c50a08b	0.012733589
119	0xbdaed82a	-0.08537324
120	0x3d57d43a	0.05269263
121	0xbe285f0b	-0.16442506
122	0x3de639f7	0.11241525
123	0xbd0a5226	-0.03376975
124	0xbdfc4f36	-0.12319796
125	0xbe70df36	-0.23522648
126	0x3dea52d3	0.11441579
127	0xbd94087e	-0.07228182
128	0x3e862aad	0.26204434
129	0x3dc1c90e	0.09462176
130	0x3e03ec79	0.12883176
131	0xbd65145d	-0.055927623
132	0xbd921899	-0.07133598
133	0xbd9101aa	-0.070803955
134	0xbe909ff3	-0.28247032
135	0x3e07e908	0.13272488
136	0xbda8bc7d	-0.08239076
137	0x3dcac0ee	0.0990008
138	0xbddb7bd1	-0.107169755
139	0x3e31313f	0.17303942
140	0x3e601604	0.21883398
141	0xbe161546	-0.14656553
142	0x3e65f292	0.22455814
143	0x3ca99d34	0.020704843
144	0xbe28f45d	-0.16499467
145	0x3c8a121b	0.016854336
146	0x3de84714	0.11341682
147	0x3e94aa70	0.29036283
148	0xbe888ea7	-0.26671335
149	0x3e80eb40	0.25179482
150	0x3e5281bf	0.20557307
151	0x3e5717ee	0.21005222
152	0x3e0d990e	0.13827917
153	0xbe06f807	-0.13180552
154	0x3e2496b6	0.16073117
155	0x3e87f1a1	0.26551536
156	0xbd8b9bc3	-0.068168186
157	0xbdbc97c5	-0.09208635
158	0x3e0f8445	0.140153
159	0x3e18cb8f	0.14921401
160	0x3e32b594	0.17452079
161	0x3e1c5826	0.15268001
162	0xbe152166	-0.14563522
163	0xbc32d2f1	-0.01091455
164	0xbdeeeff6	-0.11666863
165	0x3e1a9169	0.15094532
166	0x3d27270f	0.040808734
167	0xbe5c3310	-0.21503854
168	0xbd447921	-0.04796708
169	0xbe617b5a	-0.22019711
170	0xbe7c6304	-0.24647146
171	0x3e779225	0.24176843
172	0xbdee0e46	-0.11623816
173	0x3da2c355	0.07947413
174	0xbd903f8f	-0.07043373
175	0xbd37346e	-0.044727735
176	0x3d4ac5a1	0.04950488
177	0x3eaf0ad8	0.3418796
178	0xbc425200	-0.011860371
179	0x3dcbf631	0.09959067
180	0x3e36bb1d	0.17844816
181	0x3de67331	0.1125244
182	0xbe91546f	-0.2838473
183	0xbd6e5ff3	-0.058196973
184	0xbe659ed7	-0.22423874
185	0xbcc1ed42	-0.023672704
186	0x3ce86966	0.02837057
187	0xbc1790de	-0.009250848
188	0x3e4f8e1a	0.20269051
189	0x3e7f0487	0.24904071
190	0xbd92cad0	-0.0716759
191	0xbdcbab55	-0.09944788
192	0x3e7b0d7a	0.2451686
193	0x3de30e0f	0.11086666
194	0x3dc4cebe	0.096097454
195	0xbe64c7d9	-0.22341861
196	0xbc168b96	-0.009188553
197	0x3c18b7e3	0.009321186
198	0xbe718fae	-0.23589966
199	0x3e54ea7f	0.20792578
200	0x3e1f08b7	0.15530668
201	0xbe0cdd15	-0.13756211
202	0xbd6b9b98	-0.057521433
203	0xbdd61dfb	-0.10454937
204	0x3cfdd7bc	0.03098666
205	0xbc551eda	-0.013007844
206	0x3e9ff32a	0.31240207
207	0xbe429969	-0.19003834
208	0xbcfad197	-0.030617518
209	0xbda5883b	-0.080826245
210	0x3d242fae	0.040084533
211	0x3c71f438	0.014767699
212	0xbdd0a849	-0.10188348
213	0x3e603088	0.21893513
214	0xbe90f967	-0.2831528
215	0x3da88a4c	0.08229503
216	0xbe003df8	-0.12523639
217	0xbd94c676	-0.07264416
218	0xbe5e28c8	-0.21695244
219	0xbe3a7350	-0.1820805
220	0xbe89147f	-0.2677345
221	0x3e467868	0.19381869
222	0xbd8dbe00	-0.06921005
223	0x3e1f6010	0.15563989
224	0xbd4e83e0	-0.050418735
225	0x3daa467c	0.08314225
226	0x3de3a0dc	0.11114666
227	0x3e6f38b9	0.23361482
228	0xbe44a917	-0.19205128
229	0x3e6cf499	0.23140182
230	0x3c615736	0.013753703
231	0x3d684b6c	0.056712553
232	0x3e8f655c	0.2800702
233	0xbb138faf	-0.0022516062
234	0xbe016125	-0.12634714
235	0x3c03cddc	0.008044686
236	0x3dc83c34	0.09777108
237	0x3e0b5f40	0.13610554
238	0x3d26dec8	0.040739805
239	0x3da7fc60	0.082024336
240	0xbdcf4bdf	-0.10121893
241	0x3e5cc2b9	0.21558656
242	0x3d2bbb1d	0.041926492
243	0xbe3e0a39	-0.18558587
244	0xbe0af655	-0.1357053
245	0xbe40b72b	-0.18819873
246	0x3cb3532a	0.021890242
247	0xbe17a3af	-0.14808534
248	0xbd116f5a	-0.035506584
249	0xbcf0e7e0	-0.029407442
250	0xbe182c48	-0.14860642
251	0x3c468336	0.012116244
252	0xbca4bdbb	-0.020110002
253	0x3de3b7ba	0.111190274
254	0x3e6dc352	0.2321904
255	0xbe2fed8c	-0.1718046

encoder.node_encoder.module_9.Wr.bias f4 [16]
0	0x3e2c23aa	0.1681048
1	0xbcf24251	-0.029572638
2	0xbe41e8b9	-0.18936433
3	0xbdee7e37	-0.11645167
4	0x3db005e5	0.08594874
5	0x3d281fe7	0.04104605
6	0xbc76a5dd	-0.015054193
7	0xbdf80b64	-0.121115476
8	0x3e46452e	0.19362327
9	0x3d157c19	0.036495302
10	0xbe923027	-0.28552362
11	0xbcffb468	-0.031213954
12	0xbd3c1598	-0.04591903
13	0xbd7cea05	-0.061746616
14	0xbe06867c	-0.13137239
15	0xbe42f0cd	-0.1903717
