checkpoint/dagnnmodel0.pt (torch, 102969 bytes, 31 tensors)

encoder.node_encoder.lin_init.weight f4 [16, 5]
0	0x3eaf0f18	0.34191203
1	0x3ebe0cb9	0.37119082
2	0xbdd69191	-0.10476983
3	0x3ed25667	0.41081545
4	0xbdc8acef	-0.097986095
5	0x3db8d19b	0.09024354
6	0xbe5ef423	-0.21772818
7	0x3e8678da	0.26264077
8	0x3ec9d98f	0.39423797
9	0xbea7fb37	-0.3280885
10	0x3ec705d4	0.38871634
11	0x3dab6b00	0.08370018
12	0x3ea92ae4	0.33040535
13	0x3d781477	0.06056639
14	0x3e5cd103	0.21564107
15	0xbd8150e0	-0.06314254
16	0x3eb08327	0.3447506
17	0x3d876091	0.066102155
18	0xbe55c9ad	-0.20877714
19	0x3de975ae	0.11399399
20	0xbe52fe2a	-0.20604768
21	0xbd56d1a2	-0.052446015
22	0xbe39ffb6	-0.18163952
23	0x3e97e4ef	0.2966685
24	0xbeb4bea7	-0.35301706
25	0xbe531e40	-0.20617008
26	0xbe015006	-0.12628183
27	0xbe89ace5	-0.2688972
28	0x3d2ce3c7	0.042209413
29	0xbee226f7	-0.44170353
30	0x3ecec9b5	0.40388265
31	0xbec2816f	-0.37989375
32	0x3eb0c611	0.34526113
33	0x3d986c16	0.07442491
34	0xbe14b287	-0.14521228
35	0x3e8d7e7c	0.27635562
36	0x3d8ebe21	0.06969858
37	0x3eb90089	0.3613322
38	0x3d484018	0.04888925
39	0xbe106c93	-0.14103918
40	0x3df615eb	0.12015899
41	0xbdf85f18	-0.12127513
42	0x3e40baf7	0.18821321
43	0x3ecc6eb7	0.3992822
44	0x3e845c39	0.2585161
45	0xbe4833a4	-0.1955095
46	0x3e842da0	0.2581606
47	0x3da3e09b	0.080018245
48	0x3e688fb7	0.22711073
49	0xbe8b8f78	-0.27257895
50	0xbee2a9a4	-0.4427005
51	0xbe30eebb	-0.17278568
52	0xbeafa0b7	-0.34302303
53	0x3ebbe1ad	0.36695614
54	0x3e03e72b	0.12881152
55	0x3e3db00f	0.18524192
56	0x3e10d4ad	0.1414363
57	0xbbfeecfc	-0.0077797156
58	0x3eb3324a	0.34999305
59	0xbea2b04e	-0.31775135
60	0x3ce6ac18	0.028158233
61	0xbe9c4895	-0.30524126
62	0x3e0d3573	0.1378992
63	0xbe1db570	-0.15401244
64	0x3e0c5284	0.13703352
65	0xbdbed18f	-0.09317314
66	0x3ebde89c	0.3709153
67	0xbe87b684	-0.26506436
68	0xbe888f2b	-0.26671728
69	0xbe889147	-0.26673338
70	0x3ecdf2cd	0.40224305
71	0x3e189c7b	0.14903443
72	0x3edc546c	0.4303316
73	0xbebcf75e	-0.36907476
74	0xbee31cfb	-0.44358048
75	0xbeb323f5	-0.3498837
76	0xbe9a0723	-0.3008357
77	0x3e397c9f	0.18113945
78	0x3e23facb	0.16013639
79	0x3ebe4272	0.3716007

encoder.node_encoder.lin_init.bias f4 [16]
0	0xbe6c7ecc	-0.23095244
1	0xbe9c1806	-0.30487078
2	0x3e72f9fd	0.23728175
3	0xbe391aa7	-0.18076573
4	0x3e8af82a	0.2714246
5	0xbdd95793	-0.106124066
6	0x3e82fbb8	0.2558267
7	0xbeb1e7ac	-0.34747064
8	0xbe671a4b	-0.22568624
9	0x3e0b9dff	0.1363449
10	0x3dc1a075	0.09454433
11	0xbde983da	-0.11402102
12	0x3e887be9	0.26657036
13	0x3e9ba880	0.30401993
14	0xbea60b9e	-0.32430738
15	0xbe747bb2	-0.23875311

encoder.node_encoder.attn_convs.0.attn_layer.0.weight f4 [1, 32]
0	0x3e25c0a5	0.1618677
1	0xbd7453c5	-0.0596502
2	0xbd805940	-0.06267023
3	0xbe2f2741	-0.17104818
4	0xbdcf542a	-0.10123475
5	0x3d34e08e	0.044159465
6	0xbcbf2583	-0.023333317
7	0xbe03663f	-0.12831973
8	0x3b87e02c	0.0041465964
9	0xbdf74d4a	-0.120752886
10	0xbe199382	-0.14997676
11	0xbdc75c75	-0.09734432
12	0xbe1e6e29	-0.1547171
13	0xbde68618	-0.11256045
14	0x3e34f2d3	0.17670755
15	0x3d08c294	0.03338869
16	0x3d5f21a7	0.054475453
17	0xbe28d57a	-0.16487685
18	0xbdedc70b	-0.1161023
19	0xbd71036b	-0.05884115
20	0x3ce27316	0.027642768
21	0xbe1f4864	-0.15554959
22	0xbd9bfe22	-0.07616831
23	0xbdd8bdbd	-0.10583065
24	0x3a006c39	0.0004898939
25	0xbd86b73b	-0.06577917
26	0xbc48b3b4	-0.012249876
27	0xbdf55402	-0.11978914
28	0xbdf88068	-0.121338665
29	0xbdd336c9	-0.10313184
30	0xbd77d98d	-0.060510207
31	0xbe0ee007	-0.13952647

encoder.node_encoder.attn_convs.1.attn_layer.0.weight f4 [1, 32]
0	0xbd0fb40c	-0.035083815
1	0x3e1bbf9a	0.15209809
2	0x3d619c0a	0.05508045
3	0xbe194960	-0.14969397
4	0x3dfa8b23	0.122335695
5	0xbd4739e3	-0.04863919
6	0xbd8ac763	-0.06776311
7	0xbe164241	-0.14673711
8	0xbe33f659	-0.17574443
9	0x3d4f2a8e	0.050577693
10	0xbd1e2b96	-0.038615786
11	0x3d8cf335	0.068823256
12	0xbe148e53	-0.14507417
13	0x3e0664df	0.13124417
14	0xbe04e0bf	-0.12976359
15	0xbcfa0ec6	-0.030524623
16	0x3d173ce1	0.036923293
17	0x3dbae732	0.09126128
18	0x3e122387	0.14271365
19	0x3e24e6b7	0.16103636
20	0xbe0f88c4	-0.14017016
21	0x3d363a00	0.044488907
22	0xbd9bb8e4	-0.076036245
23	0xbc9eb21d	-0.01937204
24	0xbe077dbe	-0.1323156
25	0x3e24e20e	0.16101858
26	0xbe04dbf6	-0.12974533
27	0x3dc17df5	0.094478525
28	0x3d7e782e	0.06212633
29	0x3d6b4b11	0.057444636
30	0xbdc3bc1e	-0.09557365
31	0x3e2489ad	0.16068144

encoder.node_encoder.attn_convs.2.attn_layer.0.weight f4 [1, 32]
0	0x3cba4a6b	0.022740563
1	0xbe1f862f	-0.1557853
2	0x3d97facb	0.07420882
3	0xbcd940c7	-0.026520146
4	0xbda5dbd4	-0.080985695
5	0x3e1b7c66	0.15184173
6	0x3d216ea2	0.03941215
7	0xbdc84eb5	-0.09780637
8	0xbdb73deb	-0.08947357
9	0xbc0a50ba	-0.008442098
10	0x3dca25fc	0.09870526
11	0xbd3906b8	-0.045172423
12	0xbdce91f7	-0.10086434
13	0xbd77f483	-0.06053592
14	0xbe073c28	-0.13206542
15	0x3d811d60	0.06304431
16	0x3e0c1dc2	0.13683227
17	0xbe2a6b3d	-0.1664247
18	0x3d282adf	0.04105651
19	0x3dbb06b5	0.09132139
20	0x3d034be7	0.032054808
21	0xbd80ee4f	-0.06295454
22	0x3dbcf697	0.09226721
23	0x3dbe418f	0.09289848
24	0x3d876049	0.06610162
25	0xbcfe78c6	-0.031063449
26	0xbd3fbc91	-0.04681069
27	0x3c9aecc7	0.018911732
28	0xbcffd28d	-0.031228328
29	0xbd57c69b	-0.05267964
30	0x3de76ae8	0.112996876
31	0x3e1b9164	0.15192181

encoder.node_encoder.gru_cells.0.weight_ih f4 [48, 16]
0	0xbd654538	-0.055974215
1	0x3b6f1480	0.0036480725
2	0xbc7490a0	-0.014927059
3	0x3d762e60	0.06010282
4	0x3d8f7ac8	0.070058405
5	0xbe688384	-0.22706419
6	0xbdbcf284	-0.09225944
7	0x3e5795cc	0.21053237
8	0x3dc773c0	0.097388744
9	0xbc4bb9a0	-0.012434393
10	0xbe1a5808	-0.15072644
11	0xbe1c9f42	-0.15295127
12	0xbe6550fa	-0.22394171
13	0xbda6e48c	-0.081490606
14	0x3dace790	0.084426045
15	0x3e233b2c	0.15940541
16	0x3dec6398	0.115424335
17	0xbe624a28	-0.22098601
18	0xbe19f2e4	-0.15034062
19	0xbd219ab0	-0.039454162
20	0x3e77a438	0.24183738
21	0x3d142118	0.036164373
22	0xbd8497d0	-0.064742684
23	0x3dd3d27c	0.10342881
24	0xbdc302e8	-0.09522039
25	0xbe25b28c	-0.16181391
26	0x3e3ad9e4	0.18247181
27	0xbde8ceac	-0.113675445
28	0xbd4d4728	-0.050116688
29	0xbe7eab7e	-0.24870107
30	0x3e2b5552	0.16731766
31	0x3e41f458	0.18940866
32	0x3dba98f4	0.09111205
33	0xbe328090	-0.17431855
34	0xbe7ca818	-0.24673498
35	0xbe4feaf6	-0.20304474
36	0x3e3ee636	0.18642506
37	0x3df5d06c	0.12002644
38	0x3e576cd6	0.21037611
39	0x3e061c56	0.13096747
40	0x3d81954c	0.06327304
41	0xbb207180	-0.0024481714
42	0xbe42b086	-0.19012651
43	0xbe5b556c	-0.21419305
44	0xbe6f7302	-0.23383716
45	0x3dd197e4	0.10234049
46	0xbdfb6028	-0.122742
47	0xbd4e1528	-0.050313145
48	0xbe135450	-0.14387631
49	0xbd3a98d0	-0.04555589
50	0xbe342e86	-0.17595872
51	0xbe274640	-0.16335392
52	0x3da9d600	0.082927704
53	0xbd982a20	-0.0742991
54	0x3e1e0a34	0.1543358
55	0xbda4410c	-0.08020219
56	0xbe3bcb10	-0.18339181
57	0xbd34ac68	-0.044109732
58	0xbdf830d0	-0.12118685
59	0xbd9ca460	-0.076485395
60	0xbe73b5fc	-0.2379989
61	0x3e0f3acc	0.13987273
62	0xbe323a76	-0.17405114
63	0x3e00ab8e	0.12565443
64	0x3de85668	0.11344606
65	0x3e36e510	0.17860818
66	0xbe445d86	-0.19176301
67	0x3e381d48	0.1797992
68	0xbdf20c80	-0.118187904
69	0x3dbdfcc8	0.0927673
70	0x3e7069d2	0.23477867
71	0xbd106aa8	-0.035257965
72	0xbafd6900	-0.0019333661
73	0xbd6bc190	-0.057557642
74	0xbe55c18c	-0.20874614
75	0x3df5b5d4	0.119975716
76	0xbe7e22c2	-0.24817947
77	0x3e1eecbe	0.15519997
78	0x3e3f8bae	0.18705627
79	0x3e7219d0	0.23642659
80	0xbd718a68	-0.058969885
81	0xbe525720	-0.20541048
82	0x3d6639e8	0.056207567
83	0x3e0d6be0	0.13810682
84	0xbe7ecc8e	-0.24882719
85	0xbd686e68	-0.056745917
86	0xbe1975ea	-0.14986387
87	0xbcb32030	-0.021865934
88	0xbdfc0368	-0.12305337
89	0xbdd149fc	-0.102191895
90	0xbda289f8	-0.07936472
91	0xbe734720	-0.23757601
92	0x3e520cc8	0.20512688
93	0x3e569ce0	0.2095828
94	0xbd20a248	-0.039217263
95	0xbce93b00	-0.028470516
96	0xbdd0f518	-0.10202998
97	0xbe672f20	-0.2257657
98	0xbe791ffe	-0.2432861
99	0x3dbe4a04	0.09291461
100	0xbe0c8e4a	-0.13726154
101	0xbe249396	-0.16071925
102	0xbc9fcaa0	-0.019505799
103	0xbdaa8070	-0.08325279
104	0xbda5a484	-0.080880195
105	0x3c039c00	0.008032799
106	0xbd593400	-0.053028107
107	0xbdb049b8	-0.08607811
108	0xbdf5260c	-0.119701475
109	0xbe5056fe	-0.20345685
110	0x3e56a868	0.2096268
111	0xbdcce554	-0.10004678
112	0x3d87ab64	0.06624487
113	0xbdb1a584	-0.08674148
114	0x3ca66c50	0.02031532
115	0x3e6eab3e	0.23307511
116	0x3debe3d8	0.11518067
117	0xbe5dd97a	-0.21664992
118	0x3dcb36d8	0.0992257
119	0x3e730194	0.23731071
120	0x3d86b2dc	0.065770835
121	0x3e2ba0f4	0.16760617
122	0x3e7c6320	0.24647188
123	0xbd1ce810	-0.03830725
124	0x3d548928	0.051888615
125	0xbe31edd2	-0.17375877
126	0xbd5305e0	-0.051519275
127	0x3e3d96e6	0.18514594
128	0x3e033cc2	0.12816146
129	0xbe21fe76	-0.15819725
130	0xbe4d4856	-0.20047125
131	0xbe2ef0ec	-0.17084092
132	0xbe7ca404	-0.24671942
133	0xbe458a22	-0.19290975
134	0xbd7d3b88	-0.06182435
135	0x3e2cc4c0	0.16871929
136	0x3d2b6640	0.04184556
137	0xbe42b70a	-0.19015136
138	0xbe4d5e8c	-0.20055598
139	0x3dfeb514	0.12436882
140	0xbe3e6c62	-0.18596032
141	0xbcfc2a40	-0.030781865
142	0x3df59c08	0.11992651
143	0xbdecf5b4	-0.11570302
144	0xbcdf5050	-0.027259976
145	0xbcb24460	-0.02176112
146	0xbd7242e8	-0.059145838
147	0xbe01ccdc	-0.12675804
148	0xbe64354e	-0.22285959
149	0xbe4ef07c	-0.20208925
150	0xbe091404	-0.13386542
151	0x3e774124	0.24145943
152	0xbdf74db4	-0.120753676
153	0xbe2be942	-0.167882
154	0x3d783630	0.060598552
155	0x3d8d1ccc	0.06890258
156	0x3e0c43d0	0.13697743
157	0x3e429740	0.1900301
158	0x3e0e8f4e	0.13921854
159	0xbe7dd302	-0.24787524
160	0x3cb5a260	0.022172153
161	0x3e1b12a2	0.15143827
162	0xbcbd4990	-0.023106366
163	0xbe16db00	-0.1473198
164	0x3e740e14	0.23833495
165	0xbdbf8094	-0.09350696
166	0xbe11c090	-0.14233613
167	0xbe66cc50	-0.22538877
168	0x3c36f620	0.011167079
169	0x3de2e258	0.11078328
170	0x3d62acf0	0.055340707
171	0x3d4a7ee8	0.049437433
172	0xbe4225ae	-0.18959686
173	0xbe6f133c	-0.23347181
174	0x3b904180	0.0044023395
175	0x3e696df6	0.22795853
176	0x3e13b11e	0.14423034
177	0xbe150d4e	-0.14555857
178	0xbd04ec88	-0.032452136
179	0xbe3cb810	-0.1842959
180	0xbdf70034	-0.120605856
181	0x3d3971d8	0.045274585
182	0x3e0b66e0	0.13613462
183	0x3e541002	0.20709231
184	0xbe6b0900	-0.22952652
185	0x3e2b2a5e	0.1671538
186	0xbe348e06	-0.17632303
187	0x3dbfba2c	0.09361681
188	0x3e58a388	0.21156132
189	0x3b661200	0.0035105944
190	0x3e68e93e	0.22745225
191	0xbe5a200c	-0.21301287
192	0xbdc39028	-0.0954898
193	0x3e155010	0.14581323
194	0xbd5f18c0	-0.054466963
195	0xbd519cf0	-0.051175058
196	0xbdd565b8	-0.10419792
197	0x3e30765e	0.17232653
198	0x3dfb233c	0.1226258
199	0x3da41208	0.08011252
200	0xbe0fdcda	-0.14049092
201	0xbe4fced2	-0.2029374
202	0x3cdd8350	0.027040154
203	0x3d97b1dc	0.07406971
204	0xbdec6580	-0.11542797
205	0xbd8f41a4	-0.06994942
206	0x3e2ce4e6	0.16884193
207	0x3ca324a0	0.019914925
208	0x3c38ce00	0.011279583
209	0xbd7c01c8	-0.061525136
210	0xbe67d4ba	-0.22639742
211	0xbe70b4b6	-0.23506436
212	0xbdf4be64	-0.11950377
213	0xbe02215a	-0.12708035
214	0x3d9f83f4	0.0778884
215	0xbd950c78	-0.07277769
216	0xbdc84e44	-0.09780553
217	0x3e7413fa	0.23835745
218	0x3db25760	0.08708072
219	0x3e3680c4	0.17822558
220	0xbdf7dda0	-0.121028185
221	0xbdd12290	-0.102116704
222	0x3dbc2e44	0.09188512
223	0xbe2a9102	-0.16656879
224	0xbe275926	-0.16342601
225	0xbc45d5e0	-0.012074918
226	0xbdbb44fc	-0.09144017
227	0xbe3fe996	-0.1874145
228	0x3e17d944	0.14828974
229	0x3e4ddd9e	0.20104071
230	0x3d261de0	0.040555835
231	0xbd324ac0	-0.04352832
232	0xbe6d203a	-0.23156825
233	0xbdba7d80	-0.091059685
234	0x3d82590c	0.063646406
235	0x3df16c80	0.11788273
236	0xbd017398	-0.03160438
237	0xbdca6bb0	-0.09883821
238	0x3e0ea65e	0.13930652
239	0xbe4be0da	-0.19909993
240	0x3e21cbee	0.15800449
241	0xbdc6a204	-0.09698871
242	0x3b7ac380	0.00382635
243	0xbd4a5bd0	-0.049403965
244	0x3cf84c20	0.030309737
245	0xbd9ab9c0	-0.0755496
246	0x3e3a24fe	0.18178174
247	0xbbd4f800	-0.0064992905
248	0x3e47d55e	0.19514987
249	0x3e762396	0.24037012
250	0xbdf97118	-0.12179774
251	0xbe3ac11c	-0.18237728
252	0x3e4d63aa	0.2005755
253	0x3e489aec	0.19590348
254	0xbe4377d6	-0.19088683
255	0xbc9e5130	-0.019325823

encoder.node_encoder.gru_cells.0.weight_hh f4 [48, 16]
0	0xbd605b90	-0.05477482
1	0xbd8cc988	-0.068743765
2	0x3e5d9c00	0.2164154
3	0x3d9e95d0	0.07743418
4	0xbd328e58	-0.04359278
5	0x3d2cfba8	0.042232186
6	0xbd93cbf8	-0.07216638
7	0x3dc92a3c	0.09822509
8	0x3dca8758	0.09889096
9	0x3d897ee0	0.067136526
10	0xbdc790d8	-0.09744424
11	0x3e5a6816	0.21328768
12	0xbd13d5b8	-0.03609249
13	0xbdc75484	-0.09732917
14	0x3e20561e	0.15657851
15	0x3e50a78e	0.20376417
16	0x3e7ec2ca	0.24878994
17	0x3d97af2c	0.07406458
18	0xbdae89a4	-0.085223466
19	0x3e020536	0.126973
20	0x3e5ba2e8	0.21448863
21	0xbe7b17f2	-0.24520853
22	0xbcfdb870	-0.030971736
23	0xbe2e954a	-0.17049137
24	0x3d3ed518	0.04658994
25	0x3dd3c164	0.10339621
26	0xbd538bc8	-0.051646978
27	0xbcab5470	-0.020914286
28	0x3de674ec	0.1125277
29	0xbd2c1a78	-0.04201743
30	0xbe56fbca	-0.20994487
31	0x3e4cd5b6	0.20003399
32	0xbe00d938	-0.12582862
33	0xbce0fd80	-0.027464628
34	0x3cc12e30	0.023581594
35	0xbc762820	-0.015024215
36	0xbe70d0cc	-0.2351715
37	0x3deae7d4	0.11469999
38	0xbde89108	-0.113557875
39	0xbe04c6e0	-0.1296649
40	0x3d74a640	0.05972886
41	0xbe0598c0	-0.13046551
42	0xbdeca030	-0.11553991
43	0xbdac84b4	-0.084237486
44	0xbdc058d0	-0.0939194
45	0xbdd5d494	-0.10440937
46	0xbd8a1444	-0.067421466
47	0x3d850e70	0.06496894
48	0xbe4f28e8	-0.20230448
49	0xbe1af3a6	-0.15132007
50	0x3b6f1100	0.0036478639
51	0x3d0e67e0	0.03476703
52	0x3e0d630a	0.13807312
53	0xbe33d35e	-0.17561099
54	0x3da36dc8	0.079799235
55	0x3e1181fe	0.14209744
56	0x3e0e2588	0.13881505
57	0xbe6e71a4	-0.23285538
58	0xbdc361a0	-0.09540105
59	0xbe5c0c7e	-0.2148914
60	0xbe21ffee	-0.15820286
61	0x3e0e966e	0.13924572
62	0xbd18e718	-0.037329763
63	0x3dd973c4	0.10617784
64	0xbe16460c	-0.14675158
65	0x3d1b9b60	0.037989974
66	0xbe1ad7f8	-0.15121448
67	0x3dfff1d8	0.124973
68	0xbddff024	-0.10934475
69	0xbd806380	-0.06268978
70	0xbe5e1d16	-0.21690783
71	0x3a588000	0.00082588196
72	0x3e731122	0.23737004
73	0x3df8837c	0.12134454
74	0xbe089624	-0.13338524
75	0x3b5c5800	0.0033621788
76	0xbce08f60	-0.027412117
77	0xbe4e1958	-0.20126855
78	0x3e48ba32	0.19602278
79	0x3b840f80	0.004030168
80	0x3d57a6c0	0.05264926
81	0xbdcec2ac	-0.100957245
82	0xbdef9318	-0.11697978
83	0x3d28d8d0	0.041222394
84	0x3dbd4ac0	0.09242773
85	0x3d65ae60	0.0560745
86	0xbdf6c180	-0.12048626
87	0x3e788cc2	0.24272445
88	0xbd16bcc0	-0.0368011
89	0xbe1cc73c	-0.15310377
90	0xbdef7808	-0.11692816
91	0x3e7c0300	0.2461052
92	0x374a0000	1.2040138e-05
93	0xbd0b0088	-0.033936054
94	0xbdd51328	-0.104040444
95	0xbd8637ec	-0.06553635
96	0xbe579c4a	-0.21055713
97	0xbe4b7060	-0.19867086
98	0x3e15d588	0.14632237
99	0x3e5afebc	0.21386236
100	0x3e744d08	0.2385751
101	0xbe38d136	-0.18048558
102	0x3e0a7604	0.13521582
103	0xbe1e7498	-0.15474164
104	0x3e18b82c	0.14914006
105	0x3e38b7c8	0.18038857
106	0x3e461c68	0.19346774
107	0x3e385548	0.18001282
108	0x3e202592	0.15639332
109	0x3b9f7240	0.0048659146
110	0x3deb4148	0.11487061
111	0xbdb72dc0	-0.08944273
112	0x3ddef150	0.108858705
113	0xbda48ecc	-0.08035049
114	0xbb898e00	-0.004197836
115	0xbe5ed126	-0.21759471
116	0xbd85e000	-0.06536865
117	0xbe069f9c	-0.13146824
118	0xbdacb550	-0.0843302
119	0xbe237a68	-0.15964663
120	0xbe6641fa	-0.22486106
121	0x3c855bd0	0.016279131
122	0x3e262380	0.1622448
123	0x3e6926e0	0.22768736
124	0x3e1563ce	0.14588854
125	0xbe04b1c2	-0.12958434
126	0xbe7d2fbe	-0.24725243
127	0x3dc2356c	0.09482846
128	0x3e0f70bc	0.14007849
129	0xbe5bc772	-0.21462801
130	0x3db79898	0.08964652
131	0x3e587132	0.2113693
132	0x3c781f20	0.0151441395
133	0xbe1a3abe	-0.15061471
134	0x3e51e36a	0.20496908
135	0x3ddaa1d4	0.106753975
136	0x3e298604	0.16555029
137	0xbe2d210c	-0.16907138
138	0x3e14fa62	0.14548638
139	0xbe2eddea	-0.17076841
140	0x3e7d4f80	0.24737358
141	0xbdd8ef2c	-0.105924934
142	0x3e1a41d6	0.15064177
143	0x3d4d0c20	0.05006039
144	0x3d87af74	0.06625262
145	0xbd1d0918	-0.03833875
146	0x3dd24be8	0.10268384
147	0xbdd56320	-0.10419297
148	0xbe714ce0	-0.23564482
149	0xbdc4b644	-0.09605077
150	0x3e4895fc	0.19588464
151	0xbd86cb48	-0.065817416
152	0x3da0ee58	0.078579605
153	0xbdbd4cc8	-0.092431605
154	0x3e4009c8	0.18753731
155	0x3e1936a8	0.14962256
156	0x3db4be34	0.08825341
157	0xbe02db7e	-0.12779042
158	0xbe512f6c	-0.20428246
159	0x3c1a3640	0.009412348
160	0xbe162f34	-0.14666444
161	0x3e527b4a	0.20554844
162	0xbe760282	-0.24024394
163	0x3de4cbec	0.111717075
164	0x3e7f35c2	0.2492285
165	0x3e00364a	0.1252071
166	0x3dae94c4	0.085244685
167	0xbe764f3e	-0.24053666
168	0x3e763ea2	0.2404733
169	0xbd2f2718	-0.042761892
170	0xbe6f3564	-0.2336021
171	0x3e7cb6b4	0.2467907
172	0xbdd05938	-0.10173267
173	0xbc90e420	-0.017686903
174	0x3e6a4fc2	0.22881988
175	0xbe31759a	-0.17330018
176	0xbe351e10	-0.17687249
177	0x3d268528	0.04065433
178	0xbd091100	-0.033463478
179	0x3d6bdeb8	0.057585448
180	0xbe56b564	-0.20967633
181	0x3bf4fec0	0.0074766576
182	0xbde3b78c	-0.11118993
183	0xbdfbb428	-0.122902215
184	0xbe6a672e	-0.22890922
185	0x3e07bc64	0.13255459
186	0x3d454280	0.048159122
187	0xbe586ef8	-0.21136081
188	0x3e4b2638	0.19838798
189	0x3d9a6e0c	0.07540521
190	0x3d3e0448	0.0463908
191	0xbe164e92	-0.1467841
192	0x3d1a6c80	0.03770113
193	0x3e76aa92	0.24088505
194	0x3e2f9620	0.17147112
195	0xbe47640a	-0.19471756
196	0x3e69aea6	0.2282053
197	0x3c9ebd70	0.01937744
198	0x3df64110	0.120241284
199	0x3e46d442	0.19416907
200	0x3e5a3e0a	0.21312729
201	0xbe478f98	-0.1948837
202	0x3e602b82	0.21891597
203	0xbe2dde68	-0.16979373
204	0x3c9987d0	0.018741518
205	0xbe32e22c	-0.1746909
206	0xbd607eb0	-0.05480832
207	0xbc3a2220	-0.011360675
208	0xbcf50360	-0.029908836
209	0xbd21c470	-0.039493978
210	0x3ca186e0	0.019717634
211	0x3e7c85f0	0.24660468
212	0x3e14bd2c	0.14525288
213	0x3e0f396c	0.13986748
214	0x3dcced3c	0.10006186
215	0x3e4630bc	0.19354528
216	0xbc3d06c0	-0.011537254
217	0x3ca2d750	0.01987806
218	0x3d52bc78	0.05144927
219	0xbe5f43f2	-0.21803263
220	0xbe4e38fa	-0.20138922
221	0x3cfb1670	0.030650347
222	0xbdc851f4	-0.09781256
223	0xbb965240	-0.0045874417
224	0xbd6af740	-0.057364702
225	0x3d1f6610	0.038915694
226	0x3e268ebe	0.1626539
227	0xbda9ccf8	-0.08291048
228	0x3e4d0534	0.20021516
229	0x3e4a20b8	0.19739044
230	0xbe447ac2	-0.19187453
231	0xbe45b09e	-0.19305655
232	0xbe4f1f88	-0.20226872
233	0xbe0c4b0e	-0.13700506
234	0xbdc74f38	-0.09731907
235	0xbc9a26e0	-0.018817365
236	0xbd790760	-0.06079805
237	0xbe0157f8	-0.12631214
238	0xbda2a8bc	-0.0794234
239	0xbdb93694	-0.09043613
240	0x3e7b2552	0.24525955
241	0xbdbdc310	-0.09265721
242	0xbe374bd6	-0.17900023
243	0x3dd4d650	0.10392439
244	0xbc6c9760	-0.0144403875
245	0x3e43fc00	0.19139099
246	0x3e1ff508	0.15620816
247	0x3e6b31d0	0.2296822
248	0xbe3b7bea	-0.18308988
249	0x3e2492b2	0.16071585
250	0x3e56d85a	0.20980969
251	0xbdfcd77c	-0.12345788
252	0x3e6b4f60	0.22979498
253	0x3e3fe89a	0.18741074
254	0x3b336c80	0.0027377903
255	0x3df6dcb0	0.120538116

encoder.node_encoder.gru_cells.0.bias_ih f4 [48]
0	0x3e5cc764	0.21560436
1	0x3df74cf8	0.120752275
2	0xbd8c05f4	-0.06837073
3	0x3d16bc00	0.036800385
4	0x3d466838	0.048439234
5	0x3d6fdce0	0.058560252
6	0xbdaf3f28	-0.08556968
7	0xbe16c134	-0.14722139
8	0x3e297d04	0.16551596
9	0x3d0998f8	0.033593148
10	0x3dd64c24	0.104637414
11	0xbdc1e8dc	-0.094682425
12	0x3df7ff48	0.12109238
13	0x3e3a4eda	0.18194142
14	0x3e1bb142	0.15204337
15	0x3d8b35ec	0.06797394
16	0x3e7bdfc0	0.24597073
17	0xba0f5400	-0.0005467534
18	0x3d5a01b0	0.053224266
19	0x3e733bb6	0.23753247
20	0x3e78ce3e	0.24297425
21	0xbdd82d3c	-0.10555503
22	0x3e669b0c	0.22520083
23	0x3dbcf570	0.09226501
24	0xbce53f90	-0.02798441
25	0x3e5f8680	0.21828651
26	0xbe049d90	-0.1295073
27	0x3e2655ec	0.16243714
28	0x3e7dae84	0.24773604
29	0xbe309052	-0.17242554
30	0xbe171054	-0.14752322
31	0xbe7dac8c	-0.24772853
32	0xbd384810	-0.0449906
33	0xbe688008	-0.2270509
34	0xbdab7ae4	-0.08373049
35	0x3d9b70d4	0.0758988
36	0x3e34f5f0	0.17671943
37	0x3e0e99dc	0.1392588
38	0x3e0e19c8	0.13877022
39	0x3dd46908	0.103715956
40	0xbe1ec79c	-0.15505832
41	0xbe4b4340	-0.19849873
42	0x3c29cb60	0.01036343
43	0x3e7317dc	0.2373957
44	0x3c66a0e0	0.0140764415
45	0xbcb025f0	-0.021502465
46	0xbe2dc1bc	-0.16968435
47	0xbdfdde84	-0.12395957

encoder.node_encoder.gru_cells.0.bias_hh f4 [48]
0	0xbe455752	-0.19271591
1	0x3e4cf89a	0.20016709
2	0xbd26d708	-0.040732414
3	0xbe622712	-0.22085217
4	0x3cdbb2d0	0.026818663
5	0x3c949ea0	0.018142045
6	0xbcfd0710	-0.030887157
7	0x3db7470c	0.08949098
8	0x3e09abe6	0.1344448
9	0xbe70beb8	-0.23510253
10	0xbe441e96	-0.19152293
11	0xbc44c580	-0.012009978
12	0xbe6d58e6	-0.23178443
13	0xbe688a44	-0.22708994
14	0x3e62066c	0.22072762
15	0xbc9bc510	-0.019014865
16	0xbdfd20bc	-0.12359759
17	0xbdaf9fe8	-0.085754216
18	0xbe47dd6e	-0.19518062
19	0x3e47c60c	0.19509143
20	0xbd5e0b00	-0.05420971
21	0xbe0feed4	-0.1405595
22	0xbe422758	-0.18960321
23	0x3e15a124	0.14612252
24	0xbd0d8c88	-0.03455785
25	0xbcd72840	-0.02626431
26	0xbd8571b8	-0.06515831
27	0xbdf72774	-0.12068072
28	0x3d3628e0	0.044472575
29	0x3e44f576	0.19234261
30	0xbe145f5e	-0.14489505
31	0x3c444020	0.011978179
32	0xbe42b100	-0.19012833
33	0xbdf01348	-0.117224276
34	0x3e60b588	0.21944249
35	0x3b2bc980	0.0026212633
36	0x3e769c14	0.24082977
37	0xbd3368b8	-0.04380104
38	0xbe0b8804	-0.13626105
39	0xbe18f4fe	-0.14937207
40	0x3e62e584	0.22157866
41	0xbe44dc54	-0.19224674
42	0x3e0658ec	0.13119859
43	0x3d7e8c58	0.06214556
44	0x3d97184c	0.07377681
45	0x3e107208	0.14106
46	0xbd85f370	-0.06540573
47	0x3e1e674a	0.15469089

encoder.node_encoder.gru_cells.1.weight_ih f4 [48, 16]
0	0xbe4bf602	-0.19918063
1	0xbdb4248c	-0.08796033
2	0x3e3b6710	0.18301034
3	0x3d97f384	0.07419494
4	0xbd085e60	-0.033293128
5	0xbd6f22a8	-0.05838266
6	0xbe1c513c	-0.15265363
7	0x3e1babe6	0.15202293
8	0xbc0240e0	-0.007950038
9	0xbc0a9560	-0.008458465
10	0x3d722b58	0.059123367
11	0x3e3cea2e	0.18448707
12	0xbe029b60	-0.12754583
13	0xbdb054dc	-0.08609936
14	0x3e2d793a	0.16940776
15	0x3e1094ee	0.14119312
16	0xbdfbdf18	-0.12298411
17	0xbe7d4026	-0.24731502
18	0x3d3df6b0	0.046377838
19	0x3e06a0fe	0.13147351
20	0x3d7496f8	0.059714288
21	0x3e3595a0	0.17732859
22	0xbe4b211e	-0.19836852
23	0x3e0118e4	0.12607151
24	0xbe1f2660	-0.15541983
25	0x3e10141a	0.14070168
26	0x3e3e6410	0.18592858
27	0x3da2289c	0.07917902
28	0x3e4f1f82	0.20226863
29	0xbe28be28	-0.16478789
30	0xbe64f5d0	-0.22359395
31	0xbe762534	-0.2403763
32	0x3e20b990	0.15695786
33	0x3db35bd4	0.08757749
34	0xbe3b75d6	-0.1830667
35	0x3df7f3a8	0.121070206
36	0x3e6993da	0.22810307
37	0xbe7c6ffa	-0.2465209
38	0x3e39b532	0.18135527
39	0x3d1d0dc8	0.03834322
40	0x3cbe81c0	0.023255229
41	0x3e6658d8	0.22494829
42	0x3e67d4c2	0.22639754
43	0x3dd7bb58	0.1053378
44	0x3e4a4648	0.19753373
45	0x3dd50128	0.10400611
46	0x3d26da28	0.040735394
47	0xbe6106de	-0.21975276
48	0x3d3f43f8	0.04669568
49	0xbe362158	-0.17786157
50	0x3d9da0a4	0.076966554
51	0x3d34ab18	0.04410848
52	0x3bb80a00	0.0056164265
53	0xbe2f08b6	-0.17093167
54	0xbe1b2fbe	-0.15154931
55	0x3e3d3820	0.18478441
56	0x3df95a90	0.121754766
57	0x3e06f930	0.13180995
58	0xbd98906c	-0.07449421
59	0xbd305438	-0.043049067
60	0xbd8336d4	-0.06406942
61	0x3e300cac	0.17192334
62	0xbddd0630	-0.10792196
63	0x3e213ed2	0.1574662
64	0x3e3082aa	0.17237344
65	0xbe6a2058	-0.228639
66	0x3ac81a00	0.0015266538
67	0xbd430640	-0.047613382
68	0xbe0d85c4	-0.13820559
69	0x3ddd0a14	0.10792938
70	0xbcf8d260	-0.030373752
71	0x3e60214e	0.21887705
72	0xbe203b3e	-0.15647599
73	0x3dede42c	0.11615786
74	0xbe5a9228	-0.21344817
75	0xbe005010	-0.12530541
76	0x3c8bb340	0.017053246
77	0x3e4a438c	0.1975233
78	0x3e06d712	0.1316798
79	0xbe5232a8	-0.20527136
80	0x3ce2d900	0.027691364
81	0xbe16e8ce	-0.14737245
82	0x3c317a80	0.010832429
83	0xbe55444a	-0.20826831
84	0xbd96350c	-0.07334337
85	0x3e2f94f2	0.17146662
86	0xbe6ae3a6	-0.22938403
87	0xbe741382	-0.23835567
88	0x3d3a8408	0.04553607
89	0x3d0c5fd8	0.03427109
90	0xbd3b4658	-0.045721382
91	0x3e5f8ad4	0.21830302
92	0xbe1a2280	-0.15052223
93	0xbe1b699c	-0.15177006
94	0xbe3f5a98	-0.18686903
95	0xbd3e96e8	-0.046530634
96	0xbd82aa38	-0.06380123
97	0x3e1e6632	0.15468672
98	0xbc65fc80	-0.0140372515
99	0x3da38250	0.079838395
100	0xbdd4c3d8	-0.10388917
101	0x3e4faa4e	0.2027981
102	0x3e57d014	0.2107547
103	0xbe654402	-0.22389224
104	0xbd839574	-0.0642499
105	0xbe593720	-0.21212435
106	0x3dd982e8	0.106206715
107	0xbe5fa9b4	-0.2184208
108	0xbdf21464	-0.118202955
109	0x3e7fc9c4	0.24979311
110	0xbe747596	-0.2387298
111	0x3e3ce0c2	0.18445113
112	0x3cad0360	0.021119773
113	0x3e4cb4dc	0.19990867
114	0xbe01ead2	-0.12687233
115	0x3e2825ea	0.16420713
116	0x3cf71950	0.030163437
117	0x3c9d8440	0.0192281
118	0x3e2eba6e	0.17063305
119	0xbe7355c0	-0.2376318
120	0xbe4e320e	-0.20136282
121	0x3e773c46	0.24144086
122	0xbe19ba24	-0.15012413
123	0xbe3886da	-0.18020192
124	0xbc4845c0	-0.012223661
125	0xbda3e478	-0.08002561
126	0xbd0c1868	-0.034202963
127	0xbe2b842c	-0.16749638
128	0x3db8bd40	0.090204716
129	0xbe5c4886	-0.2151204
130	0x3ca5dfa0	0.020248234
131	0x3e1562d8	0.14588487
132	0x3d44bf50	0.048034012
133	0x3d080f08	0.03321746
134	0x3d15c640	0.03656602
135	0xbd95fd9c	-0.07323763
136	0xbd4311f8	-0.04762456
137	0xbdd7e830	-0.10542333
138	0xbe2cef70	-0.16888213
139	0xbe078a70	-0.13236403
140	0x3e7d124e	0.24714014
141	0xbd2b5f80	-0.041839123
142	0x3db35a00	0.087574005
143	0x3e3109b0	0.17288852
144	0xbc9ffc40	-0.019529462
145	0xbe09b8ac	-0.13449353
146	0xbe2d7332	-0.16938475
147	0xbdbc9f5c	-0.09210083
148	0x3db6c060	0.08923411
149	0xbe5797b4	-0.21053964
150	0xbcfa0de0	-0.030524194
151	0x3dc2c208	0.09509665
152	0x3e50dbe2	0.20396379
153	0x3d9a1390	0.075232625
154	0x3d4a8358	0.049441665
155	0x3e2f4156	0.17114767
156	0x3dec96c8	0.11552197
157	0x3dad3774	0.084578425
158	0xbd9ebe6c	-0.07751164
159	0xbe4d493e	-0.20047471
160	0xbd5d2fa8	-0.054000527
161	0xbd39b770	-0.045340955
162	0x3c966640	0.018359303
163	0xbce13d50	-0.027495056
164	0x3dcefee8	0.10107213
165	0x3e2a1ff4	0.16613752
166	0xbdcf9340	-0.101355076
167	0xbe72e888	-0.23721516
168	0xbe0357e0	-0.1282649
169	0xbdf4fadc	-0.1196191
170	0x3e111c70	0.14171004
171	0xbe252194	-0.1612609
172	0xbcc0a100	-0.02351427
173	0xbd590690	-0.052984774
174	0xbe1b5fea	-0.15173307
175	0x3de814f4	0.113321215
176	0xbdd546c4	-0.10413888
177	0xbc53e520	-0.012933046
178	0xbe33fd5c	-0.17577118
179	0xbcce8f90	-0.02521494
180	0x3d117ef0	0.035521448
181	0xbc26ad80	-0.010173202
182	0xbdbf4ec0	-0.09341192
183	0x3d981b58	0.074270904
184	0xbd84a870	-0.064774394
185	0xbe0ded16	-0.13859972
186	0xbe3cc862	-0.18435815
187	0xbd58e9d8	-0.052957386
188	0xbe71d672	-0.2361696
189	0x3e547c30	0.20750499
190	0xbdf498bc	-0.11943194
191	0xbdd42ea0	-0.103604555
192	0x3cbd50b0	0.023109764
193	0x3d84ba38	0.06480831
194	0xbcc11c60	-0.0235731
195	0x3e2f9f32	0.17150572
196	0xbe153c30	-0.14573741
197	0x3db77db0	0.0895952
198	0xba13ce00	-0.00056383014
199	0xbe503fa4	-0.20336777
200	0xbdc64b84	-0.09682372
201	0x3d824c24	0.06362179
202	0x3d43a078	0.047760457
203	0x3e3a258c	0.18178385
204	0x3e2b4320	0.16724825
205	0xbe0ba0d4	-0.1363557
206	0xbddaa39c	-0.10675737
207	0xbd592160	-0.053010345
208	0xbe376756	-0.17910513
209	0xbd8a3c1c	-0.06749746
210	0xbe517cf4	-0.20457822
211	0x3dc2bc34	0.09508553
212	0x3e35229c	0.17688984
213	0x3ca22740	0.019794106
214	0xbe3743f4	-0.17897016
215	0xbe41def0	-0.189327
216	0xbdc75238	-0.09732479
217	0x3d94eabc	0.072713345
218	0x3bc7d1c0	0.006098002
219	0x3d3a2f88	0.045455486
220	0x3e714674	0.23562032
221	0x3dedcb58	0.1161105
222	0x3d5c2ee0	0.05375564
223	0xbd4f2d78	-0.05058047
224	0x3df23378	0.11826223
225	0x3dbb4f74	0.09146014
226	0xbe666d1a	-0.22502556
227	0xbe1738b4	-0.14767724
228	0x3c097c40	0.00839144
229	0x3dc24644	0.09486058
230	0x3df916e8	0.12162572
231	0xbe18642e	-0.14881966
232	0xbe7dfb34	-0.24802858
233	0xbc555e00	-0.0130229
234	0xbcea1f30	-0.028579324
235	0x3d949278	0.07254499
236	0xbd8ccda4	-0.0687516
237	0x3e43b7c4	0.1911307
238	0x3c88a6b0	0.016681045
239	0x3e3af176	0.18256173
240	0xbe3241a8	-0.17407858
241	0x3dccd184	0.100008994
242	0x3cf40820	0.02978903
243	0xbe0009b8	-0.12503707
244	0x3dfdd2a8	0.12393695
245	0xbe7be8b2	-0.24600485
246	0x3e4ef7b2	0.20211676
247	0x3ca50b60	0.020147026
248	0x3cc5bd60	0.024138153
249	0x3decc5ac	0.115611404
250	0x3caa0260	0.020753086
251	0x3ddb7838	0.10716289
252	0x3e22deee	0.15905353
253	0xbe47cc20	-0.19511461
254	0x3e295c06	0.1653901
255	0xbd195520	-0.037434697

encoder.node_encoder.gru_cells.1.weight_hh f4 [48, 16]
0	0x3d463b38	0.04839632
1	0x3e5a2f94	0.21307212
2	0x3e19c278	0.1501559
3	0x3e372f84	0.1788922
4	0xbd09ec30	-0.03367251
5	0xbe53f0f6	-0.20697388
6	0xbdf2dfe0	-0.11859107
7	0x3dae6c14	0.08516708
8	0x3e339890	0.17538667
9	0xbdc80a68	-0.0976761
10	0x3e53d1bc	0.20685476
11	0x3d132cf8	0.035931557
12	0x3a822800	0.0009930134
13	0x3c1fae20	0.0097461045
14	0xbd34e9a8	-0.044168144
15	0x3e6faa0e	0.23404714
16	0x3c31e8e0	0.010858744
17	0x3e1ccd62	0.15312722
18	0xbe58114a	-0.21100345
19	0xbe03e586	-0.12880525
20	0x3ce64530	0.028109163
21	0x3e4c6a7a	0.19962493
22	0x3df3c1b8	0.11902183
23	0x3d4307d0	0.047614872
24	0xbe7ced04	-0.2469979
25	0x3b9a0180	0.004699886
26	0xbe28fc6c	-0.16502541
27	0xbe5a975a	-0.21346799
28	0x3d0c0678	0.034185857
29	0xbe21f8fa	-0.15817633
30	0x3e685b0a	0.22690979
31	0xbe0b258e	-0.13588545
32	0x3da50054	0.08056703
33	0x3e164332	0.1467407
34	0xbe46f904	-0.1943093
35	0x3e030404	0.127945
36	0xbd091c10	-0.033474028
37	0x3e04a650	0.12954068
38	0x3e77bd76	0.24193367
39	0xbdda325c	-0.106541365
40	0xbdddbfcc	-0.10827598
41	0x3e4b6794	0.1986373
42	0x3ce3bd10	0.027800113
43	0xbccc40b0	-0.02493319
44	0x3e423816	0.18966708
45	0xbdf75ea8	-0.12078601
46	0xbc4a3ea0	-0.0123440325
47	0x3e2fd718	0.17171896
48	0x3dc81860	0.09770274
49	0xbe2595a8	-0.1617037
50	0x3d8513c8	0.064979136
51	0xbe432f0e	-0.19060919
52	0xbe0b06dc	-0.13576835
53	0x3e249c6c	0.16075295
54	0xbd88744c	-0.06662807
55	0xbe02653a	-0.12733927
56	0x3c912ac0	0.01772058
57	0x3d7a3c38	0.061092585
58	0xbe1f2248	-0.15540421
59	0xbe2ca314	-0.16859084
60	0xbe77ed98	-0.24211729
61	0x3d844ad8	0.06459588
62	0xbe252dc2	-0.16130736
63	0x3c9c1320	0.019052088
64	0xbd6506a8	-0.05591455
65	0xbe27635e	-0.163465
66	0xbda360ec	-0.07977471
67	0xbe44c8de	-0.1921725
68	0xbe07825c	-0.13233322
69	0xbbff5ac0	-0.0077928007
70	0xbe5adbb8	-0.21372879
71	0xbe608542	-0.21925834
72	0x3e3fc26e	0.18726513
73	0x3cc0b680	0.023524523
74	0xbde26f18	-0.11056346
75	0xbc082fc0	-0.008312166
76	0x3e3dd736	0.18539128
77	0xbe55926e	-0.2085664
78	0xbe07ba1c	-0.13254589
79	0xbe391fbc	-0.18078512
80	0xbc94e440	-0.018175244
81	0xbc0cf480	-0.008603215
82	0xbe478096	-0.19482645
83	0x3e31af7c	0.17352098
84	0xbe449664	-0.19197994
85	0x3e6f02c0	0.23340893
86	0xbe3038f4	-0.17209226
87	0xbd0c55a8	-0.034261376
88	0x3d3f7980	0.04674673
89	0xbde3928c	-0.11111936
90	0x3e6b6da8	0.2299105
91	0xbe307ec4	-0.17235857
92	0xbc6308e0	-0.013857096
93	0xbe3bf888	-0.18356526
94	0x3d8e205c	0.06939766
95	0x3e5a4326	0.21314678
96	0x3e6d7648	0.23189652
97	0x3cf32030	0.029678434
98	0xbe002a4a	-0.12516132
99	0x3e78cad6	0.24296126
100	0x3c98d7d0	0.018657595
101	0x3e2d3426	0.16914424
102	0xbe04f88a	-0.12985435
103	0xbded9da4	-0.11602333
104	0xbe54839e	-0.20753333
105	0x3e6b8d60	0.23003149
106	0x3d29dd90	0.041471064
107	0xbe37db42	-0.17954734
108	0x3cafe680	0.021472216
109	0xbddb9974	-0.10722628
110	0x3c4c9f20	0.01248911
111	0x3da9f1d0	0.08298075
112	0xbdfe127c	-0.12405869
113	0x3d32aff8	0.043624848
114	0xbe21a23a	-0.15784541
115	0x3d455208	0.048173934
116	0xbe772d64	-0.24138409
117	0x3d232d08	0.039837867
118	0x3e7e5746	0.2483798
119	0x3e6bce0a	0.23027816
120	0x3dbac498	0.091195285
121	0x3e3c5f52	0.18395737
122	0x3e78e5e4	0.24306446
123	0x3d9115c8	0.070842326
124	0x3daac2e4	0.08337954
125	0x3d0527a8	0.032508522
126	0x3e62a4f8	0.22133243
127	0x3e5bea16	0.21476015
128	0xbdf0c5f8	-0.117565095
129	0xbc286280	-0.0102773905
130	0xbe00fbde	-0.1259608
131	0x3db7b89c	0.08970758
132	0xbe780fd8	-0.24224794
133	0x3db52e38	0.08846706
134	0xbd8c8480	-0.0686121
135	0x3db9ad88	0.090663016
136	0x3d9fcc64	0.07802656
137	0xbdfec7e4	-0.1244047
138	0x3e04d0c6	0.12970266
139	0x3dd96bbc	0.10616252
140	0xbe599c46	-0.2125102
141	0x3e7f6cac	0.24943799
142	0x3e5c5a52	0.2151883
143	0x3e1f4756	0.15554556
144	0xbccfdf30	-0.025374979
145	0x3db56534	0.088571936
146	0xbe0a7ffe	-0.13525388
147	0xbdadfa28	-0.08494979
148	0x3df1a490	0.11798966
149	0x3de3ed10	0.111292005
150	0x3dcabe94	0.09899631
151	0xbe742828	-0.23843443
152	0x3e542450	0.20716977
153	0xbdd5db0c	-0.104421705
154	0x3e5d8bea	0.21635404
155	0x3e52ee76	0.20598778
156	0x3dbdc5f0	0.09266269
157	0x3e7f0cdc	0.24907249
158	0x3e13001a	0.14355507
159	0x3e1623ee	0.14662144
160	0xbdaddc68	-0.08489305
161	0x3e6d6fb0	0.23187137
162	0x3d86314c	0.065523714
163	0x3e174102	0.14770892
164	0xbd6788d0	-0.05652696
165	0x3e39668a	0.18105522
166	0x3e631920	0.22177553
167	0xbe44290c	-0.19156283
168	0x3e51deb0	0.20495105
169	0xbe293010	-0.1652224
170	0xbe303fca	-0.17211834
171	0xbe55ef7e	-0.2089214
172	0x3d93f288	0.072239935
173	0xbe403638	-0.18770683
174	0xbdc0bbf0	-0.09410846
175	0xbe00b004	-0.12567145
176	0x3d88d700	0.06681633
177	0xbe7b54b2	-0.24544027
178	0xbdeab8d4	-0.114610344
179	0x3aefb700	0.0018288791
180	0x3cb7ea30	0.022450536
181	0xbde73b50	-0.1129061
182	0x3db76e58	0.08956593
183	0xbe28e5a4	-0.16493851
184	0xbe58cdc4	-0.21172243
185	0xbd1193b0	-0.035541236
186	0xbe0a67ee	-0.13516209
187	0x3e215d84	0.1575833
188	0xbe2efb16	-0.17087969
189	0xbcabef30	-0.020988077
190	0x3dd4a93c	0.103838414
191	0xbe60306e	-0.21893474
192	0x3e462cb8	0.19352996
193	0xbde8a3dc	-0.11359379
194	0xbd8b52d4	-0.068029076
195	0xbe1c9946	-0.15292844
196	0xbdbeca60	-0.09315944
197	0xbdc56c00	-0.0963974
198	0xbe63cef8	-0.22246921
199	0x3daef44c	0.0854269
200	0xba51f200	-0.0008008778
201	0x3e7a6d54	0.24455768
202	0x3e2cb796	0.16866907
203	0x3e5eb400	0.21748352
204	0x3d96a4e0	0.07355666
205	0x3e06847e	0.1313648
206	0x3e6fb6ea	0.2340962
207	0x3e522fa6	0.20525989
208	0xbe44b5ca	-0.19209972
209	0xbd659c40	-0.056057215
210	0xbe76e72c	-0.24111623
211	0x3c1af480	0.009457707
212	0xbdb4d548	-0.08829743
213	0x3e5e2fc8	0.21697915
214	0x3d21e658	0.039526314
215	0x3b345200	0.0027514696
216	0xbe392da0	-0.18083811
217	0xbe48e420	-0.19618273
218	0x3d2133b8	0.039355963
219	0xbdfe6754	-0.12422052
220	0xbdeb2324	-0.11481312
221	0x3e339136	0.17535862
222	0xbe057524	-0.13032967
223	0xbde3e4c8	-0.11127621
224	0x3e448f0a	0.1919519
225	0x3dc809ac	0.0976747
226	0xbe11760c	-0.14205188
227	0x3d9b0ef0	0.075712085
228	0x3e010f26	0.12603435
229	0xbe63611e	-0.22205016
230	0x3d3f4a68	0.04670182
231	0x3d69f408	0.057117492
232	0xbc1f8700	-0.009736776
233	0x3e7573fc	0.23970026
234	0xbe2935b8	-0.16524398
235	0x3e0ac826	0.13552913
236	0xbe07fdce	-0.13280413
237	0xbe5b29c8	-0.21402657
238	0x3e2e7800	0.17037964
239	0xbdf59e28	-0.119930565
240	0x3c408440	0.011750281
241	0x3e06a18a	0.1314756
242	0xbe55ac38	-0.20866477
243	0xbe5b2218	-0.21399724
244	0x3dae50e8	0.085115254
245	0x3e5f3688	0.21798146
246	0xbcd8b600	-0.026453972
247	0x3e3447e0	0.17605543
248	0x3db3eac8	0.08785015
249	0x3d921334	0.07132569
250	0xbe2337ea	-0.15939298
251	0x3e73a3d2	0.23792961
252	0x3dea844c	0.11451015
253	0x3d1e55a0	0.038655877
254	0x3e3511e2	0.17682603
255	0xbe5bf652	-0.21480682

encoder.node_encoder.gru_cells.1.bias_ih f4 [48]
0	0x3dcb5f44	0.0993028
1	0xbe528202	-0.20557407
2	0x3e0ee212	0.13953426
3	0x3ce16180	0.027512312
4	0xbe04307e	-0.12909123
5	0x3e5a4630	0.21315837
6	0x3ddbe3f0	0.10736835
7	0x3db3ecd4	0.08785406
8	0xbdbe2b80	-0.09285641
9	0xbe0c5eba	-0.1370801
10	0xbe09bf44	-0.13451868
11	0x3dc05c34	0.09392586
12	0x3d89ed00	0.06734657
13	0xbe193726	-0.14962444
14	0x3e68f29e	0.22748801
15	0x3e15266a	0.14565435
16	0xbdc37c4c	-0.09545192
17	0x3e0472f8	0.12934482
18	0xbdd90934	-0.105974585
19	0x3da0ae08	0.07845694
20	0x3e5513c4	0.20808321
21	0xbe6270b0	-0.221133
22	0xbdfe91ec	-0.12430176
23	0xbc677d00	-0.014128923
24	0x3d18b460	0.037281394
25	0xbe528718	-0.20559347
26	0xbe286c3e	-0.16447541
27	0xbcc42790	-0.023944646
28	0xbd13a360	-0.03604448
29	0x3d5cdf08	0.053923637
30	0x3d021e18	0.03176698
31	0x3d5210c0	0.051285505
32	0x3c87c4e0	0.01657337
33	0x3ceb6430	0.028734297
34	0xbc6c6a80	-0.014429688
35	0x3db7deec	0.08978066
36	0x3e2eb816	0.1706241
37	0xbdff8384	-0.124762565
38	0xbe049f02	-0.12951282
39	0x3de0b97c	0.10972878
40	0xbe391f4a	-0.18078342
41	0x3e265d18	0.1624645
42	0x3dec8878	0.11549467
43	0x3d141a68	0.036157995
44	0xbdde47b4	-0.1085352
45	0x3bf5a440	0.0074963868
46	0xbe4a6848	-0.19766343
47	0xbe66518a	-0.22492042

encoder.node_encoder.gru_cells.1.bias_hh f4 [48]
0	0x3e71137c	0.23542589
1	0xbe659cf6	-0.22423157
2	0xbe546ac2	-0.2074385
3	0xbdc6e290	-0.09711182
4	0x3c660540	0.014039338
5	0x3d6a87e8	0.057258517
6	0xbdfc4dfc	-0.12319562
7	0xbcc6bc50	-0.024259716
8	0xbd64ab50	-0.05582744
9	0x3e5633a4	0.20918137
10	0x3e5e323c	0.2169885
11	0x3dd26fc8	0.10275227
12	0xbac9fc00	-0.0015410185
13	0x3e3ffba4	0.18748337
14	0xbe4eb0be	-0.2018461
15	0x3dd5ec24	0.10445431
16	0xbe14cd50	-0.14531446
17	0x3e47a502	0.19496539
18	0xbe624d06	-0.22099695
19	0x3dbe3c28	0.09288818
20	0xbe527a9e	-0.20554587
21	0x3e1569f8	0.14591205
22	0x3d3b3cf0	0.04571241
23	0x3e5ba86e	0.2145097
24	0xbe411464	-0.18855435
25	0x3e24c390	0.16090226
26	0xbe2ad854	-0.16684085
27	0xbe0a2f5c	-0.13494629
28	0x3dc2be20	0.0950892
29	0xbd2c5cf0	-0.04208082
30	0xbe4a1ed8	-0.19738328
31	0xbe59d570	-0.21272826
32	0xbd84ed94	-0.06490627
33	0x3d8dc2f4	0.0692195
34	0x3e60dbda	0.21958867
35	0x3e3c46e4	0.18386418
36	0x3b864180	0.0040971637
37	0xbe1d0762	-0.15334848
38	0xbe643ce2	-0.2228885
39	0x3e64b5f6	0.22335038
40	0xbe0ebb40	-0.13938618
41	0xbd3417e8	-0.04396811
42	0xbe4e91fa	-0.20172873
43	0xbe30f334	-0.17280275
44	0x3d46b138	0.048508853
45	0xbd7d2780	-0.06180525
46	0x3cea8640	0.028628469
47	0xbafa9a00	-0.0019119382

encoder.node_encoder.gru_cells.2.weight_ih f4 [48, 16]
0	0x3c50af60	0.012737125
1	0xbd4ae668	-0.04953614
2	0xbc1e6480	-0.009667516
3	0x3dde8ccc	0.108666986
4	0x3e3b0346	0.18262967
5	0x3e5860f6	0.21130738
6	0xbe50dcb6	-0.20396695
7	0xbe586634	-0.21132737
8	0xbd190a78	-0.0373635
9	0xbc9c3c20	-0.019071639
10	0x3e0d4bc8	0.1379844
11	0x3e70fce6	0.23533973
12	0x3d837af8	0.06419939
13	0xbe35d386	-0.17756471
14	0xbce7d010	-0.028297454
15	0x3e258ff8	0.16168201
16	0x3dbce788	0.092238486
17	0xbe350bf4	-0.17680341
18	0x3c6f1340	0.014591992
19	0xbe772f4a	-0.24139133
20	0xbdce50ac	-0.10073981
21	0x3e330c1a	0.17485085
22	0xbdde18e8	-0.10844594
23	0x3e1c4dc8	0.15264046
24	0xbe50d008	-0.20391858
25	0x3e6254aa	0.2210261
26	0x3df43a10	0.11925137
27	0x3e25e3fa	0.16200247
28	0x3d8bd2d8	0.06827325
29	0x3c911810	0.01771167
30	0xbdfc270c	-0.12312135
31	0xbe0d424c	-0.13794822
32	0xbe2fccd8	-0.17167985
33	0x3e5391ea	0.2066113
34	0xbdb1b46c	-0.08676991
35	0x3bc79380	0.0060905814
36	0xbe70aad8	-0.23502672
37	0x3d896a24	0.06709698
38	0xbdae88a8	-0.08522159
39	0xbe4cc18e	-0.1999571
40	0x3cfd7770	0.030940741
41	0xbe6bd4b4	-0.23030359
42	0xbcc9c7c0	-0.024631381
43	0xbe510f80	-0.20416069
44	0x3e21d818	0.1580509
45	0xbe4b4e58	-0.19854105
46	0x3d273ec8	0.040831357
47	0x3dfd83c4	0.12378648
48	0xbe4c8c28	-0.1997534
49	0x3e25b9a8	0.16184103
50	0x3e507d68	0.20360339
51	0xbe1ced5e	-0.15324923
52	0x3cab7e40	0.020934224
53	0x3d9b42b0	0.07581079
54	0x3e54053e	0.20705125
55	0x3e480146	0.19531736
56	0xbe56bc60	-0.20970297
57	0xbe50a83c	-0.20376676
58	0xbe625c20	-0.22105455
59	0xbde3b514	-0.11118522
60	0xbd4eb3b0	-0.050464332
61	0xbdb7b508	-0.08970076
62	0x3e28af28	0.16473067
63	0xbe306d9a	-0.1722931
64	0xbe4c5202	-0.19953158
65	0xbe481e94	-0.19542915
66	0xbe171b18	-0.14756429
67	0x3e7abe32	0.24486616
68	0x3d014fe8	0.031570345
69	0xbd3349e8	-0.043771654
70	0xbd96777c	-0.073470086
71	0xbe44139a	-0.19148102
72	0xbdadb644	-0.0848203
73	0x3e06ddf6	0.13170609
74	0x3e2d04a2	0.16896299
75	0x3e38a5ce	0.18032
76	0x3c91ce20	0.017798483
77	0xbe0b9230	-0.13629985
78	0xbe172248	-0.14759171
79	0x3e78cb66	0.2429634
80	0xbe6710c8	-0.22564995
81	0x3d726d28	0.05918613
82	0xbcc15d70	-0.023604125
83	0x3e6db028	0.2321173
84	0x3e15f452	0.14643982
85	0xbd8159d0	-0.063159585
86	0xbe546b20	-0.2074399
87	0x3d068340	0.032840014
88	0xbe330e82	-0.17486003
89	0xbcd7ff00	-0.02636671
90	0x3d8031dc	0.0625951
91	0x3dfa0620	0.122081995
92	0xbd8a7960	-0.06761432
93	0xbe2ccf00	-0.16875839
94	0xbe5a06fe	-0.2129173
95	0xbe727b8a	-0.23679939
96	0x3d007178	0.031358212
97	0xbe1bcfc8	-0.15215981
98	0x3c148c00	0.009066582
99	0xbdf28fdc	-0.11843845
100	0xbe2d3e1e	-0.16918227
101	0x3e2c9e72	0.16857317
102	0x3e10dffe	0.14147946
103	0x3e33bf76	0.17553505
104	0x3e7591ce	0.23981401
105	0xbe3939d8	-0.18088472
106	0xbe0845ca	-0.13307872
107	0xbe40ba6c	-0.18821114
108	0x3e2be5ec	0.16786927
109	0x3e16d642	0.1473017
110	0x3e4f860e	0.20265982
111	0xbe33208c	-0.17492884
112	0xbe094a56	-0.13407263
113	0x3e79918e	0.24371931
114	0xbe4b48a0	-0.19851923
115	0xbe2a7f64	-0.16650158
116	0x3dbc7e40	0.09203768
117	0xbe5fc88a	-0.21853843
118	0xbd90c2a8	-0.07068378
119	0x3dd98d5c	0.10622665
120	0x3e51b958	0.2048086
121	0xbce862e0	-0.02836746
122	0xbe628b78	-0.22123516
123	0x3e10eb3e	0.14152238
124	0x3e7f3756	0.24923453
125	0xbe3e0c80	-0.18559456
126	0xbc34f540	-0.0110448
127	0xbe392f38	-0.18084419
128	0xbe02b7f2	-0.12765482
129	0x3dac4d30	0.0841316
130	0x3def331c	0.1167967
131	0x3dd3b7e0	0.10337806
132	0xbe711f54	-0.23547107
133	0xbd783eb0	-0.06060666
134	0x3dda3600	0.10654831
135	0xbcbe1940	-0.0232054
136	0xbd9e4938	-0.07728809
137	0xbe043cd2	-0.12913826
138	0x3e72bbc4	0.2370444
139	0xbe4cead2	-0.20011452
140	0xbe49a7e0	-0.19692945
141	0x3e3a8d08	0.18217862
142	0xbe1b7eda	-0.15185109
143	0x3e1ab228	0.15107024
144	0xbe0d1e32	-0.1378105
145	0xbd0a8638	-0.033819407
146	0xbdf76188	-0.120791495
147	0x3e5382da	0.20655385
148	0x3e3179c6	0.17331609
149	0x3c44d140	0.01201278
150	0x3bc46cc0	0.0059944093
151	0xbdc139c8	-0.09434849
152	0xbe08d65c	-0.13363022
153	0xbdc1a9e8	-0.09456235
154	0x3da7a7c8	0.081862986
155	0xbd382f28	-0.044966847
156	0x3e2dc464	0.16969448
157	0x3d136f50	0.035994828
158	0x3b34dc80	0.0027597249
159	0xbe1f15f8	-0.15535724
160	0x3dce8c10	0.100853086
161	0xbe6ccd46	-0.2312518
162	0x3d6f3fa8	0.058410317
163	0x3db7b57c	0.08970162
164	0x3d395038	0.04524252
165	0x3e342a7e	0.17594334
166	0x3d75c448	0.06000164
167	0xbd8d676c	-0.06904492
168	0xbe332324	-0.17493874
169	0xbe6d9842	-0.23202613
170	0x3e0132de	0.1261706
171	0x3e0b59b6	0.13608441
172	0xbe434560	-0.19069433
173	0x3d891378	0.066931665
174	0xbdbc45e4	-0.09193018
175	0x3e579dfe	0.21056363
176	0xbdb07a64	-0.08617094
177	0x3e53e730	0.2069366
178	0x3e351290	0.17682862
179	0x3e0d9782	0.13827327
180	0x3e2ef39c	0.17085117
181	0x3d9faec4	0.07797006
182	0x3dad8f08	0.08474547
183	0xbe59a3a0	-0.21253824
184	0xbd69c6e8	-0.057074457
185	0xbce82830	-0.028339475
186	0x3df86d0c	0.12130174
187	0xbdc666cc	-0.09687576
188	0x3dea99a0	0.11455083
189	0x3e2dd150	0.16974378
190	0x3ddcc360	0.10779452
191	0x3e03c2f2	0.12867334
192	0xbd087c50	-0.03332168
193	0x3df542f4	0.11975661
194	0xbdaf9408	-0.085731566
195	0x3e5dc2e2	0.21656373
196	0xbbd23dc0	-0.0064160526
197	0xbc6eed80	-0.014582992
198	0xbe6162ba	-0.22010317
199	0x3e6cc516	0.23122057
200	0xbd0f4530	-0.03497809
201	0x3e3eabce	0.18620226
202	0xbe2779fe	-0.1635513
203	0xbe562d16	-0.20915636
204	0xbd23e7a0	-0.040015817
205	0xbe4cb298	-0.19990003
206	0x3d44c4f8	0.048039407
207	0x3b5caf00	0.0033673644
208	0xbdbbc1c4	-0.09167817
209	0x3e204a3e	0.15653321
210	0x3e25da3e	0.16196534
211	0xbe62090a	-0.2207376
212	0xbe4d163e	-0.20028016
213	0x3e15c414	0.14625579
214	0xbe1b7bee	-0.15183994
215	0x3d459870	0.04824108
216	0xbd885bc0	-0.06658125
217	0x3d371d38	0.0447056
218	0xbe0d44de	-0.13795802
219	0x3a516c00	0.00079888105
220	0xbdb540e0	-0.088502645
221	0xbde6a5a0	-0.11262059
222	0xbdfbb864	-0.12291029
223	0x3d64b9d0	0.055841267
224	0x3e25a69a	0.16176835
225	0xbbc9e140	-0.006160885
226	0xbb200380	-0.0024416149
227	0x3e5337b0	0.20626712
228	0x3e4e5ce2	0.2015262
229	0xbd14a758	-0.036292404
230	0xbe51a01a	-0.2047123
231	0x3d704ce8	0.058667094
232	0x3d98df4c	0.074644655
233	0xbe4a9258	-0.19782388
234	0xbe65a6aa	-0.22426859
235	0x3cd6d1f0	0.026223153
236	0x3e79fb64	0.24412304
237	0xbe64faa6	-0.2236124
238	0xbdfade40	-0.12249422
239	0xbdb09224	-0.08621624
240	0xbe6220d8	-0.22082841
241	0xbe1da03c	-0.15393156
242	0x3e48f0f2	0.19623163
243	0x3e43cc3e	0.19120881
244	0xbe3c5646	-0.18392286
245	0x3baf9d80	0.0053593516
246	0xbe507fb4	-0.20361215
247	0x3dd4a7c0	0.10383558
248	0xbe2ed9ea	-0.17075315
249	0xbe027630	-0.12740397
250	0xbded5148	-0.11587769
251	0x3d16f088	0.036850482
252	0x3e2b1128	0.16705763
253	0xbdd649d0	-0.10463297
254	0x3d3cdfe8	0.04611197
255	0x3e4bd528	0.19905531
