checkpoint/model389.pt (torch, 97959 bytes, 40 tensors)

encoder.node_encoder.mlp_prep.0.weight f4 [32, 5]
00000000: ece0 b33e dc4b c43e 8ffb 15be 2d82 df3e
00000010: e1b9 a4bd 6521 dd3d fe21 82be dbd7 423e
00000020: 6bca c63e d640 acbe 32e1 c53e 7def ae3d
00000030: cd99 d03e 8a07 703d 60b1 893e 095e 9cbd
00000040: f4e4 b73e f410 0c3e 6983 4dbe 73ca 293e
00000050: a52c 5cbe 0d6b babd c9df 6bbe dba1 8f3e
00000060: 8172 d4be f8e6 33be beb1 31be a3df 8fbe
00000070: 1fd4 583d 4fa1 fbbe d8bb c83e 096d a6be
00000080: 3783 d43e 551f b53d 6dad 01be 9597 8e3e
00000090: 0be4 b83c 8714 db3e bed0 993d 1ea3 b0bd
000000a0: 0438 2f3e 8450 10be dbf0 963e dff4 dc3e
000000b0: d52b ae3e 71c5 6abe 0278 773e 9935 0c3e
000000c0: d592 533e 6d93 7ebe 2336 dfbe 2fea 39be
000000d0: 410c 97be 30d0 b53e 78bc 2f3e ff52 413e
000000e0: 627a 313e 6e06 90bd 7e5a b53e 55f9 94be
000000f0: 948a 533d 49af 99be 6093 633e c793 dbbd
00000100: f039 683e 645f e1bd 3fe2 b43e e4dd a8be
00000110: dc28 a5be bf5e abbe 8e77 b13e 56e1 f33d
00000120: 2a34 ca3e 0732 b6be aaf6 06bf 3644 b7be
00000130: 7c65 98be 35d2 843e 4d8c 343e bfa7 d73e
00000140: 8a89 5ebe c993 96be 3622 a43e 8704 1fbe
00000150: 50cc af3e 577d 21be 83a8 863e 631a a3be
00000160: 25e7 6abe afbc 353e 66ee c13d 6923 e5bd
00000170: 24b0 503e c1f6 993e 7ae2 abbe bb43 5fbe
00000180: 9715 d53e 6201 4fbe ea61 17be 9a0f fabe
00000190: d930 a0be 1c9b 9b3d 8286 15be c871 c5be
000001a0: 17fb bbbd d6f4 90be cf6f dabe ba65 85be
000001b0: ccd4 c5be c731 a1be e474 e13e 3d42 8c3d
000001c0: aae7 be3d 88f1 dabe e566 b2be 3ed4 00be
000001d0: 777f 563d 0e1f c7be 8a89 3ebe 75c5 6abe
000001e0: 72f7 c93c ad15 55be 1ddb 73bd ee93 a4be
000001f0: d159 bebe 00e5 49be 58b2 33be 7b2e b6be
00000200: 87c5 d73e 8bc0 70bb 3b32 ce3e c53a 243e
00000210: 788f e1be 79c7 a73e 823e 04be 54ec 2fbe
00000220: 5e55 ccbe 01fb 00bf ccb4 013e eb84 bfbd
00000230: ffdf 303e 31b7 bbbe 5c5e 8e3e 6365 bdbe
00000240: f5a3 10be 0fd5 983d 45a5 863e ebf3 963e
00000250: 39ab cc3e 7f32 c5be 6615 b03d 6ca9 f2bd
00000260: f76a 29bc a04c c6be 36cd dc3e 7c09 9ebe
00000270: 60a2 803e 4bd7 d33d fe95 2d3e 60ca 7ebe
0.3513254 0.38339126 -0.14646743 0.43654004 -0.08043266 0.10797385 -0.2541656 0.19027655
0.38826308 -0.33643216 0.38648373 0.085417725 0.4074234 0.05860094 0.2689314 -0.07635123
0.35916865 0.13678342 -0.2006966 0.16581134 -0.21501406 -0.091024496 -0.23034586 0.28053173
-0.4149361 -0.17568576 -0.1735296 -0.2810031 0.05293667 -0.49146506 0.39205813 -0.32505062
0.4150636 0.08843867 -0.12663813 0.27850023 0.022569677 0.427891 0.075105175 -0.08624862
0.17111212 -0.14093214 0.29480633 0.43155572 0.34017816 -0.2292688 0.24166873 0.13692321
0.2066148 -0.24860926 -0.4359599 -0.1815574 -0.29501536 0.35510397 0.17161739 0.18879317
0.17331842 -0.07032476 0.35420603 -0.29096475 0.05164583 -0.30016544 0.22224188 -0.10721546
0.22678351 -0.110045224 0.35328862 -0.3298179 -0.32257736 -0.33470723 0.34661525 0.11908214
0.39492923 -0.35585043 -0.5272013 -0.35794228 -0.29764926 0.25941625 0.17631646 0.42120168
-0.21732154 -0.29409626 0.3205735 -0.15529071 0.34335566 -0.1577047 0.2630044 -0.3185607
-0.22939737 0.17747758 0.09469299 -0.111883946 0.20379692 0.3007107 -0.33571225 -0.21803181
0.41618034 -0.20215371 -0.14783445 -0.48840028 -0.31287268 0.07597944 -0.14602092 -0.3856337
-0.09178751 -0.28311795 -0.42663428 -0.26054174 -0.38638914 -0.3148329 0.44034493 0.068485714
0.0932153 -0.427624 -0.34844127 -0.12580964 0.052367654 -0.3889088 -0.18607154 -0.22926886
0.024654124 -0.2080905 -0.059535135 -0.3214411 -0.371779 -0.19716263 -0.17548501 -0.35582337
0.4214289 -0.0036735858 0.40272698 0.16038044 -0.4405477 0.32769373 -0.1291447 -0.17179996
-0.3990888 -0.50383 0.12666625 -0.09351524 0.17272948 -0.366632 0.27806365 -0.36991414
-0.14125045 0.07462513 0.26297966 0.2948297 0.39974383 -0.38515088 0.085978314 -0.11848721
-0.010340444 -0.38730335 0.43125314 -0.3086661 0.25123882 0.10343798 0.16951749 -0.24881887

encoder.node_encoder.mlp_prep.0.bias f4 [32]
00000000: f3d5 e43c f0e3 0b3d a565 56bc c089 623c
00000010: 53de c73c d8d9 343d 8387 17bd 7715 d43c
00000020: 4ca3 943d 30a8 ecbb 11c3 e9bc 8b5b 603c
00000030: 42c4 a43c 918d 4cba 075b d5bd 064c aabb
00000040: b1b1 0c3b 6365 0bbd 258b a23c 8613 103d
00000050: 9f38 93bd de50 763d 1cf6 5d3c 2c5f 153d
00000060: 66b1 1f3d d733 c43d a26c a23c c5b1 ff3c
00000070: 9e05 c63b 98a2 34bc 6496 aabd a44d 8f3c
0.02793405 0.034152925 -0.013085757 0.0138267875 0.024398005 0.044153064 -0.03699447 0.025889141
0.07257709 -0.007222198 -0.028535398 0.013693701 0.020113114 -0.00078030775 -0.10417753 -0.005197051
0.0021468217 -0.034032237 0.01984174 0.03517487 -0.07188534 0.060135715 0.013547447 0.036467716
0.03898754 0.095802 0.01982719 0.031212697 0.00604315 -0.0110250935 -0.08329466 0.017493077

encoder.node_encoder.mlp_prep.2.weight f4 [16, 32]
00000000: 580f 0f3e 9424 293e 1641 5bbd 9052 54bd
00000010: 484d 353d 54f0 523d 7024 623d f452 863b
00000020: 8ced 1cbe e80f 8abd 826b 3b3e dc7e 9f3d
00000030: 2d6a 8cbb 9d6a d1bd 5e45 0bbe c23b 20be
00000040: b535 8fbd 51a4 7f3d a667 ec3d 7278 b43d
00000050: 9503 2ebe e2e1 7dbd 993a 34bd 2043 403e
00000060: 8480 793d 6e60 4ebb 7d66 033e 60f8 a8bc
00000070: a96e efbd bfdd e03d 35f6 edbd 240c 4dbd
00000080: d59a 38be 72ef 093e 1eda 5a3e 501b c63d
00000090: ae01 19be f4eb 79be 379d eabd e3ce 2c3e
000000a0: 6f18 133e 6082 073e d490 f23d 4e06 b03c
000000b0: a0cd 3b3d 780d 44be 45fb 33be e4e6 d2bd
000000c0: 60a5 0c3e 5100 83bd 2675 84bc ccba 1abe
000000d0: b982 87bd 5eab 47be ff0e 22be d6d0 9bbc
000000e0: a580 06be 17cc cd3d ec7c fcbd 1821 17be
000000f0: e3da 9abc bc9a a4bd 418d 953b 8742 32be
00000100: 3224 e73d 4438 18be 4ec9 903d 900f a33d
00000110: 1b22 153e 8960 d5bd 2a38 ff3d 3513 d4bd
00000120: 84ca 553d 6c0a 383e bb1b fbbb 5892 bc3b
00000130: d9b6 3abd 040e e6bd 7f1a aa3d ccfc 47be
00000140: 144f b03d fb03 053e 1151 073e 9db9 a9bb
00000150: b6e5 07be 36bf 8c3d cf6a c03d 29fe 1dbe
00000160: 7331 6bbc e33d 90bd a1b0 b83c 3390 76bd
00000170: 24d2 80bd b110 71bd 3acb 58be 014b 183e
00000180: 317d 413e a760 5dbd 9c1e ddbc 83a6 47bd
00000190: 1e0f 11be 27bb 18be ef46 873c a6f1 dcbd
000001a0: 8dd5 f4bd 96df 653c b6ac 20bd 553f e6bc
000001b0: 9b47 0ebd 6e3e 1e3d b908 adbd 749e f7bd
000001c0: e288 44be fe48 3a3e 8b1f cebd e3d7 ce3d
000001d0: 9439 8bbd 7f7d a33c 5e3a 153e 4b54 d93d
000001e0: bc21 1cbe 252a fb3d 2a8e 6b3e 76aa 653d
000001f0: 2bee b63d 5497 413e aa67 a6bd 06fb 5a3d
00000200: 8255 d2bd ac36 23bd fe67 dc3d 2760 9e3d
00000210: 75c1 b2bd 28a2 cbbd 5bb8 fbbd 29f9 3abe
00000220: b0b3 1fbe 4bab 01bd 6358 f13d 9a0a 733d
00000230: ffc3 1abe 9523 a5bd 88a0 c73d ce26 2cbe
00000240: 946d 87bd 5d5c 7b3d ae55 c2bd d999 c13c
00000250: b7ac 8fbc 0811 12bc b626 6bbd 057e febd
00000260: 7051 dabd 9acb 58bd f222 753e 4156 4fbd
00000270: 146f cebd 321c 493d ef4f 1c3b 1dad c93d
00000280: 7872 323e bda0 b63d c6f7 3fbe 830f 073d
00000290: 8eba 063e 775c 6a3a 3878 ffbd 91cc 0d3e
000002a0: fe24 84bd 6a13 99bd ef6f edbd bcce f83c
000002b0: 649d 813d a6b1 c93d b397 333b 874c 17be
000002c0: a054 44be 81fd 443d 1d94 0c3e 32ca 1a3e
000002d0: e8d7 dabd 30fc 16bc 77c1 16be 44b0 72bd
000002e0: d7aa 1f3d 819e 153e 829e 563e e5e2 0bbe
000002f0: 2416 c33d 827c f3bd d069 4f3d 65d4 283e
00000300: f234 e03c c74d 0e3e 8ab3 45be bbae 78bd
00000310: 2958 e83d 5e68 07bc 137d 79bd c1ea e3bd
00000320: 58ad b53d 3d4a c93d 4ace 3e3d 0083 afbd
00000330: 5698 2dbe f464 813d 2d5e 963d a560 edbd
00000340: 3330 adbd a929 123e c2d0 34bc 2554 393d
00000350: 51c4 8cbc 4e6b 02be 92f4 01be cc3c 03bd
00000360: 6ca9 4ebd 709f 5d3d 3bac b53a a6db 8bbd
00000370: bca2 223e 4552 683d d46b 003e 1141 a8bd
00000380: ea66 99bd c5eb f13d bee2 19be a0d2 42be
00000390: 2fdb 353d f882 3b3d 15ac 97bd 66fc da3d
000003a0: 273c 323e d874 3ebc 0856 963c cb54 10be
000003b0: 7d00 d3bb 692e c639 edd6 253d c2a1 3a3c
000003c0: a0a5 e0bc d6ac bf3c b826 c6bd c799 8b3d
000003d0: 8615 f4bd 7e44 143e 5ed9 46bd f3a3 643c
000003e0: 32dd aa3d 495b 4d3e 8a0b 4c3d cbf5 6f3e
000003f0: d123 803e 34d5 c5bd bb1f b2bd 3243 b93d
0.13970697 0.1651786 -0.053528868 -0.05183655 0.044263154 0.051498726 0.05521053 0.0040992443
-0.15324992 -0.06741315 0.1830273 0.077878684 -0.004285118 -0.10225413 -0.1360068 -0.15647796
-0.06992666 0.062412564 0.11543207 0.088120356 -0.16993554 -0.061982997 -0.044001196 0.18775606
0.060913578 -0.0031490582 0.12832065 -0.020626247 -0.116910286 0.10979795 -0.11619226 -0.050060406
-0.18027814 0.13470247 0.21372268 0.09673178 -0.14942047 -0.24406415 -0.114557676 0.16875796
0.1436479 0.13233328 0.1184403 0.021487381 0.045850396 -0.19145763 -0.1757632 -0.10297945
0.1373496 -0.06396545 -0.016169142 -0.1511032 -0.0661673 -0.19498965 -0.15826033 -0.01902048
-0.13135011 0.10048693 -0.123285145 -0.14758718 -0.018903201 -0.08037326 0.004563958 -0.1740819
0.112862006 -0.14865214 0.07069646 0.07961953 0.14563791 -0.10418803 0.12461884 -0.10355226
0.052195087 0.17972726 -0.007663218 0.00575475 -0.045584533 -0.11233142 0.08305835 -0.19530028
0.08608833 0.129898 0.13214518 -0.0051795975 -0.13271222 0.06872408 0.09395372 -0.15428986
-0.014355051 -0.07043054 0.02254516 -0.060196113 -0.06290081 -0.05885381 -0.21171275 0.14872362
0.18895413 -0.054047253 -0.026992135 -0.048742782 -0.14165923 -0.14915143 0.016513316 -0.10788278
-0.11954794 0.014030358 -0.03922721 -0.028106371 -0.034736257 0.038633756 -0.08448929 -0.120907694
-0.19192842 0.18191907 -0.1006461 0.10099771 -0.067980915 0.019957302 0.14573047 0.10611781
-0.15247244 0.12263898 0.2300345 0.056070767 0.08932146 0.18905383 -0.08125241 0.05346205
-0.102702156 -0.03984706 0.107620224 0.07733183 -0.08728305 -0.09943038 -0.122910224 -0.1825911
-0.15595889 -0.0316575 0.117844366 0.059336282 -0.15113829 -0.08063427 0.09747416 -0.16811678
-0.06612697 0.06136738 -0.09488998 0.02363293 -0.017538412 -0.008915193 -0.057409965 -0.1242638
-0.10660064 -0.052928545 0.23939112 -0.050619368 -0.1007978 0.049099155 0.0023851355 0.09847472
0.17426479 0.08917377 -0.18746862 0.032973778 0.13157102 0.000894017 -0.12474102 0.13847567
-0.06452368 -0.07474406 -0.11593615 0.030372016 0.06328848 0.09848337 0.0027403652 -0.14775287
-0.19172907 0.048093323 0.13728376 0.15116194 -0.10685712 -0.0092154 -0.14722238 -0.05925013
0.038981285 0.14611246 0.20958903 -0.13660772 0.09525707 -0.11888982 0.05063802 0.16487272
0.027368996 0.13896857 -0.1930677 -0.06071351 0.1134494 -0.008264629 -0.060910296 -0.1112876
0.08870953 0.09828613 0.04658345 -0.08569908 -0.16952643 0.063180834 0.07342181 -0.11590699
-0.08456459 0.14273705 -0.0110361 0.045246262 -0.017183455 -0.12736246 -0.12690952 -0.032040402
-0.050454542 0.05410713 0.0013860533 -0.06829004 0.1588239 0.056719083 0.12541133 -0.082155354
-0.074903324 0.118125476 -0.15027902 -0.1902566 0.044398483 0.0457792 -0.07405869 0.106926724
0.17405759 -0.011624537 0.01835157 -0.14094846 -0.006439267 0.0003780008 0.040488172 0.011391105
-0.027422726 0.023397844 -0.09675354 0.0681644 -0.11918168 0.14479253 -0.04854714 0.013955104
0.08342971 0.20054354 0.049815692 0.23433606 0.25027326 -0.09659806 -0.08697458 0.090460196

encoder.node_encoder.mlp_prep.2.bias f4 [16]
00000000: 9b55 ab3c d994 e53c 2f61 5a3c 9bef 1e3d
00000010: 4fcd 8d3c 8766 153d e6ce 91bb 2b20 9e3d
00000020: afc8 51bd f304 03bc d57d 4d3d de93 a23b
00000030: 2453 343c 9123 fe3c b7c2 553b eacf af3d
0.020914843 0.028025078 0.013328834 0.038802724 0.017309813 0.03647473 -0.004449713 0.07720979
-0.051216777 -0.007996785 0.05016883 0.004961475 0.01100615 0.031022819 0.003261728 0.08584578

encoder.node_encoder.mlp_prep.4.weight f4 [16, 16]
00000000: 3f1c 57bd ec0b e13d de7a c73d c64d 6c3e
00000010: 3d58 bcbd a28f cb3d 4dba 9c3d 8d98 24be
00000020: b550 73be a963 10be 6836 3a3e c751 8cbe
00000030: 923a 8cbe 1e38 0d3e ec55 143e 1e0c 923e
00000040: 8d7e 27be e18e 74be 02f4 fd3d 0164 783e
00000050: 6448 f83d d8d3 613d 03c0 9b3d 69c2 ad3e
00000060: c6da 1bbe fb6a 20be 2a12 403e 01c3 72be
00000070: 18b8 2abe 0c3a 5c3e 56c5 4b3d 93e5 353e
00000080: a9af 97bd b4bf 8fbd 4428 723e 780d e1bd
00000090: f41d d7bb 32bd 163e bb1c 35be 077d a23e
000000a0: 8850 d2bd eeda e9bd e93b 8dbd 2533 6ebe
000000b0: 99b6 96be 76a9 2d3e 1721 df3c 070e 11be
000000c0: 1f18 48be cc6e a73e a41e b33d f207 503d
000000d0: d769 1abe 0650 18be 70d5 bbbc c27c e5bd
000000e0: 69bb 5cbe e66b ab3d b424 3b3d 388d 463d
000000f0: 9d57 c83d c317 e0bd ff05 ed3d 3cce b03c
00000100: a813 dcbd 770d 96be 33a5 163e 7950 d13d
00000110: 4670 16be d293 873e 8e33 e1bd bb72 863e
00000120: f5f3 113e 727f 7cbe a0ba 323e b01c 91be
00000130: 62ba 28be 96d2 80bc 0187 43be 6dca ae3e
00000140: 3bfc 26bd e488 903d fe47 79be 6469 013e
00000150: fdf6 94bd 0a5c 44be 35aa 463d 4b10 af3d
00000160: bf3f 723e 0031 43be 2524 32be d806 773c
00000170: a39e 993d 78b1 c33d 0189 983d cbda e8bd
00000180: d308 e43d 9008 843e 620b 93bd 6325 0d3e
00000190: 14f6 0f3e ba95 453e d0f0 0cbe 6020 51be
000001a0: d7dc e2bd a809 963d f062 223e 599e 8cbd
000001b0: 6b70 323e cd10 dfbd 0f2a 4b3e e7c8 c6bd
000001c0: 6b87 3abe 02c3 71be 6aeb 21be 1290 403e
000001d0: a31f 0ebe 9b9e 0f3d 7fdd 483d 2bbf ebbd
000001e0: f37c 1f3e 0518 a3be 3919 7abe 4f92 9bbe
000001f0: 3f52 29be c13f d0bd ef03 f6bc 3855 87bc
00000200: 8f8a bb3d 3b81 ad3e 7d08 b13d 73d5 19be
00000210: 588a 83be b6e5 4c3d f769 f5bd e8ac cc3d
00000220: 70a2 ca3d 8eff 373e 715c 943e 1f26 ac3e
00000230: 358c 213e 5a5c 29be a0d5 973e 269b 1fbe
00000240: 4292 16be b0aa 8a3e 84f0 3e3e 0786 cc3c
00000250: 30a6 fc39 fc69 81be 936e e1bc 837b 473e
00000260: 9957 033d 5c45 723d 518c 15bd 9617 b6bc
00000270: fdcf 603e a7aa bc3c 5309 403e 9337 cbbd
00000280: 1873 0a3e d2c8 f53c 8c03 7f3d b85d 593e
00000290: 95c4 2c3e 903e 8a3e 8c1a 3a3e ab6d 5ebc
000002a0: 6f18 30be 2290 6fbc 4999 d7bc 2da5 0ebe
000002b0: 2b96 e6bd 537e ba3c 9409 0e3e 7689 1d3e
000002c0: 93dd 89bd beef 3abe ba01 6fbd b3fa 68bd
000002d0: acd6 763e 08aa 273e 9b2d 573e 4f99 ae3c
000002e0: 5e9d d03d f86f ee3c 7240 8dbe 9e1d 2bbd
000002f0: 15ad c0bd 4fc9 1bbe d913 77be 9872 813e
00000300: 633a 6c3e 365a 7f3d 7c98 833e 0615 64bd
00000310: ef8e 67bd 6c58 043e 6b6a 1dbd d7d8 393d
00000320: 6dc7 38be 4425 bb3c 0bee 0ebe a7cb 5abd
00000330: 33d6 5c3e 0e4b 48bd a6e6 e0bd ee6c 783e
00000340: 2ffd bcbd 01c5 683c 5a82 803e d8fe dfbd
00000350: 5899 fbbd ec1e 0fbe 7cd1 71bd 5f58 86be
00000360: d5cd eebd f810 003e 93b0 563a d2ed 71bc
00000370: ae57 36be a156 f2bd 5403 c0bd 690c 52be
00000380: 96c8 7cbe 2aa4 ed3d 24b0 3fbe 23ba 61be
00000390: 21a9 35be 0a1f b63d 3d3d 19be b558 42be
000003a0: 3a20 2a3e c5e6 423e 8114 123e 242d 2bbe
000003b0: bc46 1abe 4eef 02be c3e9 803e 9712 6cbd
000003c0: 078e 63be f2ba aa3d e7df 4fbe 3a27 cabd
000003d0: f5c0 8dbd 3198 3b3e 4e01 a83d 92cd 02be
000003e0: 7e6b 173c 6c60 c5bb a691 d93d 36d7 3f3e
000003f0: c29a ef3d adf3 00be 7c41 893e 01a4 01be
-0.052517172 0.10988602 0.09740232 0.23076543 -0.091965176 0.09939505 0.076527216 -0.16073819
-0.23761256 -0.14100517 0.18184817 -0.2740614 -0.27388436 0.13790938 0.14485902 0.2852487
-0.16356869 -0.23882629 0.124000564 0.24256898 0.121231824 0.05513367 0.07604983 0.33937386
-0.15220174 -0.1566581 0.18756929 -0.237072 -0.16671789 0.21506518 0.04974874 0.17763357
-0.074065514 -0.07018986 0.23648173 -0.10988897 -0.00656485 0.1472061 -0.17686741 0.31736013
-0.10269266 -0.11418711 -0.068961926 -0.23261698 -0.29436186 0.16959175 0.027237458 -0.14165507
-0.19540451 0.3270172 0.087460786 0.050788827 -0.15079437 -0.14874277 -0.022928923 -0.11205436
-0.21555866 0.08370189 0.0456893 0.04847452 0.09782336 -0.10942032 0.11573409 0.021582715
-0.10745937 -0.29307148 0.14711456 0.10220427 -0.14691266 0.26479965 -0.109961614 0.26259407
0.14253218 -0.24657992 0.17454004 -0.283422 -0.1647735 -0.015725415 -0.19094469 0.34138814
-0.04076789 0.0705736 -0.24343869 0.1263786 -0.07273672 -0.19175735 0.048502166 0.085480295
0.2365713 -0.19061661 -0.173966 0.015077315 0.07500961 0.09555334 0.074480064 -0.113698564
0.111344956 0.25787783 -0.071799055 0.13783793 0.14058715 0.19295397 -0.13763738 -0.20422506
-0.11077278 0.073260605 0.15858054 -0.0686614 0.17425697 -0.10891876 0.19840263 -0.09706288
-0.1821572 -0.23609546 -0.1581246 0.18804958 -0.13879256 0.035063367 0.04903936 -0.11511072
0.15575008 -0.31854263 -0.24423684 -0.30385062 -0.1653528 -0.1016841 -0.030031173 -0.016520128
0.09157287 0.33887658 0.08644197 -0.1502283 -0.25691485 0.050023757 -0.11983102 0.09993917
0.09894264 0.1796858 0.28976777 0.33622834 0.15776141 -0.16539136 0.2965517 -0.15586528
-0.1470423 0.2708335 0.18646437 0.024966253 0.00048189005 -0.25276172 -0.027518546 0.1948071
0.03206596 0.059148178 -0.03651077 -0.022228044 0.21954341 0.023030592 0.18753557 -0.09922709
0.13520467 0.030002985 0.062259242 0.21227157 0.16871865 0.27000856 0.1817419 -0.013575952
-0.1719682 -0.014621766 -0.02631821 -0.13930197 -0.11259111 0.022765314 0.13870841 0.15384468
-0.06731715 -0.18255517 -0.058351256 -0.05687971 0.24105328 0.16373456 0.21013491 0.021313338
0.101862654 0.029106125 -0.2758823 -0.041776292 -0.09408013 -0.15213512 -0.24128665 0.2528274
0.23069148 0.06234189 0.25702274 -0.055684112 -0.056532796 0.12924355 -0.038431566 0.04537281
-0.18044825 0.022844918 -0.13957994 -0.053416874 0.21566086 -0.048899703 -0.10981493 0.24260303
-0.092279784 0.014207126 0.2509945 -0.109372795 -0.122851074 -0.1397664 -0.05903767 -0.26239297
-0.11660353 0.12506473 0.0008189764 -0.014766173 -0.17806885 -0.118329294 -0.09375635 -0.20512547
-0.24685892 0.116035774 -0.18719536 -0.22043662 -0.17740299 0.08892639 -0.14964767 -0.18979152
0.16613856 0.19033344 0.14265634 -0.16716439 -0.15066046 -0.127866 0.25178346 -0.057634916
-0.22222148 0.08336438 -0.20300256 -0.09870763 -0.06921569 0.18319775 0.08203374 -0.12773731
0.009241937 -0.0060234573 0.10623483 0.1873444 0.116994396 -0.12592955 0.26807773 -0.12660219

encoder.node_encoder.mlp_prep.4.bias f4 [16]
00000000: c20c 5f3d 1da2 0e3d ad63 fc3c f370 ddba
00000010: 7ce2 3b3d 347c 76bd d74e b0bc 963d 16bd
00000020: da89 933c ad3b b5bc 78e7 b53c 2a96 71bc
00000030: c69c fc3c db00 84bd 3f28 9bbc 9aef a4bc
0.054455526 0.034822572 0.030809248 -0.0016894623 0.04587029 -0.060177043 -0.021521969 -0.036679827
0.018010069 -0.022123182 0.0222051 -0.014745275 0.030836474 -0.06445476 -0.01894009 -0.020133782

encoder.node_encoder.mlp_msg.0.weight f4 [32, 16]
00000000: 9a49 56bd bf99 83be ab58 283e d54f b9bd
00000010: cc98 a8bd bc3c 543d 7ae1 8ebb 0ba4 82be
00000020: 82e8 1d3e 7260 80bd 6499 08be cd22 043d
00000030: aeb2 0cbe 560c 03be c675 74bd 7d55 2dbd
00000040: f2ef 92bd 47d2 e6bc 96fc 973d bd4c 52be
00000050: 8bd2 01be 17e8 a6bb 810e 193d 920f fc3d
00000060: 26ae 22be e43b d03d 5317 1d3e 72d1 033e
00000070: 7f8f 6cbe d435 0cbe 99b3 51be 6071 1bbe
00000080: 59d6 293e 9d2b 7d3c 0c16 be3d 34b3 0dbe
00000090: 03bf ad3d 13ec 2bbe bd1a 0b3e ffb7 edbd
000000a0: 4c7c 76bd 31eb 59be 0b9d 603c 284c 643e
000000b0: ef36 053e 0811 18be daa2 c13c 35af b9bc
000000c0: ad1d 4fbe bcc6 173e ee1d f6bc cec7 c63d
000000d0: 04b7 2abe 52cd cabd 91f1 963d 7cd8 593d
000000e0: a3cb e83d 9a4c 81bd 9bf1 843e daa8 9ebd
000000f0: 3acc 21be bc12 02be 702f 8a3e 4314 723d
00000100: d052 a4bd 1f43 1cbe c502 9cbd 664c 4abe
00000110: 4d76 6abe 7dbd 2b3e 5eb4 5c3e d3e3 713e
00000120: a181 40be 0403 f73d 4e83 40be f13d 1b3e
00000130: ded5 1d3e 0ab9 763e f9ce 423e f383 2c3e
00000140: 3899 91bc 2afa ce3d 6c69 97bd 55ec 9e3d
00000150: 6098 91bd aa0b d5bb f065 6ebe 91d4 2ebd
00000160: 4685 3bbe d684 0bbe c86b 3bbe ddf9 49be
00000170: 097a 973c 743f 6c3e 62db 4d3e 395b ed3d
00000180: 4dde 38be 937f 98be f815 a23d ee1e 123e
00000190: 3c6a 70be 90da e63d 96df 5c3e 9b0f 4e3c
000001a0: 5a66 2bbe 38e0 333e ffe7 ad3d 65aa 2e3e
000001b0: eebb 3fbe b478 5d3e 3b58 2bbe 731f 7b3e
000001c0: e4be e9bd fd39 1d3e 091e b63d 038a d83c
000001d0: 6b4e cebc d3e8 b93d 8bfc 11be 349a 4ebe
000001e0: 12b6 05be f30b 1a3e f155 64bd a37c fb3d
000001f0: cfb3 7fbd a3c3 723e 872f c23d 57aa 523d
00000200: a9d0 2ebe bbab 81be 93c1 4cbc 0aeb 08be
00000210: c785 2a3e 500b 5ebe 8539 053e 1c23 6f3e
00000220: a9e5 fc3d f3e1 aa3d 9567 86be 45b7 6b3e
00000230: 19da 5ebd 00fb 36be 627b 833e a0c5 aebd
00000240: a8c1 5fbd b836 4a3e e147 21be 2f95 50be
00000250: 1156 2d3d 9527 99bc 0f0b 323d 8469 38be
00000260: 2eab 05bd 22e1 22be f83f 16be 4ddc 4abe
00000270: 1c43 003e 367c bc3d e45e 61be ac74 393e
00000280: 470c de3d 54d9 ca3d 7038 0fbe d46f 013d
00000290: 23de 913e b404 1b3e 51b2 4bbe 2c60 743e
000002a0: 0700 bd3c 148b 033e b85d 543e b78b 583e
000002b0: 5b10 32be b412 403e d1c6 2dbe e180 603c
000002c0: 28fd 19be 571f bdbc 9d0b 163c b782 2abd
000002d0: f999 a3bc a009 753a a870 703e c234 163e
000002e0: 54c1 083e 8b78 ab3d ce7a 4f3e bb44 1bbc
000002f0: 62d0 093d a1d2 7e3d 44f2 70be c848 67be
00000300: 3882 773d d342 debd e22d 66bc 6929 41bd
00000310: daf2 ea3b 6401 1f3e f7e8 bcbd 37a4 433e
00000320: d1cd 6a3e b16c 28be 9c24 0ebe e1d9 5bbe
00000330: 879a e3bd 857f f3bd 4939 29bd 953e 10bd
00000340: c2f4 2abe 3106 fcbd b729 abbd 1f59 723e
00000350: e1db e1bd 7397 21be aa54 b13d b860 ff3a
00000360: 87b4 303e 1a59 f63d 96c0 553e aae4 21be
00000370: 3e90 1d3e 0046 843e c567 15be c91b 5c3e
00000380: cc4b 203e 700d fa3b 262d 2b3e 5d2e 1bbe
00000390: 27ea 3ebe 84ed a03d 865d 8e3c e277 ddbd
000003a0: 828b 5d3d fbbd 92be 157d 433e c55c 983e
000003b0: 29fb 6d3d 3b46 d6bd eef8 9a3d 2242 46bc
000003c0: cf75 cd3c f3c3 263d bbf9 3e3e 0280 d4bd
000003d0: 26e1 a5bd 92ef bc3d 8fc2 4eba 7015 633e
000003e0: fbf0 1ebe d33b d7bc 780c 393c 828d 49bd
000003f0: 6ac1 173e b155 a13d 1893 66be 7be8 f3bc
-0.052316286 -0.25703236 0.16440074 -0.0904843 -0.08232269 0.051815733 -0.004360375 -0.2551578
0.15420726 -0.062683955 -0.13339764 0.03225975 -0.13740036 -0.12797675 -0.05968263 -0.042317856
-0.07174672 -0.02817644 0.07421224 -0.20537086 -0.12677972 -0.0050935852 0.037367348 0.12307657
-0.15886745 0.10167673 0.15340929 0.12872866 -0.23101614 -0.13692409 -0.20478667 -0.15179968
0.16585673 0.015452293 0.09281549 -0.13837892 0.08483698 -0.16789274 0.13584419 -0.1160736
-0.060177132 -0.21281125 0.013709317 0.22294676 0.13009237 -0.14850247 0.023637224 -0.022666553
-0.20226164 0.14821905 -0.030043568 0.097060785 -0.16671377 -0.09902443 0.07370294 0.05318497
0.113669656 -0.06313439 0.2596558 -0.0774705 -0.15800563 -0.12702459 0.26989317 0.059101354
-0.08023608 -0.1525998 -0.07617716 -0.19755706 -0.2289669 0.16771503 0.2155318 0.23622064
-0.1879945 0.12061122 -0.18800089 0.15160348 0.15413615 0.24094024 0.19024266 0.1684721
-0.017773256 0.10106309 -0.073931545 0.077599205 -0.07109141 -0.0065016346 -0.23281074 -0.042683188
-0.18312559 -0.13624892 -0.18302834 -0.19724222 0.018490808 0.2307108 0.20103219 0.11589665
-0.18053551 -0.2978483 0.079143465 0.14269611 -0.23478025 0.11272156 0.21569666 0.012576963
-0.16738263 0.17566001 0.08491515 0.17057188 -0.18724033 0.21628076 -0.16732876 0.24523716
-0.114133626 0.15354152 0.088924475 0.026432997 -0.025183877 0.09077611 -0.14256494 -0.20176011
-0.13057736 0.15043621 -0.055746023 0.12279632 -0.06242734 0.23707442 0.09481721 0.05143198
-0.17071785 -0.25326332 -0.012497324 -0.1337091 0.16652595 -0.21684003 0.13010223 0.23353237
0.12348492 0.08343878 -0.26250902 0.2301913 -0.054407213 -0.17869186 0.2568007 -0.08533788
-0.054628044 0.19747436 -0.15750076 -0.20369409 0.042318407 -0.018695632 0.043467578 -0.18009001
-0.032633953 -0.15906194 -0.1467284 -0.198106 0.125256 0.09203379 -0.22008854 0.18110913
0.108421855 0.09904733 -0.13986373 0.03160079 0.2848979 0.15138513 -0.19892241 0.23864812
0.023071302 0.12846023 0.20738876 0.21147047 -0.17389052 0.18757135 -0.16970374 0.013702602
-0.15037978 -0.023086233 0.009158042 -0.041628566 -0.01997088 0.00093474425 0.23480475 0.14668563
0.13354999 0.08372601 0.2026169 -0.009476836 0.033645995 0.06221259 -0.23529917 -0.22586358
0.06042692 -0.108525895 -0.014049025 -0.047158632 0.0071700634 0.15527874 -0.09224122 0.19105612
0.22930075 -0.16447712 -0.13881153 -0.21469833 -0.11113458 -0.11889557 -0.041314397 -0.035215933
-0.1669493 -0.123058684 -0.08357566 0.2366681 -0.11028267 -0.1578043 0.086587265 0.001948378
0.17256366 0.120287135 0.20874247 -0.15809885 0.15387055 0.25834656 -0.14590366 0.21494974
0.15653914 0.0076309964 0.16716442 -0.15154405 -0.1864401 0.078578025 0.01737858 -0.108138815
0.054088123 -0.2866057 0.19090684 0.29758278 0.058100853 -0.10462614 0.07567011 -0.012100728
0.02508059 0.040714215 0.18649952 -0.10375978 -0.08099584 0.09225382 -0.0007887268 0.22176147
-0.15521614 -0.026273644 0.011294477 -0.049207218 0.14819875 0.078776725 -0.2251705 -0.029773941

encoder.node_encoder.mlp_msg.0.bias f4 [32]
00000000: 1ad8 8d3b a793 c73c 7f39 9e3c 76df 713c
00000010: 3da9 2fbc 0515 a1bc 958f cd3a 16f2 16bd
00000020: 3abb 24bb 8846 ffbc 77a2 463c 11f0 193b
00000030: 9452 58bc baf0 acbc be3b 4dbd 7868 c6bc
00000040: 2755 4f3c ce32 573c 6d7a 98bc 2a9c 9f3c
00000050: 31db 84bc b196 93bb e322 98bc 2c19 e3bb
00000060: 8775 953c 0e1f 72bb 4041 883c 4608 853c
00000070: ea6f 4f3c 05f4 89bc 400e f33b f268 36bd
0.00432874 0.024362398 0.019314526 0.01476275 -0.010721502 -0.019663343 0.001568305 -0.036851965
-0.002513601 -0.031161562 0.012123696 0.0023489038 -0.013203282 -0.021110881 -0.050105803 -0.024219736
0.012654579 0.013134671 -0.018613065 0.019483645 -0.0162178 -0.004504048 -0.018571323 -0.006930491
0.018244518 -0.003694478 0.016632676 0.016239297 0.01266096 -0.01683999 0.00741747 -0.044533677

encoder.node_encoder.mlp_msg.2.weight f4 [16, 32]
00000000: eab2 88bb 644f 3abd 1c5e abbd 7fda 6dbd
00000010: 073c 82bd c1e1 213e 360d 443d 24c1 2b3e
00000020: 8097 883d 8c5f 013d a984 c33d 9632 dc3c
00000030: f6d0 15be 02eb 0ebe ec97 4cbd e180 da3b
00000040: ae98 8b3d 4db0 7a3d 71cd ec3d eb51 903c
00000050: e0fe 1ebd 254a 02be 96fc 22be a29a 02be
00000060: 57f0 503d 38c8 c83d e9e2 333e 3e35 a9bd
00000070: a73e b8bc bc9d 5ebd 8ac4 38bc 014e 6e3d
00000080: 9c55 cb3b 58d4 8a39 005f 0b3d e232 0f3e
00000090: bd65 94bd e537 d5bd cbed 983d eafa 9b3c
000000a0: 7732 b5bd b23b a53d 8399 ee3b a06a e6bc
000000b0: 263b 30bd 753e c23c 0b3f 17be 09bc 153d
000000c0: 7418 5bbc 8ac5 0f3e 0d3c 833d cab4 883d
000000d0: 799d 633d 21c6 063e 252f 0ebd ede1 233e
000000e0: 2656 953d efb9 03be fb2b 643d ed9a eebd
000000f0: d861 ffbd e41f 9abd 0fc1 73bd 9402 0e3e
00000100: d3b7 44be 7c9a 003e 9213 3cbe c023 67bd
00000110: c10f 173d 04a4 d93d d1c4 afbd cf88 063d
00000120: 76d8 2e3d bb81 4e3d 745f 5e3d f941 9e3d
00000130: 97f3 c9bd 7085 17be 8a0b 1a3e 48da b9bd
00000140: 437a de3b 8e88 90bd 436b 153e 2793 6cbd
00000150: 61d0 acbd 6454 e0bc 19ac 8b3d ee24 013d
00000160: 3e83 b93d f717 3ebd 3a72 cd3d b5f8 2bbe
00000170: 7440 c43d 6c65 ea3d ab16 9b3d cb3e b8bd
00000180: 795b 81bd 86db 543d ed61 d3bd 95ed f4bd
00000190: 0a11 4bbe 553e 6fbc 9f94 993d 6970 873c
000001a0: 4205 723c 2143 843d 4da6 babd 08a6 a53c
000001b0: 42a5 4ebd b9be c7bd b121 0b3e a3ab febd
000001c0: 147c a03c 0c72 f1bd 6d4b 65bc 291a b2bd
000001d0: cb96 8b3d d171 a9bd 3d2f c53d f31d 11be
000001e0: 0582 063e 7099 e5bd 4c34 d33d 3dee fdbd
000001f0: 3c60 93bc 2d64 09bd 1a65 ff3d 70f6 863d
00000200: e623 26be 6f07 0abc 9b09 f9bd 07f4 133e
00000210: b4ec c43c d895 40bd 07a4 c9bd 989c 863d
00000220: 6c1b a8bd 74d6 c13d 5e17 a43d a353 c63d
00000230: b99a 383d 4709 20be 0cc9 cf3d db89 92bd
00000240: d6d2 90bd dd39 1e3c ae95 043e 0f9a 0b3e
00000250: 32a6 843c 4c07 913d 9b4c 2dbe cf2f 213c
00000260: edbd 0bbe 4189 613d bdb4 13be 7b4d d1bd
00000270: e893 f33d 5bae 203e 204c b5bd 9f17 e6bd
00000280: 9450 ec3c 487d 9e3d 4d6b 4abd 6cf5 82bd
00000290: 2784 79bd 58f3 ed3d e4a0 4f3e b65d 4cbd
000002a0: 752c f13d c24e 5d3d f6cc 0c3e a681 75bc
000002b0: 7177 253c 2977 e83d 5548 003e ffe6 313e
000002c0: 647b 15bd cb84 623c 955e f93d 2bc3 d7bd
000002d0: fb8f 243d c2a1 34bd e0ba ec3d 6418 c2bd
000002e0: 2689 1dbd eda8 af3d 4b31 12be 89f0 0abe
000002f0: 8752 1fbd d59d ee3d 54d5 e23d 3acb f9bd
00000300: 04df 423d ba74 b3bd 1555 b0bd 2245 1a3e
00000310: daee d53d d1e5 efbc 2833 4c3d 7fb2 493d
00000320: dc23 ce3c 9482 87bd 367f e8bd 3f0d 223e
00000330: 589d cd3c 98ea b73d d511 c5bc d129 b83d
00000340: 3cc7 0c3e ba94 913d 4da1 803d 1e44 403e
00000350: 625d e038 45d6 c43c e3c1 423e 950c 2e3e
00000360: 179b c3bd 4684 113e 7f31 953d a88e f83c
00000370: 8183 363e bc54 77bd 852b e33d 66c6 373e
00000380: a004 07be 732a cbbd 7a54 46be a234 bdbd
00000390: c39b 06be d0c7 50bd 7a86 333d 10f3 db3d
000003a0: f16a ef3d 458e ac3d 8b42 7f3d 3c9f e5bd
000003b0: c8c4 24be 4223 0bbd d76f 213e 9db5 443c
000003c0: 5b4f f03a acc9 27be a7d2 04be edcd 2bbe
000003d0: 431b 0d3e 134d 0cbd c5d9 42be 21fb fdbc
000003e0: 1c0a debc 3354 dcbb 756c 803d a4d4 e63d
000003f0: fb64 d9bd f53a 1bbe c696 74bd 1568 2dbe
-0.004171719 -0.04548587 -0.08367559 -0.058069702 -0.063591056 0.15808775 0.04786416 0.16772896
0.06669521 0.03158526 0.09546787 0.02687959 -0.14630494 -0.13956836 -0.04994957 0.0066681956
0.06816231 0.06120329 0.11562622 0.017617187 -0.038817286 -0.12723596 -0.15916666 -0.127543
0.051010456 0.09803814 0.17567028 -0.08262108 -0.022490812 -0.054349646 -0.011277327 0.05817986
0.006205274 0.0002647962 0.034026146 0.13984254 -0.072459675 -0.10411052 0.074672304 0.019040544
-0.08847516 0.080680266 0.0072814836 -0.028127015 -0.04302516 0.023711422 -0.14770143 0.036556277
-0.013372529 0.14040199 0.06407938 0.06675108 0.0555701 0.13161518 -0.03471293 0.16004153
0.07291822 -0.12863897 0.055706006 -0.116506435 -0.12469834 -0.07525614 -0.059510287 0.13868171
-0.19210748 0.12558931 -0.1836684 -0.05643058 0.03688026 0.106269866 -0.085824616 0.032845315
0.042686902 0.05041669 0.05429025 0.07727427 -0.09860914 -0.14796996 0.15043464 -0.09074837
0.006789477 -0.07057296 0.14591698 -0.057757523 -0.084381826 -0.02738399 0.068199344 0.03152936
0.090582356 -0.046409573 0.100315526 -0.16794093 0.09582606 0.11445126 0.07572683 -0.08996352
-0.06316275 0.051967166 -0.10321412 -0.11959378 -0.19830719 -0.014602263 0.0749905 0.016533094
0.014771761 0.06458116 -0.091137506 0.020220771 -0.05045057 -0.09753174 0.13587071 -0.12435081
0.019590415 -0.11789331 -0.013995034 -0.08696396 0.06815871 -0.08273662 0.096281506 -0.14171581
0.13135536 -0.112109065 0.10312709 -0.12398956 -0.017990224 -0.0335428 0.124704555 0.06589973
-0.16224632 -0.008424624 -0.12160035 0.14448558 0.02403865 -0.047017902 -0.09845739 0.06572837
-0.08208355 0.09464732 0.080122694 0.09683921 0.04506943 -0.15628539 0.101457685 -0.071552
-0.07071464 0.00965735 0.12947723 0.13632987 0.01619253 0.0708147 -0.16923754 0.009838059
-0.1364667 0.055062536 -0.14424415 -0.10219856 0.11893445 0.15691511 -0.0885241 -0.11234974
0.028847016 0.07738739 -0.049418736 -0.06394467 -0.060917046 0.1161868 0.20276219 -0.049894057
0.11776058 0.054030187 0.13750061 -0.014984524 0.010099278 0.11350853 0.12527592 0.17373274
-0.036494628 0.013825606 0.12176243 -0.10535272 0.040176373 -0.044099577 0.11559081 -0.094773084
-0.038460873 0.08577142 -0.14276616 -0.1356832 -0.038897064 0.11651198 0.11075845 -0.121969655
0.047575966 -0.08762498 -0.08609978 0.15065435 0.10445948 -0.02928439 0.049853474 0.049242493
0.025163583 -0.06616703 -0.113523886 0.15825365 0.025099441 0.08980292 -0.024056355 0.08992351
0.13747877 0.071084455 0.06280766 0.18775985 0.00010698546 0.024027953 0.19019274 0.16996987
-0.095510654 0.14210615 0.07284831 0.030341461 0.17823602 -0.060383543 0.11092285 0.17946777
-0.13185358 -0.09920206 -0.19368163 -0.092385545 -0.13145356 -0.050971806 0.04382942 0.1073972
0.11690319 0.08425573 0.06231932 -0.11212012 -0.16090691 -0.03396917 0.1576532 0.012006191
0.0018334197 -0.16385525 -0.12970982 -0.16777773 0.13779931 -0.03425319 -0.19028385 -0.031003537
-0.02710443 -0.0067239045 0.062706865 0.11271027 -0.106149636 -0.15159209 -0.0597141 -0.16934235

encoder.node_encoder.mlp_msg.2.bias f4 [16]
00000000: 2d9f b83b 5406 cd3c 6aa3 53bd 5dab 2d3c
00000010: 1ded 743c 86f5 aebc d372 acbb 459e 03bd
00000020: 545a 58bc ba32 f2ba 57e9 cebb 18c9 393d
00000030: 0954 f3bb e7ca 54bb 6a90 90ba c587 85bc
0.0056342096 0.025027432 -0.051669516 0.010599938 0.01494911 -0.02135731 -0.0052627116 -0.03213336
-0.01320513 -0.0018478252 -0.0063144374 0.045357794 -0.0074257893 -0.0032469572 -0.0011029367 -0.016300092

encoder.node_encoder.mlp_msg.4.weight f4 [16, 16]
00000000: fe39 4a3e 448c 1bbd 53df 3c3e 13e3 2cbe
00000010: 5e5b 0c3e 51af b9bb 1158 1dbe a1ec 213e
00000020: 8a94 75be adab 2c3e a885 8c3c adf4 94bc
00000030: 650c d83d 3a99 903c 678a b03d f5e7 083e
00000040: 83f2 35be d7ae 0b3e ec51 c83b 43d5 0abd
00000050: 6bdb 293d d559 593e 9eb9 e7bd b998 44be
00000060: f091 1b3e d736 d3bd a7cb f43d 8d60 88bd
00000070: c3a3 d43d 0140 703e 5a70 debd a9ed bcbd
00000080: 23b4 2b3e 5795 833d e578 66bc faf7 3fbe
00000090: 82ff 333e 73de ed3c 733a a1ba 9f18 18be
000000a0: 87c2 2dbd 5217 1f3e b45a ea3c 3240 803e
000000b0: 26ee 003d b9be 6a3c c4a3 2e3e e6d1 2a3d
000000c0: c9cf b7bd 22b6 4f3d f8d8 343e a432 113d
000000d0: 3772 403e 8a78 283e 50d7 883d a749 c43d
000000e0: 0109 be3d 60c5 f03b 4011 533e 8b9a 4d3e
000000f0: 5fac a03d d252 d6bc 199c 683e d30d 52be
00000100: 2929 3f3e 059b a93d 0aac 353e b03f 82bc
00000110: 3edf 24be 6eb1 2b3e d568 e0bd fe17 8f3d
00000120: 7cf0 1b3e 7996 7bbe e6b5 0b3d 2988 0dbe
00000130: e737 423e affe 07be 0790 1d3e 1ca4 1d3e
00000140: 057c bf3d 206d 703e d5b4 983d efac 8cbe
00000150: 9a34 2d3e 908e 763d 84cd 1c3d 78a0 81be
00000160: 9eb7 15bd 40aa e3bd 1f9b 863e d1c0 243e
00000170: 6898 533e 41ef 423e a95c f0bd bfde b2bd
00000180: 3d69 f1bd c8d8 77bd 538c 2a3e a526 923d
00000190: 27c6 4f3e 13e1 9ebc 44ee 71be f6b5 72bd
000001a0: 76d0 353e e9db 0f3e c1ad 413d e581 14bd
000001b0: 2ba0 84be ac98 30be d416 f83d 624d f7bd
000001c0: 91fe eb3d 7e83 003e 3442 fdbd 1d21 0b3e
000001d0: 664f c4bd b3fa 10bc 76d8 d3bd d39b 6cbe
000001e0: 8f09 233d 18e1 933d 5c17 19be b813 533e
000001f0: c799 78be 5507 8abe 3c9c 23be c5d8 c6bd
00000200: dbb3 783c e4e6 80bd c66f bc3d 41a5 3dbe
00000210: e2c8 a53d 6dfc 5dbd 28d0 603c 33aa 933e
00000220: b062 003e 2eb8 29be 7657 7bbe 9055 80bd
00000230: 069b 2ebe e94c 3a3d c0c0 63bd a7f7 1f3e
00000240: 5a04 123e 1620 943b 1c83 d5bb 8696 a43d
00000250: f5f3 0ebd 435f 383e d705 5cbe b22b 083e
00000260: 0952 36be 1c9d 5fbe 34d3 a0bd b0d9 3c3e
00000270: cc1e 1e3e 5831 133d ea3b 1ebd ca08 f5bc
00000280: 8a76 8cbd e09c f7bb 4015 13bd ed4e 5e3e
00000290: 1100 2a3e 8254 74be fb9f 15bd 91bc fabd
000002a0: 8e24 30bd 4991 5fbe d139 dc3c 078d 1abe
000002b0: 4850 553e 6e24 183e 1dac 53be b73a 89be
000002c0: b585 6d3b 8ee0 8cbd b778 933d eacf 52be
000002d0: e86d e03d a402 51be 8287 ffbd f2de fdbd
000002e0: 41c0 023e 7088 38bc dd65 72be eae4 12be
000002f0: 8923 e6bd c363 6ebe 905a 403d 8cc5 b63d
00000300: 27e7 34bd 6d7b 10be 42ab 903c 89f4 3abe
00000310: ae4a 11be d57a 81bb 1b40 6e3e c2cc b6bd
00000320: 44c1 f13d 643f bfbd 0d1b 41bd 3a07 8dbe
00000330: 259f 653e 6d19 8a3e cec6 6c39 0de6 2c3e
00000340: 6689 3a3e 4a41 103e d749 2b3e 88be 80be
00000350: 148a 89be 5553 0cbe ab16 043e b793 83be
00000360: a7bd 37be c544 b6bd 2dfa 48be d9d6 323c
00000370: 2ce2 903d 702a dfbd 86e5 593e 0084 60bd
00000380: 9d8d a8bd 00d9 573e faa0 4d3e 2db0 67bd
00000390: 20fd 38be a605 03be 919c a33c 7931 293e
000003a0: db92 063e 42fc fdbd aa69 83be f117 45be
000003b0: b7bc cabd 7525 c6bc 277e f0bd 493a 58be
000003c0: 3839 553b 0f0c 89be 0a1c 4ebe 8cd0 74be
000003d0: 034f 98bc ea9c 343e 460a 483d 2aa3 013d
000003e0: 9df4 b73d 34b8 2c3d 2836 55bc dc16 8abe
000003f0: 53f7 45be 50ec 4dbe 8aac 16bd 9f04 90be
0.19748685 -0.037975565 0.18444566 -0.16883497 0.13706729 -0.0056666513 -0.15365626 0.15812923
-0.23982444 0.16862364 0.017153576 -0.018183077 0.10549239 0.01765119 0.08620148 0.13369735
-0.17768292 0.13640915 0.0061132815 -0.03389479 0.04146902 0.21225674 -0.113147005 -0.19198884
0.1519239 -0.10313194 0.11952906 -0.066590406 0.103827976 0.23461916 -0.10861273 -0.092250176
0.16767935 0.06424969 -0.014066909 -0.1874694 0.17577937 0.029036736 -0.0012300744 -0.14853142
-0.042421844 0.1553624 0.028607704 0.25048977 0.031477116 0.014327698 0.17054659 0.04170408
-0.08975179 0.050710805 0.17660892 0.035448685 0.1879357 0.16452232 0.066816926 0.095843606
0.09279061 0.0073477477 0.20612049 0.20078485 0.07845377 -0.026162539 0.22715797 -0.20513086
0.18668045 0.08281521 0.17741409 -0.01589951 -0.16100785 0.16766903 -0.10957495 0.06986998
0.15228456 -0.2456912 0.03410902 -0.13821472 0.18966638 -0.13280748 0.15386973 0.15394634
0.09349827 0.23479128 0.07456366 -0.27475688 0.16914597 0.060194552 0.038281932 -0.2531774
-0.036552064 -0.11116457 0.26290223 0.16089179 0.20663607 0.1903658 -0.117364235 -0.08733892
-0.11787651 -0.060509473 0.16655092 0.07136277 0.20290433 -0.019394433 -0.23626047 -0.059255563
0.17755303 0.14048733 0.047284845 -0.03625669 -0.25903448 -0.1724574 0.12113729 -0.120753065
0.11523164 0.1255016 -0.12366143 0.1358685 -0.095854566 -0.008848834 -0.10344021 -0.23106317
0.039804038 0.072206676 -0.14950317 0.20612991 -0.24277411 -0.2695872 -0.15977567 -0.09709314
0.0151796 -0.06294039 0.092010066 -0.1852007 0.08094956 -0.05419581 0.013721503 0.2884079
0.12537646 -0.16574165 -0.24545082 -0.0626632 -0.17051324 0.045483503 -0.055603743 0.15621816
0.14259472 0.0045204265 -0.0065158736 0.080365226 -0.034900624 0.1800509 -0.21486603 0.13297918
-0.17804731 -0.21837276 -0.07852784 0.18442416 0.15441436 0.03593573 -0.038631357 -0.029911418
-0.06858547 -0.0075565428 -0.035908937 0.21709795 0.16601588 -0.23860362 -0.036529522 -0.122429974
-0.04300361 -0.21832766 0.026883038 -0.1509286 0.20831406 0.14857647 -0.20671125 -0.26802608
0.0036243026 -0.06878768 0.07200759 -0.20587125 0.10958463 -0.20411164 -0.12477018 -0.12396039
0.12768652 -0.011262998 -0.2367167 -0.14345136 -0.112372465 -0.23280244 0.046961367 0.08924398
-0.044165757 -0.14109583 0.017659787 -0.18257345 -0.14188644 -0.0039514103 0.23266642 -0.08925773
0.118044406 -0.09338263 -0.04714494 -0.27544576 0.2242399 0.26972523 0.00022580774 0.16884632
0.18216476 0.14087406 0.16727386 -0.25145364 -0.26863158 -0.13703664 0.12899272 -0.25698635
-0.1794344 -0.088998355 -0.19626684 0.0109154815 0.07074389 -0.10896766 0.21278962 -0.054813385
-0.082301356 0.21078873 0.20080939 -0.0565645 -0.1806531 -0.12795123 0.019972118 0.16522779
0.13141958 -0.1240163 -0.25666553 -0.19247414 -0.09899276 -0.024187783 -0.11742812 -0.21115984
0.0032535326 -0.26767012 -0.20127884 -0.2390768 -0.018592363 0.17637983 0.048837923 0.031649746
0.08982203 0.042167857 -0.0130134 -0.26970565 -0.19332628 -0.20109677 -0.03678564 -0.28128526

encoder.node_encoder.mlp_msg.4.bias f4 [16]
00000000: 4968 1bbd b227 36bb b75c 0d3d 47e2 c9bc
00000010: 7d2d f0bc 74c7 ab3b e45c 7b3b 0def af3c
00000020: 15b8 e8bc 918f 8a3c e970 b339 875f 05bc
00000030: 3179 6dbc 7a18 d33c 3e8f f63a 813d 59bd
-0.03794125 -0.0027794656 0.034512248 -0.02464403 -0.029318566 0.0052422825 0.0038354928 0.021476293
-0.02840809 0.01691416 0.00034225665 -0.008140451 -0.014494226 0.025768507 0.0018811 -0.05303717

encoder.node_encoder.mlp_update.0.weight f4 [32, 16]
00000000: 4ef8 173e 9cc5 233d 3c3d 66bc 4af5 473d
00000010: a2a6 933e 66e9 c23c 9b92 58be 5558 36be
00000020: d34b 453e bcdd bb3d 2235 793c de94 31bd
00000030: c003 0ebd 2257 61be 3dc2 2fbe da01 f53c
00000040: 34e7 183e 302d 7f3e c867 c4bd a1cc 603d
00000050: 8295 643e d95d a53d df6d f23b 1bcc e7bb
00000060: 783a c13d bbfa 49be 91f9 033d d70e 8cbd
00000070: 8014 8e3e ef02 003e 1760 093d 1291 753e
00000080: 34f5 59be b18f 203e cbeb 753e 8c10 453c
00000090: 9e1d 84be 7a00 b4bc 9eab 9abd bf82 233d
000000a0: 0808 8dbe ae29 043d ad32 3fbe 9154 c7bd
000000b0: ca51 2cbe 41a0 3d3c f722 4abe 53a4 09be
000000c0: 4951 c83d 7763 7d3e f6af 833e 7f4a 28be
000000d0: cdd1 4a3e a4fb 07be 9c4a 89be 3977 87bd
000000e0: 52cf f4bd 7d8f 5dbe e8fa 6cbe e2c3 33be
000000f0: eb2b 863e 18e0 fc3c 0b15 10be e9e8 4ebe
00000100: 66e3 13be 36b0 f0bd 0e68 e1bd a4e5 123e
00000110: 7a8e e63d 1629 26be e8aa 5e3e 4688 30be
00000120: ba08 08be 9aa0 e33d 7517 a8bd bd0b cf3d
00000130: fc64 5c3e 08b8 4abe d2a8 42be 7e6b b53d
00000140: 0626 23be 8e96 9c3e b60d 74bd ce5b 253e
00000150: 122b 19be dcbc 43be 77af 9ebc 1a36 13bc
00000160: 9d28 753e f135 743e 5549 bd3c ced6 6ebd
00000170: 32fe d53d 83fe 00be ea16 37bd bca1 98be
00000180: 1070 0dbe a418 513e 496f 42be a9e3 873e
00000190: 33a9 2a3d c683 063d 189d 5d3e e6c3 74be
000001a0: cd37 863d 3e7f 9d3d d70e d83d 7185 90be
000001b0: af77 0d3e 01d1 74be 6289 243c 64a1 3f3e
000001c0: ce68 90bd cecb 47bd 77e9 b7bd e8e9 903e
000001d0: 6b1b a83d 327d 6f3c e55b cbbd 5f15 44be
000001e0: 6cbe ac3e 5f8d 9b3e 2192 133e 6eed 6fbe
000001f0: 9572 353e 5ea0 5bbd 8358 673e c7d1 993e
00000200: e3a9 bd3d 83d8 a1bc 9462 8c3e 73d9 fdbd
00000210: 101e 703e c88c 7ebe cf0f 08be bacf 82be
00000220: ccc3 e7bd 513d de3d de24 1dbe e4cb 58be
00000230: c7be 623e a1ad 3d3d 9470 4ebd 1b1f 7bbe
00000240: 9cb8 8abd e252 2abd 2284 703e d40d 16be
00000250: 85ce 67bd 41c9 14be 8173 01be 7c32 353e
00000260: 3141 8c3d 23bf c73c b330 a0bd 74ea 8d3e
00000270: a931 223d 6b19 66bd d28a 02be 75fa e9bd
00000280: 6fbb 393e 752c 373e eb27 423e 1dc6 c03b
00000290: c382 953e e995 eebd 3a17 36be 0858 34be
000002a0: c17c 30be fb4f 0ebe 9b2e 53be 8a6d 54bc
000002b0: 9789 843d cba5 26be 5d87 4abe b16c 493e
000002c0: 5ef6 a3bd cd77 ed3d 20b2 3e3e 21e3 e2bd
000002d0: 2c36 fcbc b4b8 4b3e 5885 423e 3a3e 3bbd
000002e0: 28ef 1e3e 74d6 81be c7f1 5abe da9f 163e
000002f0: c7c2 86bb ee80 8c3e 6e2a fb3a c971 e5bd
00000300: cee3 8c3e d964 663e 4ef2 18bd 0e3d 9cbd
00000310: d7ba b2bc 761b 2abe a2db 4f3e 4a13 b6bd
00000320: 3702 403e 4c52 713e c6be b63d fc03 4fbe
00000330: b5ca 5c3e 3242 893d e6e9 00be 4039 7c3e
00000340: 1ca9 583d b177 eabd 5064 75be 704b 7fbc
00000350: 26f6 97be ee92 ba3d 50c6 873e 71ba d5bd
00000360: ba06 9c3e 7f41 18bd 223a 693d adf4 37be
00000370: 186a fabc 4ca4 863d f4b3 2c3e e94b 6d3d
00000380: cf88 2fbe 303f 013e dc10 523e 7cd2 783d
00000390: 0b40 2dbe c0c3 923d e16c 843b b453 843e
000003a0: a041 cbbb 26f0 6cbc 0d99 0ebd 2d75 9a3d
000003b0: c656 11bd 4bce 863e c141 f23d e7a6 6fbe
000003c0: 0ebc 493d 5f22 50be 5c7a 8dbe 7353 013e
000003d0: a1d6 063d f09a 36bd 49c3 7a3e 6592 6dbe
000003e0: 54ae 173d e973 8a3c 7860 663b 6c3b 9ebd
000003f0: bfd6 813e 76cf 2dbe edff 0fbe 64ed 813d
0.14840814 0.039983377 -0.014052685 0.04881791 0.28838068 0.023792934 -0.21149676 -0.17807133
0.19267206 0.09173152 0.015210422 -0.04335486 -0.034671545 -0.22005895 -0.1716394 0.02990811
0.14931947 0.24919581 -0.09590107 0.05488265 0.22322658 0.08074541 0.0073983516 -0.007073892
0.0943498 -0.19724552 0.032220427 -0.06838768 0.27750015 0.12501119 0.033538904 0.23981121
-0.21284944 0.15679814 0.24015729 0.012027871 -0.25803846 -0.021972883 -0.07552265 0.03991961
-0.2754519 0.03226631 -0.18671675 -0.09732927 -0.16828075 0.011573852 -0.197399 -0.13441591
0.09781129 0.24744974 0.25720185 -0.16434668 0.19806595 -0.13279587 -0.26814735 -0.06614537
-0.11953606 -0.21636768 -0.23142588 -0.17555192 0.26205382 0.030868575 -0.14070527 -0.20206036
-0.14442214 -0.117523596 -0.11006175 0.14345413 0.11257644 -0.1622661 0.21744883 -0.17239484
-0.13284579 0.11114617 -0.08207599 0.10109661 0.21522897 -0.19796765 -0.19009712 0.08858393
-0.15932474 0.30583614 -0.05958339 0.16148302 -0.14957836 -0.19115013 -0.019370778 -0.008985067
0.23941274 0.23848702 0.023106256 -0.058310322 0.104488745 -0.12597089 -0.044699587 -0.29810894
-0.1381228 0.20419556 -0.18987764 0.26540878 0.041665267 0.032840513 0.21641958 -0.23902854
0.06553612 0.07690285 0.105497055 -0.28226808 0.13815187 -0.23907854 0.01004252 0.1871391
-0.0705124 -0.048778348 -0.08980077 0.28303456 0.082083546 0.014617251 -0.09929637 -0.19148777
0.3373903 0.30381295 0.14411213 -0.23430416 0.17719491 -0.053619735 0.22592358 0.3004286
0.09260919 -0.019756561 0.2741896 -0.12394991 0.23448968 -0.24858391 -0.1328728 -0.25549108
-0.11316642 0.10851539 -0.15346095 -0.21171528 0.22143088 0.046308164 -0.05040033 -0.24523585
-0.06773493 -0.04158295 0.23487905 -0.14653713 -0.056593437 -0.14529897 -0.12641717 0.1769504
0.06848372 0.024383133 -0.07821789 0.27717936 0.03959814 -0.056176584 -0.12748268 -0.11424724
0.18137906 0.17888053 0.1896054 0.005882992 0.29201326 -0.11649687 -0.17782298 -0.17611706
-0.1723509 -0.13897698 -0.20623247 -0.012965569 0.06471556 -0.16274182 -0.197782 0.19670369
-0.08005975 0.11595116 0.18622637 -0.11078478 -0.03078755 0.19894677 0.18996179 -0.04571364
0.15520918 -0.25358927 -0.21381293 0.14709416 -0.0041125747 0.27442116 0.0019162425 -0.112033434
0.2751755 0.22499408 -0.037340455 -0.07628833 -0.021817608 -0.16612038 0.20298627 -0.08890398
0.18750845 0.2356655 0.08923106 -0.20216364 0.21561702 0.06702079 -0.12589225 0.24631214
0.05289565 -0.114486106 -0.23964047 -0.015581951 -0.29679984 0.09110056 0.26518488 -0.104359515
0.30473882 -0.037171837 0.056940205 -0.1796443 -0.030568168 0.06574306 0.16865522 0.05793372
-0.17142032 0.1262176 0.20514244 0.06074761 -0.16918962 0.071662426 0.0040412997 0.2584511
-0.0062028915 -0.014461553 -0.03481393 0.07541881 -0.035483144 0.26329264 0.11828948 -0.23403512
0.04925161 -0.20325612 -0.27632415 0.1262949 0.03291953 -0.044581354 0.24488558 -0.23200376
0.037031487 0.016900973 0.0035152715 -0.077261776 0.2535915 -0.16973671 -0.14062472 0.06344107

encoder.node_encoder.mlp_update.0.bias f4 [32]
00000000: 614a 643d fdda ea3c 1653 1d3c c54d 383d
00000010: 1c5a 8c3b 2e9e 843d 8766 263d 5e20 84ba
00000020: b5d6 213d b6b4 553d 9d1d 093d 0450 12bc
00000030: 54e7 d63c 2a2d e5bc 6dd6 b83c db00 5e3c
00000040: ab44 14bd 623c 523d 9724 693d 453d 123d
00000050: 0d18 6c3c 6640 1f3d 4767 9bba 9159 2d3d
00000060: 96ae 963c 1392 9c3c ba5b 493d a221 42bb
00000070: d075 dd3c 5a1e 1d3d 5010 29bd 3bcd 583d
0.055734996 0.028668875 0.009602329 0.04499604 0.004283203 0.06475483 0.04062512 -0.0010080447
0.0395114 0.052174293 0.033475507 -0.00893021 0.026233353 -0.027975637 0.022563184 0.013550009
-0.0361983 0.051327117 0.05691966 0.035702962 0.014410031 0.038879775 -0.001185634 0.042321745
0.018393796 0.019112622 0.049159743 -0.0029622097 0.027033716 0.038359024 -0.041275322 0.052930098
