dagnncheckpoint/dagnn599.pt (torch, 102969 bytes, 31 tensors)

encoder.node_encoder.lin_init.weight f4 [16, 5]
0.3473439 0.36991924 -0.19815493 0.43763018 -0.050395712 0.00607844 -0.18892947 0.3309195
0.3649776 -0.34014857 0.34005305 0.108336605 0.4705967 0.038985334 0.18122672 -0.14869325
0.3517054 0.21330304 -0.21698973 0.11387648 -0.14320777 -0.04769084 -0.32904592 0.30159703
-0.36811247 -0.14422628 -0.12242477 -0.4020825 0.06449044 -0.435752 0.35393304 -0.39035067
0.45640492 0.054742306 -0.14218263 0.21477881 0.07064425 0.49849582 0.047112674 -0.14339122
0.051732626 -0.10858017 0.3133315 0.39633122 0.21432507 -0.22854973 0.27368248 -0.00041897752
0.25611505 -0.28865892 -0.39942333 -0.18602856 -0.4778453 0.36273557 0.13855375 0.20869367
0.13364698 -0.1275646 0.37253436 -0.36859387 -0.041791122 -0.30372062 0.2775599 -0.17017104
0.16290979 -0.05409295 0.37934387 -0.38993493 -0.2499029 -0.2583617 0.42189255 0.16533643
0.32728386 -0.36260247 -0.45522937 -0.42717195 -0.3024089 0.31914514 0.14172067 0.3699642
00000000: 0fd7 b13e 0e66 bd3e 20e9 4abe 1011 e03e
00000010: bc6b 4ebd a72d c73b ba76 41be 486e a93e
00000020: 58de ba3e f427 aebe 6f1b ae3e 95df dd3d
00000030: 0df2 f03e 16af 1f3d 7f93 393e 0b43 18be
00000040: bb12 b43e 1d6c 5a3e 8e32 5ebe 1238 e93d
00000050: 0fa5 12be 7857 43bd b578 a8be ed6a 9a3e
00000060: 3d79 bcbe 0eb0 13be d6b9 fabd c2dd cdbe
00000070: 9013 843d e31a dfbe b636 b53e 0bdc c7be
00000080: e8ad e93e 7839 603d 5398 11be faee 5b3e
00000090: efad 903d d83a ff3e 38f9 403d 26d5 12be
000000a0: 97e5 533d 485f debd fd6c a03e edeb ca3e
000000b0: 0878 5b3e f108 6abe 1c20 8c3e 36aa dbb9
000000c0: 8321 833e 1acb 93be 3781 ccbe 457e 3ebe
000000d0: 24a8 f4be 7ab8 b93e 09e1 0d3e cbb3 553e
000000e0: c1da 083e 4ba0 02be d3bc be3e 56b8 bcbe
000000f0: 2b2d 2bbd 4581 9bbe 551c 8e3e 5141 2ebe
00000100: d3d1 263e 9290 5dbd 5c39 c23e 8da5 c7be
00000110: 8ce6 7fbe fc47 84be 4d02 d83e f44d 293e
00000120: c091 a73e 08a7 b9be d313 e9be 48b6 dabe
00000130: 57d5 9abe fe66 a33e 391f 113e f36b bd3e

encoder.node_encoder.lin_init.bias f4 [16]
-0.21799913 -0.36173907 0.22110394 -0.19635215 0.27144337 -0.08983917 0.23171939 -0.35787594
-0.24582991 0.13016093 0.09723034 -0.103213 0.24582683 0.31048125 -0.298362 -0.25473648
00000000: 2a3b 5fbe dd35 b9be 1269 623e 8a10 49be
00000010: a0fa 8a3e 99fd b7bd d947 6d3e 843b b7be
00000020: d6ba 7bbe e848 053e b320 c73d 5661 d3bd
00000030: 07ba 7b3e 66f7 9e3e e7c2 98be d26c 82be

encoder.node_encoder.attn_convs.0.attn_layer.0.weight f4 [1, 32]
0.17371719 -0.09105542 -0.053567644 -0.15819529 -0.07300856 0.033263873 -0.031225689 -0.16753232
-0.020824432 -0.10834328 -0.14257298 -0.10510238 -0.15257563 -0.09333492 0.15040696 0.022960331
-0.004832042 -0.06267579 -0.041919045 -0.14472613 0.10860997 -0.22242698 -0.18439618 -0.19801961
-0.041274466 -0.14261562 -0.10786918 -0.10843813 -0.034012742 -0.0019489669 0.012584228 -0.17087528
00000000: ebe2 313e 447b babd bf69 5bbd f2fd 21be
00000010: 8385 95bd b33f 083d 04cd ffbc 988d 2bbe
00000020: 0098 aabc 15e3 ddbd a7fe 11be eb3f d7bd
00000030: c93c 1cbe 6126 bfbd 4804 1a3e 4e17 bc3c
00000040: 1b56 9ebb 2a5c 80bd 4eb3 2bbd 1633 14be
00000050: e76e de3d e6c3 63be 5ad2 3cbe a7c5 4abe
00000060: 6a0f 29bd d409 12be 84ea dcbd cf14 debd
00000070: f250 0bbd 7a74 ffba 142e 4e3c eef9 2ebe

encoder.node_encoder.attn_convs.1.attn_layer.0.weight f4 [1, 32]
-0.08632958 0.124434516 0.03229946 -0.14145635 0.1676249 -0.014589787 -0.09706491 -0.12177032
-0.13251333 0.007447506 -0.004161832 0.10749359 -0.17823446 0.16113774 -0.16775852 -0.06730116
0.06345413 0.12219365 0.119960085 0.16104925 -0.16516814 -0.001515511 -0.07783024 -0.048391525
-0.19620973 0.17393735 -0.080634706 0.13544564 0.017928068 0.009820089 -0.12877385 0.20240104
00000000: 90cd b0bd 86d7 fe3d 704c 043d efd9 10be
00000010: dda5 2b3e 010a 6fbc f8c9 c6bd b862 f9bd
00000020: 93b1 07be 350a f43b fa5f 88bb 9925 dc3d
00000030: 1883 36be 4b01 253e e4c8 2bbe 31d5 89bd
00000040: 3df4 813d aa40 fa3d a2ad f53d 18ea 243e
00000050: d621 29be 1ca4 c6ba 7665 9fbd 3136 46bd
00000060: 34eb 48be a21c 323e cf23 a5bd 43b2 0a3e
00000070: e2dd 923c 70e4 203c 4bdd 03be 3842 4f3e

encoder.node_encoder.attn_convs.2.attn_layer.0.weight f4 [1, 32]
0.009443834 -0.14269984 0.09442631 0.015116938 -0.12902646 0.1143017 -0.015226121 -0.09243505
-0.123281054 0.041146375 0.12257725 -0.05167351 -0.11008459 -0.046492957 -0.15615046 0.028674036
0.21245122 -0.12372453 0.030714165 0.033416037 -0.01273962 -0.07639993 0.026412928 0.028860299
0.14444819 -0.0531954 0.044882793 -0.04367838 0.012093785 -0.098632134 0.074323066 0.20176959
00000000: 50ba 1a3c e81f 12be 9562 c13d 09ad 773c
00000010: 831f 04be 0217 ea3d fb76 79bc 964e bdbd
00000020: c77a fcbd 1a89 283d c809 fb3d 9aa7 53bd
00000030: 0874 e1bd 666f 3ebd e8e5 1fbe d0e5 ea3c
00000040: d08c 593e 4963 fdbd 469c fb3c 41df 083d
00000050: d7b9 50bc 9177 9cbd ed5f d83c 6f6c ec3c
00000060: 3aea 133e 6be3 59bd 05d7 373d 1ae8 32bd
00000070: 0325 463c a5ff c9bd b136 983d b09c 4e3e

encoder.node_encoder.gru_cells.0.weight_ih f4 [48, 16]
-0.13961191 -0.02388552 -0.01227719 -0.021860033 0.03616543 -0.23637256 -0.018680576 0.15087275
0.15541568 -0.16398557 -0.10405659 -0.27174503 -0.119056895 -0.19900474 0.035067778 0.24505015
0.14755856 -0.27360588 -0.19911408 -0.054635786 0.28092462 0.08499299 -0.08180222 0.057630725
-0.11747143 -0.19036883 0.21228588 -0.111673966 -0.06655864 -0.2283698 0.15030867 0.16015139
0.0678985 -0.12493805 -0.23701742 -0.19015697 0.19474624 0.1091753 0.2237761 0.1905159
0.08577655 0.026716294 -0.21606854 -0.20916757 -0.22231278 0.07805527 -0.09890089 -0.016024973
-0.18774891 -0.05952789 -0.13118513 -0.18676881 0.0038840664 -0.15469126 0.18641363 -0.10193017
-0.063861266 -0.11505883 -0.055167034 -0.1830899 -0.17003827 0.019093424 -0.2460255 0.26530012
0.10389012 0.1457314 -0.2194331 0.14011912 -0.10391225 0.13652466 0.25124955 -0.09214847
0.015135552 -0.15625793 -0.16537705 0.10969511 -0.22354804 0.11990447 0.15057558 0.24949934
-0.091023654 -0.076457724 0.045346912 0.13701348 -0.24784723 -0.040753204 -0.13544208 0.016827531
-0.10908204 -0.11139278 -0.09105904 -0.2399691 0.21224296 0.18173103 -0.021038098 0.0040568532
-0.124363914 -0.17606734 -0.2227977 0.09424784 -0.15554476 -0.17850709 0.0054083206 -0.025384346
-0.048871838 0.014628014 -0.08008528 -0.08128956 -0.10269927 -0.23062538 0.23711613 -0.0714695
0.009047881 -0.09765454 0.009833355 0.21446337 0.058212098 -0.20381586 0.12953988 0.24022692
0.07262483 0.07235572 0.23057416 -0.116830476 0.099122666 -0.22295193 -0.042671423 0.22558065
0.121653445 -0.22445789 -0.17941289 -0.18338744 -0.22703966 -0.21113637 -0.058358625 0.06748209
0.030623376 -0.19811416 -0.14825802 0.09682117 -0.17165944 -0.005162267 0.057008304 -0.13787241
0.015341321 -0.12651794 -0.01576821 -0.1288579 -0.20734987 -0.26038754 -0.1466147 0.17614616
-0.09356502 -0.13138841 0.10833537 0.069409855 0.13560979 0.20931116 0.077627204 -0.25456652
0.015906632 0.10534672 -0.050542004 -0.18439081 0.29810122 -0.048225768 -0.13750425 -0.3108149
-0.024856748 0.05720451 0.10392805 0.030791147 -0.1811481 -0.22265945 -0.034373984 0.20193136
0.15375033 -0.2271553 0.0039924616 -0.179291 -0.104357414 0.0009919583 0.12550816 0.12779121
-0.2046936 0.19600506 -0.10894648 0.08718762 0.21893951 0.009613481 0.15186024 -0.19498731
-0.124797754 0.131052 -0.061542444 -0.103481494 -0.057612423 0.20168833 0.15835506 0.0274574
-0.13854417 -0.24221116 0.06316538 0.0667486 -0.0809316 -0.094007805 0.14097658 0.020274589
-0.0037102776 -0.054264765 -0.2622258 -0.28494918 -0.045971096 -0.066550136 0.09684949 -0.13833052
-0.13983986 0.21924305 0.1378578 0.19990265 -0.105990686 -0.080272086 0.068983726 -0.21169282
-0.09240718 0.033912614 -0.11209717 -0.15031868 0.17908636 0.2333999 -0.00080759876 0.0106883645
-0.2521868 -0.0061522233 0.03587254 0.21910448 -0.09770683 -0.049475078 0.1761042 -0.24960962
0.13504034 -0.06994002 0.031506214 -0.055083007 -0.0072176806 -0.11585037 0.20415288 0.02267077
0.239459 0.2082927 -0.13030998 -0.21461016 0.2256935 0.14870113 -0.18749999 0.02471978
00000000: 6df6 0ebe 91ab c3bc 4426 49bc d013 b3bc
00000010: 3422 143d a60b 72be 0208 99bc 637e 1a3e
00000020: 4a25 1f3e d5eb 27be 9f1b d5bd 2a22 8bbe
00000030: 1ad4 f3bd e6c7 4bbe 3ba3 0f3d 6dee 7a3e
00000040: 9719 173e 1216 8cbe 90e4 4bbe c6c9 5fbd
00000050: 5ad5 8f3e ce10 ae3d ec87 a7bd 320e 6c3d
00000060: dc94 f0bd 0cf0 42be 7861 593e 52b5 e4bd
00000070: e54f 88bd c6d9 69be 84ea 193e bafe 233e
00000080: 5e0e 8b3d 85df ffbd b2b4 72be 82b8 42be
00000090: 8f6b 473e 4d97 df3d 9025 653e 9a16 433e
000000a0: 9eab af3d 21dc da3c 1241 5dbe 0630 56be
000000b0: f6a5 63be 71db 9f3d 8d8c cabd ce46 83bc
000000c0: 4041 40be 84d3 73bd 6555 06be 5340 3fbe
000000d0: d28b 7e3b 6367 1ebe 37e3 3e3e c4c0 d0bd
000000e0: b2c9 82bd f7a3 ebbd d4f6 61bd eb7b 3bbe
000000f0: 831e 2ebe d069 9c3c 1cee 7bbe 6bd5 873e
00000100: 58c4 d43d 9d3a 153e 12b3 60be 637b 0f3e
00000110: f2cf d4bd 1fcd 0b3e c8a3 803e 56b8 bcbd
00000120: 1bfb 773c 1402 20be 9a58 29be d4a7 e03d
00000130: c7e9 64be 7a90 f53d 7c30 1a3e c17c 7f3e
00000140: 9c6a babd de95 9cbd afbd 393d 434d 0c3e
00000150: aacb 7dbe d5ec 26bd 54b1 0abe e4d9 893c
00000160: 6866 dfbd e621 e4bd 297d babd 76ba 75be
00000170: 3856 593e b317 3a3e 1758 acbc 5aef 843b
00000180: 82b2 febd ff4a 34be 1525 64be 0305 c13d
00000190: 2047 1fbe 90ca 36be 4838 b13b d5f2 cfbc
000001a0: d62d 48bd 56aa 6f3c c003 a4bd 247b a6bd
000001b0: ff53 d2bd 0f29 6cbe 92ce 723e 9a5e 92bd
000001c0: 903d 143c 1aff c7bd 151c 213c 499c 5b3e
000001d0: cf6f 6e3d 1bb5 50be 1aa6 043e 0cfe 753e
000001e0: 54bc 943d 3c2f 943d a21b 6c3e d144 efbd
000001f0: d300 cb3d 834d 64be 3bc8 2ebd 9dfe 663e
00000200: 7125 f93d 4ad8 65be 03b8 37be ebc9 3bbe
00000210: 167d 68be 2234 58be 7409 6fbd 0d34 8a3d
00000220: e0dd fa3c 70de 4abe f3d0 17be 2d4a c63d
00000230: 7ec7 2fbe 3c28 a9bb 8a81 693d 6d2e 0dbe
00000240: 2a5a 7b3c eb8d 01be 552c 81bc 53f3 03be
00000250: 8653 54be 8451 85be 2a22 16be a95f 343e
00000260: 049f bfbd af8a 06be efde dd3d c126 8e3d
00000270: 4bdd 0a3e aa55 563e 03fb 9e3d 8b56 82be
00000280: a04e 823c 05c0 d73d 2205 4fbd f2d0 3cbe
00000290: b9a0 983e 6288 45bd eacd 0cbe 2123 9fbe
000002a0: 61a0 cbbc 474f 6a3d 3bd8 d43d b73d fc3c
000002b0: e37e 39be d700 64be bccb 0cbd 18c7 4e3e
000002c0: ba70 1d3e 669b 68be 32d3 823b 0f98 37be
000002d0: 57b9 d5bd 9904 823a 3685 003e b3db 023e
000002e0: 339b 51be 8db5 483e 551f dfbd 6c8f b23d
000002f0: ae31 603e dd81 1d3c 4081 1b3e c1aa 47be
00000300: f795 ffbd 7f32 063e ee13 7cbd 1bee d3bd
00000310: 01fb 6bbd 6387 4e3e d427 223e 57ee e03c
00000320: 86de 0dbe 3406 78be da5c 813d 7db3 883d
00000330: 77bf a5bd 2a87 c0bd 2a5c 103e e516 a63c
00000340: 2128 73bb bb44 5ebd 7642 86be dce4 91be
00000350: 304c 3cbd 704b 88bd 0759 c63d 84a6 0dbe
00000360: 2e32 0fbe 4081 603e 982a 0d3e 48b3 4c3e
00000370: a511 d9bd b165 a4bd 5747 8d3d 01c6 58be
00000380: fa3f bdbd f4e7 0a3d 3393 e5bd 24ed 19be
00000390: 6a62 373e 6200 6f3e 09b5 53ba 401e 2f3c
000003a0: a11e 81be 9798 c9bb 16ef 123d ed5c 603e
000003b0: 851a c8bd 61a6 4abd a954 343e aa99 7fbe
000003c0: 0448 0a3e b73c 8fbd a90c 013d b89e 61bd
000003d0: 4b82 ecbb f542 edbd 740d 513e 0db8 b93c
000003e0: bd34 753e ae4a 553e fb6f 05be c4c2 5bbe
000003f0: 321c 673e 1c45 183e ffff 3fbe 2381 ca3c

encoder.node_encoder.gru_cells.0.weight_hh f4 [48, 16]
-0.13974164 -0.07137282 0.21253969 0.1583925 0.021583391 0.04080367 -0.14074235 0.097843245
0.022321299 0.051534798 -0.10313786 0.20444013 -0.079121724 -0.07125713 0.19035034 0.3106311
0.23338363 0.0569407 -0.06947869 0.14921695 0.22563802 -0.22602114 -0.019916508 -0.1662701
0.050383437 0.042007506 -0.0007543497 -0.035343017 0.023128185 -0.05339316 -0.22713464 0.20689192
-0.093286484 -0.078213386 -0.057749216 0.058620676 -0.26765105 0.13217597 -0.07337576 -0.13831954
0.06990334 -0.051368635 -0.058516916 -0.0869761 -0.10242578 -0.13673253 -0.08222444 0.050706033
-0.22998728 -0.14706281 0.0249804 0.047672346 0.15156233 -0.20676512 0.021903617 0.12429978
0.100940704 -0.20738243 -0.15004776 -0.22744027 -0.07803467 0.19098037 -0.015033367 0.13488878
-0.17443272 0.032748908 -0.20325299 0.1580009 -0.09124596 -0.026883783 -0.22636935 -0.015969455
0.21646056 0.10150093 -0.1220326 -0.026814546 -0.09225211 -0.21526591 0.23884626 0.07341211
0.068843275 -0.16789344 -0.20915736 0.115543276 0.05842622 0.08150261 -0.090073735 0.19188674
-0.0335555 -0.07040052 -0.09907087 0.20701137 0.01629681 -0.07729036 -0.090780854 -0.03140465
-0.186289 -0.2482959 0.07610672 0.2704158 0.21053495 -0.16034025 0.16881704 -0.1548026
0.15061103 0.25806546 0.23616531 0.183281 0.15381955 -0.027366463 0.107794575 -0.084843986
0.09250396 -0.0896673 -0.07216357 -0.16181952 -0.069402896 -0.12820254 -0.09286432 -0.18912373
-0.25083378 0.065838255 0.17046444 0.18070017 0.11784893 -0.17277974 -0.20477724 0.1677783
0.07463641 -0.14001532 0.20491102 0.106903896 0.094735295 -0.18966717 0.14310367 0.14160867
0.1376122 -0.3011813 0.0730595 -0.13841397 0.30551085 -0.023600368 0.14465168 0.025396185
0.019709501 0.023433806 0.24409705 -0.19544695 -0.1513074 -0.14680268 0.1108783 0.00918994
0.037939455 -0.19386043 0.14849165 0.23043482 0.123930246 -0.01280835 -0.24843654 -0.041567378
-0.19052048 0.13581644 -0.26741132 0.16794233 0.28321123 0.14047989 0.112916246 -0.24239743
0.22342737 -0.12962571 -0.16522661 0.24467458 -0.19881324 -0.055523735 0.20263968 -0.14308509
-0.2152336 0.13134618 0.07061396 -0.08931311 -0.13905907 -0.05637262 -0.14631519 -0.09395157
-0.24623767 -0.025930649 0.008991798 -0.1737228 0.2390624 0.15499507 0.0064129108 -0.20636882
0.010400628 0.18190458 0.09198125 -0.11772375 0.24654876 0.076482736 0.16863702 0.19429316
0.19846703 -0.24080212 0.30203626 -0.1761694 -0.08618817 -0.22120711 -0.07863049 0.042097326
-0.05329204 -0.06601681 -0.0028749432 0.30596006 0.14988106 0.1348172 0.12746255 0.1748177
-0.014232373 -0.028461946 0.0943387 -0.24230622 -0.28594965 -0.00273347 -0.09895294 0.012466208
-0.009811938 0.04952241 0.14653261 -0.06230512 0.17091632 0.234875 -0.17850162 -0.18162097
-0.16125001 -0.102008455 -0.10156223 -0.023948258 -0.083843164 -0.13812524 -0.083849326 -0.12999876
0.23625769 -0.08111722 -0.18367614 0.12516327 -0.0077929343 0.175224 0.13351034 0.2412047
-0.20114708 0.20489742 0.2056613 -0.11753785 0.22348996 0.18607014 0.01444938 0.14629945
00000000: 6f18 0fbe ea2b 92bd 01a4 593e a531 223e
00000010: a7cf b03c c021 273d c31e 10be 0a62 c83d
00000020: 28db b63c 2716 533d f139 d3bd c158 513e
00000030: 920a a2bd 42ef 91bd 33eb 423e 0a0b 9f3e
00000040: 1efc 6e3e a73a 693d d84a 8ebd 54cc 183e
00000050: a70d 673e 1672 67be f227 a3bc b642 2abe
00000060: dd5e 4e3d 1010 2c3d 8dbf 45ba d7c3 10bd
00000070: 5277 bd3c c9b2 5abd fc95 68be 7adb 533e
00000080: fc0c bfbd 572e a0bd 718a 6cbd 3c1c 703d
00000090: 8f09 89be 2359 073e 0846 96bd a3a3 0dbe
000000a0: 7b29 8f3d eb67 52bd 6faf 6fbd 8720 b2bd
000000b0: 9bc4 d1bd 9d03 0cbe 4a65 a8bd 21b1 4f3d
000000c0: c981 6bbe a297 16be b2a3 cc3c 1444 433d
000000d0: 2833 1b3e 3cba 53be 376f b33c e290 fe3d
000000e0: 00ba ce3d 0f5c 54be 1fa6 19be 1ae6 68be
000000f0: a4d0 9fbd 5c90 433e 834e 76bc 4920 0a3e
00000100: 7e9e 32be b823 063d 8d21 50be fdca 213e
00000110: 29df babd 613b dcbc 5ecd 67be 60d2 82bc
00000120: d6a7 5d3e b8df cf3d 3aec f9bd 2eaa dbbc
00000130: adee bcbd ab6e 5cbe 1d94 743e 1759 963d
00000140: b4fd 8c3d 42ec 2bbe 592d 56be f4a1 ec3d
00000150: 5550 6f3d d7ea a63d 9478 b8bd f57d 443e
00000160: 7e71 09bd 262e 90bd abe5 cabd cafa 533e
00000170: e380 853c 694a 9ebd 50eb b9bd 2aa2 00bd
00000180: 8bc2 3ebe 4841 7ebe d7dd 9b3d f173 8a3e
00000190: 7996 573e 3c30 24be 60de 2c3e 9384 1ebe
000001a0: c739 1a3e 2821 843e 52d5 713e 04ae 3b3e
000001b0: df82 1d3e a22f e0bc 67c3 dc3d afc2 adbd
000001c0: b772 bd3d 7da3 b7bd 7eca 93bd 04b4 25be
000001d0: 1b23 8ebd 8747 03be a62f bebd a7a9 41be
000001e0: 496d 80be 35d6 863d 3b8e 2e3e 7709 393e
000001f0: c85a f13d 2ced 30be 20b1 51be 13ce 2b3e
00000200: f9da 983d 2d60 0fbe 32d4 513e 6ef0 da3d
00000210: 9404 c23d 1c38 42be c589 123e dd01 113e
00000220: 36ea 0c3e 6f34 9abe 38a0 953d 64bc 0dbe
00000230: eb6b 9c3e 8f55 c1bc 921f 143e a90b d03c
00000240: d275 a13c 41f8 bf3c 94f4 793e 3f23 48be
00000250: 54f0 1abe 7153 16be 2a14 e33d 6791 163c
00000260: 6766 1b3d 5983 46be 320e 183e 1bf7 6b3e
00000270: 24cf fd3d 1dda 51bc 2666 7ebe 8e42 2abd
00000280: cd17 43be 7713 0b3e 23ea 88be 13f9 2b3e
00000290: 1001 913e f6d9 0f3e a240 e73d 0837 78be
000002a0: 25ca 643e 9abc 04be 2a31 29be f98b 7a3e
000002b0: b395 4bbe db6c 63bd c780 4f3e e684 12be
000002c0: 3266 5cbe 9d7f 063e 0d9e 903d cbe9 b6bd
000002d0: 8065 0ebe fae6 66bd a6d3 15be ae69 c0bd
000002e0: ba25 7cbe 836c d4bc 5652 133c 64e4 31be
000002f0: c6cc 743e 07b7 1e3e 6523 d23b 5952 53be
00000300: 6567 2a3c 3245 3a3e aa60 bc3d 2619 f1bd
00000310: 4777 7c3e fba2 9c3d 2faf 2c3e c9f4 463e
00000320: f13a 4b3e d594 76be 7fa4 9a3e c065 34be
00000330: 6c83 b0bd 1e84 62be 0609 a1bd 3f6e 2c3d
00000340: c148 5abd d233 87bd 8b69 3cbb cca6 9c3e
00000350: 6c7a 193e 850d 0a3e 8b85 023e 6903 333e
00000360: e62e 69bc 0729 e9bc a634 c13d 1f1f 78be
00000370: fe67 92be 0424 33bb d7a7 cabd 113f 4c3c
00000380: 40c2 20bc 03d8 4a3d a50c 163e a733 7fbd
00000390: b004 2f3e 1283 703e 21c9 36be d9fa 39be
000003a0: b91e 25be cfe9 d0bd dcff cfbd 232f c4bc
000003b0: f7b5 abbd b470 0dbe 32b9 abbd 651e 05be
000003c0: 89ed 713e c920 a6bd 9915 3cbe cd2a 003e
000003d0: df5b ffbb ec6d 333e efb6 083e 5dfe 763e
000003e0: 80f9 4dbe a1d0 513e e098 523e afb7 f0bd
000003f0: 8dda 643e 2c89 3e3e 18bd 6c3c 86cf 153e

encoder.node_encoder.gru_cells.0.bias_ih f4 [48]
0.21871392 0.118947245 -0.08929995 0.045682997 0.049503062 0.041115385 -0.093704954 -0.16284218
0.22363126 0.07622611 0.14164622 -0.0364216 0.14695458 0.19885981 0.12410813 0.052602485
0.2172406 -0.023361752 -0.027248116 0.21561363 0.23675486 -0.1771966 0.13592136 0.06970156
-0.09127776 0.14412326 -0.16127959 0.09192565 0.17336896 -0.23673725 -0.16891317 -0.26745537
-0.02647034 -0.23046131 -0.1095945 0.09031424 0.16318548 0.15114827 0.16057162 0.09450098
-0.11445437 -0.2050481 0.007549946 0.22160484 0.0049452903 -0.040046334 -0.15148857 -0.13498501
00000000: 8bf6 5f3e 9d9a f33d e4e2 b6bd 181e 3b3d
00000010: b9c3 4a3d 9b68 283d 62e8 bfbd 1ac0 26be
00000020: 98ff 643e 6f1c 9c3d b50b 113e d12e 15bd
00000030: 437b 163e e8a1 4b3e 672c fe3d b475 573d
00000040: 5274 5e3e 2561 bfbc 7137 dfbc d2c9 5c3e
00000050: de6f 723e 0773 35be f82e 0b3e b1bf 8e3d
00000060: d6ef babd 0c95 133e 7a26 25be 8443 bc3d
00000070: a287 313e 406b 72be 93f7 2cbe e9ef 88be
00000080: 54d8 d8bc 0dfe 6bbe 1573 e0bd acf6 b83d
00000090: 181a 273e 9dc6 1a3e e36c 243e bb89 c13d
000000a0: 0e67 eabd 21f8 51be 8a65 f73b 61ec 623e
000000b0: 1a0c a23b a007 24bd d21f 1bbe 8339 0abe

encoder.node_encoder.gru_cells.0.bias_hh f4 [48]
-0.18960635 0.19836034 -0.061661694 -0.2119701 0.027882501 0.000697119 -0.039022528 0.0738706
0.1925601 -0.19246896 -0.15451409 0.04625082 -0.20592234 -0.21017155 0.1927919 -0.034386337
-0.15232773 -0.10856934 -0.27565312 0.1731726 -0.060429033 -0.21220091 -0.2788816 0.12355972
-0.09785121 -0.10042736 -0.09693018 -0.19119196 -0.029894447 0.12803097 -0.166285 -0.007745637
-0.18181412 -0.121080756 0.18596028 0.023405552 0.22297713 -0.031529598 -0.11790669 -0.15747865
0.262695 -0.19992965 0.12865384 0.052894913 0.05778467 0.11216472 -0.0562047 0.1465811
00000000: 2b28 42be f91e 4b3e f990 7cbd b10e 59be
00000010: d869 e43c ddbe 363a 16d6 1fbd 7849 973d
00000020: 7a2e 453e 9516 45be f138 1ebe 8071 3d3d
00000030: 4edd 52be 3637 57be 3d6b 453e b0d8 0cbd
00000040: cdfb 1bbe 9a59 debd 6822 8dbe 2854 313e
00000050: 6f84 77bd 324b 59be 92c9 8ebe e10c fd3d
00000060: 3766 c8bd dcac cdbd 5583 c6bd d3c7 43be
00000070: 33e5 f4bc 8d1a 033e 9d46 2abe 1dcf fdbb
00000080: 7b2d 3abe 30f9 f7bd 5f6c 3e3e 00bd bf3c
00000090: 1e54 643e 2e25 01bd 1079 f1bd 1542 21be
000000a0: f67f 863e 5cba 4cbe d5bd 033e 56a8 583d
000000b0: 9eaf 6c3d 9eb6 e53d e636 66bd 5b19 163e

encoder.node_encoder.gru_cells.1.weight_ih f4 [48, 16]
-0.24494052 -0.16112378 0.16478775 0.12550637 -0.010564052 -0.036533933 -0.11738146 0.13396965
-0.029498477 -0.06250045 0.1376569 0.1744849 -0.22014229 -0.12715434 0.14559852 0.18608806
-0.1755311 -0.28721365 0.054322906 0.15174799 0.08638025 0.1810575 -0.19976802 0.10539709
-0.18645105 0.09240962 0.19209464 0.06879266 0.22792184 -0.14713259 -0.255618 -0.23301977
0.10455847 0.12121968 -0.120689556 0.10652352 0.25069162 -0.28064898 0.15253735 -0.0039984733
-0.021470692 0.19199394 0.2340381 0.07496096 0.14362514 0.121995814 0.05615233 -0.18139757
-0.0032421567 -0.22581829 0.1209886 0.030660149 0.017811872 -0.177461 -0.15138435 0.11832535
0.064684585 0.119459935 -0.036256734 -0.057671644 -0.042562693 0.1866565 -0.14448401 0.17468302
0.089220196 -0.23212363 0.02994912 -0.065723374 -0.05076605 0.06904189 -0.12509295 0.22578762
-0.24420491 0.05562776 -0.22617379 -0.09937298 0.03337056 0.30647013 0.1227418 -0.14950848
0.030430922 -0.12022593 0.055567678 -0.22411609 -0.07961424 0.09203109 -0.27055836 -0.25407344
0.015953872 0.115449056 -0.11535993 0.19757015 -0.062170636 -0.1139565 -0.1514959 -0.03136627
-0.049376074 0.21010539 -0.05802548 0.074998006 -0.110496566 0.24698307 0.23003025 -0.2010088
-0.031096535 -0.25675336 0.096381016 -0.2184486 -0.16201772 0.22961944 -0.1976376 0.16032466
0.021457072 0.13918921 -0.15901852 0.20192185 0.013142461 0.037318178 0.22895582 -0.21568285
-0.19947278 0.23356336 -0.07207018 -0.17663556 -0.09611409 -0.1491452 -0.06568854 -0.1558585
0.14542273 -0.28693488 -0.14285009 0.26475328 0.022673475 0.14403108 0.14748982 -0.06257939
0.06117542 -0.14342317 -0.08506317 -0.093340054 0.15426257 -0.15615773 0.048261184 0.12813143
-0.09757604 -0.075255856 -0.01364317 -0.21877909 0.14207664 -0.29876092 -0.10983709 -0.036906764
0.10812567 0.067773096 0.01599511 0.13158363 0.19868354 0.17239557 -0.064080715 -0.1538541
-0.064745754 -0.06971378 -0.0067655635 -0.015401888 0.1018596 0.20315148 -0.060764797 -0.24453923
-0.110668525 -0.18249424 0.1920142 -0.16898157 -0.10742508 -0.09672626 -0.16745321 0.123329304
-0.109723076 -0.006200503 -0.07515352 -0.09696907 0.039898906 -0.09593553 -0.14107293 0.051616676
-0.106310025 -0.062920965 -0.21506362 -0.056024082 -0.13903654 0.25607803 -0.11755866 -0.09434709
-0.016033804 0.036318216 -0.09255267 0.2646461 -0.12401815 0.12518387 0.016211746 -0.22155288
-0.10496141 -0.012917498 0.092425406 0.16814344 0.04778364 -0.16168562 -0.12077696 -0.022985669
-0.20856102 -0.09934249 -0.24911927 0.1362769 0.18834597 0.06495171 -0.13642465 -0.21732727
-0.07727021 0.0039830315 0.060829 0.036218267 0.15465851 0.07858371 0.043377362 -0.047390778
0.04126722 0.0978893 -0.13615562 -0.1814501 0.051431797 0.05510078 0.08055382 -0.20203787
-0.31765988 -0.055138055 -0.027491482 0.04914985 -0.06458629 0.24140608 0.018359536 0.21037629
-0.1857535 0.10138165 0.03156625 -0.11857392 0.108351715 -0.25555566 0.20481956 0.02027289
0.018194016 0.1223298 0.0074913683 0.081343375 0.1599835 -0.21004754 0.17683841 -0.008529405
00000000: b0d1 7abe a2fd 24be 1fbe 283e be84 003e
00000010: d814 2dbc 9ba4 15bd b165 f0bd 572f 093e
00000020: caa6 f1bc 3c00 80bd eef5 0c3e 2bac 323e
00000030: fb6c 61be bf34 02be c717 153e de8d 3e3e
00000040: 6dbe 33be ab0d 93be b281 5e3d d363 1b3e
00000050: 21e8 b03d 2367 393e fd8f 4cbe 6eda d73d
00000060: 06ed 3ebe 4141 bd3d 75b4 443e 2be3 8c3d
00000070: 5864 693e eda9 16be 5de0 82be bc9c 6ebe
00000080: c022 d63d 0642 f83d 162c f7bd 0129 da3d
00000090: a75a 803e 39b1 8fbe c032 1c3e a005 83bb
000000a0: 4ee3 afbc 0f9a 443e afa7 6f3e 2285 993d
000000b0: 7812 133e f1d8 f93d fcff 653d 49c0 39be
000000c0: 5d7a 54bb e93c 67be dfc8 f73d fe2a fb3c
000000d0: 34ea 913c 56b8 35be 8004 1bbe 9054 f23d
000000e0: 5a79 843d 69a7 f43d f181 14bd 1a39 6cbd
000000f0: 3856 2ebd e222 3f3e 9ef3 13be 1be0 323e
00000100: 14b9 b63d d1b1 6dbe db57 f53c fa99 86bd
00000110: 10f0 4fbd d665 8d3d 5e18 00be df34 673e
00000120: da10 7abe efd9 633d 1a9a 67be 1084 cbbd
00000130: 91af 083d a7e9 9c3e 0e60 fb3d c018 19be
00000140: 454a f93c 0339 f6bd ef9a 633d b07e 65be
00000150: ca0c a3bd cc7a bc3d a086 8abe ea15 82be
00000160: b2b1 823c 8e70 ec3d d441 ecbd d44f 4a3e
00000170: a3a6 7ebd 0762 e9bd be21 1bbe eb79 00bd
00000180: 913e 4abd de25 573e 20ac 6dbd 8e98 993d
00000190: 064c e2bd 21e9 7c3e 0d8d 6b3e 40d5 4dbe
000001a0: 29be febc 2d75 83be 6963 c53d fdb0 5fbe
000001b0: f9e7 25be 5c21 6b3e 8361 4abe 262c 243e
000001c0: bec6 af3c 9e87 0e3e c0d5 22be 9ac4 4e3e
000001d0: 7a53 573c f2da 183d 6573 6a3e f7db 5cbe
000001e0: 9842 4cbe 3c2b 6f3e 8899 93bd f4df 34be
000001f0: 77d7 c4bd 85b9 18be b787 86bd 5f99 1fbe
00000200: b2e9 143e 21e9 92be 4b47 12be be8d 873e
00000210: b9bd b93c e27c 133e 9207 173e a029 80bd
00000220: 1493 7a3d 86dd 12be 9935 aebd 1229 bfbd
00000230: 02f7 1d3e d0e7 1fbe 85ad 453d e334 033e
00000240: f2d5 c7bd be1f 9abd 9a87 5fbc a007 60be
00000250: 8a7c 113e 31f7 98be 45f2 e0bd 8c2b 17bd
00000260: fe70 dd3d 9fcc 8a3d 2d08 833c dcbd 063e
00000270: b373 4b3e 7788 303e c03c 83bd ee8b 1dbe
00000280: 6c99 84bd 19c6 8ebd a9b1 ddbb 3358 7cbc
00000290: c49b d03d f106 503e 82e4 78bd 7e68 7abe
000002a0: 2ea6 e2bd c5df 3abe 5f9f 443e 8109 2dbe
000002b0: ae01 dcbd 6b18 c6bd db78 2bbe 1394 fc3d
000002c0: 7eb6 e0bd 972d cbbb 17ea 99bd b897 c6bd
000002d0: 096d 233d d979 c4bd 6c75 10be 026c 533d
000002e0: 12b9 d9bd b5dc 80bd a339 5cbe 8279 65bd
000002f0: 985f 0ebe a91c 833e 98c2 f0bd 0c39 c1bd
00000300: 5359 83bc 69c2 143d 418c bdbd b27f 873e
00000310: 3afd fdbd 3330 003e 7fce 843c c2de 62be
00000320: 02f6 d6bd eaa3 53bc 8849 bd3d cb2d 2c3e
00000330: c7b8 433d ea90 25be e959 f7bd 714c bcbc
00000340: 0591 55be 1374 cbbd 1f19 7fbe 2c8c 0b3e
00000350: c4dd 403e 6705 853d e7b2 0bbe 0a8b 5ebe
00000360: d83f 9ebd 1784 823b d427 793d 9b59 143d
00000370: cd5e 1e3e 7ff0 a03d 76ac 313d d51c 42bd
00000380: d107 293d 2f7a c83d 616c 0bbe 0ece 39be
00000390: 26aa 523d 5bb1 613d 67f9 a43d 04e3 4ebe
000003a0: 51a4 a2be 71d8 61bd d135 e1bc 5a51 493d
000003b0: d145 84bd 2833 773e bd66 963c e26c 573e
000003c0: 2a36 3ebe 2fa1 cf3d 9d4b 013d e2d6 f2bd
000003d0: 81e7 dd3d 31d8 82be 38bc 513e 5513 a63c
000003e0: 9e0b 953c 0c88 fa3d 277a f53b 5b97 a63d
000003f0: b7d2 233e b416 57be 2115 353e ebbe 0bbc

encoder.node_encoder.gru_cells.1.weight_hh f4 [48, 16]
0.024461769 0.2147787 0.19292761 0.22078276 -0.04968974 -0.2139246 -0.1552023 0.07785549
0.1821445 -0.05880027 0.18798198 0.059159633 0.01029946 0.08204785 -0.048505 0.21274228
0.040146906 0.14988786 -0.22762446 -0.108802915 0.032973766 0.1662255 0.10714875 0.010553288
-0.24362443 0.02522752 -0.1422068 -0.20058748 -0.006868864 -0.16446789 0.21087287 -0.12793641
0.07863481 0.16591856 -0.16194136 0.16949375 -0.043170568 0.11184967 0.23005633 -0.13604487
-0.08266796 0.22563004 0.034424737 0.0042899763 0.19433384 -0.054900836 -0.027604029 0.17551424
0.061627228 -0.17004625 0.15012708 -0.16040584 -0.105502084 0.15033172 -0.062013157 -0.14614415
0.062312387 0.13185467 -0.17008217 -0.12175338 -0.19331582 0.118039176 -0.16351743 0.015049206
-0.08022131 -0.10446715 -0.048133895 -0.11645658 -0.19280957 -0.08795631 -0.2536638 -0.2014807
0.16447522 0.037055288 -0.115166895 -0.02454664 0.21724066 -0.15984297 -0.16802819 -0.1999447
0.024865892 0.05439636 -0.21478721 0.1924745 -0.17136995 0.22123505 -0.12622647 -0.066861965
0.08874829 -0.15608963 0.30736515 -0.17769079 -0.013146459 -0.1628152 0.019694934 0.2812435
0.28655294 0.040580567 -0.19377632 0.23854385 0.016536532 0.16256061 -0.13452403 -0.12073355
-0.23232672 0.20633537 0.08181378 -0.21875398 -0.06315949 -0.1344422 -0.013152941 0.08133007
-0.14167759 0.04186887 -0.14322971 0.059939817 -0.23352845 0.054494444 0.24324107 0.23735449
0.108701035 0.18500912 0.21627912 0.058024816 0.09434588 0.08076302 0.2310054 0.2014805
-0.18236513 -0.12327521 -0.080855384 -0.0109420195 -0.24680555 0.18828411 -0.10874215 0.14856696
0.040119123 -0.07962821 0.046049993 0.16922173 -0.12922359 0.14736153 0.32578874 0.092423275
-0.08886308 0.11040784 -0.046352617 -0.049922805 0.109380886 0.09663773 0.11154014 -0.26993737
0.28322884 -0.017253775 0.21210502 0.25216097 0.17176579 0.3240862 0.13276546 0.14859058
-0.100066885 0.22464956 0.08378742 0.16606344 -0.06194307 0.1850605 0.18956737 -0.19809113
0.20090255 -0.13675836 -0.18957877 -0.20418893 0.058240235 -0.15381277 -0.096734166 -0.14959694
0.06053963 -0.21438375 -0.09385823 0.012355864 0.030922811 -0.12137763 0.12347369 -0.16871753
-0.17665277 -0.05976322 -0.12857635 0.17477037 -0.11860662 0.007372458 0.100307584 -0.18355997
0.15922192 -0.1254094 -0.02077452 -0.12581985 -0.1111293 -0.09784912 -0.26446855 0.0786451
-0.0037650184 0.30499685 0.13429004 0.25818694 0.08484061 0.17470439 0.24354339 0.16869977
-0.20797919 -0.097762816 -0.19025631 0.009891606 -0.08292415 0.24017182 0.01176193 -0.0022039954
-0.18338194 -0.1612377 0.015763108 -0.0696945 -0.11045786 0.18504126 -0.10455354 -0.13235024
0.18839952 0.11148151 -0.090419054 0.12536043 0.116494544 -0.2502994 0.032301906 0.028956056
0.012194014 0.2789951 -0.15345839 0.17861056 -0.12032291 -0.16686599 0.14918336 -0.11474921
0.05364343 0.17215475 -0.25549364 -0.17942362 0.09885345 0.17971803 -0.00559579 0.14101523
0.110508144 0.040908657 -0.12687872 0.20099366 0.054035638 0.08164475 0.13642177 -0.18539184
00000000: 0c64 c83c f3ee 5b3e d18e 453e e014 623e
00000010: 7887 4bbd 0d0f 5bbe 5aed 1ebe b372 9f3d
00000020: 1684 3a3e 8dd8 70bd 597e 403e 5f51 723d
00000030: 11bf 283c b408 a83d 2ead 46bd 1dd9 593e
00000040: 1571 243d 347c 193e 6316 69be 10d4 debd
00000050: 800f 073d 0437 2a3e ce70 db3d b3e7 2c3c
00000060: af78 79be f2a9 ce3c a99e 11be ce66 4dbe
00000070: 3514 e1bb 456a 28be 0fef 573e c301 03be
00000080: 4a0b a13d 8ee6 293e f5d3 25be c58f 2d3e
00000090: 9fd3 30bd 7111 e53d e393 6b3e 594f 0bbe
000000a0: d24d a9bd 900b 673e f400 0d3d ee92 8c3b
000000b0: 73ff 463e b3df 60bd d821 e2bc 01ba 333e
000000c0: d56c 7c3d 9b20 2ebe eaba 193e 6e41 24be
000000d0: 7a11 d8bd 8ff0 193e 8201 7ebd d0a6 15be
000000e0: 463b 7f3d e904 073e 052a 2ebe d659 f9bd
000000f0: 95f4 45be 86be f13d 1d71 27be f290 763c
00000100: 124b a4bd e0f2 d5bd 0c28 45bd ca80 eebd
00000110: df6f 45be 7022 b4bd 39e0 81be f550 4ebe
00000120: 316c 283e 49c7 173d 9fdc ebbd 0916 c9bc
00000130: 5674 5e3e e0ad 23be 950f 2cbe 4ebe 4cbe
00000140: 8eb3 cb3c b8ce 5e3d 2ef1 5bbe 0918 453e
00000150: 9b7b 2fbe 718b 623e 8341 01be edee 88bd
00000160: aac1 b53d f6d5 1fbe f75e 9d3e 93f4 35be
00000170: 3f64 57bc 07b9 26be 4557 a13c 26ff 8f3e
00000180: 11b7 923e cf37 263d 4d6d 46be d744 743e
00000190: 9f77 873c 4a76 263e abc0 09be 2743 f7bd
000001a0: 0ee7 6dbe 9449 533e fc8d a73d 0b01 60be
000001b0: c359 81bd 37ab 09be 6f7f 57bc 6190 a63d
000001c0: ee13 11be b17e 2b3d cfaa 12be 7483 753d
000001d0: 1522 6fbe 9135 5f3d 3014 793e 0e0d 733e
000001e0: a69e de3d 0873 3d3e 4678 5d3e 6eab 6d3d
000001f0: 6a38 c13d 1567 a53d ae8c 6c3e e750 4e3e
00000200: edbd 3abe b777 fcbd 8297 a5bd 2846 33bc
00000210: 98ba 7cbe 8dcd 403e 34b4 debd f021 183e
00000220: f353 243d 1d14 a3bd eb9e 3c3d 7648 2d3e
00000230: 3053 04be f1e5 163e c8cd a63e 6a48 bd3d
00000240: d9fd b5bd 811d e23d 3edc 3dbd db7b 4cbd
00000250: 1603 e03d 01ea c53d 286f e43d 3b35 8abe
00000260: 5f03 913e ca57 8dbc 0f32 593e 3e1b 813e
00000270: 5fe3 2f3e a0ee a53e abf3 073e 2128 183e
00000280: deef ccbd 890a 663e bd98 ab3d 890c 2a3e
00000290: 04b8 7dbd 8080 3d3e f31d 423e 67d8 4abe
000002a0: 66b9 4d3e 620a 0cbe f020 42be e716 51be
000002b0: 508d 6e3d 1881 1dbe 901c c6bd f12f 19be
000002c0: 67f8 773d 6a87 5bbe be38 c0bd 4070 4a3c
000002d0: d651 fd3c d694 f8bd c6df fc3d 4ac4 2cbe
000002e0: 77e4 34be 47ca 74bd 85a9 03be 01f7 323e
000002f0: 07e8 f2bd a994 f13b 106e cd3d 25f7 3bbe
00000300: 120b 233e 526b 00be 532f aabc ebd6 00be
00000310: c297 e3bd 1f65 c8bd 6c68 87be af10 a13d
00000320: 87be 76bb 8c28 9c3e 5483 093e 1431 843e
00000330: eac0 ad3d b5e5 323e 7063 793e a2bf 2c3e
00000340: 7ff8 54be df37 c8bd 8dd2 42be 6710 223c
00000350: 23d4 a9bd 9aef 753e 1cb5 403c e870 10bb
00000360: 7ac8 3bbe 7f1b 25be a221 813c fdbb 8ebd
00000370: bb37 e2bd 757b 3d3e 2b20 d6bd d286 07be
00000380: ceeb 403e 6b50 e43d a02d b9bd 7c5e 003e
00000390: b194 ee3d 3e27 80be 014f 043d 4035 ed3c
000003a0: 67c9 473c 72d8 8e3e 3224 1dbe b0e5 363e
000003b0: dc6b f6bd ebde 2abe 86c3 183e a201 ebbd
000003c0: 37b9 5b3d 5649 303e 10d0 82be d3ba 37be
000003d0: ad73 ca3d 0108 383e e45c b7bb 4c66 103e
000003e0: 1852 e23d d68f 273d 7fec 01be 48d1 4d3e
000003f0: 7954 5d3d 5d35 a73d 26b2 0b3e 5cd7 3dbe

encoder.node_encoder.gru_cells.1.bias_ih f4 [48]
0.13044159 -0.16896585 0.13307126 0.042416275 -0.06370356 0.19359466 0.103109844 0.08925219
-0.080120705 -0.12906457 -0.12361799 0.08164266 0.09108869 -0.13507085 0.23942603 0.12976608
-0.14976545 0.06588584 -0.14864802 -0.0030826917 0.15610698 -0.26371494 -0.15533312 -0.025375552
0.023301253 -0.22402157 -0.22038962 -0.12701738 -0.106213726 0.030537263 -0.051946174 0.0468061
0.024761984 0.03706029 -0.04455987 0.08215169 0.20075703 -0.10851255 -0.124794945 0.106228985
-0.14879256 0.17634378 0.12409464 0.052862983 -0.115888 -0.009564187 -0.18881638 -0.19977163
00000000: 7b92 053e 6205 2dbe d543 083e b0bc 2d3d
00000010: 0377 82bd ae3d 463e 412b d33d dac9 b63d
00000020: 5316 a4bd 8129 04be 6e2b fdbd 4434 a73d
00000030: b58c ba3d 0350 0abe 192c 753e 66e1 043e
00000040: 1d5c 19be 28ef 863d 3037 18be fc06 4abb
00000050: 82da 1f3e a505 87be a50f 1fbe 64e0 cfbc
00000060: 45e2 be3c e965 65be d1ad 61be d810 02be
00000070: 9586 d9bd 4829 fa3c 83c5 54bd c1b7 3f3d
00000080: a5d9 ca3c 88cc 173d 6984 36bd 253f a83d
00000090: 4093 4d3e d43b debd 7e94 ffbd 958e d93d
000000a0: 145d 18be 7793 343e 5525 fe3d db86 583d
000000b0: b056 edbd 1cb3 1cbc 1559 41be ef90 4cbe

encoder.node_encoder.gru_cells.1.bias_hh f4 [48]
0.26656505 -0.18762335 -0.2139015 -0.08220736 0.07942692 0.037694935 -0.12745401 -0.022861524
-0.043091573 0.21719699 0.22788836 0.09046906 0.022200923 0.20203696 -0.1899079 0.0885663
-0.19962838 0.13150619 -0.263671 0.011348536 -0.25752437 0.103329495 0.014681501 0.20326318
-0.20253406 0.14247416 -0.22275506 -0.23801897 0.024920024 -0.065467164 -0.281097 -0.21720782
-0.05446089 0.07770045 0.18663509 0.17929688 0.030945193 -0.13873619 -0.2213243 0.21937981
-0.102817886 -0.031967077 -0.19817725 -0.15710126 0.042764176 -0.07468052 0.036602445 0.019833595
00000000: 377b 883e 5620 40be ff08 5bbe 555c a8bd
00000010: 95aa a23d 0166 1a3d 4e83 02be 1748 bbbc
00000020: ca80 30bd e368 5e3e 915b 693e d847 b93d
00000030: b6de b53c c7e2 4e3e 3777 42be 4062 b53d
00000040: 626b 4cbe 8fa9 063e e3ff 86be 36ef 393c
00000050: 3cda 83be 6a9e d33d ae8a 703c 3924 503e
00000060: 1765 4fbe bfe4 113e e719 64be 3fbb 73be
00000070: 1425 cc3c a613 86bd f2eb 8fbe ba6b 5ebe
00000080: 6212 5fbd 6a21 9f3d 451d 3f3e 9a99 373e
00000090: c680 fd3c dc10 0ebe d6a2 62be 1aa5 603e
000000a0: 2f92 d2bd e9ef 02bd faee 4abe 27df 20be
000000b0: 7d29 2f3d 1af2 98bd 72ec 153d 107a a23c

encoder.node_encoder.gru_cells.2.weight_ih f4 [48, 16]
0.058502693 -0.0822705 -0.064085424 0.11619651 0.18438928 0.22249305 -0.16516545 -0.24289027
-0.008166929 -0.1068245 0.1632396 0.24506617 0.034448963 -0.21789299 -0.008654788 0.19107684
0.060621217 -0.24150033 0.06516321 -0.26693857 -0.06972153 0.20673424 -0.1096317 0.124703795
-0.16034779 0.28247893 0.06717558 0.21615428 0.13029963 0.03104006 -0.079280995 -0.16185318
-0.124377936 0.19919282 -0.1196228 0.040340252 -0.2305901 0.052415553 -0.1648371 -0.1827708
-0.026460443 -0.18317637 -0.013386669 -0.22677134 0.083484866 -0.25563776 0.014051288 0.08465119
-0.20854035 0.17887792 0.19948818 -0.16669475 0.050618302 0.06843207 0.23862518 0.21523944
-0.20680085 -0.21398945 -0.22342172 -0.11337683 -0.05193506 -0.096584685 0.16541056 -0.15418619
-0.15678492 -0.1829457 -0.16136707 0.2719145 0.032863595 -0.058478843 -0.08795712 -0.21487579
-0.08143388 0.13688688 0.20034568 0.17782594 0.016705709 -0.13880052 -0.1807846 0.25987142
-0.22704928 0.05159797 -0.03233741 0.23440257 0.14071281 -0.04558016 -0.20859116 0.036586206
-0.18262884 -0.036157046 0.056657787 0.12631047 -0.042664584 -0.18813169 -0.1945462 -0.23926137
0.0086939605 -0.22317703 0.04836993 -0.16349378 -0.16012226 0.21339844 0.13669668 0.15524127
0.25348476 -0.15224919 -0.16615777 -0.13108267 0.19668148 0.11406845 0.25962874 -0.20175715
-0.115173146 0.18879934 -0.2091754 -0.22124061 0.11048405 -0.17792732 -0.027057804 0.09316433
0.22291173 -0.048241086 -0.23890212 0.18184485 0.24623054 -0.24456462 0.032787874 -0.19313593
-0.17484543 -0.006285049 0.2290583 0.01373486 -0.12938164 0.07282252 0.16651043 -0.033662647
-0.019027177 -0.10828396 0.17824791 -0.06956779 -0.07313025 0.16024534 -0.05078295 0.15872467
-0.1349428 0.032937355 -0.14467935 0.2610866 0.16145939 -0.053726308 -0.029276602 -0.07744052
-0.18192227 -0.07897824 0.1208292 -0.103312485 0.14194752 0.08992854 -0.07070605 -0.15696318
0.120695606 -0.17071919 0.029377725 0.11730778 0.040968135 0.14482583 0.095844425 -0.06560707
-0.16443779 -0.29646537 0.16130508 0.08425522 -0.1985921 0.0877033 -0.12960432 0.2502104
-0.14751476 0.15415205 0.23846292 0.110865146 0.16643198 0.117678955 0.05026407 -0.20011555
-0.054790795 0.032498486 0.054754853 -0.041962616 0.15813248 0.1831626 0.16063368 0.076589376
-0.093157634 0.08767186 -0.016382005 0.21290368 -0.020788373 0.011641098 -0.24419287 0.22834747
-0.0112567535 0.23683389 -0.23119806 -0.13687967 0.027869714 -0.154691 0.1016416 -0.0435085
-0.14767131 0.1951518 0.23621994 -0.18377475 -0.25643998 0.1524807 -0.19006051 0.068285614
-0.04249722 0.10068185 -0.17386532 0.071326904 -0.037685886 -0.06735156 -0.11545049 0.026336286
0.16697542 -0.09033262 0.013119583 0.13137689 0.23306079 0.019839842 -0.18150692 0.03298171
0.09103446 -0.19408952 -0.26518434 0.06716407 0.25396258 -0.29539642 -0.057790108 -0.097009785
-0.23519404 -0.17872658 0.2056394 0.19514608 -0.19484432 0.040073037 -0.20341307 0.076471776
-0.13619097 -0.13171923 -0.13950905 0.046910983 0.17660326 -0.091018 0.07384606 0.1912925
00000000: 85a0 6f3d 707d a8bd 383f 83bd 70f8 ed3d
00000010: 8bd0 3c3e 38d5 633e 2221 29be 3ab8 78be
00000020: 95ce 05bc cec6 dabd 4828 273e a0f2 7a3e
00000030: 5b1a 0d3d 571f 5fbe d0cc 0dbc a6a9 433e
00000040: f44d 783d dd4b 77be 4a74 853d 2cac 88be
00000050: 29ca 8ebd 24b2 533e 9686 e0bd b464 ff3d
00000060: 3632 24be 14a1 903e 5a93 893d 8c57 5d3e
00000070: 446d 053e b947 fe3c 135e a2bd d7bc 25be
00000080: dcb9 febd 34f9 4b3e ccfc f4bd d23b 253d
00000090: d01f 6cbe b1b1 563d 0fcb 28be 4528 3bbe
000000a0: 92c3 d8bc 9692 3bbe c253 5bbc bf36 68be
000000b0: 1dfa aa3d f4e2 82be 6037 663c 9a5d ad3d
000000c0: 9a8b 55be c62b 373e a146 4c3e 07b2 2abe
000000d0: 2355 4f3d 1d26 8c3d 295a 743e ba67 5c3e
000000e0: 9ac3 53be 0d20 5bbe aac8 64be 1d32 e8bd
000000f0: dcb9 54bd 31ce c5bd 6361 293e fce2 1dbe
00000100: 3a8c 20be 1e56 3bbe 693d 25be 6138 8b3e
00000110: fa9b 063d 8387 6fbd dd22 b4bd 6608 5cbe
00000120: cec6 a6bd 132c 0c3e 6b27 4d3e 0118 363e
00000130: 69da 883c b921 0ebe 991f 39be de0d 853e
00000140: 9b7f 68be 6558 533d 3b74 04bd 3a07 703e
00000150: 0517 103e 43b2 3abd ec98 55be 6bdb 153d
00000160: 0e03 3bbe 6919 14bd ff11 683d 8857 013e
00000170: 0fc1 2ebd 98a5 40be 1e37 47be ef00 75be
00000180: 1d71 0e3c 8588 64be 8c1f 463d ea6a 27be
00000190: 17f7 23be 1f85 5a3e 37fa 0b3e 91f7 1e3e
000001a0: c1c8 813e 36e7 1bbe 4325 2abe 893a 06be
000001b0: df66 493e b89c e93d 0fee 843e 6d99 4ebe
000001c0: e6df ebbd 9d54 413e 1332 56be e68c 62be
000001d0: 7645 e23d 9432 36be 54a8 ddbc f1cc be3d
000001e0: f942 643e 7298 45bd c2a2 74be 8935 3a3e
000001f0: dc23 7c3e 266f 7abe 944c 063d 6dc5 45be
00000200: ae0a 33be d0f2 cdbb 428e 6a3e 2e08 613c
00000210: 9f7c 04be f923 953d b681 2a3e d8e1 09bd
00000220: e2de 9bbc fbc3 ddbd 9f86 363e 8f79 8ebd
00000230: 50c5 95bd 5b17 243e c801 50bd b888 223e
00000240: 722e 0abe 52e9 063d d326 14be 25ad 853e
00000250: 9c55 253e 1e10 5cbd 7cd5 efbc 2399 9ebd
00000260: d549 3abe 58bf a1bd 4d75 f73d 7f95 d3bd
00000270: b15a 113e 742c b83d 55ce 90bd f5ba 20be
00000280: 422f f73d 03d1 2ebe 8ea9 f03c 103f f03d
00000290: 34ce 273d 394d 143e 154a c43d 005d 86bd
000002a0: 6162 28be 4fca 97be 292d 253e 008e ac3d
000002b0: ba5b 4bbe ca9d b33d ffb6 04be 941b 803e
000002c0: 1c0e 17be 09da 1d3e a02f 743e 440d e33d
000002d0: 256d 2a3e aa01 f13d b3e1 4d3d 17eb 4cbe
000002e0: 506c 60bd 221d 053d a046 603d fee0 2bbd
000002f0: 7bed 213e fa8e 3b3e 287d 243e e4da 9c3d
00000300: 6ec9 bebd 4e8d b33d 8e33 86bc 6c03 5a3e
00000310: 614c aabc 4eba 3e3c b20d 7abe ebd3 693e
00000320: 3f6e 38bc 9584 723e 2fbf 6cbe 2f2a 0cbe
00000330: 074f e43c 5167 1ebe 7929 d03d f835 32bd
00000340: 2637 17be e0d5 473e a4e3 713e 732f 3cbe
00000350: 1a4c 83be e723 1c3e 399f 42be 54d9 8b3d
00000360: 9111 2ebd 4932 ce3d c009 32be d713 923d
00000370: 845c 1abd 9def 89bd 4e71 ecbd 32bf d73c
00000380: 9bfb 2a3e 4f00 b9bd 85f3 563c aa87 063e
00000390: 7da7 6e3e 2a87 a23c f3dc 39be d417 073d
000003a0: 4670 ba3d 67bf 46be 3ec6 87be 518d 893d
000003b0: 6207 823e 333e 97be 52b5 6cbd 11ad c6bd
000003c0: b5d6 70be 1a04 37be 2393 523e 60d4 473e
000003d0: 4585 47be a023 243d 844b 50be 3c9d 9c3d
000003e0: a575 0bbe 68e1 06be 76db 0ebe bb25 403d
000003f0: 7cd7 343e a567 babd 9a3c 973d 2ee2 433e

encoder.node_encoder.gru_cells.2.weight_hh f4 [48, 16]
0.063591234 0.019662976 -0.22167794 0.24409822 -0.15137085 0.13221323 -0.0057988986 0.026403608
0.11935455 -0.03196685 -0.09847336 0.23070668 -0.22336 0.09199706 -0.11565854 -0.07015581
0.12681136 0.04733289 -0.21910308 0.19578004 -0.13251822 0.19952449 -0.07557225 0.26075178
0.054035533 0.014313147 0.071265966 0.0075372965 -0.098654136 0.12874532 0.18476695 -0.043221954
0.1970894 -0.09263544 -0.12175892 -0.10706829 0.16958678 -0.08407786 0.17958127 -0.18696713
-0.06617395 -0.14587668 0.026364239 0.24359441 -0.0031559365 -0.08303193 -0.198407 -0.21829921
-0.09859504 0.26687443 -0.17721906 0.119006634 0.17470336 0.06737976 -0.20040867 -0.013660779
-0.07699357 0.169456 -0.022680996 0.0020906506 0.23271005 0.049319465 0.08780093 -0.046840064
0.10190588 -0.03581894 -0.0014704886 0.06794195 -0.1682376 0.0626588 0.14132075 -0.21147649
-0.17715764 0.16680036 -0.036590055 0.011901866 -0.03763117 -0.085098654 0.23869696 -0.087500736
-0.07529615 0.13304967 -0.22242013 -0.057414044 0.055915944 -0.038798954 0.12410557 -0.22565573
-0.051030725 -0.12828176 0.24095027 0.085456975 -0.19694576 0.14218363 0.010546954 0.22392017
0.16204123 -0.098779075 0.20983988 -0.087803215 -0.07048836 0.06093611 0.22418825 0.060568083
-0.21438196 -0.073078796 0.24031748 -0.105422094 -0.081543006 -0.2260736 -0.15400583 -0.095349826
0.108777 0.15739311 0.1998408 0.16105181 -0.046996705 0.09345476 0.1400626 -0.20762162
0.13233654 -0.15482086 0.17887348 -0.10396182 0.057958864 -0.06067658 0.08796055 0.035856828
-0.047339547 0.1835056 0.0045630177 -0.115359455 -0.2833634 -0.32367277 -0.09733177 0.0022023935
0.014548618 0.05758174 -0.07722992 0.19235343 0.071173154 -0.24910636 -0.18903764 -0.04798096
-0.18480526 -0.29293665 0.122446835 -0.16391057 0.15522349 0.24534827 -0.17154393 -0.15233354
-0.20307757 0.042085364 0.052284483 -0.14451617 0.12968962 0.15624312 -0.16764401 -0.06520423
-0.100963764 -0.061508216 0.12197724 0.008984609 -0.17181875 0.17549159 -0.20560859 -0.069167316
0.07830722 0.2227631 0.23743194 -0.041729826 0.06653411 -0.2006083 -0.060910456 -0.079172075
0.08062437 -0.11106106 0.08561482 0.06206136 0.20119055 -0.0324976 0.18468945 -0.2754149
-0.025989678 0.08317529 0.09194872 0.078983046 -0.11659102 0.1401733 -0.23098135 -0.11858738
-0.024881955 -0.1869946 -0.2169195 -0.27218613 0.22262266 0.060794566 -0.10762168 -0.037381303
-0.18950641 -0.24516398 -0.15245008 -0.26856616 0.22046044 -0.07192771 -0.07195767 -0.1636106
0.057580218 -0.027921114 -0.18718812 0.13819881 0.24726008 -0.16797516 0.111891 -0.07151081
0.033939075 0.07869736 0.0020268182 0.18142547 0.18970884 -0.109791055 -0.19214013 -0.17849904
0.12584965 -0.10884196 -0.23943472 -0.190423 -0.29767498 -0.23563826 0.21224183 0.14405826
0.2329216 -0.10427576 -0.11363382 -0.08707516 0.036335405 -0.2443693 0.023784164 -0.15372919
0.034091022 0.24623577 0.06614519 0.16694349 -0.15788642 -0.01362023 -0.1603214 -0.03625631
-0.094283506 -0.13399005 -0.24651486 -0.10125269 0.027852613 -0.044313706 -0.24778008 0.20627493
00000000: 1f3c 823d 4014 a13c 8bff 62be e2f4 793e
00000010: f600 1bbe e862 073e b004 bebb 614c d83c
00000020: 2970 f43d acef 02bd 67ac c9bd 5f3e 6c3e
00000030: 7cb8 64be f468 bc3d 62de ecbd d9ad 8fbd
00000040: d6da 013e 22e0 413d 8f5c 60be 907a 483e
00000050: dbb2 07be 2650 4c3e a0c5 9abd 4281 853e
00000060: 5d54 5d3d b181 6a3c e4f3 913d 6dfb f63b
00000070: 2e0b cabd d0d5 033e 8c33 3d3e 8109 31bd
00000080: ced1 493e a6b7 bdbd be5c f9bd 9f46 dbbd
00000090: 28a8 2d3e 0331 acbd 27e4 373e 5074 3fbe
000000a0: 3586 87bd b260 15be d1f9 d73c d070 793e
000000b0: d4d3 4ebb a50c aabd 342b 4bbe d489 5fbe
000000c0: 32ec c9bd c4a3 883e ea78 35be c0b9 f33d
000000d0: 70e5 323e 66fe 893d ee37 4dbe 76d1 5fbc
000000e0: ceae 9dbd e085 2d3e 7fcd b9bc 4c03 093b
000000f0: 8b4b 6e3e 3503 4a3d f9d0 b33d 5edb 3fbd
00000100: 08b4 d03d e1b6 12bd 69bd c0ba 2625 8b3d
00000110: 7a46 2cbe 4253 803d 63b6 103e 4b8d 58be
00000120: d068 35be b7cd 2a3e 74df 15bd 0b00 433c
00000130: 2423 1abd 3448 aebd fa6c 743e 9633 b3bd
00000140: de34 9abd 2c3e 083e 1ac2 63be fd2a 6bbd
00000150: 1e08 653d a7eb 1ebd 102b fe3d 4c12 67be
00000160: 9805 51bd 4b5c 03be abbb 763e 1104 af3d
00000170: 26ac 49be 9698 113e 22cd 2c3c 544b 653e
00000180: 23ee 253e af4c cabd 44e0 563e 2cd2 b3bd
00000190: 345c 90bd 2498 793d 9b91 653e 3d16 783d
000001a0: f286 5bbe 56aa 95bd c915 763e 8ae7 d7bd
000001b0: 0500 a7bd d67f 67be b4b3 1dbe c546 c3bd
000001c0: 7ac6 de3d a92b 213e 11a3 4c3e c4ea 243e
000001d0: 9e7f 40bd 3665 bf3d 926c 0f3e c39a 54be
000001e0: 3b83 073e 5c89 1ebe 9c2a 373e efe9 d4bd
000001f0: 4666 6d3d 0188 78bd a924 b43d 9cde 123d
00000200: 1de7 41bd e4e8 3b3e 5e85 953b 9441 ecbd
00000210: 0215 91be 70b8 a5be e155 c7bd 0856 103b
00000220: 545d 6e3c d5da 6b3d b82a 9ebd 4cf8 443e
00000230: 3bc3 913d bd15 7fbe 1593 41be af87 44bd
00000240: 973d 3dbe cbfb 95be 68c5 fa3d 2cd8 27be
00000250: e8f2 1e3e 943c 7b3e 36a9 2fbe 53fd 1bbe
00000260: 91f3 4fbe b461 2c3d 4128 563d 0cfc 13be
00000270: 5bcd 043e 32fe 1f3e dfaa 2bbe cc89 85bd
00000280: 17c6 cebd 0af0 7bbd 34cf f93d 2e34 133c
00000290: 41f1 2fbe 11b4 333e 0f8b 52be 98a7 8dbd
000002a0: 895f a03d 031c 643e 5c21 733e e5ec 2abd
000002b0: 0943 883d 436c 4dbe 3e7d 79bd f824 a2bd
000002c0: 641e a53d fb73 e3bd d356 af3d 0d34 7e3d
000002d0: e504 4e3e 341c 05bd 3b1f 3d3e 2f03 8dbe
000002e0: 4ee8 d4bc ce57 aa3d 9c4f bc3d ddc1 a13d
000002f0: 46c7 eebd 9789 0f3e 6086 6cbe f1dd f2bd
00000300: 3ed5 cbbc 837b 3fbe 2520 5ebe fb5b 8bbe
00000310: 32f7 633e b903 793d c168 dcbd 231d 19bd
00000320: f80d 42be 440c 7bbe e01b 1cbe 8181 89be
00000330: 62c0 613e d64e 93bd 8b5e 93bd 8a89 27be
00000340: 3cd9 6b3d d2ba e4bc 3eae 3fbe fd83 0d3e
00000350: bf31 7d3e ae01 2cbe 1c27 e53d 4274 92bd
00000360: b303 0b3d 152c a13d 5ed4 043b 99c7 393e
00000370: 0943 423e 22da e0bd 62c0 44be 74c8 36be
00000380: bbde 003e 89e8 debd 602e 75be 3ffe 42be
00000390: db68 98be 284b 71be ec55 593e 0284 133e
000003a0: 0083 6e3e 888e d5bd d9b8 e8bd 7654 b2bd
000003b0: 6fd4 143d f23b 7abe 02d7 c23c 2f6b 1dbe
000003c0: 07a3 0b3d 3b25 7c3e 2177 873d 3cf3 2a3e
000003d0: faac 21be 6327 5fbc 4b2b 24be 7f81 14bd
000003e0: b617 c1bd b034 09be 646e 7cbe 925d cfbd
000003f0: 2a2b e43c 4a82 35bd 10ba 7dbe bc39 533e

encoder.node_encoder.gru_cells.2.bias_ih f4 [48]
0.20466533 -0.24602039 0.18529278 -0.07446386 0.0135543365 0.16820294 -0.20998415 0.055039443
-0.08382866 0.20596759 -0.014175243 0.12326369 0.23898424 -0.04653017 -0.29932022 0.20781201
-0.19524476 0.02188229 0.0563998 -0.059406124 0.13111447 0.1598173 -0.0009868721 0.06991702
-0.012385427 0.21721506 0.12208266 -0.12889156 -0.0505253 0.097174205 0.16593146 0.04690085
0.0893254 -0.09173083 0.044634376 -0.17426999 0.213546 0.23002888 -0.11468942 -0.16885637
0.14554818 -0.22754939 0.15799199 -0.23557387 -0.15180534 -0.07209914 0.22031248 -0.045524113
00000000: ca93 513e c5ec 7bbe 64bd 3d3e 8280 98bd
00000010: 0213 5e3c 643d 2c3e 1606 57be 0a71 613d
00000020: 5cae abbd 2be9 523e 473f 68bc ac71 fc3d
00000030: 49b8 743e 6b96 3ebd 8040 99be accc 543e
00000040: 3eee 47be 7d42 b33c 7a03 673d d653 73bd
00000050: df42 063e 25a7 233e ef59 81ba a830 8f3d
00000060: 3fec 4abc a06d 5e3e 7906 fa3d 26fc 03be
00000070: 9ef3 4ebd 4503 c73d f0e9 293e 1b1b 403d
00000080: 3cf0 b63d 60dd bbbd 89d2 363d d573 32be
00000090: cdab 5a3e b18c 6b3e 49e2 eabd afe8 2cbe
000000a0: 950a 153e b502 69be a7c8 213e 473a 71be
000000b0: dc72 1bbe b7a8 93bd 9899 613e 7e77 3abd

encoder.node_encoder.gru_cells.2.bias_hh f4 [48]
0.18038522 0.041978545 0.31213972 0.17034438 0.18532613 0.21374324 -0.10482033 -0.12325489
0.04665855 0.26449758 -0.09961249 -0.19742364 -0.19645406 -0.07276789 -0.013168753 -0.056936882
-0.124274515 -0.15212493 -0.034058597 -0.22651185 0.1816866 -0.040913697 0.09599188 0.086725734
-0.128604 0.16994184 -0.05285295 0.058128115 -0.31260237 -0.0067211767 0.060586564 -0.0036203458
-0.035376433 0.14225654 0.23587997 0.16733384 -0.03381991 0.07605941 -0.16033812 -0.14874522
-0.106658295 0.022613611 -0.15179972 -0.1966249 0.09542453 0.13153347 -0.17738616 0.16656664
00000000: e7b6 383e b2f1 2b3d c7d0 9f3e c26e 2e3e
00000010: 22c6 3d3e 82df 5a3e 0bac d6bd 0f6d fcbd
00000020: 091d 3f3d 3a6c 873e a201 ccbd 6c29 4abe
00000030: 412b 49be 5507 95bd c1c1 57bc a636 69bd
00000040: a383 febd a3c6 1bbe 0781 0bbd b9f2 67be
00000050: 0d0c 3a3e 1f95 27bd 6497 c43d 439d b13d
00000060: c4b0 03be 3c05 2e3e 567c 58bd bf17 6e3d
00000070: 6b0d a0be 513d dcbb 9e29 783d 5343 6dbb
00000080: e1e6 10bd b3ab 113e 858a 713e 9059 2b3e
00000090: bf86 0abd 09c5 9b3d ad2f 24be ab50 18be
000000a0: aa6f dabd 2e40 b93c 6371 1bbe 0a58 49be
000000b0: f06d c33d b6b0 063e b8a4 35be 7290 2a3e
