dagnncheckpoint/dagnn299.pt (torch, 102969 bytes, 31 tensors)

encoder.node_encoder.lin_init.weight f4 [16, 5]
000000 64 4a b2 3e 02 cd bc 3e 13 bd 43 be ca c4 e3 3e
       0.3482238 0.3687516 -0.19115095 0.44486076
000010 8b 9e 8e bd dd 8d bf 3c 45 07 40 be 88 83 a1 3e
       -0.069638334 0.023383075 -0.18752773 0.31545663
000020 d8 69 b8 3e 0a 71 ab be 4a 50 b7 3e 09 8d dd 3d
       0.36018252 -0.3348468 0.35803443 0.10817916
000030 09 70 e6 3e 78 28 0c 3d 05 69 45 3e bc 2e 03 be
       0.4500735 0.03421828 0.19278343 -0.12810796
000040 4a 51 b4 3e d3 65 46 3e da 1f 62 be 8c b0 f0 3d
       0.3521827 0.1937478 -0.22082463 0.11752424
000050 d2 bf 21 be b4 e7 46 bd df 5b 9d be b7 75 9c 3e
       -0.1579583 -0.048560813 -0.30734155 0.3055856
000060 2e e5 c0 be f6 cf 21 be 6d 0f fd bd 2b e4 c4 be
       -0.3767485 -0.15801987 -0.12356458 -0.38455328
000070 79 96 89 3d 5f e6 e4 be 17 e0 b9 3e 97 3d c7 be
       0.067181535 -0.4470701 0.3630378 -0.38914177
000080 86 d9 e3 3e 5f 1d 49 3d 9b a7 08 be 93 4a 6b 3e
       0.44501895 0.049100276 -0.13345186 0.22977667
000090 ed d3 90 3d 57 9f f7 3e 38 f4 29 3d ba 23 0a be
       0.07071672 0.48363754 0.04149267 -0.13490191
0000a0 f0 f7 8f 3d 8d 6b de bd 60 70 99 3e ee 2f c8 3e
       0.07029712 -0.108603574 0.29968548 0.39099067
0000b0 54 3a 63 3e 81 9d 4d be 99 99 8a 3e 4a 04 5e bc
       0.22190219 -0.20079614 0.2707031 -0.013550827
0000c0 03 aa 80 3e 25 37 93 be 83 c5 d6 be 94 ff 3d be
       0.2512971 -0.2875301 -0.41947564 -0.18554527
0000d0 ef 46 ea be 1c 82 bc 3e 76 1b 02 3e aa a3 4d 3e
       -0.45757243 0.36818016 0.12705788 0.20081964
0000e0 d7 48 06 3e 19 20 f2 bd bd ef bc 3e 4d eb bb be
       0.13113724 -0.118225284 0.36901656 -0.36702958
0000f0 8b 3a c5 bc a2 f2 9a be 60 be 83 3e 33 52 32 be
       -0.024075767 -0.3026324 0.25731182 -0.17414169
000100 10 95 2b 3e c8 ad 71 bd 84 c2 c1 3e 52 cd c1 be
       0.16756082 -0.05900362 0.37843716 -0.3785196
000110 3c ce 7a be b3 d7 8b be 32 8e d9 3e 3e f4 26 3e
       -0.24492735 -0.27313003 0.424913 0.16304109
000120 3b bc ab 3e 80 26 b7 be 44 da e9 be f2 83 d2 be
       0.33542046 -0.3577156 -0.45674336 -0.4111629
000130 8b ee 99 be ef ec 9a 3e dd 9a 0d 3e 33 a9 c1 3e
       -0.30064806 0.3025889 0.13828607 0.378244

encoder.node_encoder.lin_init.bias f4 [16]
000000 4c 17 60 be 5f 0b b9 be 19 bf 5f 3e c0 48 4a be
       -0.21883887 -0.36141488 0.21850242 -0.19754314
000010 1e 28 8c 3e f0 c8 b6 bd 30 e4 6d 3e d8 65 b8 be
       0.27374357 -0.089250445 0.23231578 -0.360152
000020 28 70 7c be 2c 20 05 3e 67 45 cd 3d 77 16 de bd
       -0.24652159 0.13000554 0.10023003 -0.108441286
000030 1a 5c 7a 3e c2 fb 9f 3e c0 13 9b be 92 0b 83 be
       0.24449196 0.31246763 -0.30288506 -0.25594765

encoder.node_encoder.attn_convs.0.attn_layer.0.weight f4 [1, 32]
000000 53 ba 2e 3e af 50 b1 bd 1f d6 69 bd b9 a5 26 be
       0.17063265 -0.08657967 -0.057088967 -0.16274156
000010 36 49 9d bd b2 41 17 3d 01 c7 fc bc 00 e4 27 be
       -0.076799795 0.036927886 -0.030856611 -0.16395569
000020 a5 93 86 bc 14 48 e7 bd a2 6c 0f be 9a 69 d8 bd
       -0.016427824 -0.11293045 -0.14006284 -0.10567017
000030 4c 0c 1d be f6 2b c8 bd cc 88 1a 3e cc c8 db 3c
       -0.15336722 -0.0977401 0.15091246 0.026829146
000040 b1 ce 02 3c 49 6a 92 bd 55 f7 36 bd 3a c0 0c be
       0.007983849 -0.071491785 -0.044669468 -0.13745204
000050 8f ba c6 3d 1a d6 5f be e3 12 33 be 8b ca 42 be
       0.09703552 -0.21859017 -0.17487673 -0.19022577
000060 80 92 41 bd 89 37 06 be c8 8f c5 bd c0 af d0 bd
       -0.047258854 -0.13107122 -0.09646565 -0.10189772
000070 19 7a 37 bd 5a 17 30 bc 83 43 1a 3b a0 5a 2d be
       -0.044794176 -0.010747755 0.0023538775 -0.16929102

encoder.node_encoder.attn_convs.1.attn_layer.0.weight f4 [1, 32]
000000 f9 cb a7 bd 7a d8 f4 3d f7 5b df 3c 00 b6 0b be
       -0.081932016 0.11955352 0.027265532 -0.13643646
000010 55 be 2f 3e 57 8b 1e bc 5f 1b bb bd f7 d3 f3 bd
       0.1716245 -0.009676776 -0.0913608 -0.119056635
000020 c3 5a 02 be c2 17 18 3b 96 2d 85 3a 4f 30 e5 3d
       -0.12729935 0.002320752 0.001016068 0.11190855
000030 b9 56 3c be 1a f3 1e 3e b3 a1 30 be 07 bf 93 bd
       -0.18392457 0.15522423 -0.17249183 -0.0721417
000040 4f 00 5c 3d 00 47 03 3e bf cc 03 3e 17 c0 18 3e
       0.05371123 0.12820053 0.12871073 0.14917026
000050 b3 ff 1d be 83 8f 08 3c 07 bf 85 bd 41 83 11 bd
       -0.15429573 0.008334997 -0.06530576 -0.035525564
000060 9b 71 40 be d7 3a 39 3e 8a 68 b7 bd 6d 33 17 3e
       -0.18793337 0.18088852 -0.08955486 0.14765711
000070 51 a2 d1 3c 11 e5 98 3c 5f fd f0 bd 31 2f 47 3e
       0.025590094 0.018663915 -0.11767077 0.19451596

encoder.node_encoder.attn_convs.2.attn_layer.0.weight f4 [1, 32]
000000 7e e9 0f 3c 9f b6 14 be 81 27 c7 3d 75 0d 6f 3c
       0.008783696 -0.1452279 0.09724332 0.014590611
000010 07 e3 02 be 74 7b ef 3d bd 22 48 bc b3 a7 c6 bd
       -0.12781917 0.11693469 -0.0122153135 -0.09699955
000020 4e d1 f4 bd ce 80 1e 3d 71 02 fb 3d 8e f0 46 bd
       -0.11953984 0.038697056 0.12256325 -0.048569255
000030 85 ca dc bd 98 f0 4c bd 1e ac 1d be 21 c5 01 3d
       -0.10780815 -0.050034136 -0.15397689 0.031682137
000040 e7 fe 68 3e 0b 8c d4 bd 6b 59 ed 3b 5a a8 b0 3c
       0.22753488 -0.103782736 0.0072433255 0.021564651
000050 fd 01 85 bb ee aa c3 bd 81 a6 55 3c 42 0e 14 3c
       -0.004059075 -0.095540866 0.013040186 0.009036602
000060 0d e3 24 3e 4d 37 90 bd 79 4c 81 3d 17 32 81 bd
       0.16102238 -0.07041798 0.06313414 -0.06308382
000070 75 e9 09 3d ca a0 b0 bd 81 73 6d 3d 6b 20 65 3e
       0.033669908 -0.08624418 0.05797148 0.22375648

encoder.node_encoder.gru_cells.0.weight_ih f4 [48, 16]
000000 44 25 18 be 87 43 be bb a3 15 5d bc fa 5c 9d bc
       -0.14857966 -0.0058063897 -0.013493928 -0.019209374
000010 6b d8 23 3d 81 49 6c be b2 6e 96 bc 2f 86 1e 3e
       0.040001314 -0.23074915 -0.01836333 0.15480874
000020 46 46 1a 3e 8e 48 14 be 40 9d da bd b2 3c 8a be
       0.1506587 -0.14480802 -0.10674524 -0.26999432
000030 1f 12 f3 bd 3f d2 46 be 9e 5f 1b 3d ab 94 7c 3e
       -0.11868691 -0.1941614 0.037932985 0.24666087
000040 0f 86 0e 3e b5 7f 7e be 3c f9 4c be 0e b6 5c bd
       0.13918327 -0.24853404 -0.2001695 -0.05388456
000050 1e 81 91 3e f1 d2 b7 3d 26 db a1 bd 8f 9f 82 3d
       0.2841882 0.08975781 -0.07903127 0.0637809
000060 4a 2a f0 bd 18 9a 35 be 4c ba 56 3e e1 e8 de bd
       -0.11726816 -0.17734563 0.20969504 -0.10884262
000070 44 4d 85 bd 3c 64 6b be 9f 04 1d 3e e1 6d 28 3e
       -0.06508878 -0.22987455 0.15333794 0.16448165
000080 aa dd 8d 3d e6 f8 15 be 0a f2 6e be 92 54 40 be
       0.06927045 -0.14645728 -0.23334518 -0.18782261
000090 c2 05 2e 3e 5c 1e cd 3d ad cd 60 3e e9 6a 3a 3e
       0.16994384 0.10015556 0.21953459 0.18204845
0000a0 cc 7d b5 3d 5a b5 13 3c 39 4a 5a be 57 14 67 be
       0.088618845 0.009015406 -0.21317376 -0.22566353
0000b0 af 86 60 be ae f4 98 3d d0 1e d6 bd 3e 79 33 bc
       -0.21926378 0.07468544 -0.10455096 -0.010954199
0000c0 e9 84 36 be 69 00 54 bd 89 d0 11 be 45 61 2f be
       -0.17824139 -0.051758204 -0.14239706 -0.17126949
0000d0 18 1f 36 3c b1 1a 0c be e7 9b 31 3e f3 49 a3 bd
       0.011115812 -0.13682057 0.17344628 -0.07973089
0000e0 f5 ad be bd 6a 3d cf bd a8 2e ad bd 3c 4b 23 be
       -0.093105234 -0.10119136 -0.084561646 -0.15946668
0000f0 b6 ae 43 be d5 25 37 3d 84 2b 60 be 6a b3 71 3e
       -0.19109616 0.044713814 -0.218916 0.23603597
000100 44 b3 bb 3d 22 74 1c 3e 7d b2 5f be b5 7d 13 3e
       0.091650516 0.15278676 -0.21845432 0.14403422
000110 7b d5 d7 bd 94 43 08 3e 60 a9 80 3e 49 ba b3 bd
       -0.10538765 0.13307029 0.25129223 -0.087757654
000120 56 47 49 3c 7b 13 0f be df 6d 2d be 9e 59 bf 3d
       0.012285074 -0.13972275 -0.16936444 0.09343265
000130 5a 9e 62 be 6f 4b f9 3d de ac 1c 3e 46 c9 82 3e
       -0.22130719 0.12172591 0.15300319 0.25544184
000140 99 6f ad bd 7c 4b ce bd 2b b2 53 3d 51 8c 0e 3e
       -0.08468551 -0.10072991 0.051683586 0.13920714
000150 e2 0c 84 be 9a c1 48 bd 19 93 0d be 22 0f 43 3c
       -0.2579108 -0.049012758 -0.13825645 0.011905463
000160 c5 4d e2 bd 71 f6 f0 bd 41 30 be bd 69 86 7a be
       -0.110499896 -0.11765755 -0.092865475 -0.24465336
000170 29 42 59 3e 76 fc 3c 3e ca a2 ba bc c9 d4 a7 38
       0.21216644 0.18455681 -0.022782702 8.002815e-05
000180 9a 7d fc bd 0b 58 45 be 99 e3 63 be 08 d6 cb 3d
       -0.12328644 -0.19271867 -0.2225479 0.099529326
000190 a8 89 35 be 2c 7b 3d be 4e 1b 0c bb e3 32 f5 bc
       -0.17728293 -0.18504018 -0.002137858 -0.029931491
0001a0 ea f5 3f bd 81 fe 59 3b 17 0e a4 bd 37 79 ca bd
       -0.04686538 0.0033263268 -0.080105 -0.09886401
0001b0 04 7d d3 bd 08 88 6f be 80 7c 6f 3e 35 3a 85 bd
       -0.10326579 -0.23391736 0.23387337 -0.06505243
0001c0 37 1b 76 3c 68 b9 d0 bd d9 3b 9f 3c a4 a9 61 3e
       0.015021137 -0.101916134 0.019437717 0.22037369
0001d0 bc 81 58 3d d8 4a 64 be fa 00 01 3e 88 99 7a 3e
       0.0528581 -0.22294176 0.12598029 0.2447263
0001e0 59 fd a2 3d 04 69 a6 3d f7 b5 69 3e a0 8f f7 bd
       0.079584785 0.08125499 0.2282332 -0.12087941
0001f0 2a e2 c6 3d 9f e4 63 be a0 f5 33 bd 00 eb 6b 3e
       0.09711106 -0.22255181 -0.043935418 0.23038864
000200 80 28 0b 3e df 2e 5d be cd c3 3c be 8f b9 3d be
       0.13589668 -0.21599911 -0.18434067 -0.18527816
000210 a7 3d 64 be 57 db 54 be a0 a9 86 bd 41 2f 92 3d
       -0.22289144 -0.20786797 -0.06575322 0.07137919
000220 25 85 0f 3d 22 81 46 be af 46 11 be 94 f5 d2 3d
       0.035039086 -0.19385198 -0.1418712 0.103007466
000230 8e 08 37 be 06 fc 05 bc 96 bf 66 3d ce 83 0a be
       -0.17874357 -0.008177763 0.056335054 -0.13526842
000240 10 24 42 3c 5d 70 e4 bd 08 5c d0 bc 46 86 06 be
       0.011849418 -0.11154244 -0.025434509 -0.13137159
000250 be d7 52 be 92 1f 7f be 90 0b 16 be db db 37 3e
       -0.20590112 -0.24914387 -0.14652848 0.17954962
000260 d9 9a c6 bd bf 1c 0e be d1 ba dd 3d a3 9a 96 3d
       -0.096975036 -0.13878153 0.10826648 0.07353713
000270 7a 01 09 3e 71 0c 54 3e 42 8f a8 3d 3c 42 82 be
       0.1337947 0.20707871 0.08230449 -0.25441158
000280 ba aa 92 3c 3f c2 02 3e 04 72 46 bd 12 f7 39 be
       0.017903674 0.12769412 -0.048448578 -0.18160656
000290 5a be 9b 3e 48 c9 38 bd 3c c6 0b be c1 f9 9a be
       0.30418664 -0.04511383 -0.13649839 -0.30268672
0002a0 15 78 c0 bc fe a7 aa 3d 49 51 cd 3d ae e4 3e 3d
       -0.02349476 0.08332823 0.100252695 0.046604805
0002b0 f9 cf 3b be 5f ab 60 be ee dc fb bc b6 6b 4d 3e
       -0.18341054 -0.21940373 -0.030744996 0.2006062
0002c0 1f f4 17 3e 61 98 5b be f0 0c cd bc 0b 9a 39 be
       0.14839219 -0.21444847 -0.025030583 -0.18125169
0002d0 5f b5 c8 bd 8c ac c0 3c 38 c4 ed 3d ce 4f 08 3e
       -0.09800219 0.023519777 0.116096914 0.13311693
0002e0 61 c0 63 be 13 0e 46 3e e4 d6 ea bd 85 ad c1 3d
       -0.22241355 0.19341306 -0.114667684 0.09456924
0002f0 23 26 55 3e 39 9f 8e 3c 9b bd 2a 3e be fa 4f be
       0.20815329 0.017409908 0.16673891 -0.20310494
000300 23 73 04 be e9 05 16 3e a7 ba 68 bd cf 20 cf bd
       -0.12934546 0.14650692 -0.05681863 -0.101136796
000310 34 2c 75 bd 10 32 49 3e 65 7c 24 3e 54 f8 06 3d
       -0.05985661 0.19648004 0.16063078 0.032951668
000320 b5 57 09 be f4 2a 71 be 69 4c 79 3d 01 a8 83 3d
       -0.13412364 -0.23551542 0.060863886 0.064285286
000330 33 73 a1 bd 46 2c c7 bd 1d 0e 11 3e a8 c6 d4 3c
       -0.07883301 -0.09725241 0.1416554 0.025973633
000340 ca 4a 0a bb 94 31 19 bd 05 66 86 be e0 36 90 be
       -0.0021101707 -0.037400797 -0.2624971 -0.28166866
000350 01 c2 2c bd c6 eb 7f bd 35 84 c6 3d dc 20 04 be
       -0.042177204 -0.06248071 0.09693185 -0.1290316
000360 06 35 0d be 20 94 71 3e f9 da 08 3e 07 da 56 3e
       -0.13789758 0.23591661 0.13364781 0.20981608
000370 95 d0 de bd 5b e8 a1 bd e7 1f 97 3d 8d 86 57 be
       -0.108796276 -0.079056464 0.07379132 -0.21047421
000380 57 bb d9 bd 19 ce 01 3d e9 29 f7 bd 12 09 17 be
       -0.10631435 0.03169069 -0.120685406 -0.14749554
000390 10 6c 1c 3e 70 a5 6c 3e 0b 4e a5 bb b6 d8 51 3c
       0.15275598 0.23109984 -0.005044704 0.012808016
0003a0 9a 03 7b be ab 5f 15 bd f7 fc 17 3d 13 b7 43 3e
       -0.24513093 -0.03646819 0.03710648 0.19112806
0003b0 a2 ce ba bd a0 dc 8d bd 61 0b 34 3e 97 2b 65 be
       -0.09121443 -0.069268465 0.17582466 -0.2237991
0003c0 95 be 01 3e da 43 a8 bd e4 74 b6 3c d0 6b 45 bd
       0.12670358 -0.08216067 0.022272535 -0.04819852
0003d0 d5 54 a1 bc c4 78 f0 bd b4 ff 4a 3e fa 6c c9 3c
       -0.019693771 -0.11741784 0.19824106 0.024588097
0003e0 c4 cf 69 3e 98 15 4a 3e b1 f2 0b be 8c b1 6e be
       0.22833163 0.197348 -0.13666798 -0.23309916
0003f0 18 c6 66 3e fd fa 1b 3e d7 9b 3a be 53 72 e6 3c
       0.22536504 0.15232463 -0.1822351 0.028130686

encoder.node_encoder.gru_cells.0.weight_hh f4 [48, 16]
000000 35 37 0e be 85 d2 98 bd 81 25 52 3e 39 e7 1e 3e
       -0.13888247 -0.074620284 0.20522119 0.15517892
000010 ec e8 a8 3c 1b 24 21 3d 4a b9 12 be fa 52 c2 3d
       0.020618878 0.039341073 -0.14328495 0.09488483
000020 06 95 bb 3c dc 55 58 3d 9f cd d6 bd b3 38 51 3e
       0.022898208 0.052816257 -0.10488438 0.20431785
000030 17 75 6f bd 72 ce 84 bd 3f c7 3f 3e 57 08 9e 3e
       -0.058461275 -0.06484689 0.1872835 0.30865738
000040 9f bd 6f 3e 61 fa 53 3d 6e 60 97 bd 08 fa 18 3e
       0.23412178 0.05175245 -0.073914394 0.1493913
000050 44 6f 64 3e 2c 71 71 be 43 33 b4 bc 65 b4 2c be
       0.2230807 -0.23578328 -0.0219971 -0.1686569
000060 06 47 43 3d 65 77 4a 3d ca 7f 06 bb 6c 34 16 bd
       0.047675155 0.04943027 -0.0020522946 -0.036671087
000070 4b 2f 30 3d f3 ee 50 bd 24 7c 6a be d5 d6 56 3e
       0.043013852 -0.05100913 -0.22898918 0.2098039
000080 a5 3f c8 bd 73 05 7e bd 90 de 28 bd 55 1b 3a 3d
       -0.09777764 -0.062016916 -0.041227877 0.045436222
000090 45 6d 85 be 63 4b 06 3e 57 a3 aa bd 76 cc 0a be
       -0.2605993 0.13114695 -0.08331936 -0.13554558
0000a0 90 29 92 3d ac 68 7e bd 73 79 95 bd c5 20 b0 bd
       0.07136834 -0.06211154 -0.07298555 -0.086
0000b0 9f 63 cf bd ea ce 00 be f0 1f a1 bd 87 3b 42 3d
       -0.10126423 -0.12578931 -0.0786742 0.04742005
0000c0 3a 36 56 be 69 c5 23 be 2e 3e 65 3b 40 19 4e 3d
       -0.20919123 -0.15993275 0.003497969 0.05031705
0000d0 0d bd 05 3e 76 c8 44 be c8 b6 3e 3d a7 92 00 3e
       0.13060398 -0.19217095 0.046561033 0.12555943
0000e0 51 ee ef 3d f0 00 45 be 56 fb 08 be fd 22 67 be
       0.11715377 -0.19238639 -0.13377127 -0.2257194
0000f0 3e 02 ba bd 90 1d 27 3e a1 bc 92 bc 7e dc 01 3e
       -0.09082459 0.16319871 -0.01791221 0.12681767
000100 9b a8 32 be 21 e8 02 3d 0b 2b 43 be ee 24 1e 3e
       -0.1744713 0.031959657 -0.19059388 0.15443775
000110 91 9b b9 bd fe 3a 33 bd 5c 50 6d be d3 a5 72 bc
       -0.09062875 -0.04375743 -0.23175186 -0.014810043
000120 bc 02 5c 3e 6e 77 d1 3d ba 53 01 be 29 ba b2 bc
       0.21485418 0.102278575 -0.12629595 -0.021817284
000130 e4 36 91 bd 0c 67 52 be 2c 17 6c 3e 73 a2 89 3d
       -0.07090548 -0.20547122 0.23055714 0.06720438
000140 9b b9 8e 3d 82 47 1f be 0c 3d 4a be 32 11 cd 3d
       0.06968995 -0.15554622 -0.1974985 0.10013045
000150 ae ca 7b 3d c7 f0 b5 3d dc 90 bc bd 88 7c 4e 3e
       0.061472587 0.08883815 -0.09207317 0.20164692
000160 fd 64 ed bc a2 39 aa bd af 9e d6 bd 56 bb 5b 3e
       -0.028978819 -0.08311774 -0.10479485 0.21458182
000170 b4 04 81 3c b4 a1 96 bd 3b 79 b9 bd 5c 96 1c bd
       0.015749313 -0.07355061 -0.09056326 -0.03822933
000180 19 27 3f be 57 88 65 be 17 53 a8 3d ef 74 84 3e
       -0.18667258 -0.22415291 0.08218973 0.25870463
000190 b2 5a 58 3e a2 41 28 be f2 4f 23 3e 5d e8 20 be
       0.21128348 -0.16431287 0.15948465 -0.1571364
0001a0 a2 8e 20 3e 6a ff 82 3e d8 68 5c 3e d9 64 36 3e
       0.1567941 0.2558549 0.2152437 0.17811908
0001b0 b8 e4 25 3e 15 ad af bc 74 b9 f6 3d 2b 36 a9 bd
       0.1620053 -0.021444837 0.12047091 -0.08262285
0001c0 c7 71 c6 3d a2 fa a3 bd 89 8d 83 bd 9d 85 32 be
       0.0968967 -0.08006789 -0.0642348 -0.17433782
0001d0 b0 f6 90 bd 09 ed 01 be ce 67 cd bd fa b1 41 be
       -0.07078302 -0.12688078 -0.10029565 -0.18915549
0001e0 11 3a 78 be f7 bd 7f 3d f7 7f 20 3e dc 95 3a 3e
       -0.242409 0.062437024 0.15673815 0.1822123
0001f0 4a 97 0d 3e 3d a4 1f be 50 9f 4d be d5 93 24 3e
       0.13827243 -0.15589996 -0.20080304 0.16072018
000200 d4 4a af 3d 22 2c 2e be 80 e5 38 3e 9f 3f 11 3e
       0.08559194 -0.17009023 0.18056297 0.14184426
000210 04 ef 9f 3d 79 ce 38 be b9 96 26 3e af 98 05 3e
       0.078092605 -0.18047513 0.16268434 0.13046525
000220 cc e9 0e 3e d9 74 8e be 10 69 c5 3d 40 47 14 be
       0.13956374 -0.27823523 0.0963918 -0.14480305
000230 47 1d 8f 3e 5e ce 31 bd 43 0d 0c 3e be ae f7 3c
       0.27952024 -0.043409698 0.13676934 0.03023469
000240 9b cf dd 3c 54 66 02 bb be 0d 51 3e 8f 88 20 be
       0.027076533 -0.0019897418 0.20415398 -0.15677093
000250 2a 3f 2b be c9 bc 03 be ce 8a 08 3e d7 67 99 bc
       -0.16723314 -0.12864985 0.133342 -0.018726273
000260 a8 99 3f 3d f8 ec 31 be de 8b 31 3e 95 c5 55 3e
       0.046777397 -0.17375553 0.17338511 0.20876153
000270 1b 77 cc 3d 17 74 27 bd e5 42 77 be bd d0 01 bd
       0.09983655 -0.040882196 -0.24146612 -0.03169321
000280 4c 0d 40 be 14 9f 09 3e d3 19 84 be a7 5f 24 3e
       -0.18755072 0.1343959 -0.25800952 0.16052113
000290 ad 0b 90 3e b9 cc 0c 3e 13 71 e0 3d 51 a8 72 be
       0.28133908 0.1374997 0.10959067 -0.2369702
0002a0 f9 4e 64 3e 8f d4 00 be 33 55 2b be a9 dd 80 3e
       0.2229575 -0.12581085 -0.1673172 0.25169113
0002b0 83 3d 38 be 60 27 3c bd 7f 30 4a 3e 87 f3 17 be
       -0.17992215 -0.04593599 0.19745062 -0.14838992
0002c0 83 cc 53 be 57 7b ce 3d 30 df f5 3c c0 ef 0f bd
       -0.20683484 0.10082119 0.03001365 -0.035140753
0002d0 c9 49 24 be b9 38 2d bd 00 55 ff bd 64 ba 02 be
       -0.16043772 -0.042290423 -0.12467384 -0.12766415
0002e0 d2 1b 73 be bc ec a2 3b 88 b5 05 3d e8 6a 4c be
       -0.23741081 0.0049720686 0.032643825 -0.19962656
0002f0 c7 c1 5a 3e 6c df 00 3e 5c 32 84 3c e1 7b 43 be
       0.21362983 0.12585229 0.016137294 -0.19090225
000300 78 8f 0f 3c f4 91 40 3e fb 74 eb 3d a9 7c 01 be
       0.008762233 0.18805677 0.11496922 -0.1264521
000310 87 08 7e 3e 3c 6a 50 3d 4b 1c 1b 3e eb d4 4c 3e
       0.2480794 0.050882563 0.15147512 0.20003097
000320 cf 84 46 3e fe 9e 71 be 4b b6 91 3e 94 df 31 be
       0.193866 -0.23595807 0.2845939 -0.17370445
000330 ef 80 69 bd 63 45 4e be b4 35 9d bd 02 ae 36 3d
       -0.057007726 -0.20143656 -0.07676259 0.04459954
000340 a2 e3 4b bd b5 b4 87 bd d0 ac 05 bc 9b d2 97 3e
       -0.049777634 -0.06626264 -0.0081588775 0.29652867
000350 41 bc 14 3e b1 78 0a 3e bf 3e ff 3d 02 81 30 3e
       0.14524938 0.13522603 0.1246314 0.17236713
000360 98 60 56 bc 39 46 a9 bc 8c e0 b2 3d d6 5e 7a be
       -0.013084553 -0.020663368 0.08734235 -0.2445024
000370 05 6f 85 be 4f f3 85 3b d0 56 c5 bd 97 af 6a 3c
       -0.26061264 0.0040878425 -0.09635699 0.01432409
000380 72 f1 4c bc be 92 a0 3d d4 d9 26 3e 25 86 b7 bd
       -0.012508737 0.07840489 0.16294032 -0.08961133
000390 5a ba 2e 3e e8 0e 51 3e 44 85 41 be a0 8d 43 be
       0.17063275 0.20415843 -0.18898493 -0.19096994
0003a0 f4 22 26 be c6 8a d0 bd 7b 96 01 be d6 6c 23 bd
       -0.16224271 -0.10182719 -0.1265506 -0.039898716
0003b0 a3 85 72 bd fd 0a 05 be 08 64 75 bd ae 0a 00 be
       -0.059209477 -0.12992473 -0.05990985 -0.12504074
0003c0 81 eb 75 3e 35 48 94 bd b8 17 51 be 37 ca f3 3d
       0.24015619 -0.07240335 -0.20419204 0.11903804
0003d0 e2 98 59 bc 5f 30 3b 3e 50 e3 07 3e 20 85 60 3e
       -0.013281079 0.18280171 0.13270307 0.21925783
0003e0 49 18 45 be 63 21 55 3e 35 7f 44 3e 60 a4 0d be
       -0.19247545 0.20813517 0.1918915 -0.13832235
0003f0 6b 75 78 3e e8 f0 3f 3e 61 52 fb 3c fe 63 18 3e
       0.24263541 0.18744242 0.03067893 0.14881894

encoder.node_encoder.gru_cells.0.bias_ih f4 [48]
000000 b3 17 61 3e 6c ea f2 3d ee d9 b4 bd c5 86 11 3d
       0.21981697 0.11861119 -0.08830629 0.035528917
000010 80 d0 4d 3d ab 3e 33 3d 41 69 c9 bd 28 67 26 be
       0.05024767 0.043760937 -0.09834529 -0.16250288
000020 e6 b9 5b 3e 09 b5 8e 3d 3c fc 11 3e 6a fc 74 bd
       0.21457633 0.069681235 0.14256376 -0.059811033
000030 38 15 17 3e 7e 0f 4a 3e d6 70 e0 3d 45 05 3d 3d
       0.14754188 0.19732472 0.10959022 0.046147604
000040 c9 6c 5d 3e dc 5b e2 bc c6 d5 5f bc ff cb 5c 3e
       0.2162353 -0.027631693 -0.013661807 0.21562193
000050 a9 60 73 3e bd 1a 2f be 70 9d 13 3e d4 3f 9b 3d
       0.23767342 -0.17100044 0.14415526 0.075805336
000060 7c a6 a1 bd 42 67 1e 3e f4 f6 2a be 98 64 f2 3d
       -0.078930825 0.15469077 -0.16695768 0.11835593
000070 81 ef 32 3e 8a ba 7d be 0e c6 2c be 94 cb 85 be
       0.17474176 -0.2477819 -0.16872427 -0.2613188
000080 27 26 f3 bc 9e 6e 6e be 43 ba e0 bd 88 23 bc 3d
       -0.029681278 -0.23284385 -0.109730266 0.091864645
000090 11 cf 29 3e a1 fd 1a 3e ba 8a 26 3e b5 3c bd 3d
       0.16582896 0.15135814 0.16263857 0.092400946
0000a0 b5 ea f3 bd f9 e6 54 be dc 3c 17 3c da 11 61 3e
       -0.11910001 -0.20791234 0.009230819 0.21979466
0000b0 63 22 3f 3b 06 eb 25 bd d7 b3 1e be fb 9e 0c be
       0.0029164783 -0.04050734 -0.15498291 -0.13732521

encoder.node_encoder.gru_cells.0.bias_hh f4 [48]
000000 03 07 41 be 24 c7 4a 3e 01 7f 78 bd 77 74 63 be
       -0.18850331 0.19802529 -0.060667995 -0.22212397
000010 9b 83 ea 3c 91 0f 5b 3b e7 d7 32 bd 13 fb 97 3d
       0.028627208 0.0033426026 -0.04366293 0.074209355
000020 c8 e8 3b 3e 7a ca 4b be 6a 48 1d be c0 47 bb 3c
       0.18350518 -0.19901457 -0.15359655 0.022861362
000030 59 43 52 be a0 c9 58 be 7e 8d 36 3e 1f 49 27 bd
       -0.20533504 -0.21170664 0.17827412 -0.040841218
000040 56 03 1d be 51 18 e7 bd a2 2d 86 be 55 56 31 3e
       -0.15333304 -0.11283935 -0.2620669 0.1731809
000050 dc c0 73 bd e8 f2 52 be 6f 92 8a be 6a c6 04 3e
       -0.059510097 -0.20600474 -0.27064845 0.12966314
000060 dd 1c af bd 73 08 b8 bd 1f 24 d2 bd 50 b7 28 be
       -0.08550427 -0.089859866 -0.10260796 -0.16476178
000070 9f a5 e9 bc 83 96 ef 3d 18 15 2a be 80 3e d3 ba
       -0.028521357 0.1169863 -0.16609609 -0.0016116649
000080 d6 c7 3c be 8d 47 fc bd ab c3 3d 3e 0a 76 c4 3c
       -0.18435606 -0.12318335 0.18531673 0.023982067
000090 3c d1 66 3e 71 75 05 bd 4a e0 ed bd 4a a8 23 be
       0.22540754 -0.032582704 -0.11615045 -0.15982166
0000a0 7f 65 83 3e da 97 4f be 56 2c 05 3e a1 ca 50 3d
       0.25663373 -0.2027277 0.13005194 0.050974492
0000b0 7d a8 64 3d f4 2d e5 3d fe 23 7a bd 8b ae 13 3e
       0.055824745 0.111904055 -0.06106948 0.14422052

encoder.node_encoder.gru_cells.1.weight_ih f4 [48, 16]
000000 f0 f9 75 be 1c 8d 29 be 5b 21 22 3e 03 ca f4 3d
       -0.24021125 -0.16557735 0.15833037 0.11952593
000010 5b fa 71 bc 67 26 0c bd 59 c2 e7 bd 91 7e 0c 3e
       -0.014769162 -0.03421631 -0.11316366 0.13720156
000020 1f b6 d7 bc 55 4f 6d bd a4 aa 0c 3e c8 d2 35 3e
       -0.02633196 -0.057936985 0.13736969 0.17756188
000030 36 bb 4b be b9 43 03 be 57 5e 13 3e 85 76 3a 3e
       -0.19895634 -0.12818803 0.14391457 0.18209274
000040 0c 37 2e be 0e e4 99 be 4f 20 48 3d 10 94 1a 3e
       -0.17013186 -0.30056804 0.048858937 0.15095544
000050 3a db a0 3d 69 46 3e 3e d9 86 42 be 2e 89 ce 3d
       0.07854314 0.18581547 -0.18996753 0.10084759
000060 2c 76 3f be a6 d7 cd 3d d6 1c 55 3e 99 b5 8c 3d
       -0.18697423 0.10050897 0.20811781 0.068705745
000070 3f 5b 62 3e 42 44 20 be be 57 84 be ea 8a 69 be
       0.2210512 -0.15651038 -0.25848192 -0.22806898
000080 2d 73 e0 3d 12 17 d7 3d bd 20 05 be c2 61 d2 3d
       0.10959468 0.10502447 -0.1300077 0.10272552
000090 04 5c 7c 3e 0b cb 8b be b8 a1 21 3e e8 74 21 3c
       0.24644476 -0.27303347 0.15784347 0.009854533
0000a0 4e 67 97 bc a4 d7 49 3e 30 90 6e 3e bb 08 ab 3d
       -0.018481877 0.19711167 0.2329719 0.083512746
0000b0 7e 64 30 3e 17 ca f4 3d d2 e5 54 3d 76 b2 3e be
       0.17225835 0.11952608 0.051976986 -0.18622765
0000c0 8d c4 6f 3a 81 38 69 be 84 3a e8 3d 17 e4 01 3d
       0.0009146415 -0.22775461 0.11339286 0.031711664
0000d0 fb 09 5a 3c d4 91 35 be 41 6f 1a be ef ee 10 3e
       0.013308044 -0.1773141 -0.15081502 0.14153646
0000e0 73 c7 8e 3d c8 58 06 3e b8 04 3d bd d9 77 62 bd
       0.06971636 0.13119805 -0.04614708 -0.055290077
0000f0 b2 b8 00 bd e5 20 3e 3e 33 33 08 be 1c 35 37 3e
       -0.03142614 0.18567236 -0.13300781 0.17891353
000100 8e e0 c0 3d e9 91 71 be 3a 1f 57 3c 37 7d 88 bd
       0.094178304 -0.23590817 0.013130004 -0.06664508
000110 71 96 68 bd f9 f4 b5 3d 76 74 ed bd 33 33 5a 3e
       -0.056784097 0.088846155 -0.11594479 0.21308593
000120 f7 d6 71 be ec 8c 78 3d 1f b4 60 be 67 0c d9 bd
       -0.23617159 0.06068127 -0.2194371 -0.10598069
000130 96 c7 19 3d e2 7f 96 3e 62 28 04 3e 46 1b 15 be
       0.037543856 0.29394442 0.1290603 -0.14561185
000140 0d d8 17 3d f1 b1 ec bd ff 91 14 3d a5 fb 66 be
       0.037071276 -0.11557377 0.036272045 -0.22556932
000150 5b f8 ab bd 57 20 00 3e f2 49 85 be 7e b3 83 be
       -0.083969794 0.12512337 -0.26032978 -0.2572288
000160 80 1c f5 3c 68 bb e2 3d f2 63 e0 bd 45 38 4a 3e
       0.029920816 0.11070901 -0.10956563 0.19748028
000170 56 28 9b bd 7b 09 fc bd f0 98 14 be 23 d2 1b bd
       -0.07576053 -0.12306496 -0.14511466 -0.0380422
000180 1c 6c 4e bd 1e a6 44 3e 0e 5a 69 bd 47 ee ad 3d
       -0.05039607 0.19203994 -0.05697065 0.084927134
000190 36 eb e5 bd bf 93 75 3e ec 7e 71 3e ec 96 55 be
       -0.112265036 0.23982142 0.23583573 -0.20858353
0001a0 83 e3 1a bd 68 cb 82 be b3 5b e8 3d 06 5a 63 be
       -0.03781463 -0.25545812 0.11345615 -0.2220231
0001b0 95 79 32 be 9b c5 65 3e 12 0b 59 be 13 f8 23 3e
       -0.17429192 0.22438662 -0.21195629 0.16012602
0001c0 2f 80 82 3c d9 7f 19 3e 5f e9 25 be 0c 40 4b 3e
       0.015930263 0.14990176 -0.16202305 0.1984865
0001d0 a4 e0 b0 3c 96 60 4b 3d 42 1f 58 3e b2 55 6b be
       0.021591492 0.04965266 0.21105674 -0.22981909
0001e0 3e ec 47 be c8 c5 5d 3e 30 e0 b5 bd 2b fb 3e be
       -0.19523713 0.21657479 -0.08880651 -0.186505
0001f0 32 7c 9e bd a3 d3 04 be f4 1c 54 bd 97 e1 1a be
       -0.07738532 -0.12971358 -0.051785424 -0.15125118
000200 c5 b0 fb 3d 8c 70 7d be d6 fb c6 bd 7e 6c 71 3e
       0.122895755 -0.24749964 -0.09716003 0.23576543
000210 33 c4 2a 3d 5d c9 d4 3d ba 88 b8 3d 91 a2 79 bd
       0.041691016 0.103899695 0.090104535 -0.06094605
000220 95 8b ef 3c 9e 45 0f be b6 b2 01 be c3 5a db bd
       0.029241363 -0.139914 -0.12665829 -0.10710671
000230 62 29 40 3e 2a 85 c5 bd d5 ae 80 3d 0b f9 0f 3e
       0.18765786 -0.0964454 0.062833466 0.14059846
000240 7b d3 b9 bd 94 44 92 bd ac bd eb bc 32 d6 5c be
       -0.0907354 -0.071419865 -0.028776966 -0.21566084
000250 46 be 0c 3e af ae 92 be da f4 e3 bd 99 f6 03 bc
       0.13744459 -0.28648898 -0.11130686 -0.008054399
000260 c2 08 f9 3d 78 9c a1 3d 0c df 68 ba 9e 35 0e 3e
       0.121598735 0.07891172 -0.0008883334 0.13887641
000270 93 11 5a 3e 0f ac 30 3e a7 a2 2d bd 85 d2 1a be
       0.21295767 0.17253135 -0.042391445 -0.1511937
000280 f3 e4 80 bd a2 bd a6 bd 20 c3 58 bb ed f7 75 bc
       -0.062936686 -0.08141638 -0.0033075288 -0.015012723
000290 f4 71 ca 3d 65 46 44 3e 47 ab 6a bd db dc 75 be
       0.09885016 0.19167478 -0.05729225 -0.24010031
0002a0 a3 6b ed bd 73 84 33 be ae 44 4c 3e 82 02 29 be
       -0.11592796 -0.17530994 0.19948074 -0.16504863
0002b0 93 2e c3 bd c8 2e ca bd 6b 2c 32 be 21 1c fa 3d
       -0.09530368 -0.09872204 -0.17399757 0.122123964
0002c0 5e e1 e0 bd e6 2f 4a 3c 9d 53 a1 bd b7 10 c9 bd
       -0.109804854 0.012340521 -0.07877276 -0.09817641
0002d0 91 f3 2a 3d ef bb aa bd f8 28 14 be 29 60 57 3d
       0.04173619 -0.08336627 -0.14468753 0.05258194
0002e0 11 75 cc bd 04 99 88 bd f1 45 69 be 40 8f 6d bd
       -0.09983266 -0.066698104 -0.22780587 -0.057997942
0002f0 ec a9 0b be 79 77 84 3e d8 e7 d5 bd 8b 8c be bd
       -0.13639039 0.258724 -0.10444611 -0.0930415
000300 46 8e 62 bc f0 80 bb 3c 19 fa ba bd af 9f 82 3e
       -0.013827866 0.02288863 -0.091297336 0.25512454
000310 01 cb 01 be e1 8b f5 3d 9e 97 97 3c 76 9a 59 be
       -0.12675096 0.119895704 0.018504914 -0.21250328
000320 56 0a da bd 6d c6 07 bc e9 9a c4 3d 62 c6 32 3e
       -0.10646503 -0.0082870545 0.09599859 0.1745849
000330 44 8a 96 3d 3d 87 26 be db 89 ff bd 72 35 cb bc
       0.07350591 -0.16262527 -0.12477466 -0.024805758
000340 11 09 5b be 44 02 de bd 98 b6 76 be fa c4 11 3e
       -0.21390177 -0.10840276 -0.24093091 0.14235297
000350 a8 2e 40 3e 09 b2 34 3d 8a c2 14 be f5 ef 5a be
       0.18767798 0.0441151 -0.14527336 -0.21380599
000360 e8 a4 c8 bd 73 f2 75 3c 35 10 55 3d 67 47 0d 3d
       -0.09797078 0.015011418 0.05201741 0.034491923
000370 d2 5d 34 3e 80 5e a8 3d 35 d9 37 3d c8 c9 02 bd
       0.17613915 0.082211494 0.04488488 -0.031930715
000380 bd 14 80 3d db 57 a5 3d 1f 9f 24 be ad cb 34 be
       0.062539555 0.08073398 -0.16076325 -0.17655821
000390 17 65 01 3d e3 07 8a 3d 68 22 d4 3d 9a 69 3d be
       0.031590547 0.067397855 0.10358125 -0.18497315
0003a0 93 56 9a be e1 c8 17 bd f8 02 c9 bc 4b 3c 6c 3d
       -0.30144176 -0.037056807 -0.024537548 0.057674687
0003b0 b3 30 69 bd 25 dd 60 3e b5 77 88 3c 67 3d 50 3e
       -0.05693121 0.2195936 0.016658643 0.20335923
0003c0 64 45 31 be e7 4a 8b 3d f1 e0 93 3c 20 7f e1 bd
       -0.17311627 0.06801396 0.018051596 -0.11010575
0003d0 b5 7f c9 3d e7 6e 7b be 72 02 6b 3e 89 bf a0 3c
       0.09838811 -0.24554025 0.22950152 0.019622581
0003e0 16 6b a9 3c 24 d2 01 3e 18 7d 0e 3d b2 e2 ad 3d
       0.020680945 0.12677819 0.034787267 0.08490504
0003f0 31 a7 1b 3e f1 f2 68 be 6d 73 2b 3e 2e 2d 35 bc
       0.15200497 -0.22748925 0.1674325 -0.011058135

encoder.node_encoder.gru_cells.1.weight_hh f4 [48, 16]
000000 0d 97 da 3c 44 b4 5b 3e 71 11 3d 3e 68 dc 5e 3e
       0.026683355 0.21455485 0.18463685 0.21763766
000010 bd 94 43 bd c6 53 5f be 00 f8 1d be 99 51 a9 3d
       -0.04774927 -0.21809301 -0.15426636 0.08267517
000020 5e d0 35 3e ef 02 81 bd 52 ea 42 3e f9 28 2b 3d
       0.17755267 -0.06299388 0.19034699 0.04178712
000030 58 e0 bd 3b 1e 7e 97 3d 9c 92 54 bd b7 ad 5a 3e
       0.005794566 0.07397102 -0.05189763 0.2135533
000040 8b 94 f7 3c dd 57 1f 3e 61 28 62 be c4 93 d6 bd
       0.030222198 0.15560861 -0.22085716 -0.10477403
000050 eb 15 1e 3d 84 ab 2e 3e 11 d3 e9 3d f1 a0 92 3c
       0.03859512 0.17057616 0.11417211 0.017899008
000060 82 01 70 be 21 38 ad 3c fb e1 19 be 5c 92 51 be
       -0.23438075 0.021144928 -0.15027611 -0.20465988
000070 85 c5 54 3c a1 11 19 be 4e 46 5b 3e 7a 05 01 be
       0.012986545 -0.14948131 0.21413538 -0.12599745
000080 c7 27 a8 3d ef 88 2b 3e 71 5d 35 be eb 49 29 3e
       0.08210712 0.16751455 -0.17711426 0.16532104
000090 c1 e2 25 bd d3 0f d5 3d 9f f4 6b 3e 21 d2 01 be
       -0.040499453 0.10403409 0.23042534 -0.12677814
0000a0 2c c6 bc bd 2d ea 61 3e 87 4a 16 3d bd 80 c5 bc
       -0.09217486 0.22061987 0.03669217 -0.024109239
0000b0 7d b1 3a 3e ad a4 83 bd c7 60 0d bd 0a 77 33 3e
       0.18231769 -0.06427894 -0.034516122 0.17525879
0000c0 63 45 b4 3d 95 ef 1e be 55 ed e2 3d 6c 0e 1d be
       0.08802297 -0.15521081 0.11080424 -0.15337533
0000d0 27 b4 dd bd bb 61 0c 3e 53 57 7d bd dd 51 12 be
       -0.10825377 0.13709156 -0.061850857 -0.14289041
0000e0 fe 38 47 3d a2 0b c4 3d fd 4c 1e be 6c 75 1e be
       0.048638336 0.09572531 -0.15459056 -0.1547448
0000f0 78 ec 67 be f8 e2 ea 3d 87 24 37 be 9f 4a cf 3c
       -0.226488 0.11469072 -0.17885028 0.025304137
000100 80 fb a6 bd 4d a2 de bd c6 1a 26 bd 7d 60 00 be
       -0.081534386 -0.108708 -0.040552877 -0.12536807
000110 df 14 42 be d4 56 a0 bd 78 3f 81 be 22 39 4f be
       -0.18953274 -0.07829061 -0.25243735 -0.20236638
000120 7b 4e 2f 3e aa 8a 30 3d 4b 0d ea bd 5e ed 2d bc
       0.17119782 0.04310099 -0.11428317 -0.010615675
000130 1a a6 64 3e d3 19 20 be 2d e2 27 be a2 07 4b be
       0.22328988 -0.15634851 -0.16394873 -0.1982713
000140 5e 8e ea 3c 20 66 3a 3d 5f f9 5c be f8 c0 37 3e
       0.02863234 0.04550755 -0.21579503 0.17944705
000150 c9 69 27 be fd 62 6e 3e 6a 11 fe bd aa 94 8a bd
       -0.16348948 0.23279949 -0.12405665 -0.06766637
000160 bd e1 b9 3d fa 3e 1d be d0 75 9a 3e 65 c6 2a be
       0.09076259 -0.15356055 0.3016801 -0.16677244
000170 f7 0d a9 bc 6d a1 2c be be cf fa 3c 77 ae 8f 3e
       -0.020636542 -0.16858454 0.030616637 0.28062794
000180 23 dd 86 3e aa 5f cf 3c cf 52 29 be 56 ab 72 3e
       0.2634059 0.02531417 -0.16535495 0.23698172
000190 17 b7 99 3c dd 0b 2f 3e b9 b7 06 be ee f9 fc bd
       0.018764062 0.17094369 -0.13156022 -0.12352358
0001a0 bc 37 64 be 16 2e 5b 3e c0 89 7b 3d 16 6f 4c be
       -0.22286886 0.21404299 0.061410666 -0.19964251
0001b0 2c 38 09 bd 71 d0 07 be 74 09 92 3b e1 10 a0 3d
       -0.033500835 -0.13263108 0.0044566933 0.078157194
0001c0 f2 27 0e be cb ec 3b 3d 0f df 12 be bd 86 71 3d
       -0.13882425 0.04588012 -0.14342903 0.058966387
0001d0 39 eb 72 be 68 9f 4c 3d b8 bc 71 3e c7 00 6e 3e
       -0.23722543 0.04995671 0.23607147 0.23242484
0001e0 2b d3 cd 3d da 05 47 3e 5c 84 63 3e ae 3b 87 3d
       0.10050043 0.19435826 0.2221846 0.0660318
0001f0 42 1e b4 3d 80 58 9e 3d b8 c0 63 3e 9a c5 4c 3e
       0.08794834 0.07731724 0.22241485 0.19997254
000200 2e 53 28 be c9 c6 bd bd 87 93 bb bd c3 94 5e 3c
       -0.1643798 -0.09266431 -0.09158998 0.013585272
000210 30 c4 86 be b0 2f 1a 3e f3 02 d3 bd 78 28 04 3e
       -0.26321554 0.15057254 -0.10303297 0.12906063
000220 47 98 48 3d 14 68 bb bd bd c5 93 3d aa 83 1d 3e
       0.048973348 -0.09150711 0.0721545 0.15382257
000230 40 1d 0f be f5 5b 29 3e 81 4c 97 3e e8 a7 e2 3d
       -0.13976002 0.16538985 0.29550555 0.11067182
000240 b4 70 38 bd 75 80 00 3e fb eb bf bd 87 bb 40 bd
       -0.045029357 0.12549002 -0.093711816 -0.04705384
000250 50 ef de 3d 72 7a ad 3d 89 c6 e0 3d ee da 86 be
       0.10885489 0.0847062 0.109753676 -0.26338905
000260 21 ef 85 3e 3c 63 73 bd 01 0a 71 3e bb 2a 62 3e
       0.26159003 -0.05942081 0.23538972 0.22086613
000270 ec 49 f7 3d 2a d2 a0 3e f2 0a e9 3d 50 57 29 3e
       0.12074646 0.31410342 0.11379041 0.16537213
000280 4d ae cd bd db 20 65 3e 97 d0 a1 3d cc 59 2b 3e
       -0.10043011 0.22375815 0.079011135 0.16733474
000290 ef 3c 7b bd 2d e3 38 3e bc 64 43 3e 1e b4 45 be
       -0.061337408 0.1805541 0.19081396 -0.1930699
0002a0 43 d6 4a 3e d1 c4 10 be 6f c8 41 be 0c 7e 60 be
       0.19808297 -0.1413758 -0.18924116 -0.21923083
0002b0 66 53 72 3d a0 86 20 be a1 dd c8 bd 05 11 19 be
       0.059161566 -0.15676355 -0.09807897 -0.14947899
0002c0 63 18 95 3d 3d 4a 51 be 41 93 e1 bd 79 e5 53 3c
       0.07280042 -0.20438476 -0.110144146 0.0129331285
0002d0 0f 45 f8 3c 6a 27 fc bd 38 f2 f7 3d e9 a7 2e be
       0.030306367 -0.12312205 0.121067464 -0.1705624
0002e0 f7 d3 38 be 2d c9 80 bd ed a7 f1 bd 23 64 28 3e
       -0.18049608 -0.06288371 -0.117996074 0.16444449
0002f0 ef 4e 0f be 5b d4 02 3c 09 ed b5 3d 41 3e 3a be
       -0.13994955 0.0079852 0.088831015 -0.1818781
000300 75 d9 23 3e 86 71 f8 bd 3d c0 df bc c1 fb 00 be
       0.16000922 -0.12131028 -0.027313346 -0.12596036
000310 11 5f e2 bd 4f 99 d3 bd 63 e1 86 be d5 71 af 3d
       -0.11053289 -0.10331976 -0.2634383 0.085666336
000320 5d f4 fe bb 87 b2 9a 3e 8c 89 0d 3e e5 9d 75 3e
       -0.007780595 0.3021433 0.13822001 0.23986013
000330 ef 1c ab 3d 41 e4 30 3e 63 5c 70 3e ba 1a 2e 3e
       0.08355128 0.17274572 0.23472743 0.17002383
000340 5d 8c 53 be 38 81 a1 bd 72 a6 48 be 4b 7d f9 3c
       -0.20659013 -0.07885975 -0.19594744 0.030455252
000350 82 ac b7 bd 22 f1 66 3e b6 d6 81 3c ab 95 3f bb
       -0.0896845 0.22552922 0.015849452 -0.0029233496
000360 70 f2 37 be 08 52 2e be 6f 47 ba 3c 53 3f bd bd
       -0.17963576 -0.1702348 0.02273914 -0.09240594
000370 26 2b d4 bd f5 ea 4e 3e 76 7d f4 bd 8c e0 01 be
       -0.103597924 0.20206816 -0.11937992 -0.12683314
000380 86 04 4a 3e 29 88 e3 3d 6b 38 f1 bd c4 8c ef 3d
       0.19728288 0.11109955 -0.11778339 0.11696771
000390 17 34 06 3e 68 19 81 be 5e b7 1f 3d 5a 37 1e 3d
       0.13105808 -0.25214696 0.038993232 0.038627006
0003a0 27 d8 91 3b 1e a6 86 3e 7f 2b 1c be eb 90 15 3e
       0.004450816 0.26298612 -0.15250967 0.14606063
0003b0 b3 dd 10 be 3a b7 32 be 7f 67 17 3e 54 62 e7 bd
       -0.14147072 -0.17452708 0.14785574 -0.112980515
0003c0 3a fb 34 3d 2c 45 27 3e 94 75 80 be cc 63 3c be
       0.0441849 0.1633498 -0.25089705 -0.18397444
0003d0 36 ef dd 3d 60 c5 41 3e c1 cf bb bb 15 a9 17 3e
       0.108366415 0.18922949 -0.0057315533 0.14810593
0003e0 5b 44 e1 3d 67 f1 2d 3d 6f e4 0a be 95 d4 4c 3e
       0.10999366 0.042466547 -0.13563703 0.20002969
0003f0 2c 1d 83 3d ec 8c a6 3d ec b5 15 3e a9 c9 42 be
       0.064020485 0.081323475 0.14620179 -0.1902224

encoder.node_encoder.gru_cells.1.bias_ih f4 [48]
000000 68 da 04 3e 8d 3b 31 be 63 26 0a 3e 55 fc 25 3d
       0.1297394 -0.17307873 0.13491206 0.040523846
000010 ed d7 8a bd 32 2c 43 3e b7 86 d2 3d 47 86 be 3d
       -0.06779466 0.19059828 0.10279601 0.09302955
000020 b5 60 ac bd 24 07 06 be 68 7f fb bd 5e 5c a5 3d
       -0.08416883 -0.13088661 -0.1228016 0.08074258
000030 59 f9 bb 3d 5f fc 09 be b3 96 70 3e d0 e4 06 3e
       0.09178419 -0.13475178 0.23494987 0.13173223
000040 bc 21 15 be d4 b5 ae 3d 8b bb 22 be 74 c8 0a 3c
       -0.1456365 0.08530775 -0.15891854 0.008470643
000050 18 f1 21 3e 09 9f 89 be f9 25 1b be 5b 6e 57 ba
       0.15814626 -0.26879147 -0.15151204 -0.00082180434
000060 22 51 3d 3c 4a 59 60 be cf 7c 5d be 12 b8 c4 bd
       0.011554988 -0.21909061 -0.21629642 -0.09605421
000070 b5 23 e7 bd 28 45 3b 3d a8 8c 19 bd a1 85 4c 3d
       -0.112861075 0.04572025 -0.037487656 0.049932126
000080 62 eb bc 3c 44 7e 13 3d b9 1c 2e bd bb e9 ab 3d
       0.023061458 0.03600909 -0.04250786 0.0839419
000090 da 70 4b 3e de fa de bd b2 c4 01 be 4c 49 de 3d
       0.19867268 -0.10887693 -0.1267269 0.10853824
0000a0 0a 75 17 be 38 80 35 3e dd fa fb 3d c7 e2 5b 3d
       -0.1479074 0.17724693 0.12303708 0.05368307
0000b0 f7 a0 e9 bd 0e 86 23 bc 4a dd 40 be e8 7c 4d be
       -0.11407655 -0.009980692 -0.18834415 -0.20067179

encoder.node_encoder.gru_cells.1.bias_hh f4 [48]
000000 10 1f 88 3e 81 56 44 be 71 26 59 be ac 3c ac bd
       0.265862 -0.19173624 -0.2120607 -0.0841001
000010 ab 49 9a 3d 15 20 0e 3d 96 d5 02 be 6e 56 9c bc
       0.07533582 0.034698565 -0.12776789 -0.019084182
000020 c2 15 41 bd 3f 8b 5c 3e bd 31 6a 3e f2 6f b7 3d
       -0.04713989 0.21537493 0.22870536 0.08956899
000030 c4 91 bb 3c 6b 36 4f 3e 9d 0c 47 be 08 69 b9 3d
       0.022896655 0.20235603 -0.19438405 0.09053236
000040 01 31 48 be f9 8c 1a 3e 06 42 8c be a9 9c bb 3c
       -0.19549944 0.1509284 -0.27394122 0.02290185
000050 af ce 82 be db 38 c9 3d 42 92 97 3c d6 48 69 3e
       -0.25548312 0.098252974 0.018502358 0.22781691
000060 4a 6c 5b be 5e f1 16 3e e5 e8 5f be 6c 06 54 be
       -0.21428028 0.14740512 -0.21866186 -0.20705575
000070 a4 b0 95 3c c7 f6 4d bd b6 84 88 be 34 38 5b be
       0.018272705 -0.050284173 -0.2666375 -0.21408159
000080 a6 7a 66 bd ee da 9a 3d c3 83 41 3e 82 0e 39 3e
       -0.05626931 0.07561289 0.1889792 0.1807194
000090 70 39 ec 3c 60 1e 0e be b5 13 64 be 8f ca 61 3e
       0.028835982 -0.13878775 -0.22273143 0.22049926
0000a0 b8 db d2 bd b9 8f fc bc c4 12 4c be 8d 58 20 be
       -0.10295814 -0.030830251 -0.19929034 -0.1565878
0000b0 4a df 36 3d c5 33 9a bd fd c3 17 3d e0 9f 9a 3c
       0.04464654 -0.075294055 0.037052143 0.018875062

encoder.node_encoder.gru_cells.2.weight_ih f4 [48, 16]
000000 fb ba 90 3d a6 73 5e bd 20 c9 8e bd 0d 1f 0c 3e
       0.07066914 -0.05430951 -0.06971955 0.1368372
000010 80 72 34 3e f4 18 4f 3e 13 25 31 be 07 a6 80 be
       0.17621803 0.20224363 -0.17299299 -0.2512667
000020 28 49 20 bc c3 23 cf bd e7 01 39 3e e7 da 67 3e
       -0.009783067 -0.10114243 0.18067132 0.22642098
000030 01 bd 10 3d 70 57 4d be 41 76 17 bd a4 75 4c 3e
       0.0353365 -0.20052886 -0.03697801 0.19966751
000040 2e 26 64 3d f7 a4 6e be 53 a2 7a 3d 74 0a 87 be
       0.055700473 -0.23305117 0.06118996 -0.26375163
000050 24 f9 99 bd de 3a 53 3e 29 59 d0 bd 30 0a 04 3e
       -0.07518223 0.20627925 -0.10173256 0.12894511
000060 48 21 22 be a4 48 85 3e 4b 48 92 3d 54 90 4f 3e
       -0.15833008 0.26031983 0.07142695 0.202699
000070 d7 ac 01 3e 3b 26 06 3d 82 a6 a7 bd d3 40 21 be
       0.1266359 0.032751303 -0.08186056 -0.15747385
000080 41 88 0c be d1 bc 36 3e b8 87 ed bd a7 8e 74 3c
       -0.13723852 0.17845465 -0.11598152 0.014926589
000090 41 3d 62 be 05 44 8c 3d 0e bf 1d be 7c a5 30 be
       -0.22093679 0.06848911 -0.15404913 -0.17250627
0000a0 1e 0f c1 bc 01 3b 41 be 45 2a f5 bc 28 4a 60 be
       -0.023566779 -0.18870164 -0.029927382 -0.21903288
0000b0 f0 1e ac 3d 7e 96 8a be 54 be 0e 3d 3c de 97 3d
       0.08404338 -0.2706794 0.03484948 0.07415435
0000c0 3d 73 47 be 4e 5b 3d 3e b4 7a 42 3e 8b f3 20 be
       -0.19477554 0.18491861 0.1899212 -0.15717904
0000d0 2f f1 39 3d 80 6d 81 3d 51 81 71 3e 78 d1 50 3e
       0.045396026 0.063197136 0.23584487 0.20392406
0000e0 4b 52 53 be 08 74 5a be d4 14 58 be 0e 69 e0 bd
       -0.20636861 -0.21333325 -0.21101695 -0.109575376
0000f0 c8 0f 81 bd 3a a6 cc bd 4b b2 1d 3e 62 6c 19 be
       -0.06301838 -0.09992643 0.15400045 -0.14982751
000100 52 8c 2e be f3 9c 49 be ba ee 15 be 4f 99 86 3e
       -0.17045715 -0.19688778 -0.14641848 0.2628884
000110 32 d1 f8 3c 90 0b 43 bd 0c c5 ac bd 86 4e 5f be
       0.03037319 -0.04761845 -0.08436021 -0.21807298
000120 1c d0 9f bd 41 da 0f 3e 72 d1 45 3e 98 b3 49 3e
       -0.078033656 0.14048101 0.19318178 0.19697416
000130 36 d8 b7 3c 7d d7 19 be 43 4d 29 be cc fa 81 3e
       0.022441965 -0.15023609 -0.1653338 0.25386655
000140 b8 b9 54 be a8 59 91 3d f9 c1 31 bd 45 42 80 3e
       -0.20773971 0.07097179 -0.043397877 0.2505056
000150 c0 de 0c 3e 28 f6 90 bd f9 71 56 be 14 8b a5 3c
       0.13756847 -0.070782006 -0.20941915 0.02020792
000160 1b 02 3a be fb 95 1c bd 81 35 a8 3d fd 14 ea 3d
       -0.18164866 -0.03822897 0.0821333 0.114297844
000170 18 40 60 bd 1a 51 3b be 2b 39 67 be 4c 16 64 be
       -0.054748625 -0.18292657 -0.22580402 -0.2227413
000180 dc 2f e0 3b a1 29 56 be ef 27 52 3d c4 df 18 be
       0.006841643 -0.20914318 0.051307615 -0.1492911
000190 dd 45 25 be df fe 57 3e 0d b2 0f 3e 97 64 22 3e
       -0.16139932 0.2109332 0.14032765 0.15858684
0001a0 f6 fd 84 3e fc c0 21 be 26 43 24 be 9b 17 13 be
       0.25975007 -0.15796274 -0.1604124 -0.14364474
0001b0 41 c0 54 3e 07 32 08 3e be f6 7c 3e 88 0f 4a be
       0.20776464 0.13300334 0.247035 -0.19732487
0001c0 af a6 dd bd 95 13 50 3e d9 76 5a be 40 d2 5a be
       -0.10822808 0.2031997 -0.213344 -0.21369267
0001d0 64 d2 db 3d ce 8e 3d be f8 6f f4 bc d4 70 c4 3d
       0.10733488 -0.18511507 -0.029838547 0.09591833
0001e0 f1 a9 61 3e ab 54 46 bd 1a df 6c be 45 3d 34 3e
       0.22037484 -0.04842059 -0.23131981 0.17601497
0001f0 34 68 79 3e db a1 73 be bf 04 b7 3c 9d 4b 3b be
       0.24356157 -0.23792212 0.02234113 -0.18290563
000200 93 d6 21 be b8 65 c9 bb 76 2b 58 3e be 15 b5 3c
       -0.1580451 -0.006146159 0.21110329 0.022105094
000210 54 cb 21 be a6 ae 3e 3d 59 6a 16 3e 00 a7 32 bd
       -0.1580022 0.046553276 0.14689006 -0.043616295
000220 95 e9 00 bd 60 3b d6 bd 23 b0 41 3e 50 38 9f bd
       -0.03147276 -0.10460544 0.18914847 -0.07774413
000230 51 7c ba bd eb 68 13 3e 26 a8 80 bd 98 f0 1f 3e
       -0.09105743 0.14395492 -0.06282072 0.15619123
000240 d1 01 0d be 49 24 cd 3c f3 8e 13 be a9 39 84 3e
       -0.13770224 0.025041716 -0.1441 0.2582524
000250 f9 7c 2c 3e de 0f 24 bd 62 66 25 bc 07 a2 a9 bd
       0.16844548 -0.040054195 -0.010095211 -0.082828574
000260 f7 f4 25 be 38 1e cd bd 19 aa ec 3d fb c1 d3 bd
       -0.16206728 -0.100155294 0.11555881 -0.10339733
000270 c4 c7 15 3e b9 44 b9 3d 6a 14 65 bd 16 29 18 be
       0.14626986 0.09046311 -0.05592767 -0.14859423
000280 b4 d9 03 3e a2 a3 34 be ac 3c cf 3c 0a 54 e9 3d
       0.12876016 -0.17640546 0.025297485 0.11392982
000290 a5 36 26 3d 16 9a 14 3e 81 d0 ba 3d b1 43 93 bd
       0.040579457 0.14511904 0.091218 -0.071906455
0002a0 b9 f8 2a be 56 31 93 be 13 9e 26 3e 2c 03 ce 3d
       -0.16696443 -0.28748578 0.16271238 0.10059199
0002b0 b6 45 53 be af bb 9f 3d 40 5a 01 be 4c c0 7d 3e
       -0.20632061 0.0779947 -0.12632084 0.24780387
0002c0 5d 4a 12 be 06 27 2b 3e 6a bb 77 3e 5d dd f8 3d
       -0.1428618 0.16714105 0.24192587 0.12151597
0002d0 13 10 27 3e d6 31 ea 3d 32 7e 5e 3d c8 52 57 be
       0.16314726 0.11435287 0.054319568 -0.21027672
0002e0 87 52 41 bd e6 5e e8 3c f6 7a 98 3d 2d d2 44 bd
       -0.047197845 0.028365564 0.07445328 -0.048052
0002f0 6e 75 2a 3e 83 ff 49 3e df 95 11 3e 93 8b af 3d
       0.16646358 0.19726376 0.14217328 0.085715435
000300 4a 5d b7 bd 4f 8d bf 3d 6a ed c5 bc ab 49 5d 3e
       -0.0895334 0.09353124 -0.02416106 0.21610133
000310 58 c4 a3 bc ac e0 c6 3b 13 57 79 be df a2 6e 3e
       -0.019991085 0.0060692634 -0.24349622 0.23304318
000320 04 83 5b bc ca 23 6d 3e c4 ab 65 be 64 21 22 be
       -0.013397936 0.23158184 -0.22428805 -0.1583305
000330 c9 57 ca 3c 1f a0 1e be ef 27 b0 3d 79 43 2b bd
       0.024700062 -0.15490769 0.08601367 -0.041812394
000340 8e ff 0c be 78 77 44 3e 17 b8 67 3e 49 09 40 be
       -0.13769361 0.19186199 0.22628818 -0.18753542
000350 f1 6d 82 be 3f 6c 13 3e 17 65 47 be 35 86 83 3d
       -0.25474504 0.14396761 -0.19472156 0.06422082
000360 0a 16 6b bd 8d d1 d5 3d 2d 6a 24 be 4b 48 89 3d
       -0.057394065 0.10440359 -0.16056128 0.06703242
000370 a1 7d 40 bd 0a 10 a3 bd 71 c8 ff bd 83 8e eb 3c
       -0.04699481 -0.079620436 -0.12489403 0.028754478
000380 fd c9 20 3e c4 78 a4 bd 6f a8 9f 3c af ee 12 3e
       0.15702052 -0.08030847 0.019489495 0.14348863
000390 fa 8c 64 3e 4e 4b 52 3c 8b 68 37 be cc 9c e8 3c
       0.22319403 0.012835337 -0.17910974 0.02839508
0003a0 6d 9d c3 3d 41 c9 47 be 34 67 85 be de be 85 3d
       0.09551511 -0.19510366 -0.260553 0.06530546
0003b0 06 d6 87 3e 36 61 8e be c9 30 81 bd a9 b4 ba bd
       0.26530474 -0.2780854 -0.06308133 -0.091164894
0003c0 96 c7 6e be 21 5b 30 be 37 34 4f 3e de 6c 4b 3e
       -0.23318323 -0.17222263 0.20234762 0.19865748
0003d0 68 a1 4a be e9 9d fd 3c df b9 54 be e0 e0 9b 3d
       -0.19788134 0.030959086 -0.20774029 0.07611251
0003e0 71 d5 13 be a9 8f 04 be 57 d8 07 be bf 26 33 3d
       -0.1443689 -0.12945427 -0.13266121 0.043738123
0003f0 14 a0 33 3e 3b 40 bc bd 25 a9 7a 3d 09 73 43 3e
       0.17541534 -0.091919385 0.061196465 0.19086851
